…
momentum: 0.98
weight_decay: 0.00039810716
stepsize: 1500
snapshot: 1000
snapshot_prefix: "stitch"
solver_mode: GPU
random_seed: 0
net: "network.prototxt"
regularization_type: "L1"
I1111 07:12:32.407621  3922 solver.cpp:90] Creating training net from net file: network.prototxt
I1111 07:12:32.416008  3922 net.cpp:49] Initializing net from parameters: 
name: "StitchNet"
input: "net0"
input: "net1"
input_dim: 32
input_dim: 256
input_dim: 27
input_dim: 27
input_dim: 32
input_dim: 256
input_dim: 27
input_dim: 27
state {
  phase: TRAIN
}
debug_info: true
layer {
  name: "stitch0"
  type: "Convolution"
  bottom: "net0"
  top: "stitch0"
  convolution_param {
    num_output: 256
    kernel_size: 1
    stride: 1
    weight_filler {
      type: "gaussian"
      std: 0.01
    }
  }
}
layer {
  name: "loss"
  type: "EuclideanLoss"
  bottom: "stitch0"
  bottom: "net1"
  top: "loss"
  loss_weight: 1
}
I1111 07:12:32.416266  3922 net.cpp:413] Input 0 -> net0
I1111 07:12:32.457036  3922 net.cpp:413] Input 1 -> net1
I1111 07:12:32.457254  3922 layer_factory.hpp:76] Creating layer stitch0
I1111 07:12:32.457362  3922 net.cpp:106] Creating Layer stitch0
I1111 07:12:32.457387  3922 net.cpp:454] stitch0 <- net0
I1111 07:12:32.457429  3922 net.cpp:411] stitch0 -> stitch0
I1111 07:12:32.466212  3922 net.cpp:150] Setting up stitch0
I1111 07:12:32.466295  3922 net.cpp:157] Top shape: 32 256 27 27 (5971968)
I1111 07:12:32.466310  3922 net.cpp:165] Memory required for data: 23887872
I1111 07:12:32.466400  3922 layer_factory.hpp:76] Creating layer loss
I1111 07:12:32.466456  3922 net.cpp:106] Creating Layer loss
I1111 07:12:32.466481  3922 net.cpp:454] loss <- stitch0
I1111 07:12:32.466506  3922 net.cpp:454] loss <- net1
I1111 07:12:32.466538  3922 net.cpp:411] loss -> loss
I1111 07:12:32.466634  3922 net.cpp:150] Setting up loss
I1111 07:12:32.466657  3922 net.cpp:157] Top shape: (1)
I1111 07:12:32.466668  3922 net.cpp:160]     with loss weight 1
I1111 07:12:32.466692  3922 net.cpp:165] Memory required for data: 23887876
I1111 07:12:32.466711  3922 net.cpp:226] loss needs backward computation.
I1111 07:12:32.466727  3922 net.cpp:226] stitch0 needs backward computation.
I1111 07:12:32.466742  3922 net.cpp:270] This network produces output loss
I1111 07:12:32.466768  3922 net.cpp:283] Network initialization done.
I1111 07:12:32.466825  3922 solver.cpp:59] Solver scaffolding done.
I1111 07:12:32.583194  3922 net.cpp:49] Initializing net from parameters: 
name: "CaffeNet"
input: "data"
input_dim: 1
input_dim: 3
input_dim: 227
input_dim: 227
force_backward: true
state {
  phase: TEST
}
layer {
  name: "conv1"
  type: "Convolution"
  bottom: "data"
  top: "conv1"
  convolution_param {
    num_output: 96
    kernel_size: 11
    stride: 4
  }
}
layer {
  name: "relu1"
  type: "ReLU"
  bottom: "conv1"
  top: "conv1"
}
layer {
  name: "pool1"
  type: "Pooling"
  bottom: "conv1"
  top: "pool1"
  pooling_param {
    pool: MAX
    kernel_size: 3
    stride: 2
  }
}
layer {
  name: "norm1"
  type: "LRN"
  bottom: "pool1"
  top: "norm1"
  lrn_param {
    local_size: 5
    alpha: 0.0001
    beta: 0.75
  }
}
layer {
  name: "conv2"
  type: "Convolution"
  bottom: "norm1"
  top: "conv2"
  convolution_param {
    num_output: 256
    pad: 2
    kernel_size: 5
  }
}
layer {
  name: "relu2"
  type: "ReLU"
  bottom: "conv2"
  top: "conv2"
}
layer {
  name: "pool2"
  type: "Pooling"
  bottom: "conv2"
  top: "pool2"
  pooling_param {
    pool: MAX
    kernel_size: 3
    stride: 2
  }
}
layer {
  name: "norm2"
  type: "LRN"
  bottom: "pool2"
  top: "norm2"
  lrn_param {
    local_size: 5
    alpha: 0.0001
    beta: 0.75
  }
}
layer {
  name: "conv3"
  type: "Convolution"
  bottom: "norm2"
  top: "conv3"
  convolution_param {
    num_output: 384
    pad: 1
    kernel_size: 3
  }
}
layer {
  name: "relu3"
  type: "ReLU"
  bottom: "conv3"
  top: "conv3"
}
layer {
  name: "conv4"
  type: "Convolution"
  bottom: "conv3"
  top: "conv4"
  convolution_param {
    num_output: 384
    pad: 1
    kernel_size: 3
  }
}
layer {
  name: "relu4"
  type: "ReLU"
  bottom: "conv4"
  top: "conv4"
}
layer {
  name: "conv5"
  type: "Convolution"
  bottom: "conv4"
  top: "conv5"
  convolution_param {
    num_output: 256
    pad: 1
    kernel_size: 3
  }
}
layer {
  name: "relu5"
  type: "ReLU"
  bottom: "conv5"
  top: "conv5"
}
layer {
  name: "pool5"
  type: "Pooling"
  bottom: "conv5"
  top: "pool5"
  pooling_param {
    pool: MAX
    kernel_size: 3
    stride: 2
  }
}
layer {
  name: "fc6"
  type: "InnerProduct"
  bottom: "pool5"
  top: "fc6"
  inner_product_param {
    num_output: 4096
  }
}
layer {
  name: "relu6"
  type: "ReLU"
  bottom: "fc6"
  top: "fc6"
}
layer {
  name: "drop6"
  type: "Dropout"
  bottom: "fc6"
  top: "fc6"
  dropout_param {
    dropout_ratio: 0.5
  }
}
layer {
  name: "fc7"
  type: "InnerProduct"
  bottom: "fc6"
  top: "fc7"
  inner_product_param {
    num_output: 4096
  }
}
layer {
  name: "relu7"
  type: "ReLU"
  bottom: "fc7"
  top: "fc7"
}
layer {
  name: "drop7"
  type: "Dropout"
  bottom: "fc7"
  top: "fc7"
  dropout_param {
    dropout_ratio: 0.5
  }
}
layer {
  name: "fc8"
  type: "InnerProduct"
  bottom: "fc7"
  top: "fc8"
  inner_product_param {
    num_output: 1000
  }
}
layer {
  name: "prob"
  type: "Softmax"
  bottom: "fc8"
  top: "prob"
}
I1111 07:12:32.583731  3922 net.cpp:413] Input 0 -> data
I1111 07:12:32.584044  3922 layer_factory.hpp:76] Creating layer conv1
I1111 07:12:32.584174  3922 net.cpp:106] Creating Layer conv1
I1111 07:12:32.584220  3922 net.cpp:454] conv1 <- data
I1111 07:12:32.584291  3922 net.cpp:411] conv1 -> conv1
I1111 07:12:32.586983  3922 net.cpp:150] Setting up conv1
I1111 07:12:32.587082  3922 net.cpp:157] Top shape: 1 96 55 55 (290400)
I1111 07:12:32.587108  3922 net.cpp:165] Memory required for data: 1161600
I1111 07:12:32.587234  3922 layer_factory.hpp:76] Creating layer relu1
I1111 07:12:32.587332  3922 net.cpp:106] Creating Layer relu1
I1111 07:12:32.587376  3922 net.cpp:454] relu1 <- conv1
I1111 07:12:32.587452  3922 net.cpp:397] relu1 -> conv1 (in-place)
I1111 07:12:32.587533  3922 net.cpp:150] Setting up relu1
I1111 07:12:32.587571  3922 net.cpp:157] Top shape: 1 96 55 55 (290400)
I1111 07:12:32.587594  3922 net.cpp:165] Memory required for data: 2323200
I1111 07:12:32.587621  3922 layer_factory.hpp:76] Creating layer pool1
I1111 07:12:32.587688  3922 net.cpp:106] Creating Layer pool1
I1111 07:12:32.587726  3922 net.cpp:454] pool1 <- conv1
I1111 07:12:32.587800  3922 net.cpp:411] pool1 -> pool1
I1111 07:12:32.588021  3922 net.cpp:150] Setting up pool1
I1111 07:12:32.588090  3922 net.cpp:157] Top shape: 1 96 27 27 (69984)
I1111 07:12:32.588119  3922 net.cpp:165] Memory required for data: 2603136
I1111 07:12:32.588151  3922 layer_factory.hpp:76] Creating layer norm1
I1111 07:12:32.588212  3922 net.cpp:106] Creating Layer norm1
I1111 07:12:32.588250  3922 net.cpp:454] norm1 <- pool1
I1111 07:12:32.588327  3922 net.cpp:411] norm1 -> norm1
I1111 07:12:32.588511  3922 net.cpp:150] Setting up norm1
I1111 07:12:32.588567  3922 net.cpp:157] Top shape: 1 96 27 27 (69984)
I1111 07:12:32.588592  3922 net.cpp:165] Memory required for data: 2883072
I1111 07:12:32.588621  3922 layer_factory.hpp:76] Creating layer conv2
I1111 07:12:32.588698  3922 net.cpp:106] Creating Layer conv2
I1111 07:12:32.588740  3922 net.cpp:454] conv2 <- norm1
I1111 07:12:32.588814  3922 net.cpp:411] conv2 -> conv2
I1111 07:12:32.592792  3922 net.cpp:150] Setting up conv2
I1111 07:12:32.592841  3922 net.cpp:157] Top shape: 1 256 27 27 (186624)
I1111 07:12:32.592854  3922 net.cpp:165] Memory required for data: 3629568
I1111 07:12:32.592903  3922 layer_factory.hpp:76] Creating layer relu2
I1111 07:12:32.592936  3922 net.cpp:106] Creating Layer relu2
I1111 07:12:32.592955  3922 net.cpp:454] relu2 <- conv2
I1111 07:12:32.592983  3922 net.cpp:397] relu2 -> conv2 (in-place)
I1111 07:12:32.593015  3922 net.cpp:150] Setting up relu2
I1111 07:12:32.593032  3922 net.cpp:157] Top shape: 1 256 27 27 (186624)
I1111 07:12:32.593041  3922 net.cpp:165] Memory required for data: 4376064
I1111 07:12:32.593055  3922 layer_factory.hpp:76] Creating layer pool2
I1111 07:12:32.593086  3922 net.cpp:106] Creating Layer pool2
I1111 07:12:32.593102  3922 net.cpp:454] pool2 <- conv2
I1111 07:12:32.593132  3922 net.cpp:411] pool2 -> pool2
I1111 07:12:32.593220  3922 net.cpp:150] Setting up pool2
I1111 07:12:32.593245  3922 net.cpp:157] Top shape: 1 256 13 13 (43264)
I1111 07:12:32.593255  3922 net.cpp:165] Memory required for data: 4549120
I1111 07:12:32.593269  3922 layer_factory.hpp:76] Creating layer norm2
I1111 07:12:32.593300  3922 net.cpp:106] Creating Layer norm2
I1111 07:12:32.593318  3922 net.cpp:454] norm2 <- pool2
I1111 07:12:32.593348  3922 net.cpp:411] norm2 -> norm2
I1111 07:12:32.593431  3922 net.cpp:150] Setting up norm2
I1111 07:12:32.593456  3922 net.cpp:157] Top shape: 1 256 13 13 (43264)
I1111 07:12:32.593466  3922 net.cpp:165] Memory required for data: 4722176
I1111 07:12:32.593479  3922 layer_factory.hpp:76] Creating layer conv3
I1111 07:12:32.593518  3922 net.cpp:106] Creating Layer conv3
I1111 07:12:32.593538  3922 net.cpp:454] conv3 <- norm2
I1111 07:12:32.593569  3922 net.cpp:411] conv3 -> conv3
I1111 07:12:32.598656  3922 net.cpp:150] Setting up conv3
I1111 07:12:32.598755  3922 net.cpp:157] Top shape: 1 384 13 13 (64896)
I1111 07:12:32.598767  3922 net.cpp:165] Memory required for data: 4981760
I1111 07:12:32.598847  3922 layer_factory.hpp:76] Creating layer relu3
I1111 07:12:32.598901  3922 net.cpp:106] Creating Layer relu3
I1111 07:12:32.598927  3922 net.cpp:454] relu3 <- conv3
I1111 07:12:32.598963  3922 net.cpp:397] relu3 -> conv3 (in-place)
I1111 07:12:32.599004  3922 net.cpp:150] Setting up relu3
I1111 07:12:32.599021  3922 net.cpp:157] Top shape: 1 384 13 13 (64896)
I1111 07:12:32.599031  3922 net.cpp:165] Memory required for data: 5241344
I1111 07:12:32.599045  3922 layer_factory.hpp:76] Creating layer conv4
I1111 07:12:32.599082  3922 net.cpp:106] Creating Layer conv4
I1111 07:12:32.599100  3922 net.cpp:454] conv4 <- conv3
I1111 07:12:32.599131  3922 net.cpp:411] conv4 -> conv4
I1111 07:12:32.606706  3922 net.cpp:150] Setting up conv4
I1111 07:12:32.606804  3922 net.cpp:157] Top shape: 1 384 13 13 (64896)
I1111 07:12:32.606817  3922 net.cpp:165] Memory required for data: 5500928
I1111 07:12:32.606863  3922 layer_factory.hpp:76] Creating layer relu4
I1111 07:12:32.606915  3922 net.cpp:106] Creating Layer relu4
I1111 07:12:32.606941  3922 net.cpp:454] relu4 <- conv4
I1111 07:12:32.606982  3922 net.cpp:397] relu4 -> conv4 (in-place)
I1111 07:12:32.607024  3922 net.cpp:150] Setting up relu4
I1111 07:12:32.607041  3922 net.cpp:157] Top shape: 1 384 13 13 (64896)
I1111 07:12:32.607053  3922 net.cpp:165] Memory required for data: 5760512
I1111 07:12:32.607065  3922 layer_factory.hpp:76] Creating layer conv5
I1111 07:12:32.607101  3922 net.cpp:106] Creating Layer conv5
I1111 07:12:32.607118  3922 net.cpp:454] conv5 <- conv4
I1111 07:12:32.607153  3922 net.cpp:411] conv5 -> conv5
I1111 07:12:32.612529  3922 net.cpp:150] Setting up conv5
I1111 07:12:32.612599  3922 net.cpp:157] Top shape: 1 256 13 13 (43264)
I1111 07:12:32.612612  3922 net.cpp:165] Memory required for data: 5933568
I1111 07:12:32.612684  3922 layer_factory.hpp:76] Creating layer relu5
I1111 07:12:32.612732  3922 net.cpp:106] Creating Layer relu5
I1111 07:12:32.612756  3922 net.cpp:454] relu5 <- conv5
I1111 07:12:32.612790  3922 net.cpp:397] relu5 -> conv5 (in-place)
I1111 07:12:32.612829  3922 net.cpp:150] Setting up relu5
I1111 07:12:32.612848  3922 net.cpp:157] Top shape: 1 256 13 13 (43264)
I1111 07:12:32.612857  3922 net.cpp:165] Memory required for data: 6106624
I1111 07:12:32.612870  3922 layer_factory.hpp:76] Creating layer pool5
I1111 07:12:32.612903  3922 net.cpp:106] Creating Layer pool5
I1111 07:12:32.612920  3922 net.cpp:454] pool5 <- conv5
I1111 07:12:32.612949  3922 net.cpp:411] pool5 -> pool5
I1111 07:12:32.613044  3922 net.cpp:150] Setting up pool5
I1111 07:12:32.613067  3922 net.cpp:157] Top shape: 1 256 6 6 (9216)
I1111 07:12:32.613078  3922 net.cpp:165] Memory required for data: 6143488
I1111 07:12:32.613092  3922 layer_factory.hpp:76] Creating layer fc6
I1111 07:12:32.613126  3922 net.cpp:106] Creating Layer fc6
I1111 07:12:32.613144  3922 net.cpp:454] fc6 <- pool5
I1111 07:12:32.613173  3922 net.cpp:411] fc6 -> fc6
I1111 07:12:32.825345  3922 net.cpp:150] Setting up fc6
I1111 07:12:32.825436  3922 net.cpp:157] Top shape: 1 4096 (4096)
I1111 07:12:32.825450  3922 net.cpp:165] Memory required for data: 6159872
I1111 07:12:32.825495  3922 layer_factory.hpp:76] Creating layer relu6
I1111 07:12:32.825562  3922 net.cpp:106] Creating Layer relu6
I1111 07:12:32.825588  3922 net.cpp:454] relu6 <- fc6
I1111 07:12:32.825630  3922 net.cpp:397] relu6 -> fc6 (in-place)
I1111 07:12:32.825672  3922 net.cpp:150] Setting up relu6
I1111 07:12:32.825690  3922 net.cpp:157] Top shape: 1 4096 (4096)
I1111 07:12:32.825700  3922 net.cpp:165] Memory required for data: 6176256
I1111 07:12:32.825712  3922 layer_factory.hpp:76] Creating layer drop6
I1111 07:12:32.825754  3922 net.cpp:106] Creating Layer drop6
I1111 07:12:32.825773  3922 net.cpp:454] drop6 <- fc6
I1111 07:12:32.825799  3922 net.cpp:397] drop6 -> fc6 (in-place)
I1111 07:12:32.825865  3922 net.cpp:150] Setting up drop6
I1111 07:12:32.825884  3922 net.cpp:157] Top shape: 1 4096 (4096)
I1111 07:12:32.825896  3922 net.cpp:165] Memory required for data: 6192640
I1111 07:12:32.825908  3922 layer_factory.hpp:76] Creating layer fc7
I1111 07:12:32.825939  3922 net.cpp:106] Creating Layer fc7
I1111 07:12:32.825956  3922 net.cpp:454] fc7 <- fc6
I1111 07:12:32.825989  3922 net.cpp:411] fc7 -> fc7
I1111 07:12:32.912674  3922 net.cpp:150] Setting up fc7
I1111 07:12:32.912755  3922 net.cpp:157] Top shape: 1 4096 (4096)
I1111 07:12:32.912766  3922 net.cpp:165] Memory required for data: 6209024
I1111 07:12:32.912817  3922 layer_factory.hpp:76] Creating layer relu7
I1111 07:12:32.912873  3922 net.cpp:106] Creating Layer relu7
I1111 07:12:32.912900  3922 net.cpp:454] relu7 <- fc7
I1111 07:12:32.912950  3922 net.cpp:397] relu7 -> fc7 (in-place)
I1111 07:12:32.912993  3922 net.cpp:150] Setting up relu7
I1111 07:12:32.913009  3922 net.cpp:157] Top shape: 1 4096 (4096)
I1111 07:12:32.913019  3922 net.cpp:165] Memory required for data: 6225408
I1111 07:12:32.913033  3922 layer_factory.hpp:76] Creating layer drop7
I1111 07:12:32.913063  3922 net.cpp:106] Creating Layer drop7
I1111 07:12:32.913079  3922 net.cpp:454] drop7 <- fc7
I1111 07:12:32.913105  3922 net.cpp:397] drop7 -> fc7 (in-place)
I1111 07:12:32.913167  3922 net.cpp:150] Setting up drop7
I1111 07:12:32.913188  3922 net.cpp:157] Top shape: 1 4096 (4096)
I1111 07:12:32.913198  3922 net.cpp:165] Memory required for data: 6241792
I1111 07:12:32.913213  3922 layer_factory.hpp:76] Creating layer fc8
I1111 07:12:32.913242  3922 net.cpp:106] Creating Layer fc8
I1111 07:12:32.913259  3922 net.cpp:454] fc8 <- fc7
I1111 07:12:32.913292  3922 net.cpp:411] fc8 -> fc8
I1111 07:12:32.935159  3922 net.cpp:150] Setting up fc8
I1111 07:12:32.935255  3922 net.cpp:157] Top shape: 1 1000 (1000)
I1111 07:12:32.935266  3922 net.cpp:165] Memory required for data: 6245792
I1111 07:12:32.935310  3922 layer_factory.hpp:76] Creating layer prob
I1111 07:12:32.935379  3922 net.cpp:106] Creating Layer prob
I1111 07:12:32.935416  3922 net.cpp:454] prob <- fc8
I1111 07:12:32.935467  3922 net.cpp:411] prob -> prob
I1111 07:12:32.935605  3922 net.cpp:150] Setting up prob
I1111 07:12:32.935631  3922 net.cpp:157] Top shape: 1 1000 (1000)
I1111 07:12:32.935642  3922 net.cpp:165] Memory required for data: 6249792
I1111 07:12:32.935659  3922 net.cpp:228] prob does not need backward computation.
I1111 07:12:32.935673  3922 net.cpp:228] fc8 does not need backward computation.
I1111 07:12:32.935688  3922 net.cpp:228] drop7 does not need backward computation.
I1111 07:12:32.935699  3922 net.cpp:228] relu7 does not need backward computation.
…
I1111 07:12:35.669234  3922 net.cpp:923] Copying source layer drop6
I1111 07:12:35.669244  3922 net.cpp:923] Copying source layer fc7
I1111 07:12:35.876971  3922 net.cpp:923] Copying source layer relu7
I1111 07:12:35.877001  3922 net.cpp:923] Copying source layer drop7
I1111 07:12:35.877010  3922 net.cpp:923] Copying source layer fc8
I1111 07:12:35.927537  3922 net.cpp:920] Ignoring source layer loss
I1111 07:12:36.003417  3922 net.cpp:49] Initializing net from parameters: 
name: "CaffeNet"
input: "data"
input_dim: 1
input_dim: 3
input_dim: 227
input_dim: 227
force_backward: true
state {
  phase: TEST
}
layer {
  name: "conv1"
  type: "Convolution"
  bottom: "data"
  top: "conv1"
  convolution_param {
    num_output: 96
    kernel_size: 11
    stride: 4
  }
}
layer {
  name: "relu1"
  type: "ReLU"
  bottom: "conv1"
  top: "conv1"
}
layer {
  name: "pool1"
  type: "Pooling"
  bottom: "conv1"
  top: "pool1"
  pooling_param {
    pool: MAX
    kernel_size: 3
    stride: 2
  }
}
layer {
  name: "norm1"
  type: "LRN"
  bottom: "pool1"
  top: "norm1"
  lrn_param {
    local_size: 5
    alpha: 0.0001
    beta: 0.75
  }
}
layer {
  name: "conv2"
  type: "Convolution"
  bottom: "norm1"
  top: "conv2"
  convolution_param {
    num_output: 256
    pad: 2
    kernel_size: 5
  }
}
layer {
  name: "relu2"
  type: "ReLU"
  bottom: "conv2"
  top: "conv2"
}
layer {
  name: "pool2"
  type: "Pooling"
  bottom: "conv2"
  top: "pool2"
  pooling_param {
    pool: MAX
    kernel_size: 3
    stride: 2
  }
}
layer {
  name: "norm2"
  type: "LRN"
  bottom: "pool2"
  top: "norm2"
  lrn_param {
    local_size: 5
    alpha: 0.0001
    beta: 0.75
  }
}
layer {
  name: "conv3"
  type: "Convolution"
  bottom: "norm2"
  top: "conv3"
  convolution_param {
    num_output: 384
    pad: 1
    kernel_size: 3
  }
}
layer {
  name: "relu3"
  type: "ReLU"
  bottom: "conv3"
  top: "conv3"
}
layer {
  name: "conv4"
  type: "Convolution"
  bottom: "conv3"
  top: "conv4"
  convolution_param {
    num_output: 384
    pad: 1
    kernel_size: 3
  }
}
layer {
  name: "relu4"
  type: "ReLU"
  bottom: "conv4"
  top: "conv4"
}
layer {
  name: "conv5"
  type: "Convolution"
  bottom: "conv4"
  top: "conv5"
  convolution_param {
    num_output: 256
    pad: 1
    kernel_size: 3
  }
}
layer {
  name: "relu5"
  type: "ReLU"
  bottom: "conv5"
  top: "conv5"
}
layer {
  name: "pool5"
  type: "Pooling"
  bottom: "conv5"
  top: "pool5"
  pooling_param {
    pool: MAX
    kernel_size: 3
    stride: 2
  }
}
layer {
  name: "fc6"
  type: "InnerProduct"
  bottom: "pool5"
  top: "fc6"
  inner_product_param {
    num_output: 4096
  }
}
layer {
  name: "relu6"
  type: "ReLU"
  bottom: "fc6"
  top: "fc6"
}
layer {
  name: "drop6"
  type: "Dropout"
  bottom: "fc6"
  top: "fc6"
  dropout_param {
    dropout_ratio: 0.5
  }
}
layer {
  name: "fc7"
  type: "InnerProduct"
  bottom: "fc6"
  top: "fc7"
  inner_product_param {
    num_output: 4096
  }
}
layer {
  name: "relu7"
  type: "ReLU"
  bottom: "fc7"
  top: "fc7"
}
layer {
  name: "drop7"
  type: "Dropout"
  bottom: "fc7"
  top: "fc7"
  dropout_param {
    dropout_ratio: 0.5
  }
}
layer {
  name: "fc8"
  type: "InnerProduct"
  bottom: "fc7"
  top: "fc8"
  inner_product_param {
    num_output: 1000
  }
}
layer {
  name: "prob"
  type: "Softmax"
  bottom: "fc8"
  top: "prob"
}
I1111 07:12:36.003697  3922 net.cpp:413] Input 0 -> data
I1111 07:12:36.003929  3922 layer_factory.hpp:76] Creating layer conv1
I1111 07:12:36.003981  3922 net.cpp:106] Creating Layer conv1
I1111 07:12:36.004009  3922 net.cpp:454] conv1 <- data
I1111 07:12:36.004042  3922 net.cpp:411] conv1 -> conv1
I1111 07:12:36.004475  3922 net.cpp:150] Setting up conv1
I1111 07:12:36.004504  3922 net.cpp:157] Top shape: 1 96 55 55 (290400)
I1111 07:12:36.004514  3922 net.cpp:165] Memory required for data: 1161600
I1111 07:12:36.004561  3922 layer_factory.hpp:76] Creating layer relu1
I1111 07:12:36.004595  3922 net.cpp:106] Creating Layer relu1
I1111 07:12:36.004611  3922 net.cpp:454] relu1 <- conv1
I1111 07:12:36.004636  3922 net.cpp:397] relu1 -> conv1 (in-place)
I1111 07:12:36.004662  3922 net.cpp:150] Setting up relu1
I1111 07:12:36.004678  3922 net.cpp:157] Top shape: 1 96 55 55 (290400)
I1111 07:12:36.004686  3922 net.cpp:165] Memory required for data: 2323200
I1111 07:12:36.004698  3922 layer_factory.hpp:76] Creating layer pool1
I1111 07:12:36.004724  3922 net.cpp:106] Creating Layer pool1
I1111 07:12:36.004739  3922 net.cpp:454] pool1 <- conv1
I1111 07:12:36.004770  3922 net.cpp:411] pool1 -> pool1
I1111 07:12:36.004850  3922 net.cpp:150] Setting up pool1
I1111 07:12:36.004873  3922 net.cpp:157] Top shape: 1 96 27 27 (69984)
I1111 07:12:36.004884  3922 net.cpp:165] Memory required for data: 2603136
I1111 07:12:36.004896  3922 layer_factory.hpp:76] Creating layer norm1
I1111 07:12:36.004925  3922 net.cpp:106] Creating Layer norm1
I1111 07:12:36.004940  3922 net.cpp:454] norm1 <- pool1
I1111 07:12:36.004966  3922 net.cpp:411] norm1 -> norm1
I1111 07:12:36.005054  3922 net.cpp:150] Setting up norm1
I1111 07:12:36.005076  3922 net.cpp:157] Top shape: 1 96 27 27 (69984)
I1111 07:12:36.005085  3922 net.cpp:165] Memory required for data: 2883072
I1111 07:12:36.005097  3922 layer_factory.hpp:76] Creating layer conv2
I1111 07:12:36.005127  3922 net.cpp:106] Creating Layer conv2
I1111 07:12:36.005143  3922 net.cpp:454] conv2 <- norm1
I1111 07:12:36.005172  3922 net.cpp:411] conv2 -> conv2
I1111 07:12:36.008641  3922 net.cpp:150] Setting up conv2
I1111 07:12:36.008668  3922 net.cpp:157] Top shape: 1 256 27 27 (186624)
I1111 07:12:36.008678  3922 net.cpp:165] Memory required for data: 3629568
I1111 07:12:36.008714  3922 layer_factory.hpp:76] Creating layer relu2
I1111 07:12:36.008739  3922 net.cpp:106] Creating Layer relu2
I1111 07:12:36.008754  3922 net.cpp:454] relu2 <- conv2
I1111 07:12:36.008785  3922 net.cpp:397] relu2 -> conv2 (in-place)
I1111 07:12:36.008811  3922 net.cpp:150] Setting up relu2
I1111 07:12:36.008826  3922 net.cpp:157] Top shape: 1 256 27 27 (186624)
I1111 07:12:36.008836  3922 net.cpp:165] Memory required for data: 4376064
I1111 07:12:36.008846  3922 layer_factory.hpp:76] Creating layer pool2
I1111 07:12:36.008867  3922 net.cpp:106] Creating Layer pool2
I1111 07:12:36.008882  3922 net.cpp:454] pool2 <- conv2
I1111 07:12:36.008908  3922 net.cpp:411] pool2 -> pool2
I1111 07:12:36.008980  3922 net.cpp:150] Setting up pool2
I1111 07:12:36.009001  3922 net.cpp:157] Top shape: 1 256 13 13 (43264)
I1111 07:12:36.009011  3922 net.cpp:165] Memory required for data: 4549120
I1111 07:12:36.009023  3922 layer_factory.hpp:76] Creating layer norm2
I1111 07:12:36.009048  3922 net.cpp:106] Creating Layer norm2
I1111 07:12:36.009063  3922 net.cpp:454] norm2 <- pool2
I1111 07:12:36.009090  3922 net.cpp:411] norm2 -> norm2
I1111 07:12:36.009156  3922 net.cpp:150] Setting up norm2
I1111 07:12:36.009177  3922 net.cpp:157] Top shape: 1 256 13 13 (43264)
I1111 07:12:36.009186  3922 net.cpp:165] Memory required for data: 4722176
I1111 07:12:36.009198  3922 layer_factory.hpp:76] Creating layer conv3
I1111 07:12:36.009228  3922 net.cpp:106] Creating Layer conv3
I1111 07:12:36.009244  3922 net.cpp:454] conv3 <- norm2
I1111 07:12:36.009273  3922 net.cpp:411] conv3 -> conv3
I1111 07:12:36.014125  3922 net.cpp:150] Setting up conv3
I1111 07:12:36.014155  3922 net.cpp:157] Top shape: 1 384 13 13 (64896)
I1111 07:12:36.014166  3922 net.cpp:165] Memory required for data: 4981760
I1111 07:12:36.014212  3922 layer_factory.hpp:76] Creating layer relu3
I1111 07:12:36.014246  3922 net.cpp:106] Creating Layer relu3
I1111 07:12:36.014266  3922 net.cpp:454] relu3 <- conv3
I1111 07:12:36.014293  3922 net.cpp:397] relu3 -> conv3 (in-place)
I1111 07:12:36.014322  3922 net.cpp:150] Setting up relu3
I1111 07:12:36.014338  3922 net.cpp:157] Top shape: 1 384 13 13 (64896)
I1111 07:12:36.014346  3922 net.cpp:165] Memory required for data: 5241344
I1111 07:12:36.014358  3922 layer_factory.hpp:76] Creating layer conv4
I1111 07:12:36.014387  3922 net.cpp:106] Creating Layer conv4
I1111 07:12:36.014403  3922 net.cpp:454] conv4 <- conv3
I1111 07:12:36.014430  3922 net.cpp:411] conv4 -> conv4
I1111 07:12:36.021189  3922 net.cpp:150] Setting up conv4
I1111 07:12:36.021237  3922 net.cpp:157] Top shape: 1 384 13 13 (64896)
I1111 07:12:36.021247  3922 net.cpp:165] Memory required for data: 5500928
I1111 07:12:36.021282  3922 layer_factory.hpp:76] Creating layer relu4
I1111 07:12:36.021322  3922 net.cpp:106] Creating Layer relu4
I1111 07:12:36.021342  3922 net.cpp:454] relu4 <- conv4
I1111 07:12:36.021378  3922 net.cpp:397] relu4 -> conv4 (in-place)
I1111 07:12:36.021411  3922 net.cpp:150] Setting up relu4
I1111 07:12:36.021426  3922 net.cpp:157] Top shape: 1 384 13 13 (64896)
I1111 07:12:36.021435  3922 net.cpp:165] Memory required for data: 5760512
I1111 07:12:36.021446  3922 layer_factory.hpp:76] Creating layer conv5
I1111 07:12:36.021478  3922 net.cpp:106] Creating Layer conv5
I1111 07:12:36.021493  3922 net.cpp:454] conv5 <- conv4
I1111 07:12:36.021520  3922 net.cpp:411] conv5 -> conv5
I1111 07:12:36.026120  3922 net.cpp:150] Setting up conv5
I1111 07:12:36.026162  3922 net.cpp:157] Top shape: 1 256 13 13 (43264)
I1111 07:12:36.026173  3922 net.cpp:165] Memory required for data: 5933568
I1111 07:12:36.026233  3922 layer_factory.hpp:76] Creating layer relu5
I1111 07:12:36.026273  3922 net.cpp:106] Creating Layer relu5
I1111 07:12:36.026293  3922 net.cpp:454] relu5 <- conv5
I1111 07:12:36.026324  3922 net.cpp:397] relu5 -> conv5 (in-place)
I1111 07:12:36.026357  3922 net.cpp:150] Setting up relu5
I1111 07:12:36.026372  3922 net.cpp:157] Top shape: 1 256 13 13 (43264)
I1111 07:12:36.026381  3922 net.cpp:165] Memory required for data: 6106624
I1111 07:12:36.026393  3922 layer_factory.hpp:76] Creating layer pool5
I1111 07:12:36.026420  3922 net.cpp:106] Creating Layer pool5
I1111 07:12:36.026435  3922 net.cpp:454] pool5 <- conv5
I1111 07:12:36.026464  3922 net.cpp:411] pool5 -> pool5
I1111 07:12:36.026546  3922 net.cpp:150] Setting up pool5
I1111 07:12:36.026571  3922 net.cpp:157] Top shape: 1 256 6 6 (9216)
I1111 07:12:36.026581  3922 net.cpp:165] Memory required for data: 6143488
I1111 07:12:36.026592  3922 layer_factory.hpp:76] Creating layer fc6
I1111 07:12:36.026618  3922 net.cpp:106] Creating Layer fc6
I1111 07:12:36.026633  3922 net.cpp:454] fc6 <- pool5
I1111 07:12:36.026659  3922 net.cpp:411] fc6 -> fc6
I1111 07:12:36.201572  3922 net.cpp:150] Setting up fc6
I1111 07:12:36.201618  3922 net.cpp:157] Top shape: 1 4096 (4096)
I1111 07:12:36.201628  3922 net.cpp:165] Memory required for data: 6159872
I1111 07:12:36.201663  3922 layer_factory.hpp:76] Creating layer relu6
I1111 07:12:36.201716  3922 net.cpp:106] Creating Layer relu6
I1111 07:12:36.201738  3922 net.cpp:454] relu6 <- fc6
I1111 07:12:36.201778  3922 net.cpp:397] relu6 -> fc6 (in-place)
I1111 07:12:36.201813  3922 net.cpp:150] Setting up relu6
I1111 07:12:36.201828  3922 net.cpp:157] Top shape: 1 4096 (4096)
I1111 07:12:36.201838  3922 net.cpp:165] Memory required for data: 6176256
I1111 07:12:36.201848  3922 layer_factory.hpp:76] Creating layer drop6
I1111 07:12:36.201874  3922 net.cpp:106] Creating Layer drop6
I1111 07:12:36.201889  3922 net.cpp:454] drop6 <- fc6
I1111 07:12:36.201911  3922 net.cpp:397] drop6 -> fc6 (in-place)
I1111 07:12:36.201966  3922 net.cpp:150] Setting up drop6
I1111 07:12:36.201983  3922 net.cpp:157] Top shape: 1 4096 (4096)
I1111 07:12:36.201993  3922 net.cpp:165] Memory required for data: 6192640
I1111 07:12:36.202005  3922 layer_factory.hpp:76] Creating layer fc7
I1111 07:12:36.202030  3922 net.cpp:106] Creating Layer fc7
I1111 07:12:36.202045  3922 net.cpp:454] fc7 <- fc6
I1111 07:12:36.202071  3922 net.cpp:411] fc7 -> fc7
I1111 07:12:36.279364  3922 net.cpp:150] Setting up fc7
I1111 07:12:36.279436  3922 net.cpp:157] Top shape: 1 4096 (4096)
I1111 07:12:36.279448  3922 net.cpp:165] Memory required for data: 6209024
I1111 07:12:36.279489  3922 layer_factory.hpp:76] Creating layer relu7
I1111 07:12:36.279534  3922 net.cpp:106] Creating Layer relu7
I1111 07:12:36.279561  3922 net.cpp:454] relu7 <- fc7
I1111 07:12:36.279597  3922 net.cpp:397] relu7 -> fc7 (in-place)
I1111 07:12:36.279633  3922 net.cpp:150] Setting up relu7
I1111 07:12:36.279647  3922 net.cpp:157] Top shape: 1 4096 (4096)
I1111 07:12:36.279656  3922 net.cpp:165] Memory required for data: 6225408
I1111 07:12:36.279667  3922 layer_factory.hpp:76] Creating layer drop7
I1111 07:12:36.279697  3922 net.cpp:106] Creating Layer drop7
I1111 07:12:36.279713  3922 net.cpp:454] drop7 <- fc7
I1111 07:12:36.279737  3922 net.cpp:397] drop7 -> fc7 (in-place)
I1111 07:12:36.279804  3922 net.cpp:150] Setting up drop7
I1111 07:12:36.279824  3922 net.cpp:157] Top shape: 1 4096 (4096)
I1111 07:12:36.279834  3922 net.cpp:165] Memory required for data: 6241792
I1111 07:12:36.279845  3922 layer_factory.hpp:76] Creating layer fc8
I1111 07:12:36.279875  3922 net.cpp:106] Creating Layer fc8
I1111 07:12:36.279889  3922 net.cpp:454] fc8 <- fc7
I1111 07:12:36.279919  3922 net.cpp:411] fc8 -> fc8
I1111 07:12:36.299377  3922 net.cpp:150] Setting up fc8
I1111 07:12:36.299422  3922 net.cpp:157] Top shape: 1 1000 (1000)
I1111 07:12:36.299433  3922 net.cpp:165] Memory required for data: 6245792
I1111 07:12:36.299468  3922 layer_factory.hpp:76] Creating layer prob
I1111 07:12:36.299511  3922 net.cpp:106] Creating Layer prob
I1111 07:12:36.299531  3922 net.cpp:454] prob <- fc8
I1111 07:12:36.299569  3922 net.cpp:411] prob -> prob
I1111 07:12:36.299685  3922 net.cpp:150] Setting up prob
I1111 07:12:36.299706  3922 net.cpp:157] Top shape: 1 1000 (1000)
I1111 07:12:36.299716  3922 net.cpp:165] Memory required for data: 6249792
I1111 07:12:36.299731  3922 net.cpp:228] prob does not need backward computation.
I1111 07:12:36.299743  3922 net.cpp:228] fc8 does not need backward computation.
I1111 07:12:36.299756  3922 net.cpp:228] drop7 does not need backward computation.
I1111 07:12:36.299779  3922 net.cpp:228] relu7 does not need backward computation.
…
