…
gamma: 0.5
momentum: 0.98
weight_decay: 0
stepsize: 1500
snapshot: 1000
snapshot_prefix: "stitch"
solver_mode: GPU
random_seed: 0
net: "network.prototxt"
regularization_type: "L1"
I1110 22:09:08.097791  2593 solver.cpp:90] Creating training net from net file: network.prototxt
I1110 22:09:08.132202  2593 net.cpp:49] Initializing net from parameters: 
name: "StitchNet"
input: "net0"
input: "net1"
input_dim: 32
input_dim: 256
input_dim: 27
input_dim: 27
input_dim: 32
input_dim: 256
input_dim: 27
input_dim: 27
state {
  phase: TRAIN
}
debug_info: true
layer {
  name: "stitch0"
  type: "Convolution"
  bottom: "net0"
  top: "stitch0"
  convolution_param {
    num_output: 256
    kernel_size: 1
    stride: 1
    weight_filler {
      type: "gaussian"
      std: 0.01
    }
  }
}
layer {
  name: "loss"
  type: "EuclideanLoss"
  bottom: "stitch0"
  bottom: "net1"
  top: "loss"
  loss_weight: 1
}
I1110 22:09:08.132364  2593 net.cpp:413] Input 0 -> net0
I1110 22:09:08.173967  2593 net.cpp:413] Input 1 -> net1
I1110 22:09:08.174109  2593 layer_factory.hpp:76] Creating layer stitch0
I1110 22:09:08.174177  2593 net.cpp:106] Creating Layer stitch0
I1110 22:09:08.174199  2593 net.cpp:454] stitch0 <- net0
I1110 22:09:08.174237  2593 net.cpp:411] stitch0 -> stitch0
I1110 22:09:08.183038  2593 net.cpp:150] Setting up stitch0
I1110 22:09:08.183099  2593 net.cpp:157] Top shape: 32 256 27 27 (5971968)
I1110 22:09:08.183121  2593 net.cpp:165] Memory required for data: 23887872
I1110 22:09:08.183200  2593 layer_factory.hpp:76] Creating layer loss
I1110 22:09:08.183253  2593 net.cpp:106] Creating Layer loss
I1110 22:09:08.183275  2593 net.cpp:454] loss <- stitch0
I1110 22:09:08.183303  2593 net.cpp:454] loss <- net1
I1110 22:09:08.183332  2593 net.cpp:411] loss -> loss
I1110 22:09:08.183420  2593 net.cpp:150] Setting up loss
I1110 22:09:08.183445  2593 net.cpp:157] Top shape: (1)
I1110 22:09:08.183457  2593 net.cpp:160]     with loss weight 1
I1110 22:09:08.183475  2593 net.cpp:165] Memory required for data: 23887876
I1110 22:09:08.183493  2593 net.cpp:226] loss needs backward computation.
I1110 22:09:08.183511  2593 net.cpp:226] stitch0 needs backward computation.
I1110 22:09:08.183526  2593 net.cpp:270] This network produces output loss
I1110 22:09:08.183552  2593 net.cpp:283] Network initialization done.
I1110 22:09:08.183612  2593 solver.cpp:59] Solver scaffolding done.
I1110 22:09:08.319272  2593 net.cpp:49] Initializing net from parameters: 
name: "CaffeNet"
input: "data"
input_dim: 1
input_dim: 3
input_dim: 227
input_dim: 227
force_backward: true
state {
  phase: TEST
}
layer {
  name: "conv1"
  type: "Convolution"
  bottom: "data"
  top: "conv1"
  convolution_param {
    num_output: 96
    kernel_size: 11
    stride: 4
  }
}
layer {
  name: "relu1"
  type: "ReLU"
  bottom: "conv1"
  top: "conv1"
}
layer {
  name: "pool1"
  type: "Pooling"
  bottom: "conv1"
  top: "pool1"
  pooling_param {
    pool: MAX
    kernel_size: 3
    stride: 2
  }
}
layer {
  name: "norm1"
  type: "LRN"
  bottom: "pool1"
  top: "norm1"
  lrn_param {
    local_size: 5
    alpha: 0.0001
    beta: 0.75
  }
}
layer {
  name: "conv2"
  type: "Convolution"
  bottom: "norm1"
  top: "conv2"
  convolution_param {
    num_output: 256
    pad: 2
    kernel_size: 5
  }
}
layer {
  name: "relu2"
  type: "ReLU"
  bottom: "conv2"
  top: "conv2"
}
layer {
  name: "pool2"
  type: "Pooling"
  bottom: "conv2"
  top: "pool2"
  pooling_param {
    pool: MAX
    kernel_size: 3
    stride: 2
  }
}
layer {
  name: "norm2"
  type: "LRN"
  bottom: "pool2"
  top: "norm2"
  lrn_param {
    local_size: 5
    alpha: 0.0001
    beta: 0.75
  }
}
layer {
  name: "conv3"
  type: "Convolution"
  bottom: "norm2"
  top: "conv3"
  convolution_param {
    num_output: 384
    pad: 1
    kernel_size: 3
  }
}
layer {
  name: "relu3"
  type: "ReLU"
  bottom: "conv3"
  top: "conv3"
}
layer {
  name: "conv4"
  type: "Convolution"
  bottom: "conv3"
  top: "conv4"
  convolution_param {
    num_output: 384
    pad: 1
    kernel_size: 3
  }
}
layer {
  name: "relu4"
  type: "ReLU"
  bottom: "conv4"
  top: "conv4"
}
layer {
  name: "conv5"
  type: "Convolution"
  bottom: "conv4"
  top: "conv5"
  convolution_param {
    num_output: 256
    pad: 1
    kernel_size: 3
  }
}
layer {
  name: "relu5"
  type: "ReLU"
  bottom: "conv5"
  top: "conv5"
}
layer {
  name: "pool5"
  type: "Pooling"
  bottom: "conv5"
  top: "pool5"
  pooling_param {
    pool: MAX
    kernel_size: 3
    stride: 2
  }
}
layer {
  name: "fc6"
  type: "InnerProduct"
  bottom: "pool5"
  top: "fc6"
  inner_product_param {
    num_output: 4096
  }
}
layer {
  name: "relu6"
  type: "ReLU"
  bottom: "fc6"
  top: "fc6"
}
layer {
  name: "drop6"
  type: "Dropout"
  bottom: "fc6"
  top: "fc6"
  dropout_param {
    dropout_ratio: 0.5
  }
}
layer {
  name: "fc7"
  type: "InnerProduct"
  bottom: "fc6"
  top: "fc7"
  inner_product_param {
    num_output: 4096
  }
}
layer {
  name: "relu7"
  type: "ReLU"
  bottom: "fc7"
  top: "fc7"
}
layer {
  name: "drop7"
  type: "Dropout"
  bottom: "fc7"
  top: "fc7"
  dropout_param {
    dropout_ratio: 0.5
  }
}
layer {
  name: "fc8"
  type: "InnerProduct"
  bottom: "fc7"
  top: "fc8"
  inner_product_param {
    num_output: 1000
  }
}
layer {
  name: "prob"
  type: "Softmax"
  bottom: "fc8"
  top: "prob"
}
I1110 22:09:08.319578  2593 net.cpp:413] Input 0 -> data
I1110 22:09:08.319790  2593 layer_factory.hpp:76] Creating layer conv1
I1110 22:09:08.319912  2593 net.cpp:106] Creating Layer conv1
I1110 22:09:08.319942  2593 net.cpp:454] conv1 <- data
I1110 22:09:08.319985  2593 net.cpp:411] conv1 -> conv1
I1110 22:09:08.321244  2593 net.cpp:150] Setting up conv1
I1110 22:09:08.321285  2593 net.cpp:157] Top shape: 1 96 55 55 (290400)
I1110 22:09:08.321297  2593 net.cpp:165] Memory required for data: 1161600
I1110 22:09:08.321358  2593 layer_factory.hpp:76] Creating layer relu1
I1110 22:09:08.321399  2593 net.cpp:106] Creating Layer relu1
I1110 22:09:08.321419  2593 net.cpp:454] relu1 <- conv1
I1110 22:09:08.321446  2593 net.cpp:397] relu1 -> conv1 (in-place)
I1110 22:09:08.321485  2593 net.cpp:150] Setting up relu1
I1110 22:09:08.321503  2593 net.cpp:157] Top shape: 1 96 55 55 (290400)
I1110 22:09:08.321513  2593 net.cpp:165] Memory required for data: 2323200
I1110 22:09:08.321527  2593 layer_factory.hpp:76] Creating layer pool1
I1110 22:09:08.321557  2593 net.cpp:106] Creating Layer pool1
I1110 22:09:08.321574  2593 net.cpp:454] pool1 <- conv1
I1110 22:09:08.321604  2593 net.cpp:411] pool1 -> pool1
I1110 22:09:08.321707  2593 net.cpp:150] Setting up pool1
I1110 22:09:08.321734  2593 net.cpp:157] Top shape: 1 96 27 27 (69984)
I1110 22:09:08.321745  2593 net.cpp:165] Memory required for data: 2603136
I1110 22:09:08.321759  2593 layer_factory.hpp:76] Creating layer norm1
I1110 22:09:08.321791  2593 net.cpp:106] Creating Layer norm1
I1110 22:09:08.321810  2593 net.cpp:454] norm1 <- pool1
I1110 22:09:08.321841  2593 net.cpp:411] norm1 -> norm1
I1110 22:09:08.321926  2593 net.cpp:150] Setting up norm1
I1110 22:09:08.321952  2593 net.cpp:157] Top shape: 1 96 27 27 (69984)
I1110 22:09:08.321964  2593 net.cpp:165] Memory required for data: 2883072
I1110 22:09:08.321979  2593 layer_factory.hpp:76] Creating layer conv2
I1110 22:09:08.322012  2593 net.cpp:106] Creating Layer conv2
I1110 22:09:08.322032  2593 net.cpp:454] conv2 <- norm1
I1110 22:09:08.322063  2593 net.cpp:411] conv2 -> conv2
I1110 22:09:08.325566  2593 net.cpp:150] Setting up conv2
I1110 22:09:08.325600  2593 net.cpp:157] Top shape: 1 256 27 27 (186624)
I1110 22:09:08.325613  2593 net.cpp:165] Memory required for data: 3629568
I1110 22:09:08.325655  2593 layer_factory.hpp:76] Creating layer relu2
I1110 22:09:08.325685  2593 net.cpp:106] Creating Layer relu2
I1110 22:09:08.325702  2593 net.cpp:454] relu2 <- conv2
I1110 22:09:08.325734  2593 net.cpp:397] relu2 -> conv2 (in-place)
I1110 22:09:08.325767  2593 net.cpp:150] Setting up relu2
I1110 22:09:08.325784  2593 net.cpp:157] Top shape: 1 256 27 27 (186624)
I1110 22:09:08.325800  2593 net.cpp:165] Memory required for data: 4376064
I1110 22:09:08.325842  2593 layer_factory.hpp:76] Creating layer pool2
I1110 22:09:08.325877  2593 net.cpp:106] Creating Layer pool2
I1110 22:09:08.325896  2593 net.cpp:454] pool2 <- conv2
I1110 22:09:08.325934  2593 net.cpp:411] pool2 -> pool2
I1110 22:09:08.326026  2593 net.cpp:150] Setting up pool2
I1110 22:09:08.326052  2593 net.cpp:157] Top shape: 1 256 13 13 (43264)
I1110 22:09:08.326063  2593 net.cpp:165] Memory required for data: 4549120
I1110 22:09:08.326077  2593 layer_factory.hpp:76] Creating layer norm2
I1110 22:09:08.326107  2593 net.cpp:106] Creating Layer norm2
I1110 22:09:08.326125  2593 net.cpp:454] norm2 <- pool2
I1110 22:09:08.326155  2593 net.cpp:411] norm2 -> norm2
I1110 22:09:08.326236  2593 net.cpp:150] Setting up norm2
I1110 22:09:08.326261  2593 net.cpp:157] Top shape: 1 256 13 13 (43264)
I1110 22:09:08.326272  2593 net.cpp:165] Memory required for data: 4722176
I1110 22:09:08.326285  2593 layer_factory.hpp:76] Creating layer conv3
I1110 22:09:08.326320  2593 net.cpp:106] Creating Layer conv3
I1110 22:09:08.326339  2593 net.cpp:454] conv3 <- norm2
I1110 22:09:08.326373  2593 net.cpp:411] conv3 -> conv3
I1110 22:09:08.333101  2593 net.cpp:150] Setting up conv3
I1110 22:09:08.333183  2593 net.cpp:157] Top shape: 1 384 13 13 (64896)
I1110 22:09:08.333195  2593 net.cpp:165] Memory required for data: 4981760
I1110 22:09:08.333269  2593 layer_factory.hpp:76] Creating layer relu3
I1110 22:09:08.333319  2593 net.cpp:106] Creating Layer relu3
I1110 22:09:08.333346  2593 net.cpp:454] relu3 <- conv3
I1110 22:09:08.333386  2593 net.cpp:397] relu3 -> conv3 (in-place)
I1110 22:09:08.333431  2593 net.cpp:150] Setting up relu3
I1110 22:09:08.333447  2593 net.cpp:157] Top shape: 1 384 13 13 (64896)
I1110 22:09:08.333457  2593 net.cpp:165] Memory required for data: 5241344
I1110 22:09:08.333470  2593 layer_factory.hpp:76] Creating layer conv4
I1110 22:09:08.333506  2593 net.cpp:106] Creating Layer conv4
I1110 22:09:08.333523  2593 net.cpp:454] conv4 <- conv3
I1110 22:09:08.333557  2593 net.cpp:411] conv4 -> conv4
I1110 22:09:08.341343  2593 net.cpp:150] Setting up conv4
I1110 22:09:08.341434  2593 net.cpp:157] Top shape: 1 384 13 13 (64896)
I1110 22:09:08.341449  2593 net.cpp:165] Memory required for data: 5500928
I1110 22:09:08.341493  2593 layer_factory.hpp:76] Creating layer relu4
I1110 22:09:08.341547  2593 net.cpp:106] Creating Layer relu4
I1110 22:09:08.341574  2593 net.cpp:454] relu4 <- conv4
I1110 22:09:08.341615  2593 net.cpp:397] relu4 -> conv4 (in-place)
I1110 22:09:08.341665  2593 net.cpp:150] Setting up relu4
I1110 22:09:08.341683  2593 net.cpp:157] Top shape: 1 384 13 13 (64896)
I1110 22:09:08.341696  2593 net.cpp:165] Memory required for data: 5760512
I1110 22:09:08.341709  2593 layer_factory.hpp:76] Creating layer conv5
I1110 22:09:08.341749  2593 net.cpp:106] Creating Layer conv5
I1110 22:09:08.341768  2593 net.cpp:454] conv5 <- conv4
I1110 22:09:08.341801  2593 net.cpp:411] conv5 -> conv5
I1110 22:09:08.347053  2593 net.cpp:150] Setting up conv5
I1110 22:09:08.347082  2593 net.cpp:157] Top shape: 1 256 13 13 (43264)
I1110 22:09:08.347093  2593 net.cpp:165] Memory required for data: 5933568
I1110 22:09:08.347146  2593 layer_factory.hpp:76] Creating layer relu5
I1110 22:09:08.347172  2593 net.cpp:106] Creating Layer relu5
I1110 22:09:08.347189  2593 net.cpp:454] relu5 <- conv5
I1110 22:09:08.347218  2593 net.cpp:397] relu5 -> conv5 (in-place)
I1110 22:09:08.347247  2593 net.cpp:150] Setting up relu5
I1110 22:09:08.347265  2593 net.cpp:157] Top shape: 1 256 13 13 (43264)
I1110 22:09:08.347275  2593 net.cpp:165] Memory required for data: 6106624
I1110 22:09:08.347288  2593 layer_factory.hpp:76] Creating layer pool5
I1110 22:09:08.347327  2593 net.cpp:106] Creating Layer pool5
I1110 22:09:08.347347  2593 net.cpp:454] pool5 <- conv5
I1110 22:09:08.347378  2593 net.cpp:411] pool5 -> pool5
I1110 22:09:08.347465  2593 net.cpp:150] Setting up pool5
I1110 22:09:08.347489  2593 net.cpp:157] Top shape: 1 256 6 6 (9216)
I1110 22:09:08.347501  2593 net.cpp:165] Memory required for data: 6143488
I1110 22:09:08.347514  2593 layer_factory.hpp:76] Creating layer fc6
I1110 22:09:08.347548  2593 net.cpp:106] Creating Layer fc6
I1110 22:09:08.347568  2593 net.cpp:454] fc6 <- pool5
I1110 22:09:08.347600  2593 net.cpp:411] fc6 -> fc6
I1110 22:09:08.538967  2593 net.cpp:150] Setting up fc6
I1110 22:09:08.539052  2593 net.cpp:157] Top shape: 1 4096 (4096)
I1110 22:09:08.539064  2593 net.cpp:165] Memory required for data: 6159872
I1110 22:09:08.539109  2593 layer_factory.hpp:76] Creating layer relu6
I1110 22:09:08.539173  2593 net.cpp:106] Creating Layer relu6
I1110 22:09:08.539201  2593 net.cpp:454] relu6 <- fc6
I1110 22:09:08.539253  2593 net.cpp:397] relu6 -> fc6 (in-place)
I1110 22:09:08.539299  2593 net.cpp:150] Setting up relu6
I1110 22:09:08.539315  2593 net.cpp:157] Top shape: 1 4096 (4096)
I1110 22:09:08.539325  2593 net.cpp:165] Memory required for data: 6176256
I1110 22:09:08.539338  2593 layer_factory.hpp:76] Creating layer drop6
I1110 22:09:08.539377  2593 net.cpp:106] Creating Layer drop6
I1110 22:09:08.539394  2593 net.cpp:454] drop6 <- fc6
I1110 22:09:08.539425  2593 net.cpp:397] drop6 -> fc6 (in-place)
I1110 22:09:08.539490  2593 net.cpp:150] Setting up drop6
I1110 22:09:08.539511  2593 net.cpp:157] Top shape: 1 4096 (4096)
I1110 22:09:08.539522  2593 net.cpp:165] Memory required for data: 6192640
I1110 22:09:08.539535  2593 layer_factory.hpp:76] Creating layer fc7
I1110 22:09:08.539566  2593 net.cpp:106] Creating Layer fc7
I1110 22:09:08.539582  2593 net.cpp:454] fc7 <- fc6
I1110 22:09:08.539615  2593 net.cpp:411] fc7 -> fc7
I1110 22:09:08.625546  2593 net.cpp:150] Setting up fc7
I1110 22:09:08.625630  2593 net.cpp:157] Top shape: 1 4096 (4096)
I1110 22:09:08.625650  2593 net.cpp:165] Memory required for data: 6209024
I1110 22:09:08.625695  2593 layer_factory.hpp:76] Creating layer relu7
I1110 22:09:08.625748  2593 net.cpp:106] Creating Layer relu7
I1110 22:09:08.625776  2593 net.cpp:454] relu7 <- fc7
I1110 22:09:08.625816  2593 net.cpp:397] relu7 -> fc7 (in-place)
I1110 22:09:08.625859  2593 net.cpp:150] Setting up relu7
I1110 22:09:08.625875  2593 net.cpp:157] Top shape: 1 4096 (4096)
I1110 22:09:08.625886  2593 net.cpp:165] Memory required for data: 6225408
I1110 22:09:08.625900  2593 layer_factory.hpp:76] Creating layer drop7
I1110 22:09:08.625928  2593 net.cpp:106] Creating Layer drop7
I1110 22:09:08.625944  2593 net.cpp:454] drop7 <- fc7
I1110 22:09:08.625972  2593 net.cpp:397] drop7 -> fc7 (in-place)
I1110 22:09:08.626034  2593 net.cpp:150] Setting up drop7
I1110 22:09:08.626055  2593 net.cpp:157] Top shape: 1 4096 (4096)
I1110 22:09:08.626065  2593 net.cpp:165] Memory required for data: 6241792
I1110 22:09:08.626078  2593 layer_factory.hpp:76] Creating layer fc8
I1110 22:09:08.626112  2593 net.cpp:106] Creating Layer fc8
I1110 22:09:08.626129  2593 net.cpp:454] fc8 <- fc7
I1110 22:09:08.626160  2593 net.cpp:411] fc8 -> fc8
I1110 22:09:08.647411  2593 net.cpp:150] Setting up fc8
I1110 22:09:08.647508  2593 net.cpp:157] Top shape: 1 1000 (1000)
I1110 22:09:08.647521  2593 net.cpp:165] Memory required for data: 6245792
I1110 22:09:08.647564  2593 layer_factory.hpp:76] Creating layer prob
I1110 22:09:08.647625  2593 net.cpp:106] Creating Layer prob
I1110 22:09:08.647658  2593 net.cpp:454] prob <- fc8
I1110 22:09:08.647706  2593 net.cpp:411] prob -> prob
I1110 22:09:08.647843  2593 net.cpp:150] Setting up prob
I1110 22:09:08.647868  2593 net.cpp:157] Top shape: 1 1000 (1000)
I1110 22:09:08.647881  2593 net.cpp:165] Memory required for data: 6249792
I1110 22:09:08.647897  2593 net.cpp:228] prob does not need backward computation.
I1110 22:09:08.647912  2593 net.cpp:228] fc8 does not need backward computation.
I1110 22:09:08.647925  2593 net.cpp:228] drop7 does not need backward computation.
I1110 22:09:08.647938  2593 net.cpp:228] relu7 does not need backward computation.
…
I1110 22:09:11.453287  2593 net.cpp:923] Copying source layer drop6
I1110 22:09:11.453299  2593 net.cpp:923] Copying source layer fc7
I1110 22:09:11.664243  2593 net.cpp:923] Copying source layer relu7
I1110 22:09:11.664294  2593 net.cpp:923] Copying source layer drop7
I1110 22:09:11.664305  2593 net.cpp:923] Copying source layer fc8
I1110 22:09:11.715828  2593 net.cpp:920] Ignoring source layer loss
I1110 22:09:11.780668  2593 net.cpp:49] Initializing net from parameters: 
name: "CaffeNet"
input: "data"
input_dim: 1
input_dim: 3
input_dim: 227
input_dim: 227
force_backward: true
state {
  phase: TEST
}
layer {
  name: "conv1"
  type: "Convolution"
  bottom: "data"
  top: "conv1"
  convolution_param {
    num_output: 96
    kernel_size: 11
    stride: 4
  }
}
layer {
  name: "relu1"
  type: "ReLU"
  bottom: "conv1"
  top: "conv1"
}
layer {
  name: "pool1"
  type: "Pooling"
  bottom: "conv1"
  top: "pool1"
  pooling_param {
    pool: MAX
    kernel_size: 3
    stride: 2
  }
}
layer {
  name: "norm1"
  type: "LRN"
  bottom: "pool1"
  top: "norm1"
  lrn_param {
    local_size: 5
    alpha: 0.0001
    beta: 0.75
  }
}
layer {
  name: "conv2"
  type: "Convolution"
  bottom: "norm1"
  top: "conv2"
  convolution_param {
    num_output: 256
    pad: 2
    kernel_size: 5
  }
}
layer {
  name: "relu2"
  type: "ReLU"
  bottom: "conv2"
  top: "conv2"
}
layer {
  name: "pool2"
  type: "Pooling"
  bottom: "conv2"
  top: "pool2"
  pooling_param {
    pool: MAX
    kernel_size: 3
    stride: 2
  }
}
layer {
  name: "norm2"
  type: "LRN"
  bottom: "pool2"
  top: "norm2"
  lrn_param {
    local_size: 5
    alpha: 0.0001
    beta: 0.75
  }
}
layer {
  name: "conv3"
  type: "Convolution"
  bottom: "norm2"
  top: "conv3"
  convolution_param {
    num_output: 384
    pad: 1
    kernel_size: 3
  }
}
layer {
  name: "relu3"
  type: "ReLU"
  bottom: "conv3"
  top: "conv3"
}
layer {
  name: "conv4"
  type: "Convolution"
  bottom: "conv3"
  top: "conv4"
  convolution_param {
    num_output: 384
    pad: 1
    kernel_size: 3
  }
}
layer {
  name: "relu4"
  type: "ReLU"
  bottom: "conv4"
  top: "conv4"
}
layer {
  name: "conv5"
  type: "Convolution"
  bottom: "conv4"
  top: "conv5"
  convolution_param {
    num_output: 256
    pad: 1
    kernel_size: 3
  }
}
layer {
  name: "relu5"
  type: "ReLU"
  bottom: "conv5"
  top: "conv5"
}
layer {
  name: "pool5"
  type: "Pooling"
  bottom: "conv5"
  top: "pool5"
  pooling_param {
    pool: MAX
    kernel_size: 3
    stride: 2
  }
}
layer {
  name: "fc6"
  type: "InnerProduct"
  bottom: "pool5"
  top: "fc6"
  inner_product_param {
    num_output: 4096
  }
}
layer {
  name: "relu6"
  type: "ReLU"
  bottom: "fc6"
  top: "fc6"
}
layer {
  name: "drop6"
  type: "Dropout"
  bottom: "fc6"
  top: "fc6"
  dropout_param {
    dropout_ratio: 0.5
  }
}
layer {
  name: "fc7"
  type: "InnerProduct"
  bottom: "fc6"
  top: "fc7"
  inner_product_param {
    num_output: 4096
  }
}
layer {
  name: "relu7"
  type: "ReLU"
  bottom: "fc7"
  top: "fc7"
}
layer {
  name: "drop7"
  type: "Dropout"
  bottom: "fc7"
  top: "fc7"
  dropout_param {
    dropout_ratio: 0.5
  }
}
layer {
  name: "fc8"
  type: "InnerProduct"
  bottom: "fc7"
  top: "fc8"
  inner_product_param {
    num_output: 1000
  }
}
layer {
  name: "prob"
  type: "Softmax"
  bottom: "fc8"
  top: "prob"
}
I1110 22:09:11.780954  2593 net.cpp:413] Input 0 -> data
I1110 22:09:11.781152  2593 layer_factory.hpp:76] Creating layer conv1
I1110 22:09:11.781218  2593 net.cpp:106] Creating Layer conv1
I1110 22:09:11.781237  2593 net.cpp:454] conv1 <- data
I1110 22:09:11.781267  2593 net.cpp:411] conv1 -> conv1
I1110 22:09:11.781703  2593 net.cpp:150] Setting up conv1
I1110 22:09:11.781733  2593 net.cpp:157] Top shape: 1 96 55 55 (290400)
I1110 22:09:11.781744  2593 net.cpp:165] Memory required for data: 1161600
I1110 22:09:11.781790  2593 layer_factory.hpp:76] Creating layer relu1
I1110 22:09:11.781837  2593 net.cpp:106] Creating Layer relu1
I1110 22:09:11.781854  2593 net.cpp:454] relu1 <- conv1
I1110 22:09:11.781880  2593 net.cpp:397] relu1 -> conv1 (in-place)
I1110 22:09:11.781908  2593 net.cpp:150] Setting up relu1
I1110 22:09:11.781924  2593 net.cpp:157] Top shape: 1 96 55 55 (290400)
I1110 22:09:11.781932  2593 net.cpp:165] Memory required for data: 2323200
I1110 22:09:11.781956  2593 layer_factory.hpp:76] Creating layer pool1
I1110 22:09:11.781985  2593 net.cpp:106] Creating Layer pool1
I1110 22:09:11.782001  2593 net.cpp:454] pool1 <- conv1
I1110 22:09:11.782027  2593 net.cpp:411] pool1 -> pool1
I1110 22:09:11.782104  2593 net.cpp:150] Setting up pool1
I1110 22:09:11.782127  2593 net.cpp:157] Top shape: 1 96 27 27 (69984)
I1110 22:09:11.782137  2593 net.cpp:165] Memory required for data: 2603136
I1110 22:09:11.782150  2593 layer_factory.hpp:76] Creating layer norm1
I1110 22:09:11.782176  2593 net.cpp:106] Creating Layer norm1
I1110 22:09:11.782191  2593 net.cpp:454] norm1 <- pool1
I1110 22:09:11.782219  2593 net.cpp:411] norm1 -> norm1
I1110 22:09:11.782286  2593 net.cpp:150] Setting up norm1
I1110 22:09:11.782306  2593 net.cpp:157] Top shape: 1 96 27 27 (69984)
I1110 22:09:11.782317  2593 net.cpp:165] Memory required for data: 2883072
I1110 22:09:11.782328  2593 layer_factory.hpp:76] Creating layer conv2
I1110 22:09:11.782366  2593 net.cpp:106] Creating Layer conv2
I1110 22:09:11.782397  2593 net.cpp:454] conv2 <- norm1
I1110 22:09:11.782428  2593 net.cpp:411] conv2 -> conv2
I1110 22:09:11.786257  2593 net.cpp:150] Setting up conv2
I1110 22:09:11.786347  2593 net.cpp:157] Top shape: 1 256 27 27 (186624)
I1110 22:09:11.786358  2593 net.cpp:165] Memory required for data: 3629568
I1110 22:09:11.786434  2593 layer_factory.hpp:76] Creating layer relu2
I1110 22:09:11.786484  2593 net.cpp:106] Creating Layer relu2
I1110 22:09:11.786509  2593 net.cpp:454] relu2 <- conv2
I1110 22:09:11.786542  2593 net.cpp:397] relu2 -> conv2 (in-place)
I1110 22:09:11.786579  2593 net.cpp:150] Setting up relu2
I1110 22:09:11.786595  2593 net.cpp:157] Top shape: 1 256 27 27 (186624)
I1110 22:09:11.786604  2593 net.cpp:165] Memory required for data: 4376064
I1110 22:09:11.786617  2593 layer_factory.hpp:76] Creating layer pool2
I1110 22:09:11.786645  2593 net.cpp:106] Creating Layer pool2
I1110 22:09:11.786661  2593 net.cpp:454] pool2 <- conv2
I1110 22:09:11.786689  2593 net.cpp:411] pool2 -> pool2
I1110 22:09:11.786767  2593 net.cpp:150] Setting up pool2
I1110 22:09:11.786789  2593 net.cpp:157] Top shape: 1 256 13 13 (43264)
I1110 22:09:11.786800  2593 net.cpp:165] Memory required for data: 4549120
I1110 22:09:11.786813  2593 layer_factory.hpp:76] Creating layer norm2
I1110 22:09:11.786844  2593 net.cpp:106] Creating Layer norm2
I1110 22:09:11.786870  2593 net.cpp:454] norm2 <- pool2
I1110 22:09:11.786900  2593 net.cpp:411] norm2 -> norm2
I1110 22:09:11.786967  2593 net.cpp:150] Setting up norm2
I1110 22:09:11.786988  2593 net.cpp:157] Top shape: 1 256 13 13 (43264)
I1110 22:09:11.786998  2593 net.cpp:165] Memory required for data: 4722176
I1110 22:09:11.787010  2593 layer_factory.hpp:76] Creating layer conv3
I1110 22:09:11.787051  2593 net.cpp:106] Creating Layer conv3
I1110 22:09:11.787067  2593 net.cpp:454] conv3 <- norm2
I1110 22:09:11.787096  2593 net.cpp:411] conv3 -> conv3
I1110 22:09:11.792613  2593 net.cpp:150] Setting up conv3
I1110 22:09:11.792686  2593 net.cpp:157] Top shape: 1 384 13 13 (64896)
I1110 22:09:11.792697  2593 net.cpp:165] Memory required for data: 4981760
I1110 22:09:11.792769  2593 layer_factory.hpp:76] Creating layer relu3
I1110 22:09:11.792814  2593 net.cpp:106] Creating Layer relu3
I1110 22:09:11.792835  2593 net.cpp:454] relu3 <- conv3
I1110 22:09:11.792866  2593 net.cpp:397] relu3 -> conv3 (in-place)
I1110 22:09:11.792901  2593 net.cpp:150] Setting up relu3
I1110 22:09:11.792917  2593 net.cpp:157] Top shape: 1 384 13 13 (64896)
I1110 22:09:11.792927  2593 net.cpp:165] Memory required for data: 5241344
I1110 22:09:11.792937  2593 layer_factory.hpp:76] Creating layer conv4
I1110 22:09:11.792968  2593 net.cpp:106] Creating Layer conv4
I1110 22:09:11.792984  2593 net.cpp:454] conv4 <- conv3
I1110 22:09:11.793015  2593 net.cpp:411] conv4 -> conv4
I1110 22:09:11.799784  2593 net.cpp:150] Setting up conv4
I1110 22:09:11.799850  2593 net.cpp:157] Top shape: 1 384 13 13 (64896)
I1110 22:09:11.799861  2593 net.cpp:165] Memory required for data: 5500928
I1110 22:09:11.799901  2593 layer_factory.hpp:76] Creating layer relu4
I1110 22:09:11.799948  2593 net.cpp:106] Creating Layer relu4
I1110 22:09:11.799973  2593 net.cpp:454] relu4 <- conv4
I1110 22:09:11.800009  2593 net.cpp:397] relu4 -> conv4 (in-place)
I1110 22:09:11.800046  2593 net.cpp:150] Setting up relu4
I1110 22:09:11.800061  2593 net.cpp:157] Top shape: 1 384 13 13 (64896)
I1110 22:09:11.800071  2593 net.cpp:165] Memory required for data: 5760512
I1110 22:09:11.800082  2593 layer_factory.hpp:76] Creating layer conv5
I1110 22:09:11.800114  2593 net.cpp:106] Creating Layer conv5
I1110 22:09:11.800129  2593 net.cpp:454] conv5 <- conv4
I1110 22:09:11.800156  2593 net.cpp:411] conv5 -> conv5
I1110 22:09:11.804711  2593 net.cpp:150] Setting up conv5
I1110 22:09:11.804762  2593 net.cpp:157] Top shape: 1 256 13 13 (43264)
I1110 22:09:11.804774  2593 net.cpp:165] Memory required for data: 5933568
I1110 22:09:11.804841  2593 layer_factory.hpp:76] Creating layer relu5
I1110 22:09:11.804880  2593 net.cpp:106] Creating Layer relu5
I1110 22:09:11.804899  2593 net.cpp:454] relu5 <- conv5
I1110 22:09:11.804929  2593 net.cpp:397] relu5 -> conv5 (in-place)
I1110 22:09:11.804960  2593 net.cpp:150] Setting up relu5
I1110 22:09:11.804975  2593 net.cpp:157] Top shape: 1 256 13 13 (43264)
I1110 22:09:11.804983  2593 net.cpp:165] Memory required for data: 6106624
I1110 22:09:11.804996  2593 layer_factory.hpp:76] Creating layer pool5
I1110 22:09:11.805027  2593 net.cpp:106] Creating Layer pool5
I1110 22:09:11.805042  2593 net.cpp:454] pool5 <- conv5
I1110 22:09:11.805069  2593 net.cpp:411] pool5 -> pool5
I1110 22:09:11.805151  2593 net.cpp:150] Setting up pool5
I1110 22:09:11.805173  2593 net.cpp:157] Top shape: 1 256 6 6 (9216)
I1110 22:09:11.805192  2593 net.cpp:165] Memory required for data: 6143488
I1110 22:09:11.805207  2593 layer_factory.hpp:76] Creating layer fc6
I1110 22:09:11.805234  2593 net.cpp:106] Creating Layer fc6
I1110 22:09:11.805249  2593 net.cpp:454] fc6 <- pool5
I1110 22:09:11.805279  2593 net.cpp:411] fc6 -> fc6
I1110 22:09:11.985929  2593 net.cpp:150] Setting up fc6
I1110 22:09:11.986050  2593 net.cpp:157] Top shape: 1 4096 (4096)
I1110 22:09:11.986062  2593 net.cpp:165] Memory required for data: 6159872
I1110 22:09:11.986112  2593 layer_factory.hpp:76] Creating layer relu6
I1110 22:09:11.986202  2593 net.cpp:106] Creating Layer relu6
I1110 22:09:11.986230  2593 net.cpp:454] relu6 <- fc6
I1110 22:09:11.986277  2593 net.cpp:397] relu6 -> fc6 (in-place)
I1110 22:09:11.986320  2593 net.cpp:150] Setting up relu6
I1110 22:09:11.986335  2593 net.cpp:157] Top shape: 1 4096 (4096)
I1110 22:09:11.986345  2593 net.cpp:165] Memory required for data: 6176256
I1110 22:09:11.986356  2593 layer_factory.hpp:76] Creating layer drop6
I1110 22:09:11.986385  2593 net.cpp:106] Creating Layer drop6
I1110 22:09:11.986399  2593 net.cpp:454] drop6 <- fc6
I1110 22:09:11.986426  2593 net.cpp:397] drop6 -> fc6 (in-place)
I1110 22:09:11.986488  2593 net.cpp:150] Setting up drop6
I1110 22:09:11.986507  2593 net.cpp:157] Top shape: 1 4096 (4096)
I1110 22:09:11.986517  2593 net.cpp:165] Memory required for data: 6192640
I1110 22:09:11.986529  2593 layer_factory.hpp:76] Creating layer fc7
I1110 22:09:11.986565  2593 net.cpp:106] Creating Layer fc7
I1110 22:09:11.986579  2593 net.cpp:454] fc7 <- fc6
I1110 22:09:11.986608  2593 net.cpp:411] fc7 -> fc7
I1110 22:09:12.065239  2593 net.cpp:150] Setting up fc7
I1110 22:09:12.065348  2593 net.cpp:157] Top shape: 1 4096 (4096)
I1110 22:09:12.065359  2593 net.cpp:165] Memory required for data: 6209024
I1110 22:09:12.065404  2593 layer_factory.hpp:76] Creating layer relu7
I1110 22:09:12.065464  2593 net.cpp:106] Creating Layer relu7
I1110 22:09:12.065496  2593 net.cpp:454] relu7 <- fc7
I1110 22:09:12.065546  2593 net.cpp:397] relu7 -> fc7 (in-place)
I1110 22:09:12.065594  2593 net.cpp:150] Setting up relu7
I1110 22:09:12.065609  2593 net.cpp:157] Top shape: 1 4096 (4096)
I1110 22:09:12.065618  2593 net.cpp:165] Memory required for data: 6225408
I1110 22:09:12.065630  2593 layer_factory.hpp:76] Creating layer drop7
I1110 22:09:12.065666  2593 net.cpp:106] Creating Layer drop7
I1110 22:09:12.065680  2593 net.cpp:454] drop7 <- fc7
I1110 22:09:12.065708  2593 net.cpp:397] drop7 -> fc7 (in-place)
I1110 22:09:12.065778  2593 net.cpp:150] Setting up drop7
I1110 22:09:12.065795  2593 net.cpp:157] Top shape: 1 4096 (4096)
I1110 22:09:12.065805  2593 net.cpp:165] Memory required for data: 6241792
I1110 22:09:12.065817  2593 layer_factory.hpp:76] Creating layer fc8
I1110 22:09:12.065855  2593 net.cpp:106] Creating Layer fc8
I1110 22:09:12.065870  2593 net.cpp:454] fc8 <- fc7
I1110 22:09:12.065897  2593 net.cpp:411] fc8 -> fc8
I1110 22:09:12.086330  2593 net.cpp:150] Setting up fc8
I1110 22:09:12.086448  2593 net.cpp:157] Top shape: 1 1000 (1000)
I1110 22:09:12.086460  2593 net.cpp:165] Memory required for data: 6245792
I1110 22:09:12.086516  2593 layer_factory.hpp:76] Creating layer prob
I1110 22:09:12.086601  2593 net.cpp:106] Creating Layer prob
I1110 22:09:12.086633  2593 net.cpp:454] prob <- fc8
I1110 22:09:12.086685  2593 net.cpp:411] prob -> prob
I1110 22:09:12.086827  2593 net.cpp:150] Setting up prob
I1110 22:09:12.086853  2593 net.cpp:157] Top shape: 1 1000 (1000)
I1110 22:09:12.086863  2593 net.cpp:165] Memory required for data: 6249792
I1110 22:09:12.086880  2593 net.cpp:228] prob does not need backward computation.
I1110 22:09:12.086894  2593 net.cpp:228] fc8 does not need backward computation.
I1110 22:09:12.086906  2593 net.cpp:228] drop7 does not need backward computation.
I1110 22:09:12.086918  2593 net.cpp:228] relu7 does not need backward computation.
…
