…
gamma: 0.5
momentum: 0.98
weight_decay: 0.001
stepsize: 1500
snapshot: 1000
snapshot_prefix: "stitch"
solver_mode: GPU
random_seed: 0
net: "network.prototxt"
regularization_type: "L1"
I1110 22:03:31.973867  1583 solver.cpp:90] Creating training net from net file: network.prototxt
I1110 22:03:31.998782  1583 net.cpp:49] Initializing net from parameters: 
name: "StitchNet"
input: "net0"
input: "net1"
input_dim: 32
input_dim: 96
input_dim: 55
input_dim: 55
input_dim: 32
input_dim: 96
input_dim: 55
input_dim: 55
state {
  phase: TRAIN
}
debug_info: true
layer {
  name: "stitch0"
  type: "Convolution"
  bottom: "net0"
  top: "stitch0"
  convolution_param {
    num_output: 96
    kernel_size: 1
    stride: 1
    weight_filler {
      type: "gaussian"
      std: 0.01
    }
  }
}
layer {
  name: "loss"
  type: "EuclideanLoss"
  bottom: "stitch0"
  bottom: "net1"
  top: "loss"
  loss_weight: 1
}
I1110 22:03:31.998915  1583 net.cpp:413] Input 0 -> net0
I1110 22:03:32.034315  1583 net.cpp:413] Input 1 -> net1
I1110 22:03:32.034473  1583 layer_factory.hpp:76] Creating layer stitch0
I1110 22:03:32.034549  1583 net.cpp:106] Creating Layer stitch0
I1110 22:03:32.034572  1583 net.cpp:454] stitch0 <- net0
I1110 22:03:32.034616  1583 net.cpp:411] stitch0 -> stitch0
I1110 22:03:32.037214  1583 net.cpp:150] Setting up stitch0
I1110 22:03:32.037259  1583 net.cpp:157] Top shape: 32 96 55 55 (9292800)
I1110 22:03:32.037272  1583 net.cpp:165] Memory required for data: 37171200
I1110 22:03:32.037334  1583 layer_factory.hpp:76] Creating layer loss
I1110 22:03:32.037376  1583 net.cpp:106] Creating Layer loss
I1110 22:03:32.037397  1583 net.cpp:454] loss <- stitch0
I1110 22:03:32.037421  1583 net.cpp:454] loss <- net1
I1110 22:03:32.037448  1583 net.cpp:411] loss -> loss
I1110 22:03:32.037531  1583 net.cpp:150] Setting up loss
I1110 22:03:32.037555  1583 net.cpp:157] Top shape: (1)
I1110 22:03:32.037566  1583 net.cpp:160]     with loss weight 1
I1110 22:03:32.037583  1583 net.cpp:165] Memory required for data: 37171204
I1110 22:03:32.037601  1583 net.cpp:226] loss needs backward computation.
I1110 22:03:32.037624  1583 net.cpp:226] stitch0 needs backward computation.
I1110 22:03:32.037637  1583 net.cpp:270] This network produces output loss
I1110 22:03:32.037663  1583 net.cpp:283] Network initialization done.
I1110 22:03:32.037713  1583 solver.cpp:59] Solver scaffolding done.
I1110 22:03:32.140440  1583 net.cpp:49] Initializing net from parameters: 
name: "CaffeNet"
input: "data"
input_dim: 1
input_dim: 3
input_dim: 227
input_dim: 227
force_backward: true
state {
  phase: TEST
}
layer {
  name: "conv1"
  type: "Convolution"
  bottom: "data"
  top: "conv1"
  convolution_param {
    num_output: 96
    kernel_size: 11
    stride: 4
  }
}
layer {
  name: "relu1"
  type: "ReLU"
  bottom: "conv1"
  top: "conv1"
}
layer {
  name: "pool1"
  type: "Pooling"
  bottom: "conv1"
  top: "pool1"
  pooling_param {
    pool: MAX
    kernel_size: 3
    stride: 2
  }
}
layer {
  name: "norm1"
  type: "LRN"
  bottom: "pool1"
  top: "norm1"
  lrn_param {
    local_size: 5
    alpha: 0.0001
    beta: 0.75
  }
}
layer {
  name: "conv2"
  type: "Convolution"
  bottom: "norm1"
  top: "conv2"
  convolution_param {
    num_output: 256
    pad: 2
    kernel_size: 5
  }
}
layer {
  name: "relu2"
  type: "ReLU"
  bottom: "conv2"
  top: "conv2"
}
layer {
  name: "pool2"
  type: "Pooling"
  bottom: "conv2"
  top: "pool2"
  pooling_param {
    pool: MAX
    kernel_size: 3
    stride: 2
  }
}
layer {
  name: "norm2"
  type: "LRN"
  bottom: "pool2"
  top: "norm2"
  lrn_param {
    local_size: 5
    alpha: 0.0001
    beta: 0.75
  }
}
layer {
  name: "conv3"
  type: "Convolution"
  bottom: "norm2"
  top: "conv3"
  convolution_param {
    num_output: 384
    pad: 1
    kernel_size: 3
  }
}
layer {
  name: "relu3"
  type: "ReLU"
  bottom: "conv3"
  top: "conv3"
}
layer {
  name: "conv4"
  type: "Convolution"
  bottom: "conv3"
  top: "conv4"
  convolution_param {
    num_output: 384
    pad: 1
    kernel_size: 3
  }
}
layer {
  name: "relu4"
  type: "ReLU"
  bottom: "conv4"
  top: "conv4"
}
layer {
  name: "conv5"
  type: "Convolution"
  bottom: "conv4"
  top: "conv5"
  convolution_param {
    num_output: 256
    pad: 1
    kernel_size: 3
  }
}
layer {
  name: "relu5"
  type: "ReLU"
  bottom: "conv5"
  top: "conv5"
}
layer {
  name: "pool5"
  type: "Pooling"
  bottom: "conv5"
  top: "pool5"
  pooling_param {
    pool: MAX
    kernel_size: 3
    stride: 2
  }
}
layer {
  name: "fc6"
  type: "InnerProduct"
  bottom: "pool5"
  top: "fc6"
  inner_product_param {
    num_output: 4096
  }
}
layer {
  name: "relu6"
  type: "ReLU"
  bottom: "fc6"
  top: "fc6"
}
layer {
  name: "drop6"
  type: "Dropout"
  bottom: "fc6"
  top: "fc6"
  dropout_param {
    dropout_ratio: 0.5
  }
}
layer {
  name: "fc7"
  type: "InnerProduct"
  bottom: "fc6"
  top: "fc7"
  inner_product_param {
    num_output: 4096
  }
}
layer {
  name: "relu7"
  type: "ReLU"
  bottom: "fc7"
  top: "fc7"
}
layer {
  name: "drop7"
  type: "Dropout"
  bottom: "fc7"
  top: "fc7"
  dropout_param {
    dropout_ratio: 0.5
  }
}
layer {
  name: "fc8"
  type: "InnerProduct"
  bottom: "fc7"
  top: "fc8"
  inner_product_param {
    num_output: 1000
  }
}
layer {
  name: "prob"
  type: "Softmax"
  bottom: "fc8"
  top: "prob"
}
I1110 22:03:32.141023  1583 net.cpp:413] Input 0 -> data
I1110 22:03:32.141358  1583 layer_factory.hpp:76] Creating layer conv1
I1110 22:03:32.141461  1583 net.cpp:106] Creating Layer conv1
I1110 22:03:32.141506  1583 net.cpp:454] conv1 <- data
I1110 22:03:32.141579  1583 net.cpp:411] conv1 -> conv1
I1110 22:03:32.144723  1583 net.cpp:150] Setting up conv1
I1110 22:03:32.144810  1583 net.cpp:157] Top shape: 1 96 55 55 (290400)
I1110 22:03:32.144840  1583 net.cpp:165] Memory required for data: 1161600
I1110 22:03:32.144955  1583 layer_factory.hpp:76] Creating layer relu1
I1110 22:03:32.145036  1583 net.cpp:106] Creating Layer relu1
I1110 22:03:32.145078  1583 net.cpp:454] relu1 <- conv1
I1110 22:03:32.145139  1583 net.cpp:397] relu1 -> conv1 (in-place)
I1110 22:03:32.145211  1583 net.cpp:150] Setting up relu1
I1110 22:03:32.145251  1583 net.cpp:157] Top shape: 1 96 55 55 (290400)
I1110 22:03:32.145273  1583 net.cpp:165] Memory required for data: 2323200
I1110 22:03:32.145303  1583 layer_factory.hpp:76] Creating layer pool1
I1110 22:03:32.145367  1583 net.cpp:106] Creating Layer pool1
I1110 22:03:32.145406  1583 net.cpp:454] pool1 <- conv1
I1110 22:03:32.145479  1583 net.cpp:411] pool1 -> pool1
I1110 22:03:32.145680  1583 net.cpp:150] Setting up pool1
I1110 22:03:32.145737  1583 net.cpp:157] Top shape: 1 96 27 27 (69984)
I1110 22:03:32.145772  1583 net.cpp:165] Memory required for data: 2603136
I1110 22:03:32.145807  1583 layer_factory.hpp:76] Creating layer norm1
I1110 22:03:32.145876  1583 net.cpp:106] Creating Layer norm1
I1110 22:03:32.145917  1583 net.cpp:454] norm1 <- pool1
I1110 22:03:32.145990  1583 net.cpp:411] norm1 -> norm1
I1110 22:03:32.146163  1583 net.cpp:150] Setting up norm1
I1110 22:03:32.146215  1583 net.cpp:157] Top shape: 1 96 27 27 (69984)
I1110 22:03:32.146239  1583 net.cpp:165] Memory required for data: 2883072
I1110 22:03:32.146270  1583 layer_factory.hpp:76] Creating layer conv2
I1110 22:03:32.146343  1583 net.cpp:106] Creating Layer conv2
I1110 22:03:32.146384  1583 net.cpp:454] conv2 <- norm1
I1110 22:03:32.146458  1583 net.cpp:411] conv2 -> conv2
I1110 22:03:32.152360  1583 net.cpp:150] Setting up conv2
I1110 22:03:32.152405  1583 net.cpp:157] Top shape: 1 256 27 27 (186624)
I1110 22:03:32.152417  1583 net.cpp:165] Memory required for data: 3629568
I1110 22:03:32.152473  1583 layer_factory.hpp:76] Creating layer relu2
I1110 22:03:32.152510  1583 net.cpp:106] Creating Layer relu2
I1110 22:03:32.152529  1583 net.cpp:454] relu2 <- conv2
I1110 22:03:32.152560  1583 net.cpp:397] relu2 -> conv2 (in-place)
I1110 22:03:32.152593  1583 net.cpp:150] Setting up relu2
I1110 22:03:32.152611  1583 net.cpp:157] Top shape: 1 256 27 27 (186624)
I1110 22:03:32.152621  1583 net.cpp:165] Memory required for data: 4376064
I1110 22:03:32.152633  1583 layer_factory.hpp:76] Creating layer pool2
I1110 22:03:32.152662  1583 net.cpp:106] Creating Layer pool2
I1110 22:03:32.152678  1583 net.cpp:454] pool2 <- conv2
I1110 22:03:32.152711  1583 net.cpp:411] pool2 -> pool2
I1110 22:03:32.152806  1583 net.cpp:150] Setting up pool2
I1110 22:03:32.152832  1583 net.cpp:157] Top shape: 1 256 13 13 (43264)
I1110 22:03:32.152843  1583 net.cpp:165] Memory required for data: 4549120
I1110 22:03:32.152858  1583 layer_factory.hpp:76] Creating layer norm2
I1110 22:03:32.152889  1583 net.cpp:106] Creating Layer norm2
I1110 22:03:32.152907  1583 net.cpp:454] norm2 <- pool2
I1110 22:03:32.152941  1583 net.cpp:411] norm2 -> norm2
I1110 22:03:32.153018  1583 net.cpp:150] Setting up norm2
I1110 22:03:32.153044  1583 net.cpp:157] Top shape: 1 256 13 13 (43264)
I1110 22:03:32.153056  1583 net.cpp:165] Memory required for data: 4722176
I1110 22:03:32.153070  1583 layer_factory.hpp:76] Creating layer conv3
I1110 22:03:32.153108  1583 net.cpp:106] Creating Layer conv3
I1110 22:03:32.153127  1583 net.cpp:454] conv3 <- norm2
I1110 22:03:32.153162  1583 net.cpp:411] conv3 -> conv3
I1110 22:03:32.158272  1583 net.cpp:150] Setting up conv3
I1110 22:03:32.158313  1583 net.cpp:157] Top shape: 1 384 13 13 (64896)
I1110 22:03:32.158326  1583 net.cpp:165] Memory required for data: 4981760
I1110 22:03:32.158387  1583 layer_factory.hpp:76] Creating layer relu3
I1110 22:03:32.158427  1583 net.cpp:106] Creating Layer relu3
I1110 22:03:32.158447  1583 net.cpp:454] relu3 <- conv3
I1110 22:03:32.158479  1583 net.cpp:397] relu3 -> conv3 (in-place)
I1110 22:03:32.158512  1583 net.cpp:150] Setting up relu3
I1110 22:03:32.158529  1583 net.cpp:157] Top shape: 1 384 13 13 (64896)
I1110 22:03:32.158540  1583 net.cpp:165] Memory required for data: 5241344
I1110 22:03:32.158553  1583 layer_factory.hpp:76] Creating layer conv4
I1110 22:03:32.158584  1583 net.cpp:106] Creating Layer conv4
I1110 22:03:32.158601  1583 net.cpp:454] conv4 <- conv3
I1110 22:03:32.158634  1583 net.cpp:411] conv4 -> conv4
I1110 22:03:32.166249  1583 net.cpp:150] Setting up conv4
I1110 22:03:32.166298  1583 net.cpp:157] Top shape: 1 384 13 13 (64896)
I1110 22:03:32.166311  1583 net.cpp:165] Memory required for data: 5500928
I1110 22:03:32.166347  1583 layer_factory.hpp:76] Creating layer relu4
I1110 22:03:32.166388  1583 net.cpp:106] Creating Layer relu4
I1110 22:03:32.166409  1583 net.cpp:454] relu4 <- conv4
I1110 22:03:32.166448  1583 net.cpp:397] relu4 -> conv4 (in-place)
I1110 22:03:32.166486  1583 net.cpp:150] Setting up relu4
I1110 22:03:32.166503  1583 net.cpp:157] Top shape: 1 384 13 13 (64896)
I1110 22:03:32.166513  1583 net.cpp:165] Memory required for data: 5760512
I1110 22:03:32.166528  1583 layer_factory.hpp:76] Creating layer conv5
I1110 22:03:32.166560  1583 net.cpp:106] Creating Layer conv5
I1110 22:03:32.166584  1583 net.cpp:454] conv5 <- conv4
I1110 22:03:32.166616  1583 net.cpp:411] conv5 -> conv5
I1110 22:03:32.171849  1583 net.cpp:150] Setting up conv5
I1110 22:03:32.171923  1583 net.cpp:157] Top shape: 1 256 13 13 (43264)
I1110 22:03:32.171936  1583 net.cpp:165] Memory required for data: 5933568
I1110 22:03:32.172015  1583 layer_factory.hpp:76] Creating layer relu5
I1110 22:03:32.172065  1583 net.cpp:106] Creating Layer relu5
I1110 22:03:32.172090  1583 net.cpp:454] relu5 <- conv5
I1110 22:03:32.172127  1583 net.cpp:397] relu5 -> conv5 (in-place)
I1110 22:03:32.172170  1583 net.cpp:150] Setting up relu5
I1110 22:03:32.172188  1583 net.cpp:157] Top shape: 1 256 13 13 (43264)
I1110 22:03:32.172197  1583 net.cpp:165] Memory required for data: 6106624
I1110 22:03:32.172210  1583 layer_factory.hpp:76] Creating layer pool5
I1110 22:03:32.172243  1583 net.cpp:106] Creating Layer pool5
I1110 22:03:32.172260  1583 net.cpp:454] pool5 <- conv5
I1110 22:03:32.172291  1583 net.cpp:411] pool5 -> pool5
I1110 22:03:32.172389  1583 net.cpp:150] Setting up pool5
I1110 22:03:32.172413  1583 net.cpp:157] Top shape: 1 256 6 6 (9216)
I1110 22:03:32.172425  1583 net.cpp:165] Memory required for data: 6143488
I1110 22:03:32.172438  1583 layer_factory.hpp:76] Creating layer fc6
I1110 22:03:32.172469  1583 net.cpp:106] Creating Layer fc6
I1110 22:03:32.172487  1583 net.cpp:454] fc6 <- pool5
I1110 22:03:32.172519  1583 net.cpp:411] fc6 -> fc6
I1110 22:03:32.373992  1583 net.cpp:150] Setting up fc6
I1110 22:03:32.374092  1583 net.cpp:157] Top shape: 1 4096 (4096)
I1110 22:03:32.374104  1583 net.cpp:165] Memory required for data: 6159872
I1110 22:03:32.374151  1583 layer_factory.hpp:76] Creating layer relu6
I1110 22:03:32.374229  1583 net.cpp:106] Creating Layer relu6
I1110 22:03:32.374256  1583 net.cpp:454] relu6 <- fc6
I1110 22:03:32.374302  1583 net.cpp:397] relu6 -> fc6 (in-place)
I1110 22:03:32.374344  1583 net.cpp:150] Setting up relu6
I1110 22:03:32.374361  1583 net.cpp:157] Top shape: 1 4096 (4096)
I1110 22:03:32.374372  1583 net.cpp:165] Memory required for data: 6176256
I1110 22:03:32.374384  1583 layer_factory.hpp:76] Creating layer drop6
I1110 22:03:32.374424  1583 net.cpp:106] Creating Layer drop6
I1110 22:03:32.374441  1583 net.cpp:454] drop6 <- fc6
I1110 22:03:32.374474  1583 net.cpp:397] drop6 -> fc6 (in-place)
I1110 22:03:32.374537  1583 net.cpp:150] Setting up drop6
I1110 22:03:32.374558  1583 net.cpp:157] Top shape: 1 4096 (4096)
I1110 22:03:32.374568  1583 net.cpp:165] Memory required for data: 6192640
I1110 22:03:32.374583  1583 layer_factory.hpp:76] Creating layer fc7
I1110 22:03:32.374614  1583 net.cpp:106] Creating Layer fc7
I1110 22:03:32.374630  1583 net.cpp:454] fc7 <- fc6
I1110 22:03:32.374661  1583 net.cpp:411] fc7 -> fc7
I1110 22:03:32.461261  1583 net.cpp:150] Setting up fc7
I1110 22:03:32.461350  1583 net.cpp:157] Top shape: 1 4096 (4096)
I1110 22:03:32.461362  1583 net.cpp:165] Memory required for data: 6209024
I1110 22:03:32.461410  1583 layer_factory.hpp:76] Creating layer relu7
I1110 22:03:32.461465  1583 net.cpp:106] Creating Layer relu7
I1110 22:03:32.461493  1583 net.cpp:454] relu7 <- fc7
I1110 22:03:32.461539  1583 net.cpp:397] relu7 -> fc7 (in-place)
I1110 22:03:32.461581  1583 net.cpp:150] Setting up relu7
I1110 22:03:32.461597  1583 net.cpp:157] Top shape: 1 4096 (4096)
I1110 22:03:32.461608  1583 net.cpp:165] Memory required for data: 6225408
I1110 22:03:32.461621  1583 layer_factory.hpp:76] Creating layer drop7
I1110 22:03:32.461652  1583 net.cpp:106] Creating Layer drop7
I1110 22:03:32.461675  1583 net.cpp:454] drop7 <- fc7
I1110 22:03:32.461704  1583 net.cpp:397] drop7 -> fc7 (in-place)
I1110 22:03:32.461766  1583 net.cpp:150] Setting up drop7
I1110 22:03:32.461787  1583 net.cpp:157] Top shape: 1 4096 (4096)
I1110 22:03:32.461798  1583 net.cpp:165] Memory required for data: 6241792
I1110 22:03:32.461812  1583 layer_factory.hpp:76] Creating layer fc8
I1110 22:03:32.461846  1583 net.cpp:106] Creating Layer fc8
I1110 22:03:32.461863  1583 net.cpp:454] fc8 <- fc7
I1110 22:03:32.461894  1583 net.cpp:411] fc8 -> fc8
I1110 22:03:32.483327  1583 net.cpp:150] Setting up fc8
I1110 22:03:32.483417  1583 net.cpp:157] Top shape: 1 1000 (1000)
I1110 22:03:32.483430  1583 net.cpp:165] Memory required for data: 6245792
I1110 22:03:32.483475  1583 layer_factory.hpp:76] Creating layer prob
I1110 22:03:32.483537  1583 net.cpp:106] Creating Layer prob
I1110 22:03:32.483564  1583 net.cpp:454] prob <- fc8
I1110 22:03:32.483608  1583 net.cpp:411] prob -> prob
I1110 22:03:32.483736  1583 net.cpp:150] Setting up prob
I1110 22:03:32.483767  1583 net.cpp:157] Top shape: 1 1000 (1000)
I1110 22:03:32.483779  1583 net.cpp:165] Memory required for data: 6249792
I1110 22:03:32.483796  1583 net.cpp:228] prob does not need backward computation.
I1110 22:03:32.483810  1583 net.cpp:228] fc8 does not need backward computation.
I1110 22:03:32.483824  1583 net.cpp:228] drop7 does not need backward computation.
I1110 22:03:32.483835  1583 net.cpp:228] relu7 does not need backward computation.
…
I1110 22:03:35.282940  1583 net.cpp:923] Copying source layer drop6
I1110 22:03:35.282950  1583 net.cpp:923] Copying source layer fc7
I1110 22:03:35.493424  1583 net.cpp:923] Copying source layer relu7
I1110 22:03:35.493481  1583 net.cpp:923] Copying source layer drop7
I1110 22:03:35.493491  1583 net.cpp:923] Copying source layer fc8
I1110 22:03:35.544494  1583 net.cpp:920] Ignoring source layer loss
I1110 22:03:35.575767  1583 net.cpp:49] Initializing net from parameters: 
name: "CaffeNet"
input: "data"
input_dim: 1
input_dim: 3
input_dim: 227
input_dim: 227
force_backward: true
state {
  phase: TEST
}
layer {
  name: "conv1"
  type: "Convolution"
  bottom: "data"
  top: "conv1"
  convolution_param {
    num_output: 96
    kernel_size: 11
    stride: 4
  }
}
layer {
  name: "relu1"
  type: "ReLU"
  bottom: "conv1"
  top: "conv1"
}
layer {
  name: "pool1"
  type: "Pooling"
  bottom: "conv1"
  top: "pool1"
  pooling_param {
    pool: MAX
    kernel_size: 3
    stride: 2
  }
}
layer {
  name: "norm1"
  type: "LRN"
  bottom: "pool1"
  top: "norm1"
  lrn_param {
    local_size: 5
    alpha: 0.0001
    beta: 0.75
  }
}
layer {
  name: "conv2"
  type: "Convolution"
  bottom: "norm1"
  top: "conv2"
  convolution_param {
    num_output: 256
    pad: 2
    kernel_size: 5
  }
}
layer {
  name: "relu2"
  type: "ReLU"
  bottom: "conv2"
  top: "conv2"
}
layer {
  name: "pool2"
  type: "Pooling"
  bottom: "conv2"
  top: "pool2"
  pooling_param {
    pool: MAX
    kernel_size: 3
    stride: 2
  }
}
layer {
  name: "norm2"
  type: "LRN"
  bottom: "pool2"
  top: "norm2"
  lrn_param {
    local_size: 5
    alpha: 0.0001
    beta: 0.75
  }
}
layer {
  name: "conv3"
  type: "Convolution"
  bottom: "norm2"
  top: "conv3"
  convolution_param {
    num_output: 384
    pad: 1
    kernel_size: 3
  }
}
layer {
  name: "relu3"
  type: "ReLU"
  bottom: "conv3"
  top: "conv3"
}
layer {
  name: "conv4"
  type: "Convolution"
  bottom: "conv3"
  top: "conv4"
  convolution_param {
    num_output: 384
    pad: 1
    kernel_size: 3
  }
}
layer {
  name: "relu4"
  type: "ReLU"
  bottom: "conv4"
  top: "conv4"
}
layer {
  name: "conv5"
  type: "Convolution"
  bottom: "conv4"
  top: "conv5"
  convolution_param {
    num_output: 256
    pad: 1
    kernel_size: 3
  }
}
layer {
  name: "relu5"
  type: "ReLU"
  bottom: "conv5"
  top: "conv5"
}
layer {
  name: "pool5"
  type: "Pooling"
  bottom: "conv5"
  top: "pool5"
  pooling_param {
    pool: MAX
    kernel_size: 3
    stride: 2
  }
}
layer {
  name: "fc6"
  type: "InnerProduct"
  bottom: "pool5"
  top: "fc6"
  inner_product_param {
    num_output: 4096
  }
}
layer {
  name: "relu6"
  type: "ReLU"
  bottom: "fc6"
  top: "fc6"
}
layer {
  name: "drop6"
  type: "Dropout"
  bottom: "fc6"
  top: "fc6"
  dropout_param {
    dropout_ratio: 0.5
  }
}
layer {
  name: "fc7"
  type: "InnerProduct"
  bottom: "fc6"
  top: "fc7"
  inner_product_param {
    num_output: 4096
  }
}
layer {
  name: "relu7"
  type: "ReLU"
  bottom: "fc7"
  top: "fc7"
}
layer {
  name: "drop7"
  type: "Dropout"
  bottom: "fc7"
  top: "fc7"
  dropout_param {
    dropout_ratio: 0.5
  }
}
layer {
  name: "fc8"
  type: "InnerProduct"
  bottom: "fc7"
  top: "fc8"
  inner_product_param {
    num_output: 1000
  }
}
layer {
  name: "prob"
  type: "Softmax"
  bottom: "fc8"
  top: "prob"
}
I1110 22:03:35.576040  1583 net.cpp:413] Input 0 -> data
I1110 22:03:35.576256  1583 layer_factory.hpp:76] Creating layer conv1
I1110 22:03:35.576308  1583 net.cpp:106] Creating Layer conv1
I1110 22:03:35.576326  1583 net.cpp:454] conv1 <- data
I1110 22:03:35.576357  1583 net.cpp:411] conv1 -> conv1
I1110 22:03:35.576772  1583 net.cpp:150] Setting up conv1
I1110 22:03:35.576802  1583 net.cpp:157] Top shape: 1 96 55 55 (290400)
I1110 22:03:35.576830  1583 net.cpp:165] Memory required for data: 1161600
I1110 22:03:35.576879  1583 layer_factory.hpp:76] Creating layer relu1
I1110 22:03:35.576910  1583 net.cpp:106] Creating Layer relu1
I1110 22:03:35.576926  1583 net.cpp:454] relu1 <- conv1
I1110 22:03:35.576951  1583 net.cpp:397] relu1 -> conv1 (in-place)
I1110 22:03:35.576977  1583 net.cpp:150] Setting up relu1
I1110 22:03:35.577003  1583 net.cpp:157] Top shape: 1 96 55 55 (290400)
I1110 22:03:35.577016  1583 net.cpp:165] Memory required for data: 2323200
I1110 22:03:35.577028  1583 layer_factory.hpp:76] Creating layer pool1
I1110 22:03:35.577055  1583 net.cpp:106] Creating Layer pool1
I1110 22:03:35.577070  1583 net.cpp:454] pool1 <- conv1
I1110 22:03:35.577097  1583 net.cpp:411] pool1 -> pool1
I1110 22:03:35.577172  1583 net.cpp:150] Setting up pool1
I1110 22:03:35.577195  1583 net.cpp:157] Top shape: 1 96 27 27 (69984)
I1110 22:03:35.577204  1583 net.cpp:165] Memory required for data: 2603136
I1110 22:03:35.577217  1583 layer_factory.hpp:76] Creating layer norm1
I1110 22:03:35.577244  1583 net.cpp:106] Creating Layer norm1
I1110 22:03:35.577257  1583 net.cpp:454] norm1 <- pool1
I1110 22:03:35.577285  1583 net.cpp:411] norm1 -> norm1
I1110 22:03:35.577349  1583 net.cpp:150] Setting up norm1
I1110 22:03:35.577370  1583 net.cpp:157] Top shape: 1 96 27 27 (69984)
I1110 22:03:35.577380  1583 net.cpp:165] Memory required for data: 2883072
I1110 22:03:35.577392  1583 layer_factory.hpp:76] Creating layer conv2
I1110 22:03:35.577419  1583 net.cpp:106] Creating Layer conv2
I1110 22:03:35.577435  1583 net.cpp:454] conv2 <- norm1
I1110 22:03:35.577461  1583 net.cpp:411] conv2 -> conv2
I1110 22:03:35.581284  1583 net.cpp:150] Setting up conv2
I1110 22:03:35.581398  1583 net.cpp:157] Top shape: 1 256 27 27 (186624)
I1110 22:03:35.581408  1583 net.cpp:165] Memory required for data: 3629568
I1110 22:03:35.581487  1583 layer_factory.hpp:76] Creating layer relu2
I1110 22:03:35.581537  1583 net.cpp:106] Creating Layer relu2
I1110 22:03:35.581562  1583 net.cpp:454] relu2 <- conv2
I1110 22:03:35.581594  1583 net.cpp:397] relu2 -> conv2 (in-place)
I1110 22:03:35.581655  1583 net.cpp:150] Setting up relu2
I1110 22:03:35.581670  1583 net.cpp:157] Top shape: 1 256 27 27 (186624)
I1110 22:03:35.581678  1583 net.cpp:165] Memory required for data: 4376064
I1110 22:03:35.581691  1583 layer_factory.hpp:76] Creating layer pool2
I1110 22:03:35.581722  1583 net.cpp:106] Creating Layer pool2
I1110 22:03:35.581744  1583 net.cpp:454] pool2 <- conv2
I1110 22:03:35.581778  1583 net.cpp:411] pool2 -> pool2
I1110 22:03:35.581859  1583 net.cpp:150] Setting up pool2
I1110 22:03:35.581881  1583 net.cpp:157] Top shape: 1 256 13 13 (43264)
I1110 22:03:35.581890  1583 net.cpp:165] Memory required for data: 4549120
I1110 22:03:35.581902  1583 layer_factory.hpp:76] Creating layer norm2
I1110 22:03:35.581934  1583 net.cpp:106] Creating Layer norm2
I1110 22:03:35.581949  1583 net.cpp:454] norm2 <- pool2
I1110 22:03:35.581977  1583 net.cpp:411] norm2 -> norm2
I1110 22:03:35.582044  1583 net.cpp:150] Setting up norm2
I1110 22:03:35.582065  1583 net.cpp:157] Top shape: 1 256 13 13 (43264)
I1110 22:03:35.582075  1583 net.cpp:165] Memory required for data: 4722176
I1110 22:03:35.582087  1583 layer_factory.hpp:76] Creating layer conv3
I1110 22:03:35.582130  1583 net.cpp:106] Creating Layer conv3
I1110 22:03:35.582146  1583 net.cpp:454] conv3 <- norm2
I1110 22:03:35.582175  1583 net.cpp:411] conv3 -> conv3
I1110 22:03:35.587294  1583 net.cpp:150] Setting up conv3
I1110 22:03:35.587402  1583 net.cpp:157] Top shape: 1 384 13 13 (64896)
I1110 22:03:35.587412  1583 net.cpp:165] Memory required for data: 4981760
I1110 22:03:35.587498  1583 layer_factory.hpp:76] Creating layer relu3
I1110 22:03:35.587554  1583 net.cpp:106] Creating Layer relu3
I1110 22:03:35.587579  1583 net.cpp:454] relu3 <- conv3
I1110 22:03:35.587613  1583 net.cpp:397] relu3 -> conv3 (in-place)
I1110 22:03:35.587651  1583 net.cpp:150] Setting up relu3
I1110 22:03:35.587666  1583 net.cpp:157] Top shape: 1 384 13 13 (64896)
I1110 22:03:35.587676  1583 net.cpp:165] Memory required for data: 5241344
I1110 22:03:35.587687  1583 layer_factory.hpp:76] Creating layer conv4
I1110 22:03:35.587723  1583 net.cpp:106] Creating Layer conv4
I1110 22:03:35.587738  1583 net.cpp:454] conv4 <- conv3
I1110 22:03:35.587769  1583 net.cpp:411] conv4 -> conv4
I1110 22:03:35.595082  1583 net.cpp:150] Setting up conv4
I1110 22:03:35.595203  1583 net.cpp:157] Top shape: 1 384 13 13 (64896)
I1110 22:03:35.595214  1583 net.cpp:165] Memory required for data: 5500928
I1110 22:03:35.595257  1583 layer_factory.hpp:76] Creating layer relu4
I1110 22:03:35.595311  1583 net.cpp:106] Creating Layer relu4
I1110 22:03:35.595336  1583 net.cpp:454] relu4 <- conv4
I1110 22:03:35.595379  1583 net.cpp:397] relu4 -> conv4 (in-place)
I1110 22:03:35.595418  1583 net.cpp:150] Setting up relu4
I1110 22:03:35.595433  1583 net.cpp:157] Top shape: 1 384 13 13 (64896)
I1110 22:03:35.595443  1583 net.cpp:165] Memory required for data: 5760512
I1110 22:03:35.595453  1583 layer_factory.hpp:76] Creating layer conv5
I1110 22:03:35.595491  1583 net.cpp:106] Creating Layer conv5
I1110 22:03:35.595506  1583 net.cpp:454] conv5 <- conv4
I1110 22:03:35.595537  1583 net.cpp:411] conv5 -> conv5
I1110 22:03:35.600204  1583 net.cpp:150] Setting up conv5
I1110 22:03:35.600249  1583 net.cpp:157] Top shape: 1 256 13 13 (43264)
I1110 22:03:35.600258  1583 net.cpp:165] Memory required for data: 5933568
I1110 22:03:35.600314  1583 layer_factory.hpp:76] Creating layer relu5
I1110 22:03:35.600345  1583 net.cpp:106] Creating Layer relu5
I1110 22:03:35.600363  1583 net.cpp:454] relu5 <- conv5
I1110 22:03:35.600390  1583 net.cpp:397] relu5 -> conv5 (in-place)
I1110 22:03:35.600420  1583 net.cpp:150] Setting up relu5
I1110 22:03:35.600435  1583 net.cpp:157] Top shape: 1 256 13 13 (43264)
I1110 22:03:35.600443  1583 net.cpp:165] Memory required for data: 6106624
I1110 22:03:35.600455  1583 layer_factory.hpp:76] Creating layer pool5
I1110 22:03:35.600487  1583 net.cpp:106] Creating Layer pool5
I1110 22:03:35.600502  1583 net.cpp:454] pool5 <- conv5
I1110 22:03:35.600529  1583 net.cpp:411] pool5 -> pool5
I1110 22:03:35.600610  1583 net.cpp:150] Setting up pool5
I1110 22:03:35.600631  1583 net.cpp:157] Top shape: 1 256 6 6 (9216)
I1110 22:03:35.600641  1583 net.cpp:165] Memory required for data: 6143488
I1110 22:03:35.600653  1583 layer_factory.hpp:76] Creating layer fc6
I1110 22:03:35.600680  1583 net.cpp:106] Creating Layer fc6
I1110 22:03:35.600695  1583 net.cpp:454] fc6 <- pool5
I1110 22:03:35.600723  1583 net.cpp:411] fc6 -> fc6
I1110 22:03:35.781419  1583 net.cpp:150] Setting up fc6
I1110 22:03:35.781492  1583 net.cpp:157] Top shape: 1 4096 (4096)
I1110 22:03:35.781503  1583 net.cpp:165] Memory required for data: 6159872
I1110 22:03:35.781544  1583 layer_factory.hpp:76] Creating layer relu6
I1110 22:03:35.781610  1583 net.cpp:106] Creating Layer relu6
I1110 22:03:35.781635  1583 net.cpp:454] relu6 <- fc6
I1110 22:03:35.781674  1583 net.cpp:397] relu6 -> fc6 (in-place)
I1110 22:03:35.781711  1583 net.cpp:150] Setting up relu6
I1110 22:03:35.781726  1583 net.cpp:157] Top shape: 1 4096 (4096)
I1110 22:03:35.781735  1583 net.cpp:165] Memory required for data: 6176256
I1110 22:03:35.781746  1583 layer_factory.hpp:76] Creating layer drop6
I1110 22:03:35.781780  1583 net.cpp:106] Creating Layer drop6
I1110 22:03:35.781796  1583 net.cpp:454] drop6 <- fc6
I1110 22:03:35.781821  1583 net.cpp:397] drop6 -> fc6 (in-place)
I1110 22:03:35.781873  1583 net.cpp:150] Setting up drop6
I1110 22:03:35.781891  1583 net.cpp:157] Top shape: 1 4096 (4096)
I1110 22:03:35.781900  1583 net.cpp:165] Memory required for data: 6192640
I1110 22:03:35.781913  1583 layer_factory.hpp:76] Creating layer fc7
I1110 22:03:35.781942  1583 net.cpp:106] Creating Layer fc7
I1110 22:03:35.781957  1583 net.cpp:454] fc7 <- fc6
I1110 22:03:35.781985  1583 net.cpp:411] fc7 -> fc7
I1110 22:03:35.858410  1583 net.cpp:150] Setting up fc7
I1110 22:03:35.858500  1583 net.cpp:157] Top shape: 1 4096 (4096)
I1110 22:03:35.858511  1583 net.cpp:165] Memory required for data: 6209024
I1110 22:03:35.858552  1583 layer_factory.hpp:76] Creating layer relu7
I1110 22:03:35.858603  1583 net.cpp:106] Creating Layer relu7
I1110 22:03:35.858626  1583 net.cpp:454] relu7 <- fc7
I1110 22:03:35.858666  1583 net.cpp:397] relu7 -> fc7 (in-place)
I1110 22:03:35.858703  1583 net.cpp:150] Setting up relu7
I1110 22:03:35.858718  1583 net.cpp:157] Top shape: 1 4096 (4096)
I1110 22:03:35.858727  1583 net.cpp:165] Memory required for data: 6225408
I1110 22:03:35.858738  1583 layer_factory.hpp:76] Creating layer drop7
I1110 22:03:35.858767  1583 net.cpp:106] Creating Layer drop7
I1110 22:03:35.858783  1583 net.cpp:454] drop7 <- fc7
I1110 22:03:35.858810  1583 net.cpp:397] drop7 -> fc7 (in-place)
I1110 22:03:35.858870  1583 net.cpp:150] Setting up drop7
I1110 22:03:35.858887  1583 net.cpp:157] Top shape: 1 4096 (4096)
I1110 22:03:35.858896  1583 net.cpp:165] Memory required for data: 6241792
I1110 22:03:35.858908  1583 layer_factory.hpp:76] Creating layer fc8
I1110 22:03:35.858935  1583 net.cpp:106] Creating Layer fc8
I1110 22:03:35.858950  1583 net.cpp:454] fc8 <- fc7
I1110 22:03:35.858976  1583 net.cpp:411] fc8 -> fc8
I1110 22:03:35.877912  1583 net.cpp:150] Setting up fc8
I1110 22:03:35.877980  1583 net.cpp:157] Top shape: 1 1000 (1000)
I1110 22:03:35.877991  1583 net.cpp:165] Memory required for data: 6245792
I1110 22:03:35.878032  1583 layer_factory.hpp:76] Creating layer prob
I1110 22:03:35.878085  1583 net.cpp:106] Creating Layer prob
I1110 22:03:35.878109  1583 net.cpp:454] prob <- fc8
I1110 22:03:35.878151  1583 net.cpp:411] prob -> prob
I1110 22:03:35.878270  1583 net.cpp:150] Setting up prob
I1110 22:03:35.878291  1583 net.cpp:157] Top shape: 1 1000 (1000)
I1110 22:03:35.878301  1583 net.cpp:165] Memory required for data: 6249792
I1110 22:03:35.878316  1583 net.cpp:228] prob does not need backward computation.
I1110 22:03:35.878329  1583 net.cpp:228] fc8 does not need backward computation.
I1110 22:03:35.878340  1583 net.cpp:228] drop7 does not need backward computation.
I1110 22:03:35.878350  1583 net.cpp:228] relu7 does not need backward computation.
…
