…
gamma: 0.5
momentum: 0.98
weight_decay: 1e-05
stepsize: 1500
snapshot: 1000
snapshot_prefix: "stitch"
solver_mode: GPU
random_seed: 0
net: "network.prototxt"
regularization_type: "L1"
I1110 22:09:08.115483  2809 solver.cpp:90] Creating training net from net file: network.prototxt
I1110 22:09:08.135432  2809 net.cpp:49] Initializing net from parameters: 
name: "StitchNet"
input: "net0"
input: "net1"
input_dim: 32
input_dim: 256
input_dim: 27
input_dim: 27
input_dim: 32
input_dim: 256
input_dim: 27
input_dim: 27
state {
  phase: TRAIN
}
debug_info: true
layer {
  name: "stitch0"
  type: "Convolution"
  bottom: "net0"
  top: "stitch0"
  convolution_param {
    num_output: 256
    kernel_size: 1
    stride: 1
    weight_filler {
      type: "gaussian"
      std: 0.01
    }
  }
}
layer {
  name: "loss"
  type: "EuclideanLoss"
  bottom: "stitch0"
  bottom: "net1"
  top: "loss"
  loss_weight: 1
}
I1110 22:09:08.135601  2809 net.cpp:413] Input 0 -> net0
I1110 22:09:08.175315  2809 net.cpp:413] Input 1 -> net1
I1110 22:09:08.175515  2809 layer_factory.hpp:76] Creating layer stitch0
I1110 22:09:08.175606  2809 net.cpp:106] Creating Layer stitch0
I1110 22:09:08.175631  2809 net.cpp:454] stitch0 <- net0
I1110 22:09:08.175671  2809 net.cpp:411] stitch0 -> stitch0
I1110 22:09:08.184413  2809 net.cpp:150] Setting up stitch0
I1110 22:09:08.184494  2809 net.cpp:157] Top shape: 32 256 27 27 (5971968)
I1110 22:09:08.184507  2809 net.cpp:165] Memory required for data: 23887872
I1110 22:09:08.184594  2809 layer_factory.hpp:76] Creating layer loss
I1110 22:09:08.184655  2809 net.cpp:106] Creating Layer loss
I1110 22:09:08.184681  2809 net.cpp:454] loss <- stitch0
I1110 22:09:08.184710  2809 net.cpp:454] loss <- net1
I1110 22:09:08.184741  2809 net.cpp:411] loss -> loss
I1110 22:09:08.184837  2809 net.cpp:150] Setting up loss
I1110 22:09:08.184864  2809 net.cpp:157] Top shape: (1)
I1110 22:09:08.184875  2809 net.cpp:160]     with loss weight 1
I1110 22:09:08.184897  2809 net.cpp:165] Memory required for data: 23887876
I1110 22:09:08.184916  2809 net.cpp:226] loss needs backward computation.
I1110 22:09:08.184933  2809 net.cpp:226] stitch0 needs backward computation.
I1110 22:09:08.184947  2809 net.cpp:270] This network produces output loss
I1110 22:09:08.184975  2809 net.cpp:283] Network initialization done.
I1110 22:09:08.185034  2809 solver.cpp:59] Solver scaffolding done.
I1110 22:09:08.319183  2809 net.cpp:49] Initializing net from parameters: 
name: "CaffeNet"
input: "data"
input_dim: 1
input_dim: 3
input_dim: 227
input_dim: 227
force_backward: true
state {
  phase: TEST
}
layer {
  name: "conv1"
  type: "Convolution"
  bottom: "data"
  top: "conv1"
  convolution_param {
    num_output: 96
    kernel_size: 11
    stride: 4
  }
}
layer {
  name: "relu1"
  type: "ReLU"
  bottom: "conv1"
  top: "conv1"
}
layer {
  name: "pool1"
  type: "Pooling"
  bottom: "conv1"
  top: "pool1"
  pooling_param {
    pool: MAX
    kernel_size: 3
    stride: 2
  }
}
layer {
  name: "norm1"
  type: "LRN"
  bottom: "pool1"
  top: "norm1"
  lrn_param {
    local_size: 5
    alpha: 0.0001
    beta: 0.75
  }
}
layer {
  name: "conv2"
  type: "Convolution"
  bottom: "norm1"
  top: "conv2"
  convolution_param {
    num_output: 256
    pad: 2
    kernel_size: 5
  }
}
layer {
  name: "relu2"
  type: "ReLU"
  bottom: "conv2"
  top: "conv2"
}
layer {
  name: "pool2"
  type: "Pooling"
  bottom: "conv2"
  top: "pool2"
  pooling_param {
    pool: MAX
    kernel_size: 3
    stride: 2
  }
}
layer {
  name: "norm2"
  type: "LRN"
  bottom: "pool2"
  top: "norm2"
  lrn_param {
    local_size: 5
    alpha: 0.0001
    beta: 0.75
  }
}
layer {
  name: "conv3"
  type: "Convolution"
  bottom: "norm2"
  top: "conv3"
  convolution_param {
    num_output: 384
    pad: 1
    kernel_size: 3
  }
}
layer {
  name: "relu3"
  type: "ReLU"
  bottom: "conv3"
  top: "conv3"
}
layer {
  name: "conv4"
  type: "Convolution"
  bottom: "conv3"
  top: "conv4"
  convolution_param {
    num_output: 384
    pad: 1
    kernel_size: 3
  }
}
layer {
  name: "relu4"
  type: "ReLU"
  bottom: "conv4"
  top: "conv4"
}
layer {
  name: "conv5"
  type: "Convolution"
  bottom: "conv4"
  top: "conv5"
  convolution_param {
    num_output: 256
    pad: 1
    kernel_size: 3
  }
}
layer {
  name: "relu5"
  type: "ReLU"
  bottom: "conv5"
  top: "conv5"
}
layer {
  name: "pool5"
  type: "Pooling"
  bottom: "conv5"
  top: "pool5"
  pooling_param {
    pool: MAX
    kernel_size: 3
    stride: 2
  }
}
layer {
  name: "fc6"
  type: "InnerProduct"
  bottom: "pool5"
  top: "fc6"
  inner_product_param {
    num_output: 4096
  }
}
layer {
  name: "relu6"
  type: "ReLU"
  bottom: "fc6"
  top: "fc6"
}
layer {
  name: "drop6"
  type: "Dropout"
  bottom: "fc6"
  top: "fc6"
  dropout_param {
    dropout_ratio: 0.5
  }
}
layer {
  name: "fc7"
  type: "InnerProduct"
  bottom: "fc6"
  top: "fc7"
  inner_product_param {
    num_output: 4096
  }
}
layer {
  name: "relu7"
  type: "ReLU"
  bottom: "fc7"
  top: "fc7"
}
layer {
  name: "drop7"
  type: "Dropout"
  bottom: "fc7"
  top: "fc7"
  dropout_param {
    dropout_ratio: 0.5
  }
}
layer {
  name: "fc8"
  type: "InnerProduct"
  bottom: "fc7"
  top: "fc8"
  inner_product_param {
    num_output: 1000
  }
}
layer {
  name: "prob"
  type: "Softmax"
  bottom: "fc8"
  top: "prob"
}
I1110 22:09:08.319514  2809 net.cpp:413] Input 0 -> data
I1110 22:09:08.319716  2809 layer_factory.hpp:76] Creating layer conv1
I1110 22:09:08.319970  2809 net.cpp:106] Creating Layer conv1
I1110 22:09:08.320029  2809 net.cpp:454] conv1 <- data
I1110 22:09:08.320122  2809 net.cpp:411] conv1 -> conv1
I1110 22:09:08.322091  2809 net.cpp:150] Setting up conv1
I1110 22:09:08.322134  2809 net.cpp:157] Top shape: 1 96 55 55 (290400)
I1110 22:09:08.322146  2809 net.cpp:165] Memory required for data: 1161600
I1110 22:09:08.322213  2809 layer_factory.hpp:76] Creating layer relu1
I1110 22:09:08.322264  2809 net.cpp:106] Creating Layer relu1
I1110 22:09:08.322285  2809 net.cpp:454] relu1 <- conv1
I1110 22:09:08.322316  2809 net.cpp:397] relu1 -> conv1 (in-place)
I1110 22:09:08.322353  2809 net.cpp:150] Setting up relu1
I1110 22:09:08.322371  2809 net.cpp:157] Top shape: 1 96 55 55 (290400)
I1110 22:09:08.322382  2809 net.cpp:165] Memory required for data: 2323200
I1110 22:09:08.322396  2809 layer_factory.hpp:76] Creating layer pool1
I1110 22:09:08.322428  2809 net.cpp:106] Creating Layer pool1
I1110 22:09:08.322445  2809 net.cpp:454] pool1 <- conv1
I1110 22:09:08.322476  2809 net.cpp:411] pool1 -> pool1
I1110 22:09:08.322584  2809 net.cpp:150] Setting up pool1
I1110 22:09:08.322610  2809 net.cpp:157] Top shape: 1 96 27 27 (69984)
I1110 22:09:08.322623  2809 net.cpp:165] Memory required for data: 2603136
I1110 22:09:08.322638  2809 layer_factory.hpp:76] Creating layer norm1
I1110 22:09:08.322670  2809 net.cpp:106] Creating Layer norm1
I1110 22:09:08.322690  2809 net.cpp:454] norm1 <- pool1
I1110 22:09:08.322721  2809 net.cpp:411] norm1 -> norm1
I1110 22:09:08.322803  2809 net.cpp:150] Setting up norm1
I1110 22:09:08.322827  2809 net.cpp:157] Top shape: 1 96 27 27 (69984)
I1110 22:09:08.322839  2809 net.cpp:165] Memory required for data: 2883072
I1110 22:09:08.322852  2809 layer_factory.hpp:76] Creating layer conv2
I1110 22:09:08.322890  2809 net.cpp:106] Creating Layer conv2
I1110 22:09:08.322908  2809 net.cpp:454] conv2 <- norm1
I1110 22:09:08.322940  2809 net.cpp:411] conv2 -> conv2
I1110 22:09:08.327110  2809 net.cpp:150] Setting up conv2
I1110 22:09:08.327155  2809 net.cpp:157] Top shape: 1 256 27 27 (186624)
I1110 22:09:08.327168  2809 net.cpp:165] Memory required for data: 3629568
I1110 22:09:08.327229  2809 layer_factory.hpp:76] Creating layer relu2
I1110 22:09:08.327272  2809 net.cpp:106] Creating Layer relu2
I1110 22:09:08.327296  2809 net.cpp:454] relu2 <- conv2
I1110 22:09:08.327328  2809 net.cpp:397] relu2 -> conv2 (in-place)
I1110 22:09:08.327363  2809 net.cpp:150] Setting up relu2
I1110 22:09:08.327381  2809 net.cpp:157] Top shape: 1 256 27 27 (186624)
I1110 22:09:08.327391  2809 net.cpp:165] Memory required for data: 4376064
I1110 22:09:08.327404  2809 layer_factory.hpp:76] Creating layer pool2
I1110 22:09:08.327435  2809 net.cpp:106] Creating Layer pool2
I1110 22:09:08.327451  2809 net.cpp:454] pool2 <- conv2
I1110 22:09:08.327491  2809 net.cpp:411] pool2 -> pool2
I1110 22:09:08.327580  2809 net.cpp:150] Setting up pool2
I1110 22:09:08.327608  2809 net.cpp:157] Top shape: 1 256 13 13 (43264)
I1110 22:09:08.327621  2809 net.cpp:165] Memory required for data: 4549120
I1110 22:09:08.327636  2809 layer_factory.hpp:76] Creating layer norm2
I1110 22:09:08.327667  2809 net.cpp:106] Creating Layer norm2
I1110 22:09:08.327684  2809 net.cpp:454] norm2 <- pool2
I1110 22:09:08.327719  2809 net.cpp:411] norm2 -> norm2
I1110 22:09:08.327797  2809 net.cpp:150] Setting up norm2
I1110 22:09:08.327821  2809 net.cpp:157] Top shape: 1 256 13 13 (43264)
I1110 22:09:08.327832  2809 net.cpp:165] Memory required for data: 4722176
I1110 22:09:08.327847  2809 layer_factory.hpp:76] Creating layer conv3
I1110 22:09:08.327889  2809 net.cpp:106] Creating Layer conv3
I1110 22:09:08.327908  2809 net.cpp:454] conv3 <- norm2
I1110 22:09:08.327944  2809 net.cpp:411] conv3 -> conv3
I1110 22:09:08.333897  2809 net.cpp:150] Setting up conv3
I1110 22:09:08.333945  2809 net.cpp:157] Top shape: 1 384 13 13 (64896)
I1110 22:09:08.333957  2809 net.cpp:165] Memory required for data: 4981760
I1110 22:09:08.334022  2809 layer_factory.hpp:76] Creating layer relu3
I1110 22:09:08.334065  2809 net.cpp:106] Creating Layer relu3
I1110 22:09:08.334087  2809 net.cpp:454] relu3 <- conv3
I1110 22:09:08.334125  2809 net.cpp:397] relu3 -> conv3 (in-place)
I1110 22:09:08.334162  2809 net.cpp:150] Setting up relu3
I1110 22:09:08.334180  2809 net.cpp:157] Top shape: 1 384 13 13 (64896)
I1110 22:09:08.334190  2809 net.cpp:165] Memory required for data: 5241344
I1110 22:09:08.334203  2809 layer_factory.hpp:76] Creating layer conv4
I1110 22:09:08.334236  2809 net.cpp:106] Creating Layer conv4
I1110 22:09:08.334254  2809 net.cpp:454] conv4 <- conv3
I1110 22:09:08.334288  2809 net.cpp:411] conv4 -> conv4
I1110 22:09:08.342330  2809 net.cpp:150] Setting up conv4
I1110 22:09:08.342382  2809 net.cpp:157] Top shape: 1 384 13 13 (64896)
I1110 22:09:08.342396  2809 net.cpp:165] Memory required for data: 5500928
I1110 22:09:08.342447  2809 layer_factory.hpp:76] Creating layer relu4
I1110 22:09:08.342494  2809 net.cpp:106] Creating Layer relu4
I1110 22:09:08.342517  2809 net.cpp:454] relu4 <- conv4
I1110 22:09:08.342555  2809 net.cpp:397] relu4 -> conv4 (in-place)
I1110 22:09:08.342592  2809 net.cpp:150] Setting up relu4
I1110 22:09:08.342610  2809 net.cpp:157] Top shape: 1 384 13 13 (64896)
I1110 22:09:08.342620  2809 net.cpp:165] Memory required for data: 5760512
I1110 22:09:08.342633  2809 layer_factory.hpp:76] Creating layer conv5
I1110 22:09:08.342669  2809 net.cpp:106] Creating Layer conv5
I1110 22:09:08.342687  2809 net.cpp:454] conv5 <- conv4
I1110 22:09:08.342720  2809 net.cpp:411] conv5 -> conv5
I1110 22:09:08.348156  2809 net.cpp:150] Setting up conv5
I1110 22:09:08.348201  2809 net.cpp:157] Top shape: 1 256 13 13 (43264)
I1110 22:09:08.348213  2809 net.cpp:165] Memory required for data: 5933568
I1110 22:09:08.348276  2809 layer_factory.hpp:76] Creating layer relu5
I1110 22:09:08.348317  2809 net.cpp:106] Creating Layer relu5
I1110 22:09:08.348340  2809 net.cpp:454] relu5 <- conv5
I1110 22:09:08.348372  2809 net.cpp:397] relu5 -> conv5 (in-place)
I1110 22:09:08.348408  2809 net.cpp:150] Setting up relu5
I1110 22:09:08.348426  2809 net.cpp:157] Top shape: 1 256 13 13 (43264)
I1110 22:09:08.348436  2809 net.cpp:165] Memory required for data: 6106624
I1110 22:09:08.348449  2809 layer_factory.hpp:76] Creating layer pool5
I1110 22:09:08.348489  2809 net.cpp:106] Creating Layer pool5
I1110 22:09:08.348508  2809 net.cpp:454] pool5 <- conv5
I1110 22:09:08.348542  2809 net.cpp:411] pool5 -> pool5
I1110 22:09:08.348636  2809 net.cpp:150] Setting up pool5
I1110 22:09:08.348662  2809 net.cpp:157] Top shape: 1 256 6 6 (9216)
I1110 22:09:08.348673  2809 net.cpp:165] Memory required for data: 6143488
I1110 22:09:08.348687  2809 layer_factory.hpp:76] Creating layer fc6
I1110 22:09:08.348716  2809 net.cpp:106] Creating Layer fc6
I1110 22:09:08.348734  2809 net.cpp:454] fc6 <- pool5
I1110 22:09:08.348768  2809 net.cpp:411] fc6 -> fc6
I1110 22:09:08.563452  2809 net.cpp:150] Setting up fc6
I1110 22:09:08.563556  2809 net.cpp:157] Top shape: 1 4096 (4096)
I1110 22:09:08.563570  2809 net.cpp:165] Memory required for data: 6159872
I1110 22:09:08.563624  2809 layer_factory.hpp:76] Creating layer relu6
I1110 22:09:08.563724  2809 net.cpp:106] Creating Layer relu6
I1110 22:09:08.563755  2809 net.cpp:454] relu6 <- fc6
I1110 22:09:08.563807  2809 net.cpp:397] relu6 -> fc6 (in-place)
I1110 22:09:08.563853  2809 net.cpp:150] Setting up relu6
I1110 22:09:08.563871  2809 net.cpp:157] Top shape: 1 4096 (4096)
I1110 22:09:08.563881  2809 net.cpp:165] Memory required for data: 6176256
I1110 22:09:08.563894  2809 layer_factory.hpp:76] Creating layer drop6
I1110 22:09:08.563937  2809 net.cpp:106] Creating Layer drop6
I1110 22:09:08.563954  2809 net.cpp:454] drop6 <- fc6
I1110 22:09:08.563987  2809 net.cpp:397] drop6 -> fc6 (in-place)
I1110 22:09:08.564054  2809 net.cpp:150] Setting up drop6
I1110 22:09:08.564075  2809 net.cpp:157] Top shape: 1 4096 (4096)
I1110 22:09:08.564086  2809 net.cpp:165] Memory required for data: 6192640
I1110 22:09:08.564100  2809 layer_factory.hpp:76] Creating layer fc7
I1110 22:09:08.564139  2809 net.cpp:106] Creating Layer fc7
I1110 22:09:08.564157  2809 net.cpp:454] fc7 <- fc6
I1110 22:09:08.564190  2809 net.cpp:411] fc7 -> fc7
I1110 22:09:08.653192  2809 net.cpp:150] Setting up fc7
I1110 22:09:08.653246  2809 net.cpp:157] Top shape: 1 4096 (4096)
I1110 22:09:08.653259  2809 net.cpp:165] Memory required for data: 6209024
I1110 22:09:08.653300  2809 layer_factory.hpp:76] Creating layer relu7
I1110 22:09:08.653345  2809 net.cpp:106] Creating Layer relu7
I1110 22:09:08.653369  2809 net.cpp:454] relu7 <- fc7
I1110 22:09:08.653409  2809 net.cpp:397] relu7 -> fc7 (in-place)
I1110 22:09:08.653445  2809 net.cpp:150] Setting up relu7
I1110 22:09:08.653462  2809 net.cpp:157] Top shape: 1 4096 (4096)
I1110 22:09:08.653473  2809 net.cpp:165] Memory required for data: 6225408
I1110 22:09:08.653486  2809 layer_factory.hpp:76] Creating layer drop7
I1110 22:09:08.653519  2809 net.cpp:106] Creating Layer drop7
I1110 22:09:08.653537  2809 net.cpp:454] drop7 <- fc7
I1110 22:09:08.653570  2809 net.cpp:397] drop7 -> fc7 (in-place)
I1110 22:09:08.653631  2809 net.cpp:150] Setting up drop7
I1110 22:09:08.653656  2809 net.cpp:157] Top shape: 1 4096 (4096)
I1110 22:09:08.653666  2809 net.cpp:165] Memory required for data: 6241792
I1110 22:09:08.653681  2809 layer_factory.hpp:76] Creating layer fc8
I1110 22:09:08.653710  2809 net.cpp:106] Creating Layer fc8
I1110 22:09:08.653728  2809 net.cpp:454] fc8 <- fc7
I1110 22:09:08.653759  2809 net.cpp:411] fc8 -> fc8
I1110 22:09:08.675540  2809 net.cpp:150] Setting up fc8
I1110 22:09:08.675595  2809 net.cpp:157] Top shape: 1 1000 (1000)
I1110 22:09:08.675606  2809 net.cpp:165] Memory required for data: 6245792
I1110 22:09:08.675647  2809 layer_factory.hpp:76] Creating layer prob
I1110 22:09:08.675705  2809 net.cpp:106] Creating Layer prob
I1110 22:09:08.675730  2809 net.cpp:454] prob <- fc8
I1110 22:09:08.675772  2809 net.cpp:411] prob -> prob
I1110 22:09:08.675899  2809 net.cpp:150] Setting up prob
I1110 22:09:08.675923  2809 net.cpp:157] Top shape: 1 1000 (1000)
I1110 22:09:08.675935  2809 net.cpp:165] Memory required for data: 6249792
I1110 22:09:08.675951  2809 net.cpp:228] prob does not need backward computation.
I1110 22:09:08.675966  2809 net.cpp:228] fc8 does not need backward computation.
I1110 22:09:08.675979  2809 net.cpp:228] drop7 does not need backward computation.
I1110 22:09:08.675992  2809 net.cpp:228] relu7 does not need backward computation.
…
I1110 22:09:11.445513  2809 net.cpp:923] Copying source layer drop6
I1110 22:09:11.445524  2809 net.cpp:923] Copying source layer fc7
I1110 22:09:11.653422  2809 net.cpp:923] Copying source layer relu7
I1110 22:09:11.653460  2809 net.cpp:923] Copying source layer drop7
I1110 22:09:11.653470  2809 net.cpp:923] Copying source layer fc8
I1110 22:09:11.704177  2809 net.cpp:920] Ignoring source layer loss
I1110 22:09:11.780668  2809 net.cpp:49] Initializing net from parameters: 
name: "CaffeNet"
input: "data"
input_dim: 1
input_dim: 3
input_dim: 227
input_dim: 227
force_backward: true
state {
  phase: TEST
}
layer {
  name: "conv1"
  type: "Convolution"
  bottom: "data"
  top: "conv1"
  convolution_param {
    num_output: 96
    kernel_size: 11
    stride: 4
  }
}
layer {
  name: "relu1"
  type: "ReLU"
  bottom: "conv1"
  top: "conv1"
}
layer {
  name: "pool1"
  type: "Pooling"
  bottom: "conv1"
  top: "pool1"
  pooling_param {
    pool: MAX
    kernel_size: 3
    stride: 2
  }
}
layer {
  name: "norm1"
  type: "LRN"
  bottom: "pool1"
  top: "norm1"
  lrn_param {
    local_size: 5
    alpha: 0.0001
    beta: 0.75
  }
}
layer {
  name: "conv2"
  type: "Convolution"
  bottom: "norm1"
  top: "conv2"
  convolution_param {
    num_output: 256
    pad: 2
    kernel_size: 5
  }
}
layer {
  name: "relu2"
  type: "ReLU"
  bottom: "conv2"
  top: "conv2"
}
layer {
  name: "pool2"
  type: "Pooling"
  bottom: "conv2"
  top: "pool2"
  pooling_param {
    pool: MAX
    kernel_size: 3
    stride: 2
  }
}
layer {
  name: "norm2"
  type: "LRN"
  bottom: "pool2"
  top: "norm2"
  lrn_param {
    local_size: 5
    alpha: 0.0001
    beta: 0.75
  }
}
layer {
  name: "conv3"
  type: "Convolution"
  bottom: "norm2"
  top: "conv3"
  convolution_param {
    num_output: 384
    pad: 1
    kernel_size: 3
  }
}
layer {
  name: "relu3"
  type: "ReLU"
  bottom: "conv3"
  top: "conv3"
}
layer {
  name: "conv4"
  type: "Convolution"
  bottom: "conv3"
  top: "conv4"
  convolution_param {
    num_output: 384
    pad: 1
    kernel_size: 3
  }
}
layer {
  name: "relu4"
  type: "ReLU"
  bottom: "conv4"
  top: "conv4"
}
layer {
  name: "conv5"
  type: "Convolution"
  bottom: "conv4"
  top: "conv5"
  convolution_param {
    num_output: 256
    pad: 1
    kernel_size: 3
  }
}
layer {
  name: "relu5"
  type: "ReLU"
  bottom: "conv5"
  top: "conv5"
}
layer {
  name: "pool5"
  type: "Pooling"
  bottom: "conv5"
  top: "pool5"
  pooling_param {
    pool: MAX
    kernel_size: 3
    stride: 2
  }
}
layer {
  name: "fc6"
  type: "InnerProduct"
  bottom: "pool5"
  top: "fc6"
  inner_product_param {
    num_output: 4096
  }
}
layer {
  name: "relu6"
  type: "ReLU"
  bottom: "fc6"
  top: "fc6"
}
layer {
  name: "drop6"
  type: "Dropout"
  bottom: "fc6"
  top: "fc6"
  dropout_param {
    dropout_ratio: 0.5
  }
}
layer {
  name: "fc7"
  type: "InnerProduct"
  bottom: "fc6"
  top: "fc7"
  inner_product_param {
    num_output: 4096
  }
}
layer {
  name: "relu7"
  type: "ReLU"
  bottom: "fc7"
  top: "fc7"
}
layer {
  name: "drop7"
  type: "Dropout"
  bottom: "fc7"
  top: "fc7"
  dropout_param {
    dropout_ratio: 0.5
  }
}
layer {
  name: "fc8"
  type: "InnerProduct"
  bottom: "fc7"
  top: "fc8"
  inner_product_param {
    num_output: 1000
  }
}
layer {
  name: "prob"
  type: "Softmax"
  bottom: "fc8"
  top: "prob"
}
I1110 22:09:11.780954  2809 net.cpp:413] Input 0 -> data
I1110 22:09:11.781152  2809 layer_factory.hpp:76] Creating layer conv1
I1110 22:09:11.781219  2809 net.cpp:106] Creating Layer conv1
I1110 22:09:11.781244  2809 net.cpp:454] conv1 <- data
I1110 22:09:11.781275  2809 net.cpp:411] conv1 -> conv1
I1110 22:09:11.781692  2809 net.cpp:150] Setting up conv1
I1110 22:09:11.781728  2809 net.cpp:157] Top shape: 1 96 55 55 (290400)
I1110 22:09:11.781738  2809 net.cpp:165] Memory required for data: 1161600
I1110 22:09:11.781790  2809 layer_factory.hpp:76] Creating layer relu1
I1110 22:09:11.781821  2809 net.cpp:106] Creating Layer relu1
I1110 22:09:11.781836  2809 net.cpp:454] relu1 <- conv1
I1110 22:09:11.781862  2809 net.cpp:397] relu1 -> conv1 (in-place)
I1110 22:09:11.781889  2809 net.cpp:150] Setting up relu1
I1110 22:09:11.781913  2809 net.cpp:157] Top shape: 1 96 55 55 (290400)
I1110 22:09:11.781922  2809 net.cpp:165] Memory required for data: 2323200
I1110 22:09:11.781934  2809 layer_factory.hpp:76] Creating layer pool1
I1110 22:09:11.781971  2809 net.cpp:106] Creating Layer pool1
I1110 22:09:11.781987  2809 net.cpp:454] pool1 <- conv1
I1110 22:09:11.782016  2809 net.cpp:411] pool1 -> pool1
I1110 22:09:11.782094  2809 net.cpp:150] Setting up pool1
I1110 22:09:11.782124  2809 net.cpp:157] Top shape: 1 96 27 27 (69984)
I1110 22:09:11.782135  2809 net.cpp:165] Memory required for data: 2603136
I1110 22:09:11.782147  2809 layer_factory.hpp:76] Creating layer norm1
I1110 22:09:11.782173  2809 net.cpp:106] Creating Layer norm1
I1110 22:09:11.782188  2809 net.cpp:454] norm1 <- pool1
I1110 22:09:11.782217  2809 net.cpp:411] norm1 -> norm1
I1110 22:09:11.782284  2809 net.cpp:150] Setting up norm1
I1110 22:09:11.782305  2809 net.cpp:157] Top shape: 1 96 27 27 (69984)
I1110 22:09:11.782315  2809 net.cpp:165] Memory required for data: 2883072
I1110 22:09:11.782326  2809 layer_factory.hpp:76] Creating layer conv2
I1110 22:09:11.782366  2809 net.cpp:106] Creating Layer conv2
I1110 22:09:11.782392  2809 net.cpp:454] conv2 <- norm1
I1110 22:09:11.782423  2809 net.cpp:411] conv2 -> conv2
I1110 22:09:11.786448  2809 net.cpp:150] Setting up conv2
I1110 22:09:11.786501  2809 net.cpp:157] Top shape: 1 256 27 27 (186624)
I1110 22:09:11.786514  2809 net.cpp:165] Memory required for data: 3629568
I1110 22:09:11.786573  2809 layer_factory.hpp:76] Creating layer relu2
I1110 22:09:11.786612  2809 net.cpp:106] Creating Layer relu2
I1110 22:09:11.786633  2809 net.cpp:454] relu2 <- conv2
I1110 22:09:11.786664  2809 net.cpp:397] relu2 -> conv2 (in-place)
I1110 22:09:11.786696  2809 net.cpp:150] Setting up relu2
I1110 22:09:11.786712  2809 net.cpp:157] Top shape: 1 256 27 27 (186624)
I1110 22:09:11.786722  2809 net.cpp:165] Memory required for data: 4376064
I1110 22:09:11.786733  2809 layer_factory.hpp:76] Creating layer pool2
I1110 22:09:11.786761  2809 net.cpp:106] Creating Layer pool2
I1110 22:09:11.786798  2809 net.cpp:454] pool2 <- conv2
I1110 22:09:11.786828  2809 net.cpp:411] pool2 -> pool2
I1110 22:09:11.786906  2809 net.cpp:150] Setting up pool2
I1110 22:09:11.786926  2809 net.cpp:157] Top shape: 1 256 13 13 (43264)
I1110 22:09:11.786936  2809 net.cpp:165] Memory required for data: 4549120
I1110 22:09:11.786949  2809 layer_factory.hpp:76] Creating layer norm2
I1110 22:09:11.786978  2809 net.cpp:106] Creating Layer norm2
I1110 22:09:11.786993  2809 net.cpp:454] norm2 <- pool2
I1110 22:09:11.787021  2809 net.cpp:411] norm2 -> norm2
I1110 22:09:11.787087  2809 net.cpp:150] Setting up norm2
I1110 22:09:11.787108  2809 net.cpp:157] Top shape: 1 256 13 13 (43264)
I1110 22:09:11.787118  2809 net.cpp:165] Memory required for data: 4722176
I1110 22:09:11.787130  2809 layer_factory.hpp:76] Creating layer conv3
I1110 22:09:11.787166  2809 net.cpp:106] Creating Layer conv3
I1110 22:09:11.787184  2809 net.cpp:454] conv3 <- norm2
I1110 22:09:11.787212  2809 net.cpp:411] conv3 -> conv3
I1110 22:09:11.792742  2809 net.cpp:150] Setting up conv3
I1110 22:09:11.792784  2809 net.cpp:157] Top shape: 1 384 13 13 (64896)
I1110 22:09:11.792796  2809 net.cpp:165] Memory required for data: 4981760
I1110 22:09:11.792853  2809 layer_factory.hpp:76] Creating layer relu3
I1110 22:09:11.792892  2809 net.cpp:106] Creating Layer relu3
I1110 22:09:11.792912  2809 net.cpp:454] relu3 <- conv3
I1110 22:09:11.792943  2809 net.cpp:397] relu3 -> conv3 (in-place)
I1110 22:09:11.792974  2809 net.cpp:150] Setting up relu3
I1110 22:09:11.792989  2809 net.cpp:157] Top shape: 1 384 13 13 (64896)
I1110 22:09:11.792999  2809 net.cpp:165] Memory required for data: 5241344
I1110 22:09:11.793010  2809 layer_factory.hpp:76] Creating layer conv4
I1110 22:09:11.793040  2809 net.cpp:106] Creating Layer conv4
I1110 22:09:11.793054  2809 net.cpp:454] conv4 <- conv3
I1110 22:09:11.793086  2809 net.cpp:411] conv4 -> conv4
I1110 22:09:11.800186  2809 net.cpp:150] Setting up conv4
I1110 22:09:11.800232  2809 net.cpp:157] Top shape: 1 384 13 13 (64896)
I1110 22:09:11.800245  2809 net.cpp:165] Memory required for data: 5500928
I1110 22:09:11.800277  2809 layer_factory.hpp:76] Creating layer relu4
I1110 22:09:11.800314  2809 net.cpp:106] Creating Layer relu4
I1110 22:09:11.800333  2809 net.cpp:454] relu4 <- conv4
I1110 22:09:11.800366  2809 net.cpp:397] relu4 -> conv4 (in-place)
I1110 22:09:11.800400  2809 net.cpp:150] Setting up relu4
I1110 22:09:11.800415  2809 net.cpp:157] Top shape: 1 384 13 13 (64896)
I1110 22:09:11.800423  2809 net.cpp:165] Memory required for data: 5760512
I1110 22:09:11.800436  2809 layer_factory.hpp:76] Creating layer conv5
I1110 22:09:11.800463  2809 net.cpp:106] Creating Layer conv5
I1110 22:09:11.800492  2809 net.cpp:454] conv5 <- conv4
I1110 22:09:11.800524  2809 net.cpp:411] conv5 -> conv5
I1110 22:09:11.805201  2809 net.cpp:150] Setting up conv5
I1110 22:09:11.805236  2809 net.cpp:157] Top shape: 1 256 13 13 (43264)
I1110 22:09:11.805248  2809 net.cpp:165] Memory required for data: 5933568
I1110 22:09:11.805302  2809 layer_factory.hpp:76] Creating layer relu5
I1110 22:09:11.805335  2809 net.cpp:106] Creating Layer relu5
I1110 22:09:11.805352  2809 net.cpp:454] relu5 <- conv5
I1110 22:09:11.805379  2809 net.cpp:397] relu5 -> conv5 (in-place)
I1110 22:09:11.805413  2809 net.cpp:150] Setting up relu5
I1110 22:09:11.805428  2809 net.cpp:157] Top shape: 1 256 13 13 (43264)
I1110 22:09:11.805436  2809 net.cpp:165] Memory required for data: 6106624
I1110 22:09:11.805449  2809 layer_factory.hpp:76] Creating layer pool5
I1110 22:09:11.805474  2809 net.cpp:106] Creating Layer pool5
I1110 22:09:11.805495  2809 net.cpp:454] pool5 <- conv5
I1110 22:09:11.805522  2809 net.cpp:411] pool5 -> pool5
I1110 22:09:11.805601  2809 net.cpp:150] Setting up pool5
I1110 22:09:11.805624  2809 net.cpp:157] Top shape: 1 256 6 6 (9216)
I1110 22:09:11.805634  2809 net.cpp:165] Memory required for data: 6143488
I1110 22:09:11.805646  2809 layer_factory.hpp:76] Creating layer fc6
I1110 22:09:11.805672  2809 net.cpp:106] Creating Layer fc6
I1110 22:09:11.805687  2809 net.cpp:454] fc6 <- pool5
I1110 22:09:11.805716  2809 net.cpp:411] fc6 -> fc6
I1110 22:09:11.990335  2809 net.cpp:150] Setting up fc6
I1110 22:09:11.990406  2809 net.cpp:157] Top shape: 1 4096 (4096)
I1110 22:09:11.990419  2809 net.cpp:165] Memory required for data: 6159872
I1110 22:09:11.990458  2809 layer_factory.hpp:76] Creating layer relu6
I1110 22:09:11.990512  2809 net.cpp:106] Creating Layer relu6
I1110 22:09:11.990535  2809 net.cpp:454] relu6 <- fc6
I1110 22:09:11.990571  2809 net.cpp:397] relu6 -> fc6 (in-place)
I1110 22:09:11.990605  2809 net.cpp:150] Setting up relu6
I1110 22:09:11.990620  2809 net.cpp:157] Top shape: 1 4096 (4096)
I1110 22:09:11.990629  2809 net.cpp:165] Memory required for data: 6176256
I1110 22:09:11.990641  2809 layer_factory.hpp:76] Creating layer drop6
I1110 22:09:11.990667  2809 net.cpp:106] Creating Layer drop6
I1110 22:09:11.990682  2809 net.cpp:454] drop6 <- fc6
I1110 22:09:11.990710  2809 net.cpp:397] drop6 -> fc6 (in-place)
I1110 22:09:11.990762  2809 net.cpp:150] Setting up drop6
I1110 22:09:11.990782  2809 net.cpp:157] Top shape: 1 4096 (4096)
I1110 22:09:11.990790  2809 net.cpp:165] Memory required for data: 6192640
I1110 22:09:11.990803  2809 layer_factory.hpp:76] Creating layer fc7
I1110 22:09:11.990829  2809 net.cpp:106] Creating Layer fc7
I1110 22:09:11.990844  2809 net.cpp:454] fc7 <- fc6
I1110 22:09:11.990872  2809 net.cpp:411] fc7 -> fc7
I1110 22:09:12.069522  2809 net.cpp:150] Setting up fc7
I1110 22:09:12.069635  2809 net.cpp:157] Top shape: 1 4096 (4096)
I1110 22:09:12.069646  2809 net.cpp:165] Memory required for data: 6209024
I1110 22:09:12.069694  2809 layer_factory.hpp:76] Creating layer relu7
I1110 22:09:12.069754  2809 net.cpp:106] Creating Layer relu7
I1110 22:09:12.069782  2809 net.cpp:454] relu7 <- fc7
I1110 22:09:12.069829  2809 net.cpp:397] relu7 -> fc7 (in-place)
I1110 22:09:12.069872  2809 net.cpp:150] Setting up relu7
I1110 22:09:12.069887  2809 net.cpp:157] Top shape: 1 4096 (4096)
I1110 22:09:12.069897  2809 net.cpp:165] Memory required for data: 6225408
I1110 22:09:12.069908  2809 layer_factory.hpp:76] Creating layer drop7
I1110 22:09:12.069939  2809 net.cpp:106] Creating Layer drop7
I1110 22:09:12.069957  2809 net.cpp:454] drop7 <- fc7
I1110 22:09:12.069983  2809 net.cpp:397] drop7 -> fc7 (in-place)
I1110 22:09:12.070045  2809 net.cpp:150] Setting up drop7
I1110 22:09:12.070063  2809 net.cpp:157] Top shape: 1 4096 (4096)
I1110 22:09:12.070073  2809 net.cpp:165] Memory required for data: 6241792
I1110 22:09:12.070086  2809 layer_factory.hpp:76] Creating layer fc8
I1110 22:09:12.070119  2809 net.cpp:106] Creating Layer fc8
I1110 22:09:12.070134  2809 net.cpp:454] fc8 <- fc7
I1110 22:09:12.070163  2809 net.cpp:411] fc8 -> fc8
I1110 22:09:12.090525  2809 net.cpp:150] Setting up fc8
I1110 22:09:12.090612  2809 net.cpp:157] Top shape: 1 1000 (1000)
I1110 22:09:12.090625  2809 net.cpp:165] Memory required for data: 6245792
I1110 22:09:12.090673  2809 layer_factory.hpp:76] Creating layer prob
I1110 22:09:12.090739  2809 net.cpp:106] Creating Layer prob
I1110 22:09:12.090769  2809 net.cpp:454] prob <- fc8
I1110 22:09:12.090824  2809 net.cpp:411] prob -> prob
I1110 22:09:12.090950  2809 net.cpp:150] Setting up prob
I1110 22:09:12.090971  2809 net.cpp:157] Top shape: 1 1000 (1000)
I1110 22:09:12.090981  2809 net.cpp:165] Memory required for data: 6249792
I1110 22:09:12.090998  2809 net.cpp:228] prob does not need backward computation.
I1110 22:09:12.091012  2809 net.cpp:228] fc8 does not need backward computation.
I1110 22:09:12.091025  2809 net.cpp:228] drop7 does not need backward computation.
I1110 22:09:12.091037  2809 net.cpp:228] relu7 does not need backward computation.
…
