…
gamma: 0.5
momentum: 0.98
weight_decay: 0.0015849
stepsize: 1500
snapshot: 1000
snapshot_prefix: "stitch"
solver_mode: GPU
random_seed: 0
net: "network.prototxt"
regularization_type: "L1"
I1111 07:12:32.401459  3882 solver.cpp:90] Creating training net from net file: network.prototxt
I1111 07:12:32.420027  3882 net.cpp:49] Initializing net from parameters: 
name: "StitchNet"
input: "net0"
input: "net1"
input_dim: 32
input_dim: 256
input_dim: 27
input_dim: 27
input_dim: 32
input_dim: 256
input_dim: 27
input_dim: 27
state {
  phase: TRAIN
}
debug_info: true
layer {
  name: "stitch0"
  type: "Convolution"
  bottom: "net0"
  top: "stitch0"
  convolution_param {
    num_output: 256
    kernel_size: 1
    stride: 1
    weight_filler {
      type: "gaussian"
      std: 0.01
    }
  }
}
layer {
  name: "loss"
  type: "EuclideanLoss"
  bottom: "stitch0"
  bottom: "net1"
  top: "loss"
  loss_weight: 1
}
I1111 07:12:32.420433  3882 net.cpp:413] Input 0 -> net0
I1111 07:12:32.459211  3882 net.cpp:413] Input 1 -> net1
I1111 07:12:32.459413  3882 layer_factory.hpp:76] Creating layer stitch0
I1111 07:12:32.459506  3882 net.cpp:106] Creating Layer stitch0
I1111 07:12:32.459530  3882 net.cpp:454] stitch0 <- net0
I1111 07:12:32.459573  3882 net.cpp:411] stitch0 -> stitch0
I1111 07:12:32.468261  3882 net.cpp:150] Setting up stitch0
I1111 07:12:32.468322  3882 net.cpp:157] Top shape: 32 256 27 27 (5971968)
I1111 07:12:32.468336  3882 net.cpp:165] Memory required for data: 23887872
I1111 07:12:32.468451  3882 layer_factory.hpp:76] Creating layer loss
I1111 07:12:32.468503  3882 net.cpp:106] Creating Layer loss
I1111 07:12:32.468526  3882 net.cpp:454] loss <- stitch0
I1111 07:12:32.468556  3882 net.cpp:454] loss <- net1
I1111 07:12:32.468585  3882 net.cpp:411] loss -> loss
I1111 07:12:32.468673  3882 net.cpp:150] Setting up loss
I1111 07:12:32.468700  3882 net.cpp:157] Top shape: (1)
I1111 07:12:32.468711  3882 net.cpp:160]     with loss weight 1
I1111 07:12:32.468734  3882 net.cpp:165] Memory required for data: 23887876
I1111 07:12:32.468752  3882 net.cpp:226] loss needs backward computation.
I1111 07:12:32.468775  3882 net.cpp:226] stitch0 needs backward computation.
I1111 07:12:32.468791  3882 net.cpp:270] This network produces output loss
I1111 07:12:32.468819  3882 net.cpp:283] Network initialization done.
I1111 07:12:32.468878  3882 solver.cpp:59] Solver scaffolding done.
I1111 07:12:32.583317  3882 net.cpp:49] Initializing net from parameters: 
name: "CaffeNet"
input: "data"
input_dim: 1
input_dim: 3
input_dim: 227
input_dim: 227
force_backward: true
state {
  phase: TEST
}
layer {
  name: "conv1"
  type: "Convolution"
  bottom: "data"
  top: "conv1"
  convolution_param {
    num_output: 96
    kernel_size: 11
    stride: 4
  }
}
layer {
  name: "relu1"
  type: "ReLU"
  bottom: "conv1"
  top: "conv1"
}
layer {
  name: "pool1"
  type: "Pooling"
  bottom: "conv1"
  top: "pool1"
  pooling_param {
    pool: MAX
    kernel_size: 3
    stride: 2
  }
}
layer {
  name: "norm1"
  type: "LRN"
  bottom: "pool1"
  top: "norm1"
  lrn_param {
    local_size: 5
    alpha: 0.0001
    beta: 0.75
  }
}
layer {
  name: "conv2"
  type: "Convolution"
  bottom: "norm1"
  top: "conv2"
  convolution_param {
    num_output: 256
    pad: 2
    kernel_size: 5
  }
}
layer {
  name: "relu2"
  type: "ReLU"
  bottom: "conv2"
  top: "conv2"
}
layer {
  name: "pool2"
  type: "Pooling"
  bottom: "conv2"
  top: "pool2"
  pooling_param {
    pool: MAX
    kernel_size: 3
    stride: 2
  }
}
layer {
  name: "norm2"
  type: "LRN"
  bottom: "pool2"
  top: "norm2"
  lrn_param {
    local_size: 5
    alpha: 0.0001
    beta: 0.75
  }
}
layer {
  name: "conv3"
  type: "Convolution"
  bottom: "norm2"
  top: "conv3"
  convolution_param {
    num_output: 384
    pad: 1
    kernel_size: 3
  }
}
layer {
  name: "relu3"
  type: "ReLU"
  bottom: "conv3"
  top: "conv3"
}
layer {
  name: "conv4"
  type: "Convolution"
  bottom: "conv3"
  top: "conv4"
  convolution_param {
    num_output: 384
    pad: 1
    kernel_size: 3
  }
}
layer {
  name: "relu4"
  type: "ReLU"
  bottom: "conv4"
  top: "conv4"
}
layer {
  name: "conv5"
  type: "Convolution"
  bottom: "conv4"
  top: "conv5"
  convolution_param {
    num_output: 256
    pad: 1
    kernel_size: 3
  }
}
layer {
  name: "relu5"
  type: "ReLU"
  bottom: "conv5"
  top: "conv5"
}
layer {
  name: "pool5"
  type: "Pooling"
  bottom: "conv5"
  top: "pool5"
  pooling_param {
    pool: MAX
    kernel_size: 3
    stride: 2
  }
}
layer {
  name: "fc6"
  type: "InnerProduct"
  bottom: "pool5"
  top: "fc6"
  inner_product_param {
    num_output: 4096
  }
}
layer {
  name: "relu6"
  type: "ReLU"
  bottom: "fc6"
  top: "fc6"
}
layer {
  name: "drop6"
  type: "Dropout"
  bottom: "fc6"
  top: "fc6"
  dropout_param {
    dropout_ratio: 0.5
  }
}
layer {
  name: "fc7"
  type: "InnerProduct"
  bottom: "fc6"
  top: "fc7"
  inner_product_param {
    num_output: 4096
  }
}
layer {
  name: "relu7"
  type: "ReLU"
  bottom: "fc7"
  top: "fc7"
}
layer {
  name: "drop7"
  type: "Dropout"
  bottom: "fc7"
  top: "fc7"
  dropout_param {
    dropout_ratio: 0.5
  }
}
layer {
  name: "fc8"
  type: "InnerProduct"
  bottom: "fc7"
  top: "fc8"
  inner_product_param {
    num_output: 1000
  }
}
layer {
  name: "prob"
  type: "Softmax"
  bottom: "fc8"
  top: "prob"
}
I1111 07:12:32.583896  3882 net.cpp:413] Input 0 -> data
I1111 07:12:32.584277  3882 layer_factory.hpp:76] Creating layer conv1
I1111 07:12:32.584384  3882 net.cpp:106] Creating Layer conv1
I1111 07:12:32.584432  3882 net.cpp:454] conv1 <- data
I1111 07:12:32.584507  3882 net.cpp:411] conv1 -> conv1
I1111 07:12:32.588074  3882 net.cpp:150] Setting up conv1
I1111 07:12:32.588152  3882 net.cpp:157] Top shape: 1 96 55 55 (290400)
I1111 07:12:32.588183  3882 net.cpp:165] Memory required for data: 1161600
I1111 07:12:32.588309  3882 layer_factory.hpp:76] Creating layer relu1
I1111 07:12:32.588402  3882 net.cpp:106] Creating Layer relu1
I1111 07:12:32.588448  3882 net.cpp:454] relu1 <- conv1
I1111 07:12:32.588513  3882 net.cpp:397] relu1 -> conv1 (in-place)
I1111 07:12:32.588589  3882 net.cpp:150] Setting up relu1
I1111 07:12:32.588630  3882 net.cpp:157] Top shape: 1 96 55 55 (290400)
I1111 07:12:32.588655  3882 net.cpp:165] Memory required for data: 2323200
I1111 07:12:32.588686  3882 layer_factory.hpp:76] Creating layer pool1
I1111 07:12:32.588768  3882 net.cpp:106] Creating Layer pool1
I1111 07:12:32.588810  3882 net.cpp:454] pool1 <- conv1
I1111 07:12:32.588882  3882 net.cpp:411] pool1 -> pool1
I1111 07:12:32.589084  3882 net.cpp:150] Setting up pool1
I1111 07:12:32.589144  3882 net.cpp:157] Top shape: 1 96 27 27 (69984)
I1111 07:12:32.589172  3882 net.cpp:165] Memory required for data: 2603136
I1111 07:12:32.589205  3882 layer_factory.hpp:76] Creating layer norm1
I1111 07:12:32.589289  3882 net.cpp:106] Creating Layer norm1
I1111 07:12:32.589330  3882 net.cpp:454] norm1 <- pool1
I1111 07:12:32.589402  3882 net.cpp:411] norm1 -> norm1
I1111 07:12:32.589579  3882 net.cpp:150] Setting up norm1
I1111 07:12:32.589634  3882 net.cpp:157] Top shape: 1 96 27 27 (69984)
I1111 07:12:32.589669  3882 net.cpp:165] Memory required for data: 2883072
I1111 07:12:32.589684  3882 layer_factory.hpp:76] Creating layer conv2
I1111 07:12:32.589718  3882 net.cpp:106] Creating Layer conv2
I1111 07:12:32.589751  3882 net.cpp:454] conv2 <- norm1
I1111 07:12:32.589789  3882 net.cpp:411] conv2 -> conv2
I1111 07:12:32.593721  3882 net.cpp:150] Setting up conv2
I1111 07:12:32.593758  3882 net.cpp:157] Top shape: 1 256 27 27 (186624)
I1111 07:12:32.593772  3882 net.cpp:165] Memory required for data: 3629568
I1111 07:12:32.593816  3882 layer_factory.hpp:76] Creating layer relu2
I1111 07:12:32.593845  3882 net.cpp:106] Creating Layer relu2
I1111 07:12:32.593863  3882 net.cpp:454] relu2 <- conv2
I1111 07:12:32.593894  3882 net.cpp:397] relu2 -> conv2 (in-place)
I1111 07:12:32.593924  3882 net.cpp:150] Setting up relu2
I1111 07:12:32.593941  3882 net.cpp:157] Top shape: 1 256 27 27 (186624)
I1111 07:12:32.593953  3882 net.cpp:165] Memory required for data: 4376064
I1111 07:12:32.593968  3882 layer_factory.hpp:76] Creating layer pool2
I1111 07:12:32.593996  3882 net.cpp:106] Creating Layer pool2
I1111 07:12:32.594013  3882 net.cpp:454] pool2 <- conv2
I1111 07:12:32.594044  3882 net.cpp:411] pool2 -> pool2
I1111 07:12:32.594126  3882 net.cpp:150] Setting up pool2
I1111 07:12:32.594152  3882 net.cpp:157] Top shape: 1 256 13 13 (43264)
I1111 07:12:32.594166  3882 net.cpp:165] Memory required for data: 4549120
I1111 07:12:32.594180  3882 layer_factory.hpp:76] Creating layer norm2
I1111 07:12:32.594209  3882 net.cpp:106] Creating Layer norm2
I1111 07:12:32.594228  3882 net.cpp:454] norm2 <- pool2
I1111 07:12:32.594259  3882 net.cpp:411] norm2 -> norm2
I1111 07:12:32.594339  3882 net.cpp:150] Setting up norm2
I1111 07:12:32.594364  3882 net.cpp:157] Top shape: 1 256 13 13 (43264)
I1111 07:12:32.594377  3882 net.cpp:165] Memory required for data: 4722176
I1111 07:12:32.594390  3882 layer_factory.hpp:76] Creating layer conv3
I1111 07:12:32.594429  3882 net.cpp:106] Creating Layer conv3
I1111 07:12:32.594447  3882 net.cpp:454] conv3 <- norm2
I1111 07:12:32.594480  3882 net.cpp:411] conv3 -> conv3
I1111 07:12:32.599807  3882 net.cpp:150] Setting up conv3
I1111 07:12:32.599853  3882 net.cpp:157] Top shape: 1 384 13 13 (64896)
I1111 07:12:32.599865  3882 net.cpp:165] Memory required for data: 4981760
I1111 07:12:32.599931  3882 layer_factory.hpp:76] Creating layer relu3
I1111 07:12:32.599978  3882 net.cpp:106] Creating Layer relu3
I1111 07:12:32.600003  3882 net.cpp:454] relu3 <- conv3
I1111 07:12:32.600038  3882 net.cpp:397] relu3 -> conv3 (in-place)
I1111 07:12:32.600075  3882 net.cpp:150] Setting up relu3
I1111 07:12:32.600092  3882 net.cpp:157] Top shape: 1 384 13 13 (64896)
I1111 07:12:32.600103  3882 net.cpp:165] Memory required for data: 5241344
I1111 07:12:32.600117  3882 layer_factory.hpp:76] Creating layer conv4
I1111 07:12:32.600154  3882 net.cpp:106] Creating Layer conv4
I1111 07:12:32.600172  3882 net.cpp:454] conv4 <- conv3
I1111 07:12:32.600203  3882 net.cpp:411] conv4 -> conv4
I1111 07:12:32.607836  3882 net.cpp:150] Setting up conv4
I1111 07:12:32.607887  3882 net.cpp:157] Top shape: 1 384 13 13 (64896)
I1111 07:12:32.607900  3882 net.cpp:165] Memory required for data: 5500928
I1111 07:12:32.607938  3882 layer_factory.hpp:76] Creating layer relu4
I1111 07:12:32.607978  3882 net.cpp:106] Creating Layer relu4
I1111 07:12:32.608000  3882 net.cpp:454] relu4 <- conv4
I1111 07:12:32.608042  3882 net.cpp:397] relu4 -> conv4 (in-place)
I1111 07:12:32.608081  3882 net.cpp:150] Setting up relu4
I1111 07:12:32.608100  3882 net.cpp:157] Top shape: 1 384 13 13 (64896)
I1111 07:12:32.608111  3882 net.cpp:165] Memory required for data: 5760512
I1111 07:12:32.608125  3882 layer_factory.hpp:76] Creating layer conv5
I1111 07:12:32.608157  3882 net.cpp:106] Creating Layer conv5
I1111 07:12:32.608175  3882 net.cpp:454] conv5 <- conv4
I1111 07:12:32.608211  3882 net.cpp:411] conv5 -> conv5
I1111 07:12:32.613381  3882 net.cpp:150] Setting up conv5
I1111 07:12:32.613411  3882 net.cpp:157] Top shape: 1 256 13 13 (43264)
I1111 07:12:32.613425  3882 net.cpp:165] Memory required for data: 5933568
I1111 07:12:32.613474  3882 layer_factory.hpp:76] Creating layer relu5
I1111 07:12:32.613504  3882 net.cpp:106] Creating Layer relu5
I1111 07:12:32.613523  3882 net.cpp:454] relu5 <- conv5
I1111 07:12:32.613554  3882 net.cpp:397] relu5 -> conv5 (in-place)
I1111 07:12:32.613587  3882 net.cpp:150] Setting up relu5
I1111 07:12:32.613606  3882 net.cpp:157] Top shape: 1 256 13 13 (43264)
I1111 07:12:32.613617  3882 net.cpp:165] Memory required for data: 6106624
I1111 07:12:32.613631  3882 layer_factory.hpp:76] Creating layer pool5
I1111 07:12:32.613662  3882 net.cpp:106] Creating Layer pool5
I1111 07:12:32.613678  3882 net.cpp:454] pool5 <- conv5
I1111 07:12:32.613709  3882 net.cpp:411] pool5 -> pool5
I1111 07:12:32.613802  3882 net.cpp:150] Setting up pool5
I1111 07:12:32.613828  3882 net.cpp:157] Top shape: 1 256 6 6 (9216)
I1111 07:12:32.613840  3882 net.cpp:165] Memory required for data: 6143488
I1111 07:12:32.613854  3882 layer_factory.hpp:76] Creating layer fc6
I1111 07:12:32.613888  3882 net.cpp:106] Creating Layer fc6
I1111 07:12:32.613905  3882 net.cpp:454] fc6 <- pool5
I1111 07:12:32.613937  3882 net.cpp:411] fc6 -> fc6
I1111 07:12:32.833474  3882 net.cpp:150] Setting up fc6
I1111 07:12:32.833523  3882 net.cpp:157] Top shape: 1 4096 (4096)
I1111 07:12:32.833536  3882 net.cpp:165] Memory required for data: 6159872
I1111 07:12:32.833573  3882 layer_factory.hpp:76] Creating layer relu6
I1111 07:12:32.833631  3882 net.cpp:106] Creating Layer relu6
I1111 07:12:32.833657  3882 net.cpp:454] relu6 <- fc6
I1111 07:12:32.833694  3882 net.cpp:397] relu6 -> fc6 (in-place)
I1111 07:12:32.833737  3882 net.cpp:150] Setting up relu6
I1111 07:12:32.833756  3882 net.cpp:157] Top shape: 1 4096 (4096)
I1111 07:12:32.833767  3882 net.cpp:165] Memory required for data: 6176256
I1111 07:12:32.833781  3882 layer_factory.hpp:76] Creating layer drop6
I1111 07:12:32.833819  3882 net.cpp:106] Creating Layer drop6
I1111 07:12:32.833838  3882 net.cpp:454] drop6 <- fc6
I1111 07:12:32.833868  3882 net.cpp:397] drop6 -> fc6 (in-place)
I1111 07:12:32.833930  3882 net.cpp:150] Setting up drop6
I1111 07:12:32.833952  3882 net.cpp:157] Top shape: 1 4096 (4096)
I1111 07:12:32.833962  3882 net.cpp:165] Memory required for data: 6192640
I1111 07:12:32.833977  3882 layer_factory.hpp:76] Creating layer fc7
I1111 07:12:32.834009  3882 net.cpp:106] Creating Layer fc7
I1111 07:12:32.834028  3882 net.cpp:454] fc7 <- fc6
I1111 07:12:32.834060  3882 net.cpp:411] fc7 -> fc7
I1111 07:12:32.919709  3882 net.cpp:150] Setting up fc7
I1111 07:12:32.919770  3882 net.cpp:157] Top shape: 1 4096 (4096)
I1111 07:12:32.919785  3882 net.cpp:165] Memory required for data: 6209024
I1111 07:12:32.919823  3882 layer_factory.hpp:76] Creating layer relu7
I1111 07:12:32.919865  3882 net.cpp:106] Creating Layer relu7
I1111 07:12:32.919889  3882 net.cpp:454] relu7 <- fc7
I1111 07:12:32.919929  3882 net.cpp:397] relu7 -> fc7 (in-place)
I1111 07:12:32.919966  3882 net.cpp:150] Setting up relu7
I1111 07:12:32.919984  3882 net.cpp:157] Top shape: 1 4096 (4096)
I1111 07:12:32.919996  3882 net.cpp:165] Memory required for data: 6225408
I1111 07:12:32.920009  3882 layer_factory.hpp:76] Creating layer drop7
I1111 07:12:32.920042  3882 net.cpp:106] Creating Layer drop7
I1111 07:12:32.920058  3882 net.cpp:454] drop7 <- fc7
I1111 07:12:32.920089  3882 net.cpp:397] drop7 -> fc7 (in-place)
I1111 07:12:32.920151  3882 net.cpp:150] Setting up drop7
I1111 07:12:32.920172  3882 net.cpp:157] Top shape: 1 4096 (4096)
I1111 07:12:32.920183  3882 net.cpp:165] Memory required for data: 6241792
I1111 07:12:32.920198  3882 layer_factory.hpp:76] Creating layer fc8
I1111 07:12:32.920228  3882 net.cpp:106] Creating Layer fc8
I1111 07:12:32.920244  3882 net.cpp:454] fc8 <- fc7
I1111 07:12:32.920276  3882 net.cpp:411] fc8 -> fc8
I1111 07:12:32.941587  3882 net.cpp:150] Setting up fc8
I1111 07:12:32.941637  3882 net.cpp:157] Top shape: 1 1000 (1000)
I1111 07:12:32.941649  3882 net.cpp:165] Memory required for data: 6245792
I1111 07:12:32.941686  3882 layer_factory.hpp:76] Creating layer prob
I1111 07:12:32.941741  3882 net.cpp:106] Creating Layer prob
I1111 07:12:32.941767  3882 net.cpp:454] prob <- fc8
I1111 07:12:32.941810  3882 net.cpp:411] prob -> prob
I1111 07:12:32.941934  3882 net.cpp:150] Setting up prob
I1111 07:12:32.941959  3882 net.cpp:157] Top shape: 1 1000 (1000)
I1111 07:12:32.941972  3882 net.cpp:165] Memory required for data: 6249792
I1111 07:12:32.941987  3882 net.cpp:228] prob does not need backward computation.
I1111 07:12:32.942003  3882 net.cpp:228] fc8 does not need backward computation.
I1111 07:12:32.942016  3882 net.cpp:228] drop7 does not need backward computation.
I1111 07:12:32.942029  3882 net.cpp:228] relu7 does not need backward computation.
…
I1111 07:12:35.744484  3882 net.cpp:923] Copying source layer drop6
I1111 07:12:35.744496  3882 net.cpp:923] Copying source layer fc7
I1111 07:12:35.954290  3882 net.cpp:923] Copying source layer relu7
I1111 07:12:35.954345  3882 net.cpp:923] Copying source layer drop7
I1111 07:12:35.954357  3882 net.cpp:923] Copying source layer fc8
I1111 07:12:36.006048  3882 net.cpp:920] Ignoring source layer loss
I1111 07:12:36.008265  3882 net.cpp:49] Initializing net from parameters: 
name: "CaffeNet"
input: "data"
input_dim: 1
input_dim: 3
input_dim: 227
input_dim: 227
force_backward: true
state {
  phase: TEST
}
layer {
  name: "conv1"
  type: "Convolution"
  bottom: "data"
  top: "conv1"
  convolution_param {
    num_output: 96
    kernel_size: 11
    stride: 4
  }
}
layer {
  name: "relu1"
  type: "ReLU"
  bottom: "conv1"
  top: "conv1"
}
layer {
  name: "pool1"
  type: "Pooling"
  bottom: "conv1"
  top: "pool1"
  pooling_param {
    pool: MAX
    kernel_size: 3
    stride: 2
  }
}
layer {
  name: "norm1"
  type: "LRN"
  bottom: "pool1"
  top: "norm1"
  lrn_param {
    local_size: 5
    alpha: 0.0001
    beta: 0.75
  }
}
layer {
  name: "conv2"
  type: "Convolution"
  bottom: "norm1"
  top: "conv2"
  convolution_param {
    num_output: 256
    pad: 2
    kernel_size: 5
  }
}
layer {
  name: "relu2"
  type: "ReLU"
  bottom: "conv2"
  top: "conv2"
}
layer {
  name: "pool2"
  type: "Pooling"
  bottom: "conv2"
  top: "pool2"
  pooling_param {
    pool: MAX
    kernel_size: 3
    stride: 2
  }
}
layer {
  name: "norm2"
  type: "LRN"
  bottom: "pool2"
  top: "norm2"
  lrn_param {
    local_size: 5
    alpha: 0.0001
    beta: 0.75
  }
}
layer {
  name: "conv3"
  type: "Convolution"
  bottom: "norm2"
  top: "conv3"
  convolution_param {
    num_output: 384
    pad: 1
    kernel_size: 3
  }
}
layer {
  name: "relu3"
  type: "ReLU"
  bottom: "conv3"
  top: "conv3"
}
layer {
  name: "conv4"
  type: "Convolution"
  bottom: "conv3"
  top: "conv4"
  convolution_param {
    num_output: 384
    pad: 1
    kernel_size: 3
  }
}
layer {
  name: "relu4"
  type: "ReLU"
  bottom: "conv4"
  top: "conv4"
}
layer {
  name: "conv5"
  type: "Convolution"
  bottom: "conv4"
  top: "conv5"
  convolution_param {
    num_output: 256
    pad: 1
    kernel_size: 3
  }
}
layer {
  name: "relu5"
  type: "ReLU"
  bottom: "conv5"
  top: "conv5"
}
layer {
  name: "pool5"
  type: "Pooling"
  bottom: "conv5"
  top: "pool5"
  pooling_param {
    pool: MAX
    kernel_size: 3
    stride: 2
  }
}
layer {
  name: "fc6"
  type: "InnerProduct"
  bottom: "pool5"
  top: "fc6"
  inner_product_param {
    num_output: 4096
  }
}
layer {
  name: "relu6"
  type: "ReLU"
  bottom: "fc6"
  top: "fc6"
}
layer {
  name: "drop6"
  type: "Dropout"
  bottom: "fc6"
  top: "fc6"
  dropout_param {
    dropout_ratio: 0.5
  }
}
layer {
  name: "fc7"
  type: "InnerProduct"
  bottom: "fc6"
  top: "fc7"
  inner_product_param {
    num_output: 4096
  }
}
layer {
  name: "relu7"
  type: "ReLU"
  bottom: "fc7"
  top: "fc7"
}
layer {
  name: "drop7"
  type: "Dropout"
  bottom: "fc7"
  top: "fc7"
  dropout_param {
    dropout_ratio: 0.5
  }
}
layer {
  name: "fc8"
  type: "InnerProduct"
  bottom: "fc7"
  top: "fc8"
  inner_product_param {
    num_output: 1000
  }
}
layer {
  name: "prob"
  type: "Softmax"
  bottom: "fc8"
  top: "prob"
}
I1111 07:12:36.008486  3882 net.cpp:413] Input 0 -> data
I1111 07:12:36.008662  3882 layer_factory.hpp:76] Creating layer conv1
I1111 07:12:36.008709  3882 net.cpp:106] Creating Layer conv1
I1111 07:12:36.008728  3882 net.cpp:454] conv1 <- data
I1111 07:12:36.008759  3882 net.cpp:411] conv1 -> conv1
I1111 07:12:36.009150  3882 net.cpp:150] Setting up conv1
I1111 07:12:36.009181  3882 net.cpp:157] Top shape: 1 96 55 55 (290400)
I1111 07:12:36.009191  3882 net.cpp:165] Memory required for data: 1161600
I1111 07:12:36.009238  3882 layer_factory.hpp:76] Creating layer relu1
I1111 07:12:36.009269  3882 net.cpp:106] Creating Layer relu1
I1111 07:12:36.009285  3882 net.cpp:454] relu1 <- conv1
I1111 07:12:36.009310  3882 net.cpp:397] relu1 -> conv1 (in-place)
I1111 07:12:36.009337  3882 net.cpp:150] Setting up relu1
I1111 07:12:36.009352  3882 net.cpp:157] Top shape: 1 96 55 55 (290400)
I1111 07:12:36.009362  3882 net.cpp:165] Memory required for data: 2323200
I1111 07:12:36.009374  3882 layer_factory.hpp:76] Creating layer pool1
I1111 07:12:36.009402  3882 net.cpp:106] Creating Layer pool1
I1111 07:12:36.009416  3882 net.cpp:454] pool1 <- conv1
I1111 07:12:36.009443  3882 net.cpp:411] pool1 -> pool1
I1111 07:12:36.009519  3882 net.cpp:150] Setting up pool1
I1111 07:12:36.009542  3882 net.cpp:157] Top shape: 1 96 27 27 (69984)
I1111 07:12:36.009553  3882 net.cpp:165] Memory required for data: 2603136
I1111 07:12:36.009565  3882 layer_factory.hpp:76] Creating layer norm1
I1111 07:12:36.009591  3882 net.cpp:106] Creating Layer norm1
I1111 07:12:36.009619  3882 net.cpp:454] norm1 <- pool1
I1111 07:12:36.009651  3882 net.cpp:411] norm1 -> norm1
I1111 07:12:36.009719  3882 net.cpp:150] Setting up norm1
I1111 07:12:36.009742  3882 net.cpp:157] Top shape: 1 96 27 27 (69984)
I1111 07:12:36.009752  3882 net.cpp:165] Memory required for data: 2883072
I1111 07:12:36.009763  3882 layer_factory.hpp:76] Creating layer conv2
I1111 07:12:36.009791  3882 net.cpp:106] Creating Layer conv2
I1111 07:12:36.009807  3882 net.cpp:454] conv2 <- norm1
I1111 07:12:36.009836  3882 net.cpp:411] conv2 -> conv2
I1111 07:12:36.013552  3882 net.cpp:150] Setting up conv2
I1111 07:12:36.013582  3882 net.cpp:157] Top shape: 1 256 27 27 (186624)
I1111 07:12:36.013593  3882 net.cpp:165] Memory required for data: 3629568
I1111 07:12:36.013638  3882 layer_factory.hpp:76] Creating layer relu2
I1111 07:12:36.013665  3882 net.cpp:106] Creating Layer relu2
I1111 07:12:36.013692  3882 net.cpp:454] relu2 <- conv2
I1111 07:12:36.013720  3882 net.cpp:397] relu2 -> conv2 (in-place)
I1111 07:12:36.013746  3882 net.cpp:150] Setting up relu2
I1111 07:12:36.013762  3882 net.cpp:157] Top shape: 1 256 27 27 (186624)
I1111 07:12:36.013772  3882 net.cpp:165] Memory required for data: 4376064
I1111 07:12:36.013783  3882 layer_factory.hpp:76] Creating layer pool2
I1111 07:12:36.013806  3882 net.cpp:106] Creating Layer pool2
I1111 07:12:36.013820  3882 net.cpp:454] pool2 <- conv2
I1111 07:12:36.013847  3882 net.cpp:411] pool2 -> pool2
I1111 07:12:36.013921  3882 net.cpp:150] Setting up pool2
I1111 07:12:36.013942  3882 net.cpp:157] Top shape: 1 256 13 13 (43264)
I1111 07:12:36.013952  3882 net.cpp:165] Memory required for data: 4549120
I1111 07:12:36.013964  3882 layer_factory.hpp:76] Creating layer norm2
I1111 07:12:36.013990  3882 net.cpp:106] Creating Layer norm2
I1111 07:12:36.014005  3882 net.cpp:454] norm2 <- pool2
I1111 07:12:36.014034  3882 net.cpp:411] norm2 -> norm2
I1111 07:12:36.014099  3882 net.cpp:150] Setting up norm2
I1111 07:12:36.014122  3882 net.cpp:157] Top shape: 1 256 13 13 (43264)
I1111 07:12:36.014132  3882 net.cpp:165] Memory required for data: 4722176
I1111 07:12:36.014144  3882 layer_factory.hpp:76] Creating layer conv3
I1111 07:12:36.014178  3882 net.cpp:106] Creating Layer conv3
I1111 07:12:36.014195  3882 net.cpp:454] conv3 <- norm2
I1111 07:12:36.014225  3882 net.cpp:411] conv3 -> conv3
I1111 07:12:36.018991  3882 net.cpp:150] Setting up conv3
I1111 07:12:36.019068  3882 net.cpp:157] Top shape: 1 384 13 13 (64896)
I1111 07:12:36.019080  3882 net.cpp:165] Memory required for data: 4981760
I1111 07:12:36.019157  3882 layer_factory.hpp:76] Creating layer relu3
I1111 07:12:36.019207  3882 net.cpp:106] Creating Layer relu3
I1111 07:12:36.019230  3882 net.cpp:454] relu3 <- conv3
I1111 07:12:36.019263  3882 net.cpp:397] relu3 -> conv3 (in-place)
I1111 07:12:36.019301  3882 net.cpp:150] Setting up relu3
I1111 07:12:36.019317  3882 net.cpp:157] Top shape: 1 384 13 13 (64896)
I1111 07:12:36.019326  3882 net.cpp:165] Memory required for data: 5241344
I1111 07:12:36.019338  3882 layer_factory.hpp:76] Creating layer conv4
I1111 07:12:36.019373  3882 net.cpp:106] Creating Layer conv4
I1111 07:12:36.019389  3882 net.cpp:454] conv4 <- conv3
I1111 07:12:36.019418  3882 net.cpp:411] conv4 -> conv4
I1111 07:12:36.025995  3882 net.cpp:150] Setting up conv4
I1111 07:12:36.026041  3882 net.cpp:157] Top shape: 1 384 13 13 (64896)
I1111 07:12:36.026053  3882 net.cpp:165] Memory required for data: 5500928
I1111 07:12:36.026085  3882 layer_factory.hpp:76] Creating layer relu4
I1111 07:12:36.026128  3882 net.cpp:106] Creating Layer relu4
I1111 07:12:36.026150  3882 net.cpp:454] relu4 <- conv4
I1111 07:12:36.026185  3882 net.cpp:397] relu4 -> conv4 (in-place)
I1111 07:12:36.026221  3882 net.cpp:150] Setting up relu4
I1111 07:12:36.026238  3882 net.cpp:157] Top shape: 1 384 13 13 (64896)
I1111 07:12:36.026248  3882 net.cpp:165] Memory required for data: 5760512
I1111 07:12:36.026260  3882 layer_factory.hpp:76] Creating layer conv5
I1111 07:12:36.026293  3882 net.cpp:106] Creating Layer conv5
I1111 07:12:36.026309  3882 net.cpp:454] conv5 <- conv4
I1111 07:12:36.026340  3882 net.cpp:411] conv5 -> conv5
I1111 07:12:36.030843  3882 net.cpp:150] Setting up conv5
I1111 07:12:36.030922  3882 net.cpp:157] Top shape: 1 256 13 13 (43264)
I1111 07:12:36.030933  3882 net.cpp:165] Memory required for data: 5933568
I1111 07:12:36.031007  3882 layer_factory.hpp:76] Creating layer relu5
I1111 07:12:36.031054  3882 net.cpp:106] Creating Layer relu5
I1111 07:12:36.031078  3882 net.cpp:454] relu5 <- conv5
I1111 07:12:36.031111  3882 net.cpp:397] relu5 -> conv5 (in-place)
I1111 07:12:36.031148  3882 net.cpp:150] Setting up relu5
I1111 07:12:36.031164  3882 net.cpp:157] Top shape: 1 256 13 13 (43264)
I1111 07:12:36.031173  3882 net.cpp:165] Memory required for data: 6106624
I1111 07:12:36.031185  3882 layer_factory.hpp:76] Creating layer pool5
I1111 07:12:36.031215  3882 net.cpp:106] Creating Layer pool5
I1111 07:12:36.031230  3882 net.cpp:454] pool5 <- conv5
I1111 07:12:36.031257  3882 net.cpp:411] pool5 -> pool5
I1111 07:12:36.031342  3882 net.cpp:150] Setting up pool5
I1111 07:12:36.031364  3882 net.cpp:157] Top shape: 1 256 6 6 (9216)
I1111 07:12:36.031374  3882 net.cpp:165] Memory required for data: 6143488
I1111 07:12:36.031388  3882 layer_factory.hpp:76] Creating layer fc6
I1111 07:12:36.031417  3882 net.cpp:106] Creating Layer fc6
I1111 07:12:36.031432  3882 net.cpp:454] fc6 <- pool5
I1111 07:12:36.031460  3882 net.cpp:411] fc6 -> fc6
I1111 07:12:36.224768  3882 net.cpp:150] Setting up fc6
I1111 07:12:36.224863  3882 net.cpp:157] Top shape: 1 4096 (4096)
I1111 07:12:36.224874  3882 net.cpp:165] Memory required for data: 6159872
I1111 07:12:36.224915  3882 layer_factory.hpp:76] Creating layer relu6
I1111 07:12:36.224977  3882 net.cpp:106] Creating Layer relu6
I1111 07:12:36.225003  3882 net.cpp:454] relu6 <- fc6
I1111 07:12:36.225042  3882 net.cpp:397] relu6 -> fc6 (in-place)
I1111 07:12:36.225080  3882 net.cpp:150] Setting up relu6
I1111 07:12:36.225096  3882 net.cpp:157] Top shape: 1 4096 (4096)
I1111 07:12:36.225106  3882 net.cpp:165] Memory required for data: 6176256
I1111 07:12:36.225117  3882 layer_factory.hpp:76] Creating layer drop6
I1111 07:12:36.225148  3882 net.cpp:106] Creating Layer drop6
I1111 07:12:36.225163  3882 net.cpp:454] drop6 <- fc6
I1111 07:12:36.225189  3882 net.cpp:397] drop6 -> fc6 (in-place)
I1111 07:12:36.225245  3882 net.cpp:150] Setting up drop6
I1111 07:12:36.225265  3882 net.cpp:157] Top shape: 1 4096 (4096)
I1111 07:12:36.225275  3882 net.cpp:165] Memory required for data: 6192640
I1111 07:12:36.225286  3882 layer_factory.hpp:76] Creating layer fc7
I1111 07:12:36.225316  3882 net.cpp:106] Creating Layer fc7
I1111 07:12:36.225330  3882 net.cpp:454] fc7 <- fc6
I1111 07:12:36.225361  3882 net.cpp:411] fc7 -> fc7
I1111 07:12:36.302196  3882 net.cpp:150] Setting up fc7
I1111 07:12:36.302283  3882 net.cpp:157] Top shape: 1 4096 (4096)
I1111 07:12:36.302294  3882 net.cpp:165] Memory required for data: 6209024
I1111 07:12:36.302336  3882 layer_factory.hpp:76] Creating layer relu7
I1111 07:12:36.302388  3882 net.cpp:106] Creating Layer relu7
I1111 07:12:36.302415  3882 net.cpp:454] relu7 <- fc7
I1111 07:12:36.302460  3882 net.cpp:397] relu7 -> fc7 (in-place)
I1111 07:12:36.302501  3882 net.cpp:150] Setting up relu7
I1111 07:12:36.302516  3882 net.cpp:157] Top shape: 1 4096 (4096)
I1111 07:12:36.302526  3882 net.cpp:165] Memory required for data: 6225408
I1111 07:12:36.302538  3882 layer_factory.hpp:76] Creating layer drop7
I1111 07:12:36.302568  3882 net.cpp:106] Creating Layer drop7
I1111 07:12:36.302583  3882 net.cpp:454] drop7 <- fc7
I1111 07:12:36.302613  3882 net.cpp:397] drop7 -> fc7 (in-place)
I1111 07:12:36.302670  3882 net.cpp:150] Setting up drop7
I1111 07:12:36.302690  3882 net.cpp:157] Top shape: 1 4096 (4096)
I1111 07:12:36.302700  3882 net.cpp:165] Memory required for data: 6241792
I1111 07:12:36.302711  3882 layer_factory.hpp:76] Creating layer fc8
I1111 07:12:36.302742  3882 net.cpp:106] Creating Layer fc8
I1111 07:12:36.302757  3882 net.cpp:454] fc8 <- fc7
I1111 07:12:36.302786  3882 net.cpp:411] fc8 -> fc8
I1111 07:12:36.322216  3882 net.cpp:150] Setting up fc8
I1111 07:12:36.322315  3882 net.cpp:157] Top shape: 1 1000 (1000)
I1111 07:12:36.322327  3882 net.cpp:165] Memory required for data: 6245792
I1111 07:12:36.322371  3882 layer_factory.hpp:76] Creating layer prob
I1111 07:12:36.322427  3882 net.cpp:106] Creating Layer prob
I1111 07:12:36.322453  3882 net.cpp:454] prob <- fc8
I1111 07:12:36.322500  3882 net.cpp:411] prob -> prob
I1111 07:12:36.322626  3882 net.cpp:150] Setting up prob
I1111 07:12:36.322649  3882 net.cpp:157] Top shape: 1 1000 (1000)
I1111 07:12:36.322659  3882 net.cpp:165] Memory required for data: 6249792
I1111 07:12:36.322674  3882 net.cpp:228] prob does not need backward computation.
I1111 07:12:36.322688  3882 net.cpp:228] fc8 does not need backward computation.
I1111 07:12:36.322700  3882 net.cpp:228] drop7 does not need backward computation.
I1111 07:12:36.322712  3882 net.cpp:228] relu7 does not need backward computation.
…
