…
lr_policy: "step"
gamma: 0.5
momentum: 0.98
weight_decay: 0
stepsize: 1500
snapshot: 1000
snapshot_prefix: "stitch"
solver_mode: GPU
random_seed: 0
net: "network.prototxt"
regularization_type: "L1"
I1110 22:03:31.952556  1532 solver.cpp:90] Creating training net from net file: network.prototxt
I1110 22:03:31.974959  1532 net.cpp:49] Initializing net from parameters: 
name: "StitchNet"
input: "net0"
input: "net1"
input_dim: 32
input_dim: 96
input_dim: 55
input_dim: 55
input_dim: 32
input_dim: 96
input_dim: 55
input_dim: 55
state {
  phase: TRAIN
}
debug_info: true
layer {
  name: "stitch0"
  type: "Convolution"
  bottom: "net0"
  top: "stitch0"
  convolution_param {
    num_output: 96
    kernel_size: 1
    stride: 1
    weight_filler {
      type: "gaussian"
      std: 0.01
    }
  }
}
layer {
  name: "loss"
  type: "EuclideanLoss"
  bottom: "stitch0"
  bottom: "net1"
  top: "loss"
  loss_weight: 1
}
I1110 22:03:31.975122  1532 net.cpp:413] Input 0 -> net0
I1110 22:03:32.012697  1532 net.cpp:413] Input 1 -> net1
I1110 22:03:32.012835  1532 layer_factory.hpp:76] Creating layer stitch0
I1110 22:03:32.012904  1532 net.cpp:106] Creating Layer stitch0
I1110 22:03:32.012928  1532 net.cpp:454] stitch0 <- net0
I1110 22:03:32.012967  1532 net.cpp:411] stitch0 -> stitch0
I1110 22:03:32.015759  1532 net.cpp:150] Setting up stitch0
I1110 22:03:32.015805  1532 net.cpp:157] Top shape: 32 96 55 55 (9292800)
I1110 22:03:32.015822  1532 net.cpp:165] Memory required for data: 37171200
I1110 22:03:32.015883  1532 layer_factory.hpp:76] Creating layer loss
I1110 22:03:32.015928  1532 net.cpp:106] Creating Layer loss
I1110 22:03:32.015949  1532 net.cpp:454] loss <- stitch0
I1110 22:03:32.015976  1532 net.cpp:454] loss <- net1
I1110 22:03:32.016005  1532 net.cpp:411] loss -> loss
I1110 22:03:32.016093  1532 net.cpp:150] Setting up loss
I1110 22:03:32.016119  1532 net.cpp:157] Top shape: (1)
I1110 22:03:32.016134  1532 net.cpp:160]     with loss weight 1
I1110 22:03:32.016151  1532 net.cpp:165] Memory required for data: 37171204
I1110 22:03:32.016172  1532 net.cpp:226] loss needs backward computation.
I1110 22:03:32.016190  1532 net.cpp:226] stitch0 needs backward computation.
I1110 22:03:32.016208  1532 net.cpp:270] This network produces output loss
I1110 22:03:32.016235  1532 net.cpp:283] Network initialization done.
I1110 22:03:32.016284  1532 solver.cpp:59] Solver scaffolding done.
I1110 22:03:32.140439  1532 net.cpp:49] Initializing net from parameters: 
name: "CaffeNet"
input: "data"
input_dim: 1
input_dim: 3
input_dim: 227
input_dim: 227
force_backward: true
state {
  phase: TEST
}
layer {
  name: "conv1"
  type: "Convolution"
  bottom: "data"
  top: "conv1"
  convolution_param {
    num_output: 96
    kernel_size: 11
    stride: 4
  }
}
layer {
  name: "relu1"
  type: "ReLU"
  bottom: "conv1"
  top: "conv1"
}
layer {
  name: "pool1"
  type: "Pooling"
  bottom: "conv1"
  top: "pool1"
  pooling_param {
    pool: MAX
    kernel_size: 3
    stride: 2
  }
}
layer {
  name: "norm1"
  type: "LRN"
  bottom: "pool1"
  top: "norm1"
  lrn_param {
    local_size: 5
    alpha: 0.0001
    beta: 0.75
  }
}
layer {
  name: "conv2"
  type: "Convolution"
  bottom: "norm1"
  top: "conv2"
  convolution_param {
    num_output: 256
    pad: 2
    kernel_size: 5
  }
}
layer {
  name: "relu2"
  type: "ReLU"
  bottom: "conv2"
  top: "conv2"
}
layer {
  name: "pool2"
  type: "Pooling"
  bottom: "conv2"
  top: "pool2"
  pooling_param {
    pool: MAX
    kernel_size: 3
    stride: 2
  }
}
layer {
  name: "norm2"
  type: "LRN"
  bottom: "pool2"
  top: "norm2"
  lrn_param {
    local_size: 5
    alpha: 0.0001
    beta: 0.75
  }
}
layer {
  name: "conv3"
  type: "Convolution"
  bottom: "norm2"
  top: "conv3"
  convolution_param {
    num_output: 384
    pad: 1
    kernel_size: 3
  }
}
layer {
  name: "relu3"
  type: "ReLU"
  bottom: "conv3"
  top: "conv3"
}
layer {
  name: "conv4"
  type: "Convolution"
  bottom: "conv3"
  top: "conv4"
  convolution_param {
    num_output: 384
    pad: 1
    kernel_size: 3
  }
}
layer {
  name: "relu4"
  type: "ReLU"
  bottom: "conv4"
  top: "conv4"
}
layer {
  name: "conv5"
  type: "Convolution"
  bottom: "conv4"
  top: "conv5"
  convolution_param {
    num_output: 256
    pad: 1
    kernel_size: 3
  }
}
layer {
  name: "relu5"
  type: "ReLU"
  bottom: "conv5"
  top: "conv5"
}
layer {
  name: "pool5"
  type: "Pooling"
  bottom: "conv5"
  top: "pool5"
  pooling_param {
    pool: MAX
    kernel_size: 3
    stride: 2
  }
}
layer {
  name: "fc6"
  type: "InnerProduct"
  bottom: "pool5"
  top: "fc6"
  inner_product_param {
    num_output: 4096
  }
}
layer {
  name: "relu6"
  type: "ReLU"
  bottom: "fc6"
  top: "fc6"
}
layer {
  name: "drop6"
  type: "Dropout"
  bottom: "fc6"
  top: "fc6"
  dropout_param {
    dropout_ratio: 0.5
  }
}
layer {
  name: "fc7"
  type: "InnerProduct"
  bottom: "fc6"
  top: "fc7"
  inner_product_param {
    num_output: 4096
  }
}
layer {
  name: "relu7"
  type: "ReLU"
  bottom: "fc7"
  top: "fc7"
}
layer {
  name: "drop7"
  type: "Dropout"
  bottom: "fc7"
  top: "fc7"
  dropout_param {
    dropout_ratio: 0.5
  }
}
layer {
  name: "fc8"
  type: "InnerProduct"
  bottom: "fc7"
  top: "fc8"
  inner_product_param {
    num_output: 1000
  }
}
layer {
  name: "prob"
  type: "Softmax"
  bottom: "fc8"
  top: "prob"
}
I1110 22:03:32.141029  1532 net.cpp:413] Input 0 -> data
I1110 22:03:32.141368  1532 layer_factory.hpp:76] Creating layer conv1
I1110 22:03:32.141468  1532 net.cpp:106] Creating Layer conv1
I1110 22:03:32.141515  1532 net.cpp:454] conv1 <- data
I1110 22:03:32.141613  1532 net.cpp:411] conv1 -> conv1
I1110 22:03:32.144994  1532 net.cpp:150] Setting up conv1
I1110 22:03:32.145059  1532 net.cpp:157] Top shape: 1 96 55 55 (290400)
I1110 22:03:32.145089  1532 net.cpp:165] Memory required for data: 1161600
I1110 22:03:32.145194  1532 layer_factory.hpp:76] Creating layer relu1
I1110 22:03:32.145283  1532 net.cpp:106] Creating Layer relu1
I1110 22:03:32.145324  1532 net.cpp:454] relu1 <- conv1
I1110 22:03:32.145388  1532 net.cpp:397] relu1 -> conv1 (in-place)
I1110 22:03:32.145458  1532 net.cpp:150] Setting up relu1
I1110 22:03:32.145501  1532 net.cpp:157] Top shape: 1 96 55 55 (290400)
I1110 22:03:32.145525  1532 net.cpp:165] Memory required for data: 2323200
I1110 22:03:32.145557  1532 layer_factory.hpp:76] Creating layer pool1
I1110 22:03:32.145627  1532 net.cpp:106] Creating Layer pool1
I1110 22:03:32.145670  1532 net.cpp:454] pool1 <- conv1
I1110 22:03:32.145741  1532 net.cpp:411] pool1 -> pool1
I1110 22:03:32.145932  1532 net.cpp:150] Setting up pool1
I1110 22:03:32.145987  1532 net.cpp:157] Top shape: 1 96 27 27 (69984)
I1110 22:03:32.146018  1532 net.cpp:165] Memory required for data: 2603136
I1110 22:03:32.146049  1532 layer_factory.hpp:76] Creating layer norm1
I1110 22:03:32.146116  1532 net.cpp:106] Creating Layer norm1
I1110 22:03:32.146152  1532 net.cpp:454] norm1 <- pool1
I1110 22:03:32.146232  1532 net.cpp:411] norm1 -> norm1
I1110 22:03:32.146395  1532 net.cpp:150] Setting up norm1
I1110 22:03:32.146450  1532 net.cpp:157] Top shape: 1 96 27 27 (69984)
I1110 22:03:32.146474  1532 net.cpp:165] Memory required for data: 2883072
I1110 22:03:32.146507  1532 layer_factory.hpp:76] Creating layer conv2
I1110 22:03:32.146587  1532 net.cpp:106] Creating Layer conv2
I1110 22:03:32.146632  1532 net.cpp:454] conv2 <- norm1
I1110 22:03:32.146698  1532 net.cpp:411] conv2 -> conv2
I1110 22:03:32.153089  1532 net.cpp:150] Setting up conv2
I1110 22:03:32.153136  1532 net.cpp:157] Top shape: 1 256 27 27 (186624)
I1110 22:03:32.153151  1532 net.cpp:165] Memory required for data: 3629568
I1110 22:03:32.153211  1532 layer_factory.hpp:76] Creating layer relu2
I1110 22:03:32.153256  1532 net.cpp:106] Creating Layer relu2
I1110 22:03:32.153281  1532 net.cpp:454] relu2 <- conv2
I1110 22:03:32.153316  1532 net.cpp:397] relu2 -> conv2 (in-place)
I1110 22:03:32.153354  1532 net.cpp:150] Setting up relu2
I1110 22:03:32.153373  1532 net.cpp:157] Top shape: 1 256 27 27 (186624)
I1110 22:03:32.153386  1532 net.cpp:165] Memory required for data: 4376064
I1110 22:03:32.153400  1532 layer_factory.hpp:76] Creating layer pool2
I1110 22:03:32.153431  1532 net.cpp:106] Creating Layer pool2
I1110 22:03:32.153448  1532 net.cpp:454] pool2 <- conv2
I1110 22:03:32.153486  1532 net.cpp:411] pool2 -> pool2
I1110 22:03:32.153579  1532 net.cpp:150] Setting up pool2
I1110 22:03:32.153606  1532 net.cpp:157] Top shape: 1 256 13 13 (43264)
I1110 22:03:32.153619  1532 net.cpp:165] Memory required for data: 4549120
I1110 22:03:32.153635  1532 layer_factory.hpp:76] Creating layer norm2
I1110 22:03:32.153669  1532 net.cpp:106] Creating Layer norm2
I1110 22:03:32.153689  1532 net.cpp:454] norm2 <- pool2
I1110 22:03:32.153725  1532 net.cpp:411] norm2 -> norm2
I1110 22:03:32.153806  1532 net.cpp:150] Setting up norm2
I1110 22:03:32.153831  1532 net.cpp:157] Top shape: 1 256 13 13 (43264)
I1110 22:03:32.153846  1532 net.cpp:165] Memory required for data: 4722176
I1110 22:03:32.153859  1532 layer_factory.hpp:76] Creating layer conv3
I1110 22:03:32.153904  1532 net.cpp:106] Creating Layer conv3
I1110 22:03:32.153924  1532 net.cpp:454] conv3 <- norm2
I1110 22:03:32.153962  1532 net.cpp:411] conv3 -> conv3
I1110 22:03:32.159657  1532 net.cpp:150] Setting up conv3
I1110 22:03:32.159715  1532 net.cpp:157] Top shape: 1 384 13 13 (64896)
I1110 22:03:32.159729  1532 net.cpp:165] Memory required for data: 4981760
I1110 22:03:32.159792  1532 layer_factory.hpp:76] Creating layer relu3
I1110 22:03:32.159832  1532 net.cpp:106] Creating Layer relu3
I1110 22:03:32.159855  1532 net.cpp:454] relu3 <- conv3
I1110 22:03:32.159888  1532 net.cpp:397] relu3 -> conv3 (in-place)
I1110 22:03:32.159925  1532 net.cpp:150] Setting up relu3
I1110 22:03:32.159945  1532 net.cpp:157] Top shape: 1 384 13 13 (64896)
I1110 22:03:32.159957  1532 net.cpp:165] Memory required for data: 5241344
I1110 22:03:32.159971  1532 layer_factory.hpp:76] Creating layer conv4
I1110 22:03:32.160006  1532 net.cpp:106] Creating Layer conv4
I1110 22:03:32.160023  1532 net.cpp:454] conv4 <- conv3
I1110 22:03:32.160061  1532 net.cpp:411] conv4 -> conv4
I1110 22:03:32.168547  1532 net.cpp:150] Setting up conv4
I1110 22:03:32.168609  1532 net.cpp:157] Top shape: 1 384 13 13 (64896)
I1110 22:03:32.168627  1532 net.cpp:165] Memory required for data: 5500928
I1110 22:03:32.168665  1532 layer_factory.hpp:76] Creating layer relu4
I1110 22:03:32.168712  1532 net.cpp:106] Creating Layer relu4
I1110 22:03:32.168737  1532 net.cpp:454] relu4 <- conv4
I1110 22:03:32.168779  1532 net.cpp:397] relu4 -> conv4 (in-place)
I1110 22:03:32.168819  1532 net.cpp:150] Setting up relu4
I1110 22:03:32.168840  1532 net.cpp:157] Top shape: 1 384 13 13 (64896)
I1110 22:03:32.168851  1532 net.cpp:165] Memory required for data: 5760512
I1110 22:03:32.168867  1532 layer_factory.hpp:76] Creating layer conv5
I1110 22:03:32.168901  1532 net.cpp:106] Creating Layer conv5
I1110 22:03:32.168921  1532 net.cpp:454] conv5 <- conv4
I1110 22:03:32.168954  1532 net.cpp:411] conv5 -> conv5
I1110 22:03:32.174733  1532 net.cpp:150] Setting up conv5
I1110 22:03:32.174784  1532 net.cpp:157] Top shape: 1 256 13 13 (43264)
I1110 22:03:32.174799  1532 net.cpp:165] Memory required for data: 5933568
I1110 22:03:32.174868  1532 layer_factory.hpp:76] Creating layer relu5
I1110 22:03:32.174913  1532 net.cpp:106] Creating Layer relu5
I1110 22:03:32.174937  1532 net.cpp:454] relu5 <- conv5
I1110 22:03:32.174973  1532 net.cpp:397] relu5 -> conv5 (in-place)
I1110 22:03:32.175007  1532 net.cpp:150] Setting up relu5
I1110 22:03:32.175029  1532 net.cpp:157] Top shape: 1 256 13 13 (43264)
I1110 22:03:32.175040  1532 net.cpp:165] Memory required for data: 6106624
I1110 22:03:32.175055  1532 layer_factory.hpp:76] Creating layer pool5
I1110 22:03:32.175091  1532 net.cpp:106] Creating Layer pool5
I1110 22:03:32.175110  1532 net.cpp:454] pool5 <- conv5
I1110 22:03:32.175143  1532 net.cpp:411] pool5 -> pool5
I1110 22:03:32.175240  1532 net.cpp:150] Setting up pool5
I1110 22:03:32.175266  1532 net.cpp:157] Top shape: 1 256 6 6 (9216)
I1110 22:03:32.175281  1532 net.cpp:165] Memory required for data: 6143488
I1110 22:03:32.175294  1532 layer_factory.hpp:76] Creating layer fc6
I1110 22:03:32.175326  1532 net.cpp:106] Creating Layer fc6
I1110 22:03:32.175343  1532 net.cpp:454] fc6 <- pool5
I1110 22:03:32.175380  1532 net.cpp:411] fc6 -> fc6
I1110 22:03:32.403987  1532 net.cpp:150] Setting up fc6
I1110 22:03:32.404073  1532 net.cpp:157] Top shape: 1 4096 (4096)
I1110 22:03:32.404088  1532 net.cpp:165] Memory required for data: 6159872
I1110 22:03:32.404141  1532 layer_factory.hpp:76] Creating layer relu6
I1110 22:03:32.404229  1532 net.cpp:106] Creating Layer relu6
I1110 22:03:32.404263  1532 net.cpp:454] relu6 <- fc6
I1110 22:03:32.404312  1532 net.cpp:397] relu6 -> fc6 (in-place)
I1110 22:03:32.404361  1532 net.cpp:150] Setting up relu6
I1110 22:03:32.404379  1532 net.cpp:157] Top shape: 1 4096 (4096)
I1110 22:03:32.404393  1532 net.cpp:165] Memory required for data: 6176256
I1110 22:03:32.404407  1532 layer_factory.hpp:76] Creating layer drop6
I1110 22:03:32.404453  1532 net.cpp:106] Creating Layer drop6
I1110 22:03:32.404469  1532 net.cpp:454] drop6 <- fc6
I1110 22:03:32.404510  1532 net.cpp:397] drop6 -> fc6 (in-place)
I1110 22:03:32.404583  1532 net.cpp:150] Setting up drop6
I1110 22:03:32.404608  1532 net.cpp:157] Top shape: 1 4096 (4096)
I1110 22:03:32.404619  1532 net.cpp:165] Memory required for data: 6192640
I1110 22:03:32.404636  1532 layer_factory.hpp:76] Creating layer fc7
I1110 22:03:32.404671  1532 net.cpp:106] Creating Layer fc7
I1110 22:03:32.404690  1532 net.cpp:454] fc7 <- fc6
I1110 22:03:32.404723  1532 net.cpp:411] fc7 -> fc7
I1110 22:03:32.505873  1532 net.cpp:150] Setting up fc7
I1110 22:03:32.505969  1532 net.cpp:157] Top shape: 1 4096 (4096)
I1110 22:03:32.505982  1532 net.cpp:165] Memory required for data: 6209024
I1110 22:03:32.506032  1532 layer_factory.hpp:76] Creating layer relu7
I1110 22:03:32.506086  1532 net.cpp:106] Creating Layer relu7
I1110 22:03:32.506116  1532 net.cpp:454] relu7 <- fc7
I1110 22:03:32.506167  1532 net.cpp:397] relu7 -> fc7 (in-place)
I1110 22:03:32.506214  1532 net.cpp:150] Setting up relu7
I1110 22:03:32.506232  1532 net.cpp:157] Top shape: 1 4096 (4096)
I1110 22:03:32.506244  1532 net.cpp:165] Memory required for data: 6225408
I1110 22:03:32.506258  1532 layer_factory.hpp:76] Creating layer drop7
I1110 22:03:32.506294  1532 net.cpp:106] Creating Layer drop7
I1110 22:03:32.506311  1532 net.cpp:454] drop7 <- fc7
I1110 22:03:32.506346  1532 net.cpp:397] drop7 -> fc7 (in-place)
I1110 22:03:32.506409  1532 net.cpp:150] Setting up drop7
I1110 22:03:32.506443  1532 net.cpp:157] Top shape: 1 4096 (4096)
I1110 22:03:32.506453  1532 net.cpp:165] Memory required for data: 6241792
I1110 22:03:32.506471  1532 layer_factory.hpp:76] Creating layer fc8
I1110 22:03:32.506520  1532 net.cpp:106] Creating Layer fc8
I1110 22:03:32.506537  1532 net.cpp:454] fc8 <- fc7
I1110 22:03:32.506577  1532 net.cpp:411] fc8 -> fc8
I1110 22:03:32.533732  1532 net.cpp:150] Setting up fc8
I1110 22:03:32.533805  1532 net.cpp:157] Top shape: 1 1000 (1000)
I1110 22:03:32.533819  1532 net.cpp:165] Memory required for data: 6245792
I1110 22:03:32.533870  1532 layer_factory.hpp:76] Creating layer prob
I1110 22:03:32.533941  1532 net.cpp:106] Creating Layer prob
I1110 22:03:32.533972  1532 net.cpp:454] prob <- fc8
I1110 22:03:32.534021  1532 net.cpp:411] prob -> prob
I1110 22:03:32.534158  1532 net.cpp:150] Setting up prob
I1110 22:03:32.534183  1532 net.cpp:157] Top shape: 1 1000 (1000)
I1110 22:03:32.534198  1532 net.cpp:165] Memory required for data: 6249792
I1110 22:03:32.534214  1532 net.cpp:228] prob does not need backward computation.
I1110 22:03:32.534232  1532 net.cpp:228] fc8 does not need backward computation.
I1110 22:03:32.534246  1532 net.cpp:228] drop7 does not need backward computation.
I1110 22:03:32.534262  1532 net.cpp:228] relu7 does not need backward computation.
…
I1110 22:03:35.619307  1532 net.cpp:923] Copying source layer drop6
I1110 22:03:35.619318  1532 net.cpp:923] Copying source layer fc7
I1110 22:03:35.829849  1532 net.cpp:923] Copying source layer relu7
I1110 22:03:35.829903  1532 net.cpp:923] Copying source layer drop7
I1110 22:03:35.829916  1532 net.cpp:923] Copying source layer fc8
I1110 22:03:35.880931  1532 net.cpp:920] Ignoring source layer loss
I1110 22:03:35.883723  1532 net.cpp:49] Initializing net from parameters: 
name: "CaffeNet"
input: "data"
input_dim: 1
input_dim: 3
input_dim: 227
input_dim: 227
force_backward: true
state {
  phase: TEST
}
layer {
  name: "conv1"
  type: "Convolution"
  bottom: "data"
  top: "conv1"
  convolution_param {
    num_output: 96
    kernel_size: 11
    stride: 4
  }
}
layer {
  name: "relu1"
  type: "ReLU"
  bottom: "conv1"
  top: "conv1"
}
layer {
  name: "pool1"
  type: "Pooling"
  bottom: "conv1"
  top: "pool1"
  pooling_param {
    pool: MAX
    kernel_size: 3
    stride: 2
  }
}
layer {
  name: "norm1"
  type: "LRN"
  bottom: "pool1"
  top: "norm1"
  lrn_param {
    local_size: 5
    alpha: 0.0001
    beta: 0.75
  }
}
layer {
  name: "conv2"
  type: "Convolution"
  bottom: "norm1"
  top: "conv2"
  convolution_param {
    num_output: 256
    pad: 2
    kernel_size: 5
  }
}
layer {
  name: "relu2"
  type: "ReLU"
  bottom: "conv2"
  top: "conv2"
}
layer {
  name: "pool2"
  type: "Pooling"
  bottom: "conv2"
  top: "pool2"
  pooling_param {
    pool: MAX
    kernel_size: 3
    stride: 2
  }
}
layer {
  name: "norm2"
  type: "LRN"
  bottom: "pool2"
  top: "norm2"
  lrn_param {
    local_size: 5
    alpha: 0.0001
    beta: 0.75
  }
}
layer {
  name: "conv3"
  type: "Convolution"
  bottom: "norm2"
  top: "conv3"
  convolution_param {
    num_output: 384
    pad: 1
    kernel_size: 3
  }
}
layer {
  name: "relu3"
  type: "ReLU"
  bottom: "conv3"
  top: "conv3"
}
layer {
  name: "conv4"
  type: "Convolution"
  bottom: "conv3"
  top: "conv4"
  convolution_param {
    num_output: 384
    pad: 1
    kernel_size: 3
  }
}
layer {
  name: "relu4"
  type: "ReLU"
  bottom: "conv4"
  top: "conv4"
}
layer {
  name: "conv5"
  type: "Convolution"
  bottom: "conv4"
  top: "conv5"
  convolution_param {
    num_output: 256
    pad: 1
    kernel_size: 3
  }
}
layer {
  name: "relu5"
  type: "ReLU"
  bottom: "conv5"
  top: "conv5"
}
layer {
  name: "pool5"
  type: "Pooling"
  bottom: "conv5"
  top: "pool5"
  pooling_param {
    pool: MAX
    kernel_size: 3
    stride: 2
  }
}
layer {
  name: "fc6"
  type: "InnerProduct"
  bottom: "pool5"
  top: "fc6"
  inner_product_param {
    num_output: 4096
  }
}
layer {
  name: "relu6"
  type: "ReLU"
  bottom: "fc6"
  top: "fc6"
}
layer {
  name: "drop6"
  type: "Dropout"
  bottom: "fc6"
  top: "fc6"
  dropout_param {
    dropout_ratio: 0.5
  }
}
layer {
  name: "fc7"
  type: "InnerProduct"
  bottom: "fc6"
  top: "fc7"
  inner_product_param {
    num_output: 4096
  }
}
layer {
  name: "relu7"
  type: "ReLU"
  bottom: "fc7"
  top: "fc7"
}
layer {
  name: "drop7"
  type: "Dropout"
  bottom: "fc7"
  top: "fc7"
  dropout_param {
    dropout_ratio: 0.5
  }
}
layer {
  name: "fc8"
  type: "InnerProduct"
  bottom: "fc7"
  top: "fc8"
  inner_product_param {
    num_output: 1000
  }
}
layer {
  name: "prob"
  type: "Softmax"
  bottom: "fc8"
  top: "prob"
}
I1110 22:03:35.883966  1532 net.cpp:413] Input 0 -> data
I1110 22:03:35.884158  1532 layer_factory.hpp:76] Creating layer conv1
I1110 22:03:35.884207  1532 net.cpp:106] Creating Layer conv1
I1110 22:03:35.884225  1532 net.cpp:454] conv1 <- data
I1110 22:03:35.884258  1532 net.cpp:411] conv1 -> conv1
I1110 22:03:35.884671  1532 net.cpp:150] Setting up conv1
I1110 22:03:35.884706  1532 net.cpp:157] Top shape: 1 96 55 55 (290400)
I1110 22:03:35.884716  1532 net.cpp:165] Memory required for data: 1161600
I1110 22:03:35.884766  1532 layer_factory.hpp:76] Creating layer relu1
I1110 22:03:35.884799  1532 net.cpp:106] Creating Layer relu1
I1110 22:03:35.884817  1532 net.cpp:454] relu1 <- conv1
I1110 22:03:35.884842  1532 net.cpp:397] relu1 -> conv1 (in-place)
I1110 22:03:35.884871  1532 net.cpp:150] Setting up relu1
I1110 22:03:35.884887  1532 net.cpp:157] Top shape: 1 96 55 55 (290400)
I1110 22:03:35.884898  1532 net.cpp:165] Memory required for data: 2323200
I1110 22:03:35.884910  1532 layer_factory.hpp:76] Creating layer pool1
I1110 22:03:35.884939  1532 net.cpp:106] Creating Layer pool1
I1110 22:03:35.884955  1532 net.cpp:454] pool1 <- conv1
I1110 22:03:35.884982  1532 net.cpp:411] pool1 -> pool1
I1110 22:03:35.885071  1532 net.cpp:150] Setting up pool1
I1110 22:03:35.885095  1532 net.cpp:157] Top shape: 1 96 27 27 (69984)
I1110 22:03:35.885105  1532 net.cpp:165] Memory required for data: 2603136
I1110 22:03:35.885118  1532 layer_factory.hpp:76] Creating layer norm1
I1110 22:03:35.885145  1532 net.cpp:106] Creating Layer norm1
I1110 22:03:35.885161  1532 net.cpp:454] norm1 <- pool1
I1110 22:03:35.885188  1532 net.cpp:411] norm1 -> norm1
I1110 22:03:35.885257  1532 net.cpp:150] Setting up norm1
I1110 22:03:35.885278  1532 net.cpp:157] Top shape: 1 96 27 27 (69984)
I1110 22:03:35.885288  1532 net.cpp:165] Memory required for data: 2883072
I1110 22:03:35.885301  1532 layer_factory.hpp:76] Creating layer conv2
I1110 22:03:35.885329  1532 net.cpp:106] Creating Layer conv2
I1110 22:03:35.885345  1532 net.cpp:454] conv2 <- norm1
I1110 22:03:35.885375  1532 net.cpp:411] conv2 -> conv2
I1110 22:03:35.889116  1532 net.cpp:150] Setting up conv2
I1110 22:03:35.889142  1532 net.cpp:157] Top shape: 1 256 27 27 (186624)
I1110 22:03:35.889154  1532 net.cpp:165] Memory required for data: 3629568
I1110 22:03:35.889189  1532 layer_factory.hpp:76] Creating layer relu2
I1110 22:03:35.889216  1532 net.cpp:106] Creating Layer relu2
I1110 22:03:35.889231  1532 net.cpp:454] relu2 <- conv2
I1110 22:03:35.889258  1532 net.cpp:397] relu2 -> conv2 (in-place)
I1110 22:03:35.889286  1532 net.cpp:150] Setting up relu2
I1110 22:03:35.889302  1532 net.cpp:157] Top shape: 1 256 27 27 (186624)
I1110 22:03:35.889312  1532 net.cpp:165] Memory required for data: 4376064
I1110 22:03:35.889323  1532 layer_factory.hpp:76] Creating layer pool2
I1110 22:03:35.889345  1532 net.cpp:106] Creating Layer pool2
I1110 22:03:35.889360  1532 net.cpp:454] pool2 <- conv2
I1110 22:03:35.889387  1532 net.cpp:411] pool2 -> pool2
I1110 22:03:35.889457  1532 net.cpp:150] Setting up pool2
I1110 22:03:35.889478  1532 net.cpp:157] Top shape: 1 256 13 13 (43264)
I1110 22:03:35.889489  1532 net.cpp:165] Memory required for data: 4549120
I1110 22:03:35.889502  1532 layer_factory.hpp:76] Creating layer norm2
I1110 22:03:35.889526  1532 net.cpp:106] Creating Layer norm2
I1110 22:03:35.889542  1532 net.cpp:454] norm2 <- pool2
I1110 22:03:35.889570  1532 net.cpp:411] norm2 -> norm2
I1110 22:03:35.889653  1532 net.cpp:150] Setting up norm2
I1110 22:03:35.889675  1532 net.cpp:157] Top shape: 1 256 13 13 (43264)
I1110 22:03:35.889686  1532 net.cpp:165] Memory required for data: 4722176
I1110 22:03:35.889698  1532 layer_factory.hpp:76] Creating layer conv3
I1110 22:03:35.889727  1532 net.cpp:106] Creating Layer conv3
I1110 22:03:35.889744  1532 net.cpp:454] conv3 <- norm2
I1110 22:03:35.889773  1532 net.cpp:411] conv3 -> conv3
I1110 22:03:35.895194  1532 net.cpp:150] Setting up conv3
I1110 22:03:35.895242  1532 net.cpp:157] Top shape: 1 384 13 13 (64896)
I1110 22:03:35.895254  1532 net.cpp:165] Memory required for data: 4981760
I1110 22:03:35.895318  1532 layer_factory.hpp:76] Creating layer relu3
I1110 22:03:35.895359  1532 net.cpp:106] Creating Layer relu3
I1110 22:03:35.895382  1532 net.cpp:454] relu3 <- conv3
I1110 22:03:35.895416  1532 net.cpp:397] relu3 -> conv3 (in-place)
I1110 22:03:35.895454  1532 net.cpp:150] Setting up relu3
I1110 22:03:35.895470  1532 net.cpp:157] Top shape: 1 384 13 13 (64896)
I1110 22:03:35.895481  1532 net.cpp:165] Memory required for data: 5241344
I1110 22:03:35.895493  1532 layer_factory.hpp:76] Creating layer conv4
I1110 22:03:35.895527  1532 net.cpp:106] Creating Layer conv4
I1110 22:03:35.895546  1532 net.cpp:454] conv4 <- conv3
I1110 22:03:35.895581  1532 net.cpp:411] conv4 -> conv4
I1110 22:03:35.903643  1532 net.cpp:150] Setting up conv4
I1110 22:03:35.903718  1532 net.cpp:157] Top shape: 1 384 13 13 (64896)
I1110 22:03:35.903731  1532 net.cpp:165] Memory required for data: 5500928
I1110 22:03:35.903769  1532 layer_factory.hpp:76] Creating layer relu4
I1110 22:03:35.903815  1532 net.cpp:106] Creating Layer relu4
I1110 22:03:35.903837  1532 net.cpp:454] relu4 <- conv4
I1110 22:03:35.903877  1532 net.cpp:397] relu4 -> conv4 (in-place)
I1110 22:03:35.903913  1532 net.cpp:150] Setting up relu4
I1110 22:03:35.903931  1532 net.cpp:157] Top shape: 1 384 13 13 (64896)
I1110 22:03:35.903940  1532 net.cpp:165] Memory required for data: 5760512
I1110 22:03:35.903954  1532 layer_factory.hpp:76] Creating layer conv5
I1110 22:03:35.903991  1532 net.cpp:106] Creating Layer conv5
I1110 22:03:35.904009  1532 net.cpp:454] conv5 <- conv4
I1110 22:03:35.904042  1532 net.cpp:411] conv5 -> conv5
I1110 22:03:35.909263  1532 net.cpp:150] Setting up conv5
I1110 22:03:35.909332  1532 net.cpp:157] Top shape: 1 256 13 13 (43264)
I1110 22:03:35.909344  1532 net.cpp:165] Memory required for data: 5933568
I1110 22:03:35.909409  1532 layer_factory.hpp:76] Creating layer relu5
I1110 22:03:35.909452  1532 net.cpp:106] Creating Layer relu5
I1110 22:03:35.909474  1532 net.cpp:454] relu5 <- conv5
I1110 22:03:35.909507  1532 net.cpp:397] relu5 -> conv5 (in-place)
I1110 22:03:35.909543  1532 net.cpp:150] Setting up relu5
I1110 22:03:35.909560  1532 net.cpp:157] Top shape: 1 256 13 13 (43264)
I1110 22:03:35.909569  1532 net.cpp:165] Memory required for data: 6106624
I1110 22:03:35.909610  1532 layer_factory.hpp:76] Creating layer pool5
I1110 22:03:35.909646  1532 net.cpp:106] Creating Layer pool5
I1110 22:03:35.909663  1532 net.cpp:454] pool5 <- conv5
I1110 22:03:35.909693  1532 net.cpp:411] pool5 -> pool5
I1110 22:03:35.909780  1532 net.cpp:150] Setting up pool5
I1110 22:03:35.909801  1532 net.cpp:157] Top shape: 1 256 6 6 (9216)
I1110 22:03:35.909813  1532 net.cpp:165] Memory required for data: 6143488
I1110 22:03:35.909826  1532 layer_factory.hpp:76] Creating layer fc6
I1110 22:03:35.909855  1532 net.cpp:106] Creating Layer fc6
I1110 22:03:35.909870  1532 net.cpp:454] fc6 <- pool5
I1110 22:03:35.909901  1532 net.cpp:411] fc6 -> fc6
I1110 22:03:36.121140  1532 net.cpp:150] Setting up fc6
I1110 22:03:36.121227  1532 net.cpp:157] Top shape: 1 4096 (4096)
I1110 22:03:36.121239  1532 net.cpp:165] Memory required for data: 6159872
I1110 22:03:36.121286  1532 layer_factory.hpp:76] Creating layer relu6
I1110 22:03:36.121357  1532 net.cpp:106] Creating Layer relu6
I1110 22:03:36.121387  1532 net.cpp:454] relu6 <- fc6
I1110 22:03:36.121429  1532 net.cpp:397] relu6 -> fc6 (in-place)
I1110 22:03:36.121474  1532 net.cpp:150] Setting up relu6
I1110 22:03:36.121490  1532 net.cpp:157] Top shape: 1 4096 (4096)
I1110 22:03:36.121502  1532 net.cpp:165] Memory required for data: 6176256
I1110 22:03:36.121515  1532 layer_factory.hpp:76] Creating layer drop6
I1110 22:03:36.121546  1532 net.cpp:106] Creating Layer drop6
I1110 22:03:36.121562  1532 net.cpp:454] drop6 <- fc6
I1110 22:03:36.121595  1532 net.cpp:397] drop6 -> fc6 (in-place)
I1110 22:03:36.121652  1532 net.cpp:150] Setting up drop6
I1110 22:03:36.121673  1532 net.cpp:157] Top shape: 1 4096 (4096)
I1110 22:03:36.121683  1532 net.cpp:165] Memory required for data: 6192640
I1110 22:03:36.121697  1532 layer_factory.hpp:76] Creating layer fc7
I1110 22:03:36.121731  1532 net.cpp:106] Creating Layer fc7
I1110 22:03:36.121749  1532 net.cpp:454] fc7 <- fc6
I1110 22:03:36.121778  1532 net.cpp:411] fc7 -> fc7
I1110 22:03:36.210459  1532 net.cpp:150] Setting up fc7
I1110 22:03:36.210532  1532 net.cpp:157] Top shape: 1 4096 (4096)
I1110 22:03:36.210546  1532 net.cpp:165] Memory required for data: 6209024
I1110 22:03:36.210597  1532 layer_factory.hpp:76] Creating layer relu7
I1110 22:03:36.210654  1532 net.cpp:106] Creating Layer relu7
I1110 22:03:36.210681  1532 net.cpp:454] relu7 <- fc7
I1110 22:03:36.210726  1532 net.cpp:397] relu7 -> fc7 (in-place)
I1110 22:03:36.210768  1532 net.cpp:150] Setting up relu7
I1110 22:03:36.210784  1532 net.cpp:157] Top shape: 1 4096 (4096)
I1110 22:03:36.210795  1532 net.cpp:165] Memory required for data: 6225408
I1110 22:03:36.210808  1532 layer_factory.hpp:76] Creating layer drop7
I1110 22:03:36.210839  1532 net.cpp:106] Creating Layer drop7
I1110 22:03:36.210854  1532 net.cpp:454] drop7 <- fc7
I1110 22:03:36.210882  1532 net.cpp:397] drop7 -> fc7 (in-place)
I1110 22:03:36.210938  1532 net.cpp:150] Setting up drop7
I1110 22:03:36.210963  1532 net.cpp:157] Top shape: 1 4096 (4096)
I1110 22:03:36.210973  1532 net.cpp:165] Memory required for data: 6241792
I1110 22:03:36.210989  1532 layer_factory.hpp:76] Creating layer fc8
I1110 22:03:36.211019  1532 net.cpp:106] Creating Layer fc8
I1110 22:03:36.211035  1532 net.cpp:454] fc8 <- fc7
I1110 22:03:36.211063  1532 net.cpp:411] fc8 -> fc8
I1110 22:03:36.232939  1532 net.cpp:150] Setting up fc8
I1110 22:03:36.233010  1532 net.cpp:157] Top shape: 1 1000 (1000)
I1110 22:03:36.233022  1532 net.cpp:165] Memory required for data: 6245792
I1110 22:03:36.233065  1532 layer_factory.hpp:76] Creating layer prob
I1110 22:03:36.233120  1532 net.cpp:106] Creating Layer prob
I1110 22:03:36.233149  1532 net.cpp:454] prob <- fc8
I1110 22:03:36.233191  1532 net.cpp:411] prob -> prob
I1110 22:03:36.233314  1532 net.cpp:150] Setting up prob
I1110 22:03:36.233336  1532 net.cpp:157] Top shape: 1 1000 (1000)
I1110 22:03:36.233350  1532 net.cpp:165] Memory required for data: 6249792
I1110 22:03:36.233366  1532 net.cpp:228] prob does not need backward computation.
I1110 22:03:36.233381  1532 net.cpp:228] fc8 does not need backward computation.
I1110 22:03:36.233394  1532 net.cpp:228] drop7 does not need backward computation.
I1110 22:03:36.233407  1532 net.cpp:228] relu7 does not need backward computation.
…
