…
gamma: 0.5
momentum: 0.98
weight_decay: 0.01
stepsize: 1500
snapshot: 1000
snapshot_prefix: "stitch"
solver_mode: GPU
random_seed: 0
net: "network.prototxt"
regularization_type: "L1"
I1110 22:03:31.979919  1566 solver.cpp:90] Creating training net from net file: network.prototxt
I1110 22:03:31.996328  1566 net.cpp:49] Initializing net from parameters: 
name: "StitchNet"
input: "net0"
input: "net1"
input_dim: 32
input_dim: 96
input_dim: 55
input_dim: 55
input_dim: 32
input_dim: 96
input_dim: 55
input_dim: 55
state {
  phase: TRAIN
}
debug_info: true
layer {
  name: "stitch0"
  type: "Convolution"
  bottom: "net0"
  top: "stitch0"
  convolution_param {
    num_output: 96
    kernel_size: 1
    stride: 1
    weight_filler {
      type: "gaussian"
      std: 0.01
    }
  }
}
layer {
  name: "loss"
  type: "EuclideanLoss"
  bottom: "stitch0"
  bottom: "net1"
  top: "loss"
  loss_weight: 1
}
I1110 22:03:31.996477  1566 net.cpp:413] Input 0 -> net0
I1110 22:03:32.029443  1566 net.cpp:413] Input 1 -> net1
I1110 22:03:32.029649  1566 layer_factory.hpp:76] Creating layer stitch0
I1110 22:03:32.029741  1566 net.cpp:106] Creating Layer stitch0
I1110 22:03:32.029764  1566 net.cpp:454] stitch0 <- net0
I1110 22:03:32.029806  1566 net.cpp:411] stitch0 -> stitch0
I1110 22:03:32.032261  1566 net.cpp:150] Setting up stitch0
I1110 22:03:32.032315  1566 net.cpp:157] Top shape: 32 96 55 55 (9292800)
I1110 22:03:32.032330  1566 net.cpp:165] Memory required for data: 37171200
I1110 22:03:32.032399  1566 layer_factory.hpp:76] Creating layer loss
I1110 22:03:32.032441  1566 net.cpp:106] Creating Layer loss
I1110 22:03:32.032460  1566 net.cpp:454] loss <- stitch0
I1110 22:03:32.032486  1566 net.cpp:454] loss <- net1
I1110 22:03:32.032513  1566 net.cpp:411] loss -> loss
I1110 22:03:32.032595  1566 net.cpp:150] Setting up loss
I1110 22:03:32.032620  1566 net.cpp:157] Top shape: (1)
I1110 22:03:32.032632  1566 net.cpp:160]     with loss weight 1
I1110 22:03:32.032660  1566 net.cpp:165] Memory required for data: 37171204
I1110 22:03:32.032680  1566 net.cpp:226] loss needs backward computation.
I1110 22:03:32.032697  1566 net.cpp:226] stitch0 needs backward computation.
I1110 22:03:32.032711  1566 net.cpp:270] This network produces output loss
I1110 22:03:32.032738  1566 net.cpp:283] Network initialization done.
I1110 22:03:32.032798  1566 solver.cpp:59] Solver scaffolding done.
I1110 22:03:32.140543  1566 net.cpp:49] Initializing net from parameters: 
name: "CaffeNet"
input: "data"
input_dim: 1
input_dim: 3
input_dim: 227
input_dim: 227
force_backward: true
state {
  phase: TEST
}
layer {
  name: "conv1"
  type: "Convolution"
  bottom: "data"
  top: "conv1"
  convolution_param {
    num_output: 96
    kernel_size: 11
    stride: 4
  }
}
layer {
  name: "relu1"
  type: "ReLU"
  bottom: "conv1"
  top: "conv1"
}
layer {
  name: "pool1"
  type: "Pooling"
  bottom: "conv1"
  top: "pool1"
  pooling_param {
    pool: MAX
    kernel_size: 3
    stride: 2
  }
}
layer {
  name: "norm1"
  type: "LRN"
  bottom: "pool1"
  top: "norm1"
  lrn_param {
    local_size: 5
    alpha: 0.0001
    beta: 0.75
  }
}
layer {
  name: "conv2"
  type: "Convolution"
  bottom: "norm1"
  top: "conv2"
  convolution_param {
    num_output: 256
    pad: 2
    kernel_size: 5
  }
}
layer {
  name: "relu2"
  type: "ReLU"
  bottom: "conv2"
  top: "conv2"
}
layer {
  name: "pool2"
  type: "Pooling"
  bottom: "conv2"
  top: "pool2"
  pooling_param {
    pool: MAX
    kernel_size: 3
    stride: 2
  }
}
layer {
  name: "norm2"
  type: "LRN"
  bottom: "pool2"
  top: "norm2"
  lrn_param {
    local_size: 5
    alpha: 0.0001
    beta: 0.75
  }
}
layer {
  name: "conv3"
  type: "Convolution"
  bottom: "norm2"
  top: "conv3"
  convolution_param {
    num_output: 384
    pad: 1
    kernel_size: 3
  }
}
layer {
  name: "relu3"
  type: "ReLU"
  bottom: "conv3"
  top: "conv3"
}
layer {
  name: "conv4"
  type: "Convolution"
  bottom: "conv3"
  top: "conv4"
  convolution_param {
    num_output: 384
    pad: 1
    kernel_size: 3
  }
}
layer {
  name: "relu4"
  type: "ReLU"
  bottom: "conv4"
  top: "conv4"
}
layer {
  name: "conv5"
  type: "Convolution"
  bottom: "conv4"
  top: "conv5"
  convolution_param {
    num_output: 256
    pad: 1
    kernel_size: 3
  }
}
layer {
  name: "relu5"
  type: "ReLU"
  bottom: "conv5"
  top: "conv5"
}
layer {
  name: "pool5"
  type: "Pooling"
  bottom: "conv5"
  top: "pool5"
  pooling_param {
    pool: MAX
    kernel_size: 3
    stride: 2
  }
}
layer {
  name: "fc6"
  type: "InnerProduct"
  bottom: "pool5"
  top: "fc6"
  inner_product_param {
    num_output: 4096
  }
}
layer {
  name: "relu6"
  type: "ReLU"
  bottom: "fc6"
  top: "fc6"
}
layer {
  name: "drop6"
  type: "Dropout"
  bottom: "fc6"
  top: "fc6"
  dropout_param {
    dropout_ratio: 0.5
  }
}
layer {
  name: "fc7"
  type: "InnerProduct"
  bottom: "fc6"
  top: "fc7"
  inner_product_param {
    num_output: 4096
  }
}
layer {
  name: "relu7"
  type: "ReLU"
  bottom: "fc7"
  top: "fc7"
}
layer {
  name: "drop7"
  type: "Dropout"
  bottom: "fc7"
  top: "fc7"
  dropout_param {
    dropout_ratio: 0.5
  }
}
layer {
  name: "fc8"
  type: "InnerProduct"
  bottom: "fc7"
  top: "fc8"
  inner_product_param {
    num_output: 1000
  }
}
layer {
  name: "prob"
  type: "Softmax"
  bottom: "fc8"
  top: "prob"
}
I1110 22:03:32.141083  1566 net.cpp:413] Input 0 -> data
I1110 22:03:32.141429  1566 layer_factory.hpp:76] Creating layer conv1
I1110 22:03:32.141530  1566 net.cpp:106] Creating Layer conv1
I1110 22:03:32.141574  1566 net.cpp:454] conv1 <- data
I1110 22:03:32.141659  1566 net.cpp:411] conv1 -> conv1
I1110 22:03:32.144883  1566 net.cpp:150] Setting up conv1
I1110 22:03:32.144958  1566 net.cpp:157] Top shape: 1 96 55 55 (290400)
I1110 22:03:32.144986  1566 net.cpp:165] Memory required for data: 1161600
I1110 22:03:32.145102  1566 layer_factory.hpp:76] Creating layer relu1
I1110 22:03:32.145184  1566 net.cpp:106] Creating Layer relu1
I1110 22:03:32.145227  1566 net.cpp:454] relu1 <- conv1
I1110 22:03:32.145290  1566 net.cpp:397] relu1 -> conv1 (in-place)
I1110 22:03:32.145364  1566 net.cpp:150] Setting up relu1
I1110 22:03:32.145403  1566 net.cpp:157] Top shape: 1 96 55 55 (290400)
I1110 22:03:32.145427  1566 net.cpp:165] Memory required for data: 2323200
I1110 22:03:32.145455  1566 layer_factory.hpp:76] Creating layer pool1
I1110 22:03:32.145520  1566 net.cpp:106] Creating Layer pool1
I1110 22:03:32.145570  1566 net.cpp:454] pool1 <- conv1
I1110 22:03:32.145651  1566 net.cpp:411] pool1 -> pool1
I1110 22:03:32.145850  1566 net.cpp:150] Setting up pool1
I1110 22:03:32.145908  1566 net.cpp:157] Top shape: 1 96 27 27 (69984)
I1110 22:03:32.145936  1566 net.cpp:165] Memory required for data: 2603136
I1110 22:03:32.145967  1566 layer_factory.hpp:76] Creating layer norm1
I1110 22:03:32.146028  1566 net.cpp:106] Creating Layer norm1
I1110 22:03:32.146066  1566 net.cpp:454] norm1 <- pool1
I1110 22:03:32.146134  1566 net.cpp:411] norm1 -> norm1
I1110 22:03:32.146297  1566 net.cpp:150] Setting up norm1
I1110 22:03:32.146350  1566 net.cpp:157] Top shape: 1 96 27 27 (69984)
I1110 22:03:32.146376  1566 net.cpp:165] Memory required for data: 2883072
I1110 22:03:32.146441  1566 layer_factory.hpp:76] Creating layer conv2
I1110 22:03:32.146515  1566 net.cpp:106] Creating Layer conv2
I1110 22:03:32.146556  1566 net.cpp:454] conv2 <- norm1
I1110 22:03:32.146638  1566 net.cpp:411] conv2 -> conv2
I1110 22:03:32.152581  1566 net.cpp:150] Setting up conv2
I1110 22:03:32.152631  1566 net.cpp:157] Top shape: 1 256 27 27 (186624)
I1110 22:03:32.152644  1566 net.cpp:165] Memory required for data: 3629568
I1110 22:03:32.152704  1566 layer_factory.hpp:76] Creating layer relu2
I1110 22:03:32.152741  1566 net.cpp:106] Creating Layer relu2
I1110 22:03:32.152762  1566 net.cpp:454] relu2 <- conv2
I1110 22:03:32.152793  1566 net.cpp:397] relu2 -> conv2 (in-place)
I1110 22:03:32.152827  1566 net.cpp:150] Setting up relu2
I1110 22:03:32.152844  1566 net.cpp:157] Top shape: 1 256 27 27 (186624)
I1110 22:03:32.152855  1566 net.cpp:165] Memory required for data: 4376064
I1110 22:03:32.152868  1566 layer_factory.hpp:76] Creating layer pool2
I1110 22:03:32.152896  1566 net.cpp:106] Creating Layer pool2
I1110 22:03:32.152914  1566 net.cpp:454] pool2 <- conv2
I1110 22:03:32.152945  1566 net.cpp:411] pool2 -> pool2
I1110 22:03:32.153028  1566 net.cpp:150] Setting up pool2
I1110 22:03:32.153053  1566 net.cpp:157] Top shape: 1 256 13 13 (43264)
I1110 22:03:32.153065  1566 net.cpp:165] Memory required for data: 4549120
I1110 22:03:32.153079  1566 layer_factory.hpp:76] Creating layer norm2
I1110 22:03:32.153110  1566 net.cpp:106] Creating Layer norm2
I1110 22:03:32.153128  1566 net.cpp:454] norm2 <- pool2
I1110 22:03:32.153162  1566 net.cpp:411] norm2 -> norm2
I1110 22:03:32.153236  1566 net.cpp:150] Setting up norm2
I1110 22:03:32.153260  1566 net.cpp:157] Top shape: 1 256 13 13 (43264)
I1110 22:03:32.153275  1566 net.cpp:165] Memory required for data: 4722176
I1110 22:03:32.153288  1566 layer_factory.hpp:76] Creating layer conv3
I1110 22:03:32.153329  1566 net.cpp:106] Creating Layer conv3
I1110 22:03:32.153348  1566 net.cpp:454] conv3 <- norm2
I1110 22:03:32.153380  1566 net.cpp:411] conv3 -> conv3
I1110 22:03:32.158479  1566 net.cpp:150] Setting up conv3
I1110 22:03:32.158521  1566 net.cpp:157] Top shape: 1 384 13 13 (64896)
I1110 22:03:32.158535  1566 net.cpp:165] Memory required for data: 4981760
I1110 22:03:32.158596  1566 layer_factory.hpp:76] Creating layer relu3
I1110 22:03:32.158643  1566 net.cpp:106] Creating Layer relu3
I1110 22:03:32.158665  1566 net.cpp:454] relu3 <- conv3
I1110 22:03:32.158699  1566 net.cpp:397] relu3 -> conv3 (in-place)
I1110 22:03:32.158733  1566 net.cpp:150] Setting up relu3
I1110 22:03:32.158751  1566 net.cpp:157] Top shape: 1 384 13 13 (64896)
I1110 22:03:32.158761  1566 net.cpp:165] Memory required for data: 5241344
I1110 22:03:32.158774  1566 layer_factory.hpp:76] Creating layer conv4
I1110 22:03:32.158804  1566 net.cpp:106] Creating Layer conv4
I1110 22:03:32.158823  1566 net.cpp:454] conv4 <- conv3
I1110 22:03:32.158854  1566 net.cpp:411] conv4 -> conv4
I1110 22:03:32.166498  1566 net.cpp:150] Setting up conv4
I1110 22:03:32.166548  1566 net.cpp:157] Top shape: 1 384 13 13 (64896)
I1110 22:03:32.166561  1566 net.cpp:165] Memory required for data: 5500928
I1110 22:03:32.166640  1566 layer_factory.hpp:76] Creating layer relu4
I1110 22:03:32.166685  1566 net.cpp:106] Creating Layer relu4
I1110 22:03:32.166708  1566 net.cpp:454] relu4 <- conv4
I1110 22:03:32.166745  1566 net.cpp:397] relu4 -> conv4 (in-place)
I1110 22:03:32.166782  1566 net.cpp:150] Setting up relu4
I1110 22:03:32.166800  1566 net.cpp:157] Top shape: 1 384 13 13 (64896)
I1110 22:03:32.166810  1566 net.cpp:165] Memory required for data: 5760512
I1110 22:03:32.166822  1566 layer_factory.hpp:76] Creating layer conv5
I1110 22:03:32.166854  1566 net.cpp:106] Creating Layer conv5
I1110 22:03:32.166872  1566 net.cpp:454] conv5 <- conv4
I1110 22:03:32.166903  1566 net.cpp:411] conv5 -> conv5
I1110 22:03:32.172276  1566 net.cpp:150] Setting up conv5
I1110 22:03:32.172320  1566 net.cpp:157] Top shape: 1 256 13 13 (43264)
I1110 22:03:32.172333  1566 net.cpp:165] Memory required for data: 5933568
I1110 22:03:32.172397  1566 layer_factory.hpp:76] Creating layer relu5
I1110 22:03:32.172437  1566 net.cpp:106] Creating Layer relu5
I1110 22:03:32.172459  1566 net.cpp:454] relu5 <- conv5
I1110 22:03:32.172492  1566 net.cpp:397] relu5 -> conv5 (in-place)
I1110 22:03:32.172526  1566 net.cpp:150] Setting up relu5
I1110 22:03:32.172544  1566 net.cpp:157] Top shape: 1 256 13 13 (43264)
I1110 22:03:32.172554  1566 net.cpp:165] Memory required for data: 6106624
I1110 22:03:32.172567  1566 layer_factory.hpp:76] Creating layer pool5
I1110 22:03:32.172597  1566 net.cpp:106] Creating Layer pool5
I1110 22:03:32.172626  1566 net.cpp:454] pool5 <- conv5
I1110 22:03:32.172665  1566 net.cpp:411] pool5 -> pool5
I1110 22:03:32.172781  1566 net.cpp:150] Setting up pool5
I1110 22:03:32.172808  1566 net.cpp:157] Top shape: 1 256 6 6 (9216)
I1110 22:03:32.172821  1566 net.cpp:165] Memory required for data: 6143488
I1110 22:03:32.172834  1566 layer_factory.hpp:76] Creating layer fc6
I1110 22:03:32.172865  1566 net.cpp:106] Creating Layer fc6
I1110 22:03:32.172883  1566 net.cpp:454] fc6 <- pool5
I1110 22:03:32.172917  1566 net.cpp:411] fc6 -> fc6
I1110 22:03:32.383222  1566 net.cpp:150] Setting up fc6
I1110 22:03:32.383301  1566 net.cpp:157] Top shape: 1 4096 (4096)
I1110 22:03:32.383314  1566 net.cpp:165] Memory required for data: 6159872
I1110 22:03:32.383361  1566 layer_factory.hpp:76] Creating layer relu6
I1110 22:03:32.383435  1566 net.cpp:106] Creating Layer relu6
I1110 22:03:32.383462  1566 net.cpp:454] relu6 <- fc6
I1110 22:03:32.383508  1566 net.cpp:397] relu6 -> fc6 (in-place)
I1110 22:03:32.383550  1566 net.cpp:150] Setting up relu6
I1110 22:03:32.383568  1566 net.cpp:157] Top shape: 1 4096 (4096)
I1110 22:03:32.383577  1566 net.cpp:165] Memory required for data: 6176256
I1110 22:03:32.383590  1566 layer_factory.hpp:76] Creating layer drop6
I1110 22:03:32.383637  1566 net.cpp:106] Creating Layer drop6
I1110 22:03:32.383656  1566 net.cpp:454] drop6 <- fc6
I1110 22:03:32.383685  1566 net.cpp:397] drop6 -> fc6 (in-place)
I1110 22:03:32.383751  1566 net.cpp:150] Setting up drop6
I1110 22:03:32.383771  1566 net.cpp:157] Top shape: 1 4096 (4096)
I1110 22:03:32.383782  1566 net.cpp:165] Memory required for data: 6192640
I1110 22:03:32.383795  1566 layer_factory.hpp:76] Creating layer fc7
I1110 22:03:32.383826  1566 net.cpp:106] Creating Layer fc7
I1110 22:03:32.383843  1566 net.cpp:454] fc7 <- fc6
I1110 22:03:32.383875  1566 net.cpp:411] fc7 -> fc7
I1110 22:03:32.472575  1566 net.cpp:150] Setting up fc7
I1110 22:03:32.472671  1566 net.cpp:157] Top shape: 1 4096 (4096)
I1110 22:03:32.472684  1566 net.cpp:165] Memory required for data: 6209024
I1110 22:03:32.472759  1566 layer_factory.hpp:76] Creating layer relu7
I1110 22:03:32.472817  1566 net.cpp:106] Creating Layer relu7
I1110 22:03:32.472844  1566 net.cpp:454] relu7 <- fc7
I1110 22:03:32.472890  1566 net.cpp:397] relu7 -> fc7 (in-place)
I1110 22:03:32.472934  1566 net.cpp:150] Setting up relu7
I1110 22:03:32.472950  1566 net.cpp:157] Top shape: 1 4096 (4096)
I1110 22:03:32.472960  1566 net.cpp:165] Memory required for data: 6225408
I1110 22:03:32.472975  1566 layer_factory.hpp:76] Creating layer drop7
I1110 22:03:32.473004  1566 net.cpp:106] Creating Layer drop7
I1110 22:03:32.473021  1566 net.cpp:454] drop7 <- fc7
I1110 22:03:32.473048  1566 net.cpp:397] drop7 -> fc7 (in-place)
I1110 22:03:32.473109  1566 net.cpp:150] Setting up drop7
I1110 22:03:32.473130  1566 net.cpp:157] Top shape: 1 4096 (4096)
I1110 22:03:32.473141  1566 net.cpp:165] Memory required for data: 6241792
I1110 22:03:32.473155  1566 layer_factory.hpp:76] Creating layer fc8
I1110 22:03:32.473186  1566 net.cpp:106] Creating Layer fc8
I1110 22:03:32.473202  1566 net.cpp:454] fc8 <- fc7
I1110 22:03:32.473234  1566 net.cpp:411] fc8 -> fc8
I1110 22:03:32.494936  1566 net.cpp:150] Setting up fc8
I1110 22:03:32.494994  1566 net.cpp:157] Top shape: 1 1000 (1000)
I1110 22:03:32.495007  1566 net.cpp:165] Memory required for data: 6245792
I1110 22:03:32.495045  1566 layer_factory.hpp:76] Creating layer prob
I1110 22:03:32.495097  1566 net.cpp:106] Creating Layer prob
I1110 22:03:32.495128  1566 net.cpp:454] prob <- fc8
I1110 22:03:32.495170  1566 net.cpp:411] prob -> prob
I1110 22:03:32.495290  1566 net.cpp:150] Setting up prob
I1110 22:03:32.495314  1566 net.cpp:157] Top shape: 1 1000 (1000)
I1110 22:03:32.495326  1566 net.cpp:165] Memory required for data: 6249792
I1110 22:03:32.495342  1566 net.cpp:228] prob does not need backward computation.
I1110 22:03:32.495357  1566 net.cpp:228] fc8 does not need backward computation.
I1110 22:03:32.495370  1566 net.cpp:228] drop7 does not need backward computation.
I1110 22:03:32.495383  1566 net.cpp:228] relu7 does not need backward computation.
…
I1110 22:03:35.230947  1566 net.cpp:923] Copying source layer drop6
I1110 22:03:35.230957  1566 net.cpp:923] Copying source layer fc7
I1110 22:03:35.438977  1566 net.cpp:923] Copying source layer relu7
I1110 22:03:35.439010  1566 net.cpp:923] Copying source layer drop7
I1110 22:03:35.439020  1566 net.cpp:923] Copying source layer fc8
I1110 22:03:35.489946  1566 net.cpp:920] Ignoring source layer loss
I1110 22:03:35.575765  1566 net.cpp:49] Initializing net from parameters: 
name: "CaffeNet"
input: "data"
input_dim: 1
input_dim: 3
input_dim: 227
input_dim: 227
force_backward: true
state {
  phase: TEST
}
layer {
  name: "conv1"
  type: "Convolution"
  bottom: "data"
  top: "conv1"
  convolution_param {
    num_output: 96
    kernel_size: 11
    stride: 4
  }
}
layer {
  name: "relu1"
  type: "ReLU"
  bottom: "conv1"
  top: "conv1"
}
layer {
  name: "pool1"
  type: "Pooling"
  bottom: "conv1"
  top: "pool1"
  pooling_param {
    pool: MAX
    kernel_size: 3
    stride: 2
  }
}
layer {
  name: "norm1"
  type: "LRN"
  bottom: "pool1"
  top: "norm1"
  lrn_param {
    local_size: 5
    alpha: 0.0001
    beta: 0.75
  }
}
layer {
  name: "conv2"
  type: "Convolution"
  bottom: "norm1"
  top: "conv2"
  convolution_param {
    num_output: 256
    pad: 2
    kernel_size: 5
  }
}
layer {
  name: "relu2"
  type: "ReLU"
  bottom: "conv2"
  top: "conv2"
}
layer {
  name: "pool2"
  type: "Pooling"
  bottom: "conv2"
  top: "pool2"
  pooling_param {
    pool: MAX
    kernel_size: 3
    stride: 2
  }
}
layer {
  name: "norm2"
  type: "LRN"
  bottom: "pool2"
  top: "norm2"
  lrn_param {
    local_size: 5
    alpha: 0.0001
    beta: 0.75
  }
}
layer {
  name: "conv3"
  type: "Convolution"
  bottom: "norm2"
  top: "conv3"
  convolution_param {
    num_output: 384
    pad: 1
    kernel_size: 3
  }
}
layer {
  name: "relu3"
  type: "ReLU"
  bottom: "conv3"
  top: "conv3"
}
layer {
  name: "conv4"
  type: "Convolution"
  bottom: "conv3"
  top: "conv4"
  convolution_param {
    num_output: 384
    pad: 1
    kernel_size: 3
  }
}
layer {
  name: "relu4"
  type: "ReLU"
  bottom: "conv4"
  top: "conv4"
}
layer {
  name: "conv5"
  type: "Convolution"
  bottom: "conv4"
  top: "conv5"
  convolution_param {
    num_output: 256
    pad: 1
    kernel_size: 3
  }
}
layer {
  name: "relu5"
  type: "ReLU"
  bottom: "conv5"
  top: "conv5"
}
layer {
  name: "pool5"
  type: "Pooling"
  bottom: "conv5"
  top: "pool5"
  pooling_param {
    pool: MAX
    kernel_size: 3
    stride: 2
  }
}
layer {
  name: "fc6"
  type: "InnerProduct"
  bottom: "pool5"
  top: "fc6"
  inner_product_param {
    num_output: 4096
  }
}
layer {
  name: "relu6"
  type: "ReLU"
  bottom: "fc6"
  top: "fc6"
}
layer {
  name: "drop6"
  type: "Dropout"
  bottom: "fc6"
  top: "fc6"
  dropout_param {
    dropout_ratio: 0.5
  }
}
layer {
  name: "fc7"
  type: "InnerProduct"
  bottom: "fc6"
  top: "fc7"
  inner_product_param {
    num_output: 4096
  }
}
layer {
  name: "relu7"
  type: "ReLU"
  bottom: "fc7"
  top: "fc7"
}
layer {
  name: "drop7"
  type: "Dropout"
  bottom: "fc7"
  top: "fc7"
  dropout_param {
    dropout_ratio: 0.5
  }
}
layer {
  name: "fc8"
  type: "InnerProduct"
  bottom: "fc7"
  top: "fc8"
  inner_product_param {
    num_output: 1000
  }
}
layer {
  name: "prob"
  type: "Softmax"
  bottom: "fc8"
  top: "prob"
}
I1110 22:03:35.576040  1566 net.cpp:413] Input 0 -> data
I1110 22:03:35.576256  1566 layer_factory.hpp:76] Creating layer conv1
I1110 22:03:35.576316  1566 net.cpp:106] Creating Layer conv1
I1110 22:03:35.576335  1566 net.cpp:454] conv1 <- data
I1110 22:03:35.576367  1566 net.cpp:411] conv1 -> conv1
I1110 22:03:35.576776  1566 net.cpp:150] Setting up conv1
I1110 22:03:35.576807  1566 net.cpp:157] Top shape: 1 96 55 55 (290400)
I1110 22:03:35.576824  1566 net.cpp:165] Memory required for data: 1161600
I1110 22:03:35.576877  1566 layer_factory.hpp:76] Creating layer relu1
I1110 22:03:35.576908  1566 net.cpp:106] Creating Layer relu1
I1110 22:03:35.576925  1566 net.cpp:454] relu1 <- conv1
I1110 22:03:35.576949  1566 net.cpp:397] relu1 -> conv1 (in-place)
I1110 22:03:35.576977  1566 net.cpp:150] Setting up relu1
I1110 22:03:35.577000  1566 net.cpp:157] Top shape: 1 96 55 55 (290400)
I1110 22:03:35.577011  1566 net.cpp:165] Memory required for data: 2323200
I1110 22:03:35.577023  1566 layer_factory.hpp:76] Creating layer pool1
I1110 22:03:35.577050  1566 net.cpp:106] Creating Layer pool1
I1110 22:03:35.577067  1566 net.cpp:454] pool1 <- conv1
I1110 22:03:35.577095  1566 net.cpp:411] pool1 -> pool1
I1110 22:03:35.577169  1566 net.cpp:150] Setting up pool1
I1110 22:03:35.577193  1566 net.cpp:157] Top shape: 1 96 27 27 (69984)
I1110 22:03:35.577203  1566 net.cpp:165] Memory required for data: 2603136
I1110 22:03:35.577215  1566 layer_factory.hpp:76] Creating layer norm1
I1110 22:03:35.577244  1566 net.cpp:106] Creating Layer norm1
I1110 22:03:35.577260  1566 net.cpp:454] norm1 <- pool1
I1110 22:03:35.577287  1566 net.cpp:411] norm1 -> norm1
I1110 22:03:35.577353  1566 net.cpp:150] Setting up norm1
I1110 22:03:35.577374  1566 net.cpp:157] Top shape: 1 96 27 27 (69984)
I1110 22:03:35.577384  1566 net.cpp:165] Memory required for data: 2883072
I1110 22:03:35.577397  1566 layer_factory.hpp:76] Creating layer conv2
I1110 22:03:35.577425  1566 net.cpp:106] Creating Layer conv2
I1110 22:03:35.577441  1566 net.cpp:454] conv2 <- norm1
I1110 22:03:35.577471  1566 net.cpp:411] conv2 -> conv2
I1110 22:03:35.581542  1566 net.cpp:150] Setting up conv2
I1110 22:03:35.581589  1566 net.cpp:157] Top shape: 1 256 27 27 (186624)
I1110 22:03:35.581601  1566 net.cpp:165] Memory required for data: 3629568
I1110 22:03:35.581677  1566 layer_factory.hpp:76] Creating layer relu2
I1110 22:03:35.581722  1566 net.cpp:106] Creating Layer relu2
I1110 22:03:35.581756  1566 net.cpp:454] relu2 <- conv2
I1110 22:03:35.581790  1566 net.cpp:397] relu2 -> conv2 (in-place)
I1110 22:03:35.581825  1566 net.cpp:150] Setting up relu2
I1110 22:03:35.581850  1566 net.cpp:157] Top shape: 1 256 27 27 (186624)
I1110 22:03:35.581859  1566 net.cpp:165] Memory required for data: 4376064
I1110 22:03:35.581871  1566 layer_factory.hpp:76] Creating layer pool2
I1110 22:03:35.581899  1566 net.cpp:106] Creating Layer pool2
I1110 22:03:35.581914  1566 net.cpp:454] pool2 <- conv2
I1110 22:03:35.581943  1566 net.cpp:411] pool2 -> pool2
I1110 22:03:35.582020  1566 net.cpp:150] Setting up pool2
I1110 22:03:35.582041  1566 net.cpp:157] Top shape: 1 256 13 13 (43264)
I1110 22:03:35.582052  1566 net.cpp:165] Memory required for data: 4549120
I1110 22:03:35.582064  1566 layer_factory.hpp:76] Creating layer norm2
I1110 22:03:35.582093  1566 net.cpp:106] Creating Layer norm2
I1110 22:03:35.582108  1566 net.cpp:454] norm2 <- pool2
I1110 22:03:35.582136  1566 net.cpp:411] norm2 -> norm2
I1110 22:03:35.582203  1566 net.cpp:150] Setting up norm2
I1110 22:03:35.582224  1566 net.cpp:157] Top shape: 1 256 13 13 (43264)
I1110 22:03:35.582234  1566 net.cpp:165] Memory required for data: 4722176
I1110 22:03:35.582247  1566 layer_factory.hpp:76] Creating layer conv3
I1110 22:03:35.582284  1566 net.cpp:106] Creating Layer conv3
I1110 22:03:35.582301  1566 net.cpp:454] conv3 <- norm2
I1110 22:03:35.582329  1566 net.cpp:411] conv3 -> conv3
I1110 22:03:35.587592  1566 net.cpp:150] Setting up conv3
I1110 22:03:35.587637  1566 net.cpp:157] Top shape: 1 384 13 13 (64896)
I1110 22:03:35.587648  1566 net.cpp:165] Memory required for data: 4981760
I1110 22:03:35.587718  1566 layer_factory.hpp:76] Creating layer relu3
I1110 22:03:35.587759  1566 net.cpp:106] Creating Layer relu3
I1110 22:03:35.587779  1566 net.cpp:454] relu3 <- conv3
I1110 22:03:35.587810  1566 net.cpp:397] relu3 -> conv3 (in-place)
I1110 22:03:35.587842  1566 net.cpp:150] Setting up relu3
I1110 22:03:35.587858  1566 net.cpp:157] Top shape: 1 384 13 13 (64896)
I1110 22:03:35.587867  1566 net.cpp:165] Memory required for data: 5241344
I1110 22:03:35.587878  1566 layer_factory.hpp:76] Creating layer conv4
I1110 22:03:35.587908  1566 net.cpp:106] Creating Layer conv4
I1110 22:03:35.587923  1566 net.cpp:454] conv4 <- conv3
I1110 22:03:35.587950  1566 net.cpp:411] conv4 -> conv4
I1110 22:03:35.595489  1566 net.cpp:150] Setting up conv4
I1110 22:03:35.595537  1566 net.cpp:157] Top shape: 1 384 13 13 (64896)
I1110 22:03:35.595549  1566 net.cpp:165] Memory required for data: 5500928
I1110 22:03:35.595583  1566 layer_factory.hpp:76] Creating layer relu4
I1110 22:03:35.595621  1566 net.cpp:106] Creating Layer relu4
I1110 22:03:35.595641  1566 net.cpp:454] relu4 <- conv4
I1110 22:03:35.595676  1566 net.cpp:397] relu4 -> conv4 (in-place)
I1110 22:03:35.595713  1566 net.cpp:150] Setting up relu4
I1110 22:03:35.595729  1566 net.cpp:157] Top shape: 1 384 13 13 (64896)
I1110 22:03:35.595738  1566 net.cpp:165] Memory required for data: 5760512
I1110 22:03:35.595749  1566 layer_factory.hpp:76] Creating layer conv5
I1110 22:03:35.595778  1566 net.cpp:106] Creating Layer conv5
I1110 22:03:35.595793  1566 net.cpp:454] conv5 <- conv4
I1110 22:03:35.595821  1566 net.cpp:411] conv5 -> conv5
I1110 22:03:35.600744  1566 net.cpp:150] Setting up conv5
I1110 22:03:35.600776  1566 net.cpp:157] Top shape: 1 256 13 13 (43264)
I1110 22:03:35.600786  1566 net.cpp:165] Memory required for data: 5933568
I1110 22:03:35.600834  1566 layer_factory.hpp:76] Creating layer relu5
I1110 22:03:35.600862  1566 net.cpp:106] Creating Layer relu5
I1110 22:03:35.600878  1566 net.cpp:454] relu5 <- conv5
I1110 22:03:35.600903  1566 net.cpp:397] relu5 -> conv5 (in-place)
I1110 22:03:35.600930  1566 net.cpp:150] Setting up relu5
I1110 22:03:35.600945  1566 net.cpp:157] Top shape: 1 256 13 13 (43264)
I1110 22:03:35.600955  1566 net.cpp:165] Memory required for data: 6106624
I1110 22:03:35.600966  1566 layer_factory.hpp:76] Creating layer pool5
I1110 22:03:35.600992  1566 net.cpp:106] Creating Layer pool5
I1110 22:03:35.601007  1566 net.cpp:454] pool5 <- conv5
I1110 22:03:35.601034  1566 net.cpp:411] pool5 -> pool5
I1110 22:03:35.601109  1566 net.cpp:150] Setting up pool5
I1110 22:03:35.601131  1566 net.cpp:157] Top shape: 1 256 6 6 (9216)
I1110 22:03:35.601141  1566 net.cpp:165] Memory required for data: 6143488
I1110 22:03:35.601153  1566 layer_factory.hpp:76] Creating layer fc6
I1110 22:03:35.601179  1566 net.cpp:106] Creating Layer fc6
I1110 22:03:35.601194  1566 net.cpp:454] fc6 <- pool5
I1110 22:03:35.601222  1566 net.cpp:411] fc6 -> fc6
I1110 22:03:35.788585  1566 net.cpp:150] Setting up fc6
I1110 22:03:35.788636  1566 net.cpp:157] Top shape: 1 4096 (4096)
I1110 22:03:35.788647  1566 net.cpp:165] Memory required for data: 6159872
I1110 22:03:35.788682  1566 layer_factory.hpp:76] Creating layer relu6
I1110 22:03:35.788738  1566 net.cpp:106] Creating Layer relu6
I1110 22:03:35.788761  1566 net.cpp:454] relu6 <- fc6
I1110 22:03:35.788795  1566 net.cpp:397] relu6 -> fc6 (in-place)
I1110 22:03:35.788830  1566 net.cpp:150] Setting up relu6
I1110 22:03:35.788844  1566 net.cpp:157] Top shape: 1 4096 (4096)
I1110 22:03:35.788853  1566 net.cpp:165] Memory required for data: 6176256
I1110 22:03:35.788864  1566 layer_factory.hpp:76] Creating layer drop6
I1110 22:03:35.788890  1566 net.cpp:106] Creating Layer drop6
I1110 22:03:35.788904  1566 net.cpp:454] drop6 <- fc6
I1110 22:03:35.788929  1566 net.cpp:397] drop6 -> fc6 (in-place)
I1110 22:03:35.788981  1566 net.cpp:150] Setting up drop6
I1110 22:03:35.789000  1566 net.cpp:157] Top shape: 1 4096 (4096)
I1110 22:03:35.789008  1566 net.cpp:165] Memory required for data: 6192640
I1110 22:03:35.789021  1566 layer_factory.hpp:76] Creating layer fc7
I1110 22:03:35.789046  1566 net.cpp:106] Creating Layer fc7
I1110 22:03:35.789060  1566 net.cpp:454] fc7 <- fc6
I1110 22:03:35.789088  1566 net.cpp:411] fc7 -> fc7
I1110 22:03:35.865166  1566 net.cpp:150] Setting up fc7
I1110 22:03:35.865217  1566 net.cpp:157] Top shape: 1 4096 (4096)
I1110 22:03:35.865228  1566 net.cpp:165] Memory required for data: 6209024
I1110 22:03:35.865262  1566 layer_factory.hpp:76] Creating layer relu7
I1110 22:03:35.865299  1566 net.cpp:106] Creating Layer relu7
I1110 22:03:35.865319  1566 net.cpp:454] relu7 <- fc7
I1110 22:03:35.865353  1566 net.cpp:397] relu7 -> fc7 (in-place)
I1110 22:03:35.865386  1566 net.cpp:150] Setting up relu7
I1110 22:03:35.865401  1566 net.cpp:157] Top shape: 1 4096 (4096)
I1110 22:03:35.865409  1566 net.cpp:165] Memory required for data: 6225408
I1110 22:03:35.865420  1566 layer_factory.hpp:76] Creating layer drop7
I1110 22:03:35.865445  1566 net.cpp:106] Creating Layer drop7
I1110 22:03:35.865459  1566 net.cpp:454] drop7 <- fc7
I1110 22:03:35.865484  1566 net.cpp:397] drop7 -> fc7 (in-place)
I1110 22:03:35.865536  1566 net.cpp:150] Setting up drop7
I1110 22:03:35.865555  1566 net.cpp:157] Top shape: 1 4096 (4096)
I1110 22:03:35.865563  1566 net.cpp:165] Memory required for data: 6241792
I1110 22:03:35.865576  1566 layer_factory.hpp:76] Creating layer fc8
I1110 22:03:35.865600  1566 net.cpp:106] Creating Layer fc8
I1110 22:03:35.865615  1566 net.cpp:454] fc8 <- fc7
I1110 22:03:35.865643  1566 net.cpp:411] fc8 -> fc8
I1110 22:03:35.884227  1566 net.cpp:150] Setting up fc8
I1110 22:03:35.884268  1566 net.cpp:157] Top shape: 1 1000 (1000)
I1110 22:03:35.884280  1566 net.cpp:165] Memory required for data: 6245792
I1110 22:03:35.884313  1566 layer_factory.hpp:76] Creating layer prob
I1110 22:03:35.884349  1566 net.cpp:106] Creating Layer prob
I1110 22:03:35.884369  1566 net.cpp:454] prob <- fc8
I1110 22:03:35.884402  1566 net.cpp:411] prob -> prob
I1110 22:03:35.884505  1566 net.cpp:150] Setting up prob
I1110 22:03:35.884526  1566 net.cpp:157] Top shape: 1 1000 (1000)
I1110 22:03:35.884536  1566 net.cpp:165] Memory required for data: 6249792
I1110 22:03:35.884551  1566 net.cpp:228] prob does not need backward computation.
I1110 22:03:35.884563  1566 net.cpp:228] fc8 does not need backward computation.
I1110 22:03:35.884574  1566 net.cpp:228] drop7 does not need backward computation.
I1110 22:03:35.884585  1566 net.cpp:228] relu7 does not need backward computation.
…
