…
gamma: 0.5
momentum: 0.98
weight_decay: 0.0001
stepsize: 1500
snapshot: 1000
snapshot_prefix: "stitch"
solver_mode: GPU
random_seed: 0
net: "network.prototxt"
regularization_type: "L1"
I1110 22:03:31.941411  1608 solver.cpp:90] Creating training net from net file: network.prototxt
I1110 22:03:31.974964  1608 net.cpp:49] Initializing net from parameters: 
name: "StitchNet"
input: "net0"
input: "net1"
input_dim: 32
input_dim: 96
input_dim: 55
input_dim: 55
input_dim: 32
input_dim: 96
input_dim: 55
input_dim: 55
state {
  phase: TRAIN
}
debug_info: true
layer {
  name: "stitch0"
  type: "Convolution"
  bottom: "net0"
  top: "stitch0"
  convolution_param {
    num_output: 96
    kernel_size: 1
    stride: 1
    weight_filler {
      type: "gaussian"
      std: 0.01
    }
  }
}
layer {
  name: "loss"
  type: "EuclideanLoss"
  bottom: "stitch0"
  bottom: "net1"
  top: "loss"
  loss_weight: 1
}
I1110 22:03:31.975122  1608 net.cpp:413] Input 0 -> net0
I1110 22:03:32.012537  1608 net.cpp:413] Input 1 -> net1
I1110 22:03:32.012737  1608 layer_factory.hpp:76] Creating layer stitch0
I1110 22:03:32.012835  1608 net.cpp:106] Creating Layer stitch0
I1110 22:03:32.012857  1608 net.cpp:454] stitch0 <- net0
I1110 22:03:32.012899  1608 net.cpp:411] stitch0 -> stitch0
I1110 22:03:32.015483  1608 net.cpp:150] Setting up stitch0
I1110 22:03:32.015540  1608 net.cpp:157] Top shape: 32 96 55 55 (9292800)
I1110 22:03:32.015554  1608 net.cpp:165] Memory required for data: 37171200
I1110 22:03:32.015622  1608 layer_factory.hpp:76] Creating layer loss
I1110 22:03:32.015661  1608 net.cpp:106] Creating Layer loss
I1110 22:03:32.015681  1608 net.cpp:454] loss <- stitch0
I1110 22:03:32.015704  1608 net.cpp:454] loss <- net1
I1110 22:03:32.015732  1608 net.cpp:411] loss -> loss
I1110 22:03:32.015811  1608 net.cpp:150] Setting up loss
I1110 22:03:32.015837  1608 net.cpp:157] Top shape: (1)
I1110 22:03:32.015848  1608 net.cpp:160]     with loss weight 1
I1110 22:03:32.015872  1608 net.cpp:165] Memory required for data: 37171204
I1110 22:03:32.015892  1608 net.cpp:226] loss needs backward computation.
I1110 22:03:32.015908  1608 net.cpp:226] stitch0 needs backward computation.
I1110 22:03:32.015921  1608 net.cpp:270] This network produces output loss
I1110 22:03:32.015949  1608 net.cpp:283] Network initialization done.
I1110 22:03:32.016005  1608 solver.cpp:59] Solver scaffolding done.
I1110 22:03:32.140348  1608 net.cpp:49] Initializing net from parameters: 
name: "CaffeNet"
input: "data"
input_dim: 1
input_dim: 3
input_dim: 227
input_dim: 227
force_backward: true
state {
  phase: TEST
}
layer {
  name: "conv1"
  type: "Convolution"
  bottom: "data"
  top: "conv1"
  convolution_param {
    num_output: 96
    kernel_size: 11
    stride: 4
  }
}
layer {
  name: "relu1"
  type: "ReLU"
  bottom: "conv1"
  top: "conv1"
}
layer {
  name: "pool1"
  type: "Pooling"
  bottom: "conv1"
  top: "pool1"
  pooling_param {
    pool: MAX
    kernel_size: 3
    stride: 2
  }
}
layer {
  name: "norm1"
  type: "LRN"
  bottom: "pool1"
  top: "norm1"
  lrn_param {
    local_size: 5
    alpha: 0.0001
    beta: 0.75
  }
}
layer {
  name: "conv2"
  type: "Convolution"
  bottom: "norm1"
  top: "conv2"
  convolution_param {
    num_output: 256
    pad: 2
    kernel_size: 5
  }
}
layer {
  name: "relu2"
  type: "ReLU"
  bottom: "conv2"
  top: "conv2"
}
layer {
  name: "pool2"
  type: "Pooling"
  bottom: "conv2"
  top: "pool2"
  pooling_param {
    pool: MAX
    kernel_size: 3
    stride: 2
  }
}
layer {
  name: "norm2"
  type: "LRN"
  bottom: "pool2"
  top: "norm2"
  lrn_param {
    local_size: 5
    alpha: 0.0001
    beta: 0.75
  }
}
layer {
  name: "conv3"
  type: "Convolution"
  bottom: "norm2"
  top: "conv3"
  convolution_param {
    num_output: 384
    pad: 1
    kernel_size: 3
  }
}
layer {
  name: "relu3"
  type: "ReLU"
  bottom: "conv3"
  top: "conv3"
}
layer {
  name: "conv4"
  type: "Convolution"
  bottom: "conv3"
  top: "conv4"
  convolution_param {
    num_output: 384
    pad: 1
    kernel_size: 3
  }
}
layer {
  name: "relu4"
  type: "ReLU"
  bottom: "conv4"
  top: "conv4"
}
layer {
  name: "conv5"
  type: "Convolution"
  bottom: "conv4"
  top: "conv5"
  convolution_param {
    num_output: 256
    pad: 1
    kernel_size: 3
  }
}
layer {
  name: "relu5"
  type: "ReLU"
  bottom: "conv5"
  top: "conv5"
}
layer {
  name: "pool5"
  type: "Pooling"
  bottom: "conv5"
  top: "pool5"
  pooling_param {
    pool: MAX
    kernel_size: 3
    stride: 2
  }
}
layer {
  name: "fc6"
  type: "InnerProduct"
  bottom: "pool5"
  top: "fc6"
  inner_product_param {
    num_output: 4096
  }
}
layer {
  name: "relu6"
  type: "ReLU"
  bottom: "fc6"
  top: "fc6"
}
layer {
  name: "drop6"
  type: "Dropout"
  bottom: "fc6"
  top: "fc6"
  dropout_param {
    dropout_ratio: 0.5
  }
}
layer {
  name: "fc7"
  type: "InnerProduct"
  bottom: "fc6"
  top: "fc7"
  inner_product_param {
    num_output: 4096
  }
}
layer {
  name: "relu7"
  type: "ReLU"
  bottom: "fc7"
  top: "fc7"
}
layer {
  name: "drop7"
  type: "Dropout"
  bottom: "fc7"
  top: "fc7"
  dropout_param {
    dropout_ratio: 0.5
  }
}
layer {
  name: "fc8"
  type: "InnerProduct"
  bottom: "fc7"
  top: "fc8"
  inner_product_param {
    num_output: 1000
  }
}
layer {
  name: "prob"
  type: "Softmax"
  bottom: "fc8"
  top: "prob"
}
I1110 22:03:32.140903  1608 net.cpp:413] Input 0 -> data
I1110 22:03:32.141242  1608 layer_factory.hpp:76] Creating layer conv1
I1110 22:03:32.141342  1608 net.cpp:106] Creating Layer conv1
I1110 22:03:32.141388  1608 net.cpp:454] conv1 <- data
I1110 22:03:32.141459  1608 net.cpp:411] conv1 -> conv1
I1110 22:03:32.144201  1608 net.cpp:150] Setting up conv1
I1110 22:03:32.144273  1608 net.cpp:157] Top shape: 1 96 55 55 (290400)
I1110 22:03:32.144299  1608 net.cpp:165] Memory required for data: 1161600
I1110 22:03:32.144412  1608 layer_factory.hpp:76] Creating layer relu1
I1110 22:03:32.144501  1608 net.cpp:106] Creating Layer relu1
I1110 22:03:32.144542  1608 net.cpp:454] relu1 <- conv1
I1110 22:03:32.144599  1608 net.cpp:397] relu1 -> conv1 (in-place)
I1110 22:03:32.144665  1608 net.cpp:150] Setting up relu1
I1110 22:03:32.144701  1608 net.cpp:157] Top shape: 1 96 55 55 (290400)
I1110 22:03:32.144722  1608 net.cpp:165] Memory required for data: 2323200
I1110 22:03:32.144749  1608 layer_factory.hpp:76] Creating layer pool1
I1110 22:03:32.144809  1608 net.cpp:106] Creating Layer pool1
I1110 22:03:32.144845  1608 net.cpp:454] pool1 <- conv1
I1110 22:03:32.144913  1608 net.cpp:411] pool1 -> pool1
I1110 22:03:32.145095  1608 net.cpp:150] Setting up pool1
I1110 22:03:32.145148  1608 net.cpp:157] Top shape: 1 96 27 27 (69984)
I1110 22:03:32.145172  1608 net.cpp:165] Memory required for data: 2603136
I1110 22:03:32.145200  1608 layer_factory.hpp:76] Creating layer norm1
I1110 22:03:32.145263  1608 net.cpp:106] Creating Layer norm1
I1110 22:03:32.145299  1608 net.cpp:454] norm1 <- pool1
I1110 22:03:32.145367  1608 net.cpp:411] norm1 -> norm1
I1110 22:03:32.145540  1608 net.cpp:150] Setting up norm1
I1110 22:03:32.145594  1608 net.cpp:157] Top shape: 1 96 27 27 (69984)
I1110 22:03:32.145618  1608 net.cpp:165] Memory required for data: 2883072
I1110 22:03:32.145645  1608 layer_factory.hpp:76] Creating layer conv2
I1110 22:03:32.145709  1608 net.cpp:106] Creating Layer conv2
I1110 22:03:32.145745  1608 net.cpp:454] conv2 <- norm1
I1110 22:03:32.145815  1608 net.cpp:411] conv2 -> conv2
I1110 22:03:32.151576  1608 net.cpp:150] Setting up conv2
I1110 22:03:32.151621  1608 net.cpp:157] Top shape: 1 256 27 27 (186624)
I1110 22:03:32.151633  1608 net.cpp:165] Memory required for data: 3629568
I1110 22:03:32.151686  1608 layer_factory.hpp:76] Creating layer relu2
I1110 22:03:32.151721  1608 net.cpp:106] Creating Layer relu2
I1110 22:03:32.151742  1608 net.cpp:454] relu2 <- conv2
I1110 22:03:32.151773  1608 net.cpp:397] relu2 -> conv2 (in-place)
I1110 22:03:32.151808  1608 net.cpp:150] Setting up relu2
I1110 22:03:32.151824  1608 net.cpp:157] Top shape: 1 256 27 27 (186624)
I1110 22:03:32.151834  1608 net.cpp:165] Memory required for data: 4376064
I1110 22:03:32.151847  1608 layer_factory.hpp:76] Creating layer pool2
I1110 22:03:32.151876  1608 net.cpp:106] Creating Layer pool2
I1110 22:03:32.151893  1608 net.cpp:454] pool2 <- conv2
I1110 22:03:32.151926  1608 net.cpp:411] pool2 -> pool2
I1110 22:03:32.152019  1608 net.cpp:150] Setting up pool2
I1110 22:03:32.152042  1608 net.cpp:157] Top shape: 1 256 13 13 (43264)
I1110 22:03:32.152053  1608 net.cpp:165] Memory required for data: 4549120
I1110 22:03:32.152067  1608 layer_factory.hpp:76] Creating layer norm2
I1110 22:03:32.152101  1608 net.cpp:106] Creating Layer norm2
I1110 22:03:32.152118  1608 net.cpp:454] norm2 <- pool2
I1110 22:03:32.152149  1608 net.cpp:411] norm2 -> norm2
I1110 22:03:32.152227  1608 net.cpp:150] Setting up norm2
I1110 22:03:32.152251  1608 net.cpp:157] Top shape: 1 256 13 13 (43264)
I1110 22:03:32.152262  1608 net.cpp:165] Memory required for data: 4722176
I1110 22:03:32.152276  1608 layer_factory.hpp:76] Creating layer conv3
I1110 22:03:32.152317  1608 net.cpp:106] Creating Layer conv3
I1110 22:03:32.152335  1608 net.cpp:454] conv3 <- norm2
I1110 22:03:32.152369  1608 net.cpp:411] conv3 -> conv3
I1110 22:03:32.157250  1608 net.cpp:150] Setting up conv3
I1110 22:03:32.157284  1608 net.cpp:157] Top shape: 1 384 13 13 (64896)
I1110 22:03:32.157296  1608 net.cpp:165] Memory required for data: 4981760
I1110 22:03:32.157343  1608 layer_factory.hpp:76] Creating layer relu3
I1110 22:03:32.157373  1608 net.cpp:106] Creating Layer relu3
I1110 22:03:32.157390  1608 net.cpp:454] relu3 <- conv3
I1110 22:03:32.157418  1608 net.cpp:397] relu3 -> conv3 (in-place)
I1110 22:03:32.157449  1608 net.cpp:150] Setting up relu3
I1110 22:03:32.157465  1608 net.cpp:157] Top shape: 1 384 13 13 (64896)
I1110 22:03:32.157475  1608 net.cpp:165] Memory required for data: 5241344
I1110 22:03:32.157495  1608 layer_factory.hpp:76] Creating layer conv4
I1110 22:03:32.157523  1608 net.cpp:106] Creating Layer conv4
I1110 22:03:32.157539  1608 net.cpp:454] conv4 <- conv3
I1110 22:03:32.157573  1608 net.cpp:411] conv4 -> conv4
I1110 22:03:32.164841  1608 net.cpp:150] Setting up conv4
I1110 22:03:32.164922  1608 net.cpp:157] Top shape: 1 384 13 13 (64896)
I1110 22:03:32.164935  1608 net.cpp:165] Memory required for data: 5500928
I1110 22:03:32.164974  1608 layer_factory.hpp:76] Creating layer relu4
I1110 22:03:32.165019  1608 net.cpp:106] Creating Layer relu4
I1110 22:03:32.165041  1608 net.cpp:454] relu4 <- conv4
I1110 22:03:32.165081  1608 net.cpp:397] relu4 -> conv4 (in-place)
I1110 22:03:32.165118  1608 net.cpp:150] Setting up relu4
I1110 22:03:32.165135  1608 net.cpp:157] Top shape: 1 384 13 13 (64896)
I1110 22:03:32.165145  1608 net.cpp:165] Memory required for data: 5760512
I1110 22:03:32.165158  1608 layer_factory.hpp:76] Creating layer conv5
I1110 22:03:32.165190  1608 net.cpp:106] Creating Layer conv5
I1110 22:03:32.165207  1608 net.cpp:454] conv5 <- conv4
I1110 22:03:32.165241  1608 net.cpp:411] conv5 -> conv5
I1110 22:03:32.170269  1608 net.cpp:150] Setting up conv5
I1110 22:03:32.170313  1608 net.cpp:157] Top shape: 1 256 13 13 (43264)
I1110 22:03:32.170325  1608 net.cpp:165] Memory required for data: 5933568
I1110 22:03:32.170388  1608 layer_factory.hpp:76] Creating layer relu5
I1110 22:03:32.170425  1608 net.cpp:106] Creating Layer relu5
I1110 22:03:32.170445  1608 net.cpp:454] relu5 <- conv5
I1110 22:03:32.170476  1608 net.cpp:397] relu5 -> conv5 (in-place)
I1110 22:03:32.170518  1608 net.cpp:150] Setting up relu5
I1110 22:03:32.170536  1608 net.cpp:157] Top shape: 1 256 13 13 (43264)
I1110 22:03:32.170545  1608 net.cpp:165] Memory required for data: 6106624
I1110 22:03:32.170558  1608 layer_factory.hpp:76] Creating layer pool5
I1110 22:03:32.170593  1608 net.cpp:106] Creating Layer pool5
I1110 22:03:32.170608  1608 net.cpp:454] pool5 <- conv5
I1110 22:03:32.170639  1608 net.cpp:411] pool5 -> pool5
I1110 22:03:32.170732  1608 net.cpp:150] Setting up pool5
I1110 22:03:32.170755  1608 net.cpp:157] Top shape: 1 256 6 6 (9216)
I1110 22:03:32.170766  1608 net.cpp:165] Memory required for data: 6143488
I1110 22:03:32.170780  1608 layer_factory.hpp:76] Creating layer fc6
I1110 22:03:32.170811  1608 net.cpp:106] Creating Layer fc6
I1110 22:03:32.170828  1608 net.cpp:454] fc6 <- pool5
I1110 22:03:32.170861  1608 net.cpp:411] fc6 -> fc6
I1110 22:03:32.363960  1608 net.cpp:150] Setting up fc6
I1110 22:03:32.364048  1608 net.cpp:157] Top shape: 1 4096 (4096)
I1110 22:03:32.364059  1608 net.cpp:165] Memory required for data: 6159872
I1110 22:03:32.364106  1608 layer_factory.hpp:76] Creating layer relu6
I1110 22:03:32.364188  1608 net.cpp:106] Creating Layer relu6
I1110 22:03:32.364217  1608 net.cpp:454] relu6 <- fc6
I1110 22:03:32.364264  1608 net.cpp:397] relu6 -> fc6 (in-place)
I1110 22:03:32.364308  1608 net.cpp:150] Setting up relu6
I1110 22:03:32.364325  1608 net.cpp:157] Top shape: 1 4096 (4096)
I1110 22:03:32.364334  1608 net.cpp:165] Memory required for data: 6176256
I1110 22:03:32.364347  1608 layer_factory.hpp:76] Creating layer drop6
I1110 22:03:32.364387  1608 net.cpp:106] Creating Layer drop6
I1110 22:03:32.364403  1608 net.cpp:454] drop6 <- fc6
I1110 22:03:32.364441  1608 net.cpp:397] drop6 -> fc6 (in-place)
I1110 22:03:32.364516  1608 net.cpp:150] Setting up drop6
I1110 22:03:32.364537  1608 net.cpp:157] Top shape: 1 4096 (4096)
I1110 22:03:32.364547  1608 net.cpp:165] Memory required for data: 6192640
I1110 22:03:32.364560  1608 layer_factory.hpp:76] Creating layer fc7
I1110 22:03:32.364593  1608 net.cpp:106] Creating Layer fc7
I1110 22:03:32.364610  1608 net.cpp:454] fc7 <- fc6
I1110 22:03:32.364641  1608 net.cpp:411] fc7 -> fc7
I1110 22:03:32.450322  1608 net.cpp:150] Setting up fc7
I1110 22:03:32.450402  1608 net.cpp:157] Top shape: 1 4096 (4096)
I1110 22:03:32.450414  1608 net.cpp:165] Memory required for data: 6209024
I1110 22:03:32.450464  1608 layer_factory.hpp:76] Creating layer relu7
I1110 22:03:32.450531  1608 net.cpp:106] Creating Layer relu7
I1110 22:03:32.450561  1608 net.cpp:454] relu7 <- fc7
I1110 22:03:32.450608  1608 net.cpp:397] relu7 -> fc7 (in-place)
I1110 22:03:32.450654  1608 net.cpp:150] Setting up relu7
I1110 22:03:32.450670  1608 net.cpp:157] Top shape: 1 4096 (4096)
I1110 22:03:32.450680  1608 net.cpp:165] Memory required for data: 6225408
I1110 22:03:32.450693  1608 layer_factory.hpp:76] Creating layer drop7
I1110 22:03:32.450728  1608 net.cpp:106] Creating Layer drop7
I1110 22:03:32.450745  1608 net.cpp:454] drop7 <- fc7
I1110 22:03:32.450773  1608 net.cpp:397] drop7 -> fc7 (in-place)
I1110 22:03:32.450834  1608 net.cpp:150] Setting up drop7
I1110 22:03:32.450855  1608 net.cpp:157] Top shape: 1 4096 (4096)
I1110 22:03:32.450865  1608 net.cpp:165] Memory required for data: 6241792
I1110 22:03:32.450880  1608 layer_factory.hpp:76] Creating layer fc8
I1110 22:03:32.450914  1608 net.cpp:106] Creating Layer fc8
I1110 22:03:32.450932  1608 net.cpp:454] fc8 <- fc7
I1110 22:03:32.450965  1608 net.cpp:411] fc8 -> fc8
I1110 22:03:32.471495  1608 net.cpp:150] Setting up fc8
I1110 22:03:32.471593  1608 net.cpp:157] Top shape: 1 1000 (1000)
I1110 22:03:32.471606  1608 net.cpp:165] Memory required for data: 6245792
I1110 22:03:32.471654  1608 layer_factory.hpp:76] Creating layer prob
I1110 22:03:32.471721  1608 net.cpp:106] Creating Layer prob
I1110 22:03:32.471750  1608 net.cpp:454] prob <- fc8
I1110 22:03:32.471799  1608 net.cpp:411] prob -> prob
I1110 22:03:32.471930  1608 net.cpp:150] Setting up prob
I1110 22:03:32.471954  1608 net.cpp:157] Top shape: 1 1000 (1000)
I1110 22:03:32.471966  1608 net.cpp:165] Memory required for data: 6249792
I1110 22:03:32.471982  1608 net.cpp:228] prob does not need backward computation.
I1110 22:03:32.471997  1608 net.cpp:228] fc8 does not need backward computation.
I1110 22:03:32.472012  1608 net.cpp:228] drop7 does not need backward computation.
I1110 22:03:32.472023  1608 net.cpp:228] relu7 does not need backward computation.
…
I1110 22:03:35.290416  1608 net.cpp:923] Copying source layer drop6
I1110 22:03:35.290427  1608 net.cpp:923] Copying source layer fc7
I1110 22:03:35.501343  1608 net.cpp:923] Copying source layer relu7
I1110 22:03:35.501428  1608 net.cpp:923] Copying source layer drop7
I1110 22:03:35.501438  1608 net.cpp:923] Copying source layer fc8
I1110 22:03:35.553122  1608 net.cpp:920] Ignoring source layer loss
I1110 22:03:35.575764  1608 net.cpp:49] Initializing net from parameters: 
name: "CaffeNet"
input: "data"
input_dim: 1
input_dim: 3
input_dim: 227
input_dim: 227
force_backward: true
state {
  phase: TEST
}
layer {
  name: "conv1"
  type: "Convolution"
  bottom: "data"
  top: "conv1"
  convolution_param {
    num_output: 96
    kernel_size: 11
    stride: 4
  }
}
layer {
  name: "relu1"
  type: "ReLU"
  bottom: "conv1"
  top: "conv1"
}
layer {
  name: "pool1"
  type: "Pooling"
  bottom: "conv1"
  top: "pool1"
  pooling_param {
    pool: MAX
    kernel_size: 3
    stride: 2
  }
}
layer {
  name: "norm1"
  type: "LRN"
  bottom: "pool1"
  top: "norm1"
  lrn_param {
    local_size: 5
    alpha: 0.0001
    beta: 0.75
  }
}
layer {
  name: "conv2"
  type: "Convolution"
  bottom: "norm1"
  top: "conv2"
  convolution_param {
    num_output: 256
    pad: 2
    kernel_size: 5
  }
}
layer {
  name: "relu2"
  type: "ReLU"
  bottom: "conv2"
  top: "conv2"
}
layer {
  name: "pool2"
  type: "Pooling"
  bottom: "conv2"
  top: "pool2"
  pooling_param {
    pool: MAX
    kernel_size: 3
    stride: 2
  }
}
layer {
  name: "norm2"
  type: "LRN"
  bottom: "pool2"
  top: "norm2"
  lrn_param {
    local_size: 5
    alpha: 0.0001
    beta: 0.75
  }
}
layer {
  name: "conv3"
  type: "Convolution"
  bottom: "norm2"
  top: "conv3"
  convolution_param {
    num_output: 384
    pad: 1
    kernel_size: 3
  }
}
layer {
  name: "relu3"
  type: "ReLU"
  bottom: "conv3"
  top: "conv3"
}
layer {
  name: "conv4"
  type: "Convolution"
  bottom: "conv3"
  top: "conv4"
  convolution_param {
    num_output: 384
    pad: 1
    kernel_size: 3
  }
}
layer {
  name: "relu4"
  type: "ReLU"
  bottom: "conv4"
  top: "conv4"
}
layer {
  name: "conv5"
  type: "Convolution"
  bottom: "conv4"
  top: "conv5"
  convolution_param {
    num_output: 256
    pad: 1
    kernel_size: 3
  }
}
layer {
  name: "relu5"
  type: "ReLU"
  bottom: "conv5"
  top: "conv5"
}
layer {
  name: "pool5"
  type: "Pooling"
  bottom: "conv5"
  top: "pool5"
  pooling_param {
    pool: MAX
    kernel_size: 3
    stride: 2
  }
}
layer {
  name: "fc6"
  type: "InnerProduct"
  bottom: "pool5"
  top: "fc6"
  inner_product_param {
    num_output: 4096
  }
}
layer {
  name: "relu6"
  type: "ReLU"
  bottom: "fc6"
  top: "fc6"
}
layer {
  name: "drop6"
  type: "Dropout"
  bottom: "fc6"
  top: "fc6"
  dropout_param {
    dropout_ratio: 0.5
  }
}
layer {
  name: "fc7"
  type: "InnerProduct"
  bottom: "fc6"
  top: "fc7"
  inner_product_param {
    num_output: 4096
  }
}
layer {
  name: "relu7"
  type: "ReLU"
  bottom: "fc7"
  top: "fc7"
}
layer {
  name: "drop7"
  type: "Dropout"
  bottom: "fc7"
  top: "fc7"
  dropout_param {
    dropout_ratio: 0.5
  }
}
layer {
  name: "fc8"
  type: "InnerProduct"
  bottom: "fc7"
  top: "fc8"
  inner_product_param {
    num_output: 1000
  }
}
layer {
  name: "prob"
  type: "Softmax"
  bottom: "fc8"
  top: "prob"
}
I1110 22:03:35.576040  1608 net.cpp:413] Input 0 -> data
I1110 22:03:35.576261  1608 layer_factory.hpp:76] Creating layer conv1
I1110 22:03:35.576314  1608 net.cpp:106] Creating Layer conv1
I1110 22:03:35.576333  1608 net.cpp:454] conv1 <- data
I1110 22:03:35.576364  1608 net.cpp:411] conv1 -> conv1
I1110 22:03:35.576807  1608 net.cpp:150] Setting up conv1
I1110 22:03:35.576843  1608 net.cpp:157] Top shape: 1 96 55 55 (290400)
I1110 22:03:35.576853  1608 net.cpp:165] Memory required for data: 1161600
I1110 22:03:35.576902  1608 layer_factory.hpp:76] Creating layer relu1
I1110 22:03:35.576933  1608 net.cpp:106] Creating Layer relu1
I1110 22:03:35.576949  1608 net.cpp:454] relu1 <- conv1
I1110 22:03:35.576974  1608 net.cpp:397] relu1 -> conv1 (in-place)
I1110 22:03:35.577000  1608 net.cpp:150] Setting up relu1
I1110 22:03:35.577018  1608 net.cpp:157] Top shape: 1 96 55 55 (290400)
I1110 22:03:35.577028  1608 net.cpp:165] Memory required for data: 2323200
I1110 22:03:35.577039  1608 layer_factory.hpp:76] Creating layer pool1
I1110 22:03:35.577066  1608 net.cpp:106] Creating Layer pool1
I1110 22:03:35.577082  1608 net.cpp:454] pool1 <- conv1
I1110 22:03:35.577108  1608 net.cpp:411] pool1 -> pool1
I1110 22:03:35.577185  1608 net.cpp:150] Setting up pool1
I1110 22:03:35.577208  1608 net.cpp:157] Top shape: 1 96 27 27 (69984)
I1110 22:03:35.577219  1608 net.cpp:165] Memory required for data: 2603136
I1110 22:03:35.577230  1608 layer_factory.hpp:76] Creating layer norm1
I1110 22:03:35.577257  1608 net.cpp:106] Creating Layer norm1
I1110 22:03:35.577272  1608 net.cpp:454] norm1 <- pool1
I1110 22:03:35.577299  1608 net.cpp:411] norm1 -> norm1
I1110 22:03:35.577366  1608 net.cpp:150] Setting up norm1
I1110 22:03:35.577386  1608 net.cpp:157] Top shape: 1 96 27 27 (69984)
I1110 22:03:35.577396  1608 net.cpp:165] Memory required for data: 2883072
I1110 22:03:35.577409  1608 layer_factory.hpp:76] Creating layer conv2
I1110 22:03:35.577437  1608 net.cpp:106] Creating Layer conv2
I1110 22:03:35.577453  1608 net.cpp:454] conv2 <- norm1
I1110 22:03:35.577481  1608 net.cpp:411] conv2 -> conv2
I1110 22:03:35.581497  1608 net.cpp:150] Setting up conv2
I1110 22:03:35.581547  1608 net.cpp:157] Top shape: 1 256 27 27 (186624)
I1110 22:03:35.581558  1608 net.cpp:165] Memory required for data: 3629568
I1110 22:03:35.581619  1608 layer_factory.hpp:76] Creating layer relu2
I1110 22:03:35.581658  1608 net.cpp:106] Creating Layer relu2
I1110 22:03:35.581684  1608 net.cpp:454] relu2 <- conv2
I1110 22:03:35.581715  1608 net.cpp:397] relu2 -> conv2 (in-place)
I1110 22:03:35.581748  1608 net.cpp:150] Setting up relu2
I1110 22:03:35.581763  1608 net.cpp:157] Top shape: 1 256 27 27 (186624)
I1110 22:03:35.581773  1608 net.cpp:165] Memory required for data: 4376064
I1110 22:03:35.581784  1608 layer_factory.hpp:76] Creating layer pool2
I1110 22:03:35.581811  1608 net.cpp:106] Creating Layer pool2
I1110 22:03:35.581826  1608 net.cpp:454] pool2 <- conv2
I1110 22:03:35.581862  1608 net.cpp:411] pool2 -> pool2
I1110 22:03:35.581941  1608 net.cpp:150] Setting up pool2
I1110 22:03:35.581962  1608 net.cpp:157] Top shape: 1 256 13 13 (43264)
I1110 22:03:35.581972  1608 net.cpp:165] Memory required for data: 4549120
I1110 22:03:35.581984  1608 layer_factory.hpp:76] Creating layer norm2
I1110 22:03:35.582015  1608 net.cpp:106] Creating Layer norm2
I1110 22:03:35.582029  1608 net.cpp:454] norm2 <- pool2
I1110 22:03:35.582057  1608 net.cpp:411] norm2 -> norm2
I1110 22:03:35.582124  1608 net.cpp:150] Setting up norm2
I1110 22:03:35.582144  1608 net.cpp:157] Top shape: 1 256 13 13 (43264)
I1110 22:03:35.582154  1608 net.cpp:165] Memory required for data: 4722176
I1110 22:03:35.582166  1608 layer_factory.hpp:76] Creating layer conv3
I1110 22:03:35.582204  1608 net.cpp:106] Creating Layer conv3
I1110 22:03:35.582221  1608 net.cpp:454] conv3 <- norm2
I1110 22:03:35.582250  1608 net.cpp:411] conv3 -> conv3
I1110 22:03:35.587553  1608 net.cpp:150] Setting up conv3
I1110 22:03:35.587596  1608 net.cpp:157] Top shape: 1 384 13 13 (64896)
I1110 22:03:35.587607  1608 net.cpp:165] Memory required for data: 4981760
I1110 22:03:35.587676  1608 layer_factory.hpp:76] Creating layer relu3
I1110 22:03:35.587721  1608 net.cpp:106] Creating Layer relu3
I1110 22:03:35.587743  1608 net.cpp:454] relu3 <- conv3
I1110 22:03:35.587774  1608 net.cpp:397] relu3 -> conv3 (in-place)
I1110 22:03:35.587807  1608 net.cpp:150] Setting up relu3
I1110 22:03:35.587822  1608 net.cpp:157] Top shape: 1 384 13 13 (64896)
I1110 22:03:35.587831  1608 net.cpp:165] Memory required for data: 5241344
I1110 22:03:35.587842  1608 layer_factory.hpp:76] Creating layer conv4
I1110 22:03:35.587879  1608 net.cpp:106] Creating Layer conv4
I1110 22:03:35.587894  1608 net.cpp:454] conv4 <- conv3
I1110 22:03:35.587921  1608 net.cpp:411] conv4 -> conv4
I1110 22:03:35.595387  1608 net.cpp:150] Setting up conv4
I1110 22:03:35.595439  1608 net.cpp:157] Top shape: 1 384 13 13 (64896)
I1110 22:03:35.595451  1608 net.cpp:165] Memory required for data: 5500928
I1110 22:03:35.595485  1608 layer_factory.hpp:76] Creating layer relu4
I1110 22:03:35.595525  1608 net.cpp:106] Creating Layer relu4
I1110 22:03:35.595546  1608 net.cpp:454] relu4 <- conv4
I1110 22:03:35.595583  1608 net.cpp:397] relu4 -> conv4 (in-place)
I1110 22:03:35.595618  1608 net.cpp:150] Setting up relu4
I1110 22:03:35.595633  1608 net.cpp:157] Top shape: 1 384 13 13 (64896)
I1110 22:03:35.595641  1608 net.cpp:165] Memory required for data: 5760512
I1110 22:03:35.595654  1608 layer_factory.hpp:76] Creating layer conv5
I1110 22:03:35.595687  1608 net.cpp:106] Creating Layer conv5
I1110 22:03:35.595703  1608 net.cpp:454] conv5 <- conv4
I1110 22:03:35.595733  1608 net.cpp:411] conv5 -> conv5
I1110 22:03:35.600672  1608 net.cpp:150] Setting up conv5
I1110 22:03:35.600705  1608 net.cpp:157] Top shape: 1 256 13 13 (43264)
I1110 22:03:35.600716  1608 net.cpp:165] Memory required for data: 5933568
I1110 22:03:35.600766  1608 layer_factory.hpp:76] Creating layer relu5
I1110 22:03:35.600795  1608 net.cpp:106] Creating Layer relu5
I1110 22:03:35.600811  1608 net.cpp:454] relu5 <- conv5
I1110 22:03:35.600839  1608 net.cpp:397] relu5 -> conv5 (in-place)
I1110 22:03:35.600867  1608 net.cpp:150] Setting up relu5
I1110 22:03:35.600882  1608 net.cpp:157] Top shape: 1 256 13 13 (43264)
I1110 22:03:35.600891  1608 net.cpp:165] Memory required for data: 6106624
I1110 22:03:35.600903  1608 layer_factory.hpp:76] Creating layer pool5
I1110 22:03:35.600930  1608 net.cpp:106] Creating Layer pool5
I1110 22:03:35.600946  1608 net.cpp:454] pool5 <- conv5
I1110 22:03:35.600975  1608 net.cpp:411] pool5 -> pool5
I1110 22:03:35.601052  1608 net.cpp:150] Setting up pool5
I1110 22:03:35.601073  1608 net.cpp:157] Top shape: 1 256 6 6 (9216)
I1110 22:03:35.601083  1608 net.cpp:165] Memory required for data: 6143488
I1110 22:03:35.601095  1608 layer_factory.hpp:76] Creating layer fc6
I1110 22:03:35.601124  1608 net.cpp:106] Creating Layer fc6
I1110 22:03:35.601140  1608 net.cpp:454] fc6 <- pool5
I1110 22:03:35.601166  1608 net.cpp:411] fc6 -> fc6
I1110 22:03:35.786375  1608 net.cpp:150] Setting up fc6
I1110 22:03:35.786435  1608 net.cpp:157] Top shape: 1 4096 (4096)
I1110 22:03:35.786447  1608 net.cpp:165] Memory required for data: 6159872
I1110 22:03:35.786483  1608 layer_factory.hpp:76] Creating layer relu6
I1110 22:03:35.786540  1608 net.cpp:106] Creating Layer relu6
I1110 22:03:35.786561  1608 net.cpp:454] relu6 <- fc6
I1110 22:03:35.786597  1608 net.cpp:397] relu6 -> fc6 (in-place)
I1110 22:03:35.786630  1608 net.cpp:150] Setting up relu6
I1110 22:03:35.786645  1608 net.cpp:157] Top shape: 1 4096 (4096)
I1110 22:03:35.786654  1608 net.cpp:165] Memory required for data: 6176256
I1110 22:03:35.786669  1608 layer_factory.hpp:76] Creating layer drop6
I1110 22:03:35.786701  1608 net.cpp:106] Creating Layer drop6
I1110 22:03:35.786716  1608 net.cpp:454] drop6 <- fc6
I1110 22:03:35.786741  1608 net.cpp:397] drop6 -> fc6 (in-place)
I1110 22:03:35.786794  1608 net.cpp:150] Setting up drop6
I1110 22:03:35.786813  1608 net.cpp:157] Top shape: 1 4096 (4096)
I1110 22:03:35.786821  1608 net.cpp:165] Memory required for data: 6192640
I1110 22:03:35.786834  1608 layer_factory.hpp:76] Creating layer fc7
I1110 22:03:35.786860  1608 net.cpp:106] Creating Layer fc7
I1110 22:03:35.786875  1608 net.cpp:454] fc7 <- fc6
I1110 22:03:35.786901  1608 net.cpp:411] fc7 -> fc7
I1110 22:03:35.863133  1608 net.cpp:150] Setting up fc7
I1110 22:03:35.863193  1608 net.cpp:157] Top shape: 1 4096 (4096)
I1110 22:03:35.863204  1608 net.cpp:165] Memory required for data: 6209024
I1110 22:03:35.863240  1608 layer_factory.hpp:76] Creating layer relu7
I1110 22:03:35.863278  1608 net.cpp:106] Creating Layer relu7
I1110 22:03:35.863301  1608 net.cpp:454] relu7 <- fc7
I1110 22:03:35.863335  1608 net.cpp:397] relu7 -> fc7 (in-place)
I1110 22:03:35.863369  1608 net.cpp:150] Setting up relu7
I1110 22:03:35.863384  1608 net.cpp:157] Top shape: 1 4096 (4096)
I1110 22:03:35.863392  1608 net.cpp:165] Memory required for data: 6225408
I1110 22:03:35.863404  1608 layer_factory.hpp:76] Creating layer drop7
I1110 22:03:35.863432  1608 net.cpp:106] Creating Layer drop7
I1110 22:03:35.863447  1608 net.cpp:454] drop7 <- fc7
I1110 22:03:35.863471  1608 net.cpp:397] drop7 -> fc7 (in-place)
I1110 22:03:35.863525  1608 net.cpp:150] Setting up drop7
I1110 22:03:35.863543  1608 net.cpp:157] Top shape: 1 4096 (4096)
I1110 22:03:35.863553  1608 net.cpp:165] Memory required for data: 6241792
I1110 22:03:35.863564  1608 layer_factory.hpp:76] Creating layer fc8
I1110 22:03:35.863590  1608 net.cpp:106] Creating Layer fc8
I1110 22:03:35.863605  1608 net.cpp:454] fc8 <- fc7
I1110 22:03:35.863633  1608 net.cpp:411] fc8 -> fc8
I1110 22:03:35.882431  1608 net.cpp:150] Setting up fc8
I1110 22:03:35.882474  1608 net.cpp:157] Top shape: 1 1000 (1000)
I1110 22:03:35.882484  1608 net.cpp:165] Memory required for data: 6245792
I1110 22:03:35.882518  1608 layer_factory.hpp:76] Creating layer prob
I1110 22:03:35.882555  1608 net.cpp:106] Creating Layer prob
I1110 22:03:35.882575  1608 net.cpp:454] prob <- fc8
I1110 22:03:35.882611  1608 net.cpp:411] prob -> prob
I1110 22:03:35.882722  1608 net.cpp:150] Setting up prob
I1110 22:03:35.882745  1608 net.cpp:157] Top shape: 1 1000 (1000)
I1110 22:03:35.882755  1608 net.cpp:165] Memory required for data: 6249792
I1110 22:03:35.882767  1608 net.cpp:228] prob does not need backward computation.
I1110 22:03:35.882781  1608 net.cpp:228] fc8 does not need backward computation.
I1110 22:03:35.882791  1608 net.cpp:228] drop7 does not need backward computation.
I1110 22:03:35.882802  1608 net.cpp:228] relu7 does not need backward computation.
…
