…
gamma: 0.5
momentum: 0.98
weight_decay: 0.01
stepsize: 1500
snapshot: 1000
snapshot_prefix: "stitch"
solver_mode: GPU
random_seed: 0
net: "network.prototxt"
regularization_type: "L1"
I1110 22:09:08.103210  2748 solver.cpp:90] Creating training net from net file: network.prototxt
I1110 22:09:08.133836  2748 net.cpp:49] Initializing net from parameters: 
name: "StitchNet"
input: "net0"
input: "net1"
input_dim: 32
input_dim: 256
input_dim: 27
input_dim: 27
input_dim: 32
input_dim: 256
input_dim: 27
input_dim: 27
state {
  phase: TRAIN
}
debug_info: true
layer {
  name: "stitch0"
  type: "Convolution"
  bottom: "net0"
  top: "stitch0"
  convolution_param {
    num_output: 256
    kernel_size: 1
    stride: 1
    weight_filler {
      type: "gaussian"
      std: 0.01
    }
  }
}
layer {
  name: "loss"
  type: "EuclideanLoss"
  bottom: "stitch0"
  bottom: "net1"
  top: "loss"
  loss_weight: 1
}
I1110 22:09:08.134001  2748 net.cpp:413] Input 0 -> net0
I1110 22:09:08.171218  2748 net.cpp:413] Input 1 -> net1
I1110 22:09:08.171443  2748 layer_factory.hpp:76] Creating layer stitch0
I1110 22:09:08.171531  2748 net.cpp:106] Creating Layer stitch0
I1110 22:09:08.171555  2748 net.cpp:454] stitch0 <- net0
I1110 22:09:08.171596  2748 net.cpp:411] stitch0 -> stitch0
I1110 22:09:08.180482  2748 net.cpp:150] Setting up stitch0
I1110 22:09:08.180580  2748 net.cpp:157] Top shape: 32 256 27 27 (5971968)
I1110 22:09:08.180595  2748 net.cpp:165] Memory required for data: 23887872
I1110 22:09:08.180681  2748 layer_factory.hpp:76] Creating layer loss
I1110 22:09:08.180742  2748 net.cpp:106] Creating Layer loss
I1110 22:09:08.180773  2748 net.cpp:454] loss <- stitch0
I1110 22:09:08.180805  2748 net.cpp:454] loss <- net1
I1110 22:09:08.180836  2748 net.cpp:411] loss -> loss
I1110 22:09:08.180932  2748 net.cpp:150] Setting up loss
I1110 22:09:08.180958  2748 net.cpp:157] Top shape: (1)
I1110 22:09:08.180970  2748 net.cpp:160]     with loss weight 1
I1110 22:09:08.180992  2748 net.cpp:165] Memory required for data: 23887876
I1110 22:09:08.181012  2748 net.cpp:226] loss needs backward computation.
I1110 22:09:08.181030  2748 net.cpp:226] stitch0 needs backward computation.
I1110 22:09:08.181044  2748 net.cpp:270] This network produces output loss
I1110 22:09:08.181071  2748 net.cpp:283] Network initialization done.
I1110 22:09:08.181131  2748 solver.cpp:59] Solver scaffolding done.
I1110 22:09:08.319183  2748 net.cpp:49] Initializing net from parameters: 
name: "CaffeNet"
input: "data"
input_dim: 1
input_dim: 3
input_dim: 227
input_dim: 227
force_backward: true
state {
  phase: TEST
}
layer {
  name: "conv1"
  type: "Convolution"
  bottom: "data"
  top: "conv1"
  convolution_param {
    num_output: 96
    kernel_size: 11
    stride: 4
  }
}
layer {
  name: "relu1"
  type: "ReLU"
  bottom: "conv1"
  top: "conv1"
}
layer {
  name: "pool1"
  type: "Pooling"
  bottom: "conv1"
  top: "pool1"
  pooling_param {
    pool: MAX
    kernel_size: 3
    stride: 2
  }
}
layer {
  name: "norm1"
  type: "LRN"
  bottom: "pool1"
  top: "norm1"
  lrn_param {
    local_size: 5
    alpha: 0.0001
    beta: 0.75
  }
}
layer {
  name: "conv2"
  type: "Convolution"
  bottom: "norm1"
  top: "conv2"
  convolution_param {
    num_output: 256
    pad: 2
    kernel_size: 5
  }
}
layer {
  name: "relu2"
  type: "ReLU"
  bottom: "conv2"
  top: "conv2"
}
layer {
  name: "pool2"
  type: "Pooling"
  bottom: "conv2"
  top: "pool2"
  pooling_param {
    pool: MAX
    kernel_size: 3
    stride: 2
  }
}
layer {
  name: "norm2"
  type: "LRN"
  bottom: "pool2"
  top: "norm2"
  lrn_param {
    local_size: 5
    alpha: 0.0001
    beta: 0.75
  }
}
layer {
  name: "conv3"
  type: "Convolution"
  bottom: "norm2"
  top: "conv3"
  convolution_param {
    num_output: 384
    pad: 1
    kernel_size: 3
  }
}
layer {
  name: "relu3"
  type: "ReLU"
  bottom: "conv3"
  top: "conv3"
}
layer {
  name: "conv4"
  type: "Convolution"
  bottom: "conv3"
  top: "conv4"
  convolution_param {
    num_output: 384
    pad: 1
    kernel_size: 3
  }
}
layer {
  name: "relu4"
  type: "ReLU"
  bottom: "conv4"
  top: "conv4"
}
layer {
  name: "conv5"
  type: "Convolution"
  bottom: "conv4"
  top: "conv5"
  convolution_param {
    num_output: 256
    pad: 1
    kernel_size: 3
  }
}
layer {
  name: "relu5"
  type: "ReLU"
  bottom: "conv5"
  top: "conv5"
}
layer {
  name: "pool5"
  type: "Pooling"
  bottom: "conv5"
  top: "pool5"
  pooling_param {
    pool: MAX
    kernel_size: 3
    stride: 2
  }
}
layer {
  name: "fc6"
  type: "InnerProduct"
  bottom: "pool5"
  top: "fc6"
  inner_product_param {
    num_output: 4096
  }
}
layer {
  name: "relu6"
  type: "ReLU"
  bottom: "fc6"
  top: "fc6"
}
layer {
  name: "drop6"
  type: "Dropout"
  bottom: "fc6"
  top: "fc6"
  dropout_param {
    dropout_ratio: 0.5
  }
}
layer {
  name: "fc7"
  type: "InnerProduct"
  bottom: "fc6"
  top: "fc7"
  inner_product_param {
    num_output: 4096
  }
}
layer {
  name: "relu7"
  type: "ReLU"
  bottom: "fc7"
  top: "fc7"
}
layer {
  name: "drop7"
  type: "Dropout"
  bottom: "fc7"
  top: "fc7"
  dropout_param {
    dropout_ratio: 0.5
  }
}
layer {
  name: "fc8"
  type: "InnerProduct"
  bottom: "fc7"
  top: "fc8"
  inner_product_param {
    num_output: 1000
  }
}
layer {
  name: "prob"
  type: "Softmax"
  bottom: "fc8"
  top: "prob"
}
I1110 22:09:08.319491  2748 net.cpp:413] Input 0 -> data
I1110 22:09:08.319716  2748 layer_factory.hpp:76] Creating layer conv1
I1110 22:09:08.319777  2748 net.cpp:106] Creating Layer conv1
I1110 22:09:08.319800  2748 net.cpp:454] conv1 <- data
I1110 22:09:08.319911  2748 net.cpp:411] conv1 -> conv1
I1110 22:09:08.321919  2748 net.cpp:150] Setting up conv1
I1110 22:09:08.321959  2748 net.cpp:157] Top shape: 1 96 55 55 (290400)
I1110 22:09:08.321972  2748 net.cpp:165] Memory required for data: 1161600
I1110 22:09:08.322038  2748 layer_factory.hpp:76] Creating layer relu1
I1110 22:09:08.322089  2748 net.cpp:106] Creating Layer relu1
I1110 22:09:08.322111  2748 net.cpp:454] relu1 <- conv1
I1110 22:09:08.322144  2748 net.cpp:397] relu1 -> conv1 (in-place)
I1110 22:09:08.322180  2748 net.cpp:150] Setting up relu1
I1110 22:09:08.322197  2748 net.cpp:157] Top shape: 1 96 55 55 (290400)
I1110 22:09:08.322208  2748 net.cpp:165] Memory required for data: 2323200
I1110 22:09:08.322222  2748 layer_factory.hpp:76] Creating layer pool1
I1110 22:09:08.322257  2748 net.cpp:106] Creating Layer pool1
I1110 22:09:08.322274  2748 net.cpp:454] pool1 <- conv1
I1110 22:09:08.322315  2748 net.cpp:411] pool1 -> pool1
I1110 22:09:08.322423  2748 net.cpp:150] Setting up pool1
I1110 22:09:08.322450  2748 net.cpp:157] Top shape: 1 96 27 27 (69984)
I1110 22:09:08.322463  2748 net.cpp:165] Memory required for data: 2603136
I1110 22:09:08.322477  2748 layer_factory.hpp:76] Creating layer norm1
I1110 22:09:08.322510  2748 net.cpp:106] Creating Layer norm1
I1110 22:09:08.322527  2748 net.cpp:454] norm1 <- pool1
I1110 22:09:08.322561  2748 net.cpp:411] norm1 -> norm1
I1110 22:09:08.322639  2748 net.cpp:150] Setting up norm1
I1110 22:09:08.322664  2748 net.cpp:157] Top shape: 1 96 27 27 (69984)
I1110 22:09:08.322675  2748 net.cpp:165] Memory required for data: 2883072
I1110 22:09:08.322690  2748 layer_factory.hpp:76] Creating layer conv2
I1110 22:09:08.322726  2748 net.cpp:106] Creating Layer conv2
I1110 22:09:08.322744  2748 net.cpp:454] conv2 <- norm1
I1110 22:09:08.322777  2748 net.cpp:411] conv2 -> conv2
I1110 22:09:08.326910  2748 net.cpp:150] Setting up conv2
I1110 22:09:08.326953  2748 net.cpp:157] Top shape: 1 256 27 27 (186624)
I1110 22:09:08.326967  2748 net.cpp:165] Memory required for data: 3629568
I1110 22:09:08.327024  2748 layer_factory.hpp:76] Creating layer relu2
I1110 22:09:08.327064  2748 net.cpp:106] Creating Layer relu2
I1110 22:09:08.327085  2748 net.cpp:454] relu2 <- conv2
I1110 22:09:08.327118  2748 net.cpp:397] relu2 -> conv2 (in-place)
I1110 22:09:08.327152  2748 net.cpp:150] Setting up relu2
I1110 22:09:08.327169  2748 net.cpp:157] Top shape: 1 256 27 27 (186624)
I1110 22:09:08.327180  2748 net.cpp:165] Memory required for data: 4376064
I1110 22:09:08.327194  2748 layer_factory.hpp:76] Creating layer pool2
I1110 22:09:08.327225  2748 net.cpp:106] Creating Layer pool2
I1110 22:09:08.327242  2748 net.cpp:454] pool2 <- conv2
I1110 22:09:08.327273  2748 net.cpp:411] pool2 -> pool2
I1110 22:09:08.327359  2748 net.cpp:150] Setting up pool2
I1110 22:09:08.327389  2748 net.cpp:157] Top shape: 1 256 13 13 (43264)
I1110 22:09:08.327402  2748 net.cpp:165] Memory required for data: 4549120
I1110 22:09:08.327417  2748 layer_factory.hpp:76] Creating layer norm2
I1110 22:09:08.327450  2748 net.cpp:106] Creating Layer norm2
I1110 22:09:08.327467  2748 net.cpp:454] norm2 <- pool2
I1110 22:09:08.327500  2748 net.cpp:411] norm2 -> norm2
I1110 22:09:08.327577  2748 net.cpp:150] Setting up norm2
I1110 22:09:08.327601  2748 net.cpp:157] Top shape: 1 256 13 13 (43264)
I1110 22:09:08.327612  2748 net.cpp:165] Memory required for data: 4722176
I1110 22:09:08.327627  2748 layer_factory.hpp:76] Creating layer conv3
I1110 22:09:08.327672  2748 net.cpp:106] Creating Layer conv3
I1110 22:09:08.327690  2748 net.cpp:454] conv3 <- norm2
I1110 22:09:08.327739  2748 net.cpp:411] conv3 -> conv3
I1110 22:09:08.333572  2748 net.cpp:150] Setting up conv3
I1110 22:09:08.333618  2748 net.cpp:157] Top shape: 1 384 13 13 (64896)
I1110 22:09:08.333631  2748 net.cpp:165] Memory required for data: 4981760
I1110 22:09:08.333696  2748 layer_factory.hpp:76] Creating layer relu3
I1110 22:09:08.333741  2748 net.cpp:106] Creating Layer relu3
I1110 22:09:08.333765  2748 net.cpp:454] relu3 <- conv3
I1110 22:09:08.333797  2748 net.cpp:397] relu3 -> conv3 (in-place)
I1110 22:09:08.333833  2748 net.cpp:150] Setting up relu3
I1110 22:09:08.333850  2748 net.cpp:157] Top shape: 1 384 13 13 (64896)
I1110 22:09:08.333861  2748 net.cpp:165] Memory required for data: 5241344
I1110 22:09:08.333874  2748 layer_factory.hpp:76] Creating layer conv4
I1110 22:09:08.333909  2748 net.cpp:106] Creating Layer conv4
I1110 22:09:08.333925  2748 net.cpp:454] conv4 <- conv3
I1110 22:09:08.333957  2748 net.cpp:411] conv4 -> conv4
I1110 22:09:08.342061  2748 net.cpp:150] Setting up conv4
I1110 22:09:08.342109  2748 net.cpp:157] Top shape: 1 384 13 13 (64896)
I1110 22:09:08.342123  2748 net.cpp:165] Memory required for data: 5500928
I1110 22:09:08.342159  2748 layer_factory.hpp:76] Creating layer relu4
I1110 22:09:08.342200  2748 net.cpp:106] Creating Layer relu4
I1110 22:09:08.342223  2748 net.cpp:454] relu4 <- conv4
I1110 22:09:08.342262  2748 net.cpp:397] relu4 -> conv4 (in-place)
I1110 22:09:08.342296  2748 net.cpp:150] Setting up relu4
I1110 22:09:08.342314  2748 net.cpp:157] Top shape: 1 384 13 13 (64896)
I1110 22:09:08.342325  2748 net.cpp:165] Memory required for data: 5760512
I1110 22:09:08.342339  2748 layer_factory.hpp:76] Creating layer conv5
I1110 22:09:08.342372  2748 net.cpp:106] Creating Layer conv5
I1110 22:09:08.342394  2748 net.cpp:454] conv5 <- conv4
I1110 22:09:08.342439  2748 net.cpp:411] conv5 -> conv5
I1110 22:09:08.347954  2748 net.cpp:150] Setting up conv5
I1110 22:09:08.348004  2748 net.cpp:157] Top shape: 1 256 13 13 (43264)
I1110 22:09:08.348018  2748 net.cpp:165] Memory required for data: 5933568
I1110 22:09:08.348084  2748 layer_factory.hpp:76] Creating layer relu5
I1110 22:09:08.348129  2748 net.cpp:106] Creating Layer relu5
I1110 22:09:08.348151  2748 net.cpp:454] relu5 <- conv5
I1110 22:09:08.348184  2748 net.cpp:397] relu5 -> conv5 (in-place)
I1110 22:09:08.348220  2748 net.cpp:150] Setting up relu5
I1110 22:09:08.348237  2748 net.cpp:157] Top shape: 1 256 13 13 (43264)
I1110 22:09:08.348248  2748 net.cpp:165] Memory required for data: 6106624
I1110 22:09:08.348261  2748 layer_factory.hpp:76] Creating layer pool5
I1110 22:09:08.348292  2748 net.cpp:106] Creating Layer pool5
I1110 22:09:08.348309  2748 net.cpp:454] pool5 <- conv5
I1110 22:09:08.348341  2748 net.cpp:411] pool5 -> pool5
I1110 22:09:08.348443  2748 net.cpp:150] Setting up pool5
I1110 22:09:08.348469  2748 net.cpp:157] Top shape: 1 256 6 6 (9216)
I1110 22:09:08.348480  2748 net.cpp:165] Memory required for data: 6143488
I1110 22:09:08.348495  2748 layer_factory.hpp:76] Creating layer fc6
I1110 22:09:08.348526  2748 net.cpp:106] Creating Layer fc6
I1110 22:09:08.348543  2748 net.cpp:454] fc6 <- pool5
I1110 22:09:08.348575  2748 net.cpp:411] fc6 -> fc6
I1110 22:09:08.560024  2748 net.cpp:150] Setting up fc6
I1110 22:09:08.560114  2748 net.cpp:157] Top shape: 1 4096 (4096)
I1110 22:09:08.560128  2748 net.cpp:165] Memory required for data: 6159872
I1110 22:09:08.560184  2748 layer_factory.hpp:76] Creating layer relu6
I1110 22:09:08.560276  2748 net.cpp:106] Creating Layer relu6
I1110 22:09:08.560308  2748 net.cpp:454] relu6 <- fc6
I1110 22:09:08.560361  2748 net.cpp:397] relu6 -> fc6 (in-place)
I1110 22:09:08.560408  2748 net.cpp:150] Setting up relu6
I1110 22:09:08.560426  2748 net.cpp:157] Top shape: 1 4096 (4096)
I1110 22:09:08.560436  2748 net.cpp:165] Memory required for data: 6176256
I1110 22:09:08.560464  2748 layer_factory.hpp:76] Creating layer drop6
I1110 22:09:08.560513  2748 net.cpp:106] Creating Layer drop6
I1110 22:09:08.560533  2748 net.cpp:454] drop6 <- fc6
I1110 22:09:08.560564  2748 net.cpp:397] drop6 -> fc6 (in-place)
I1110 22:09:08.560633  2748 net.cpp:150] Setting up drop6
I1110 22:09:08.560655  2748 net.cpp:157] Top shape: 1 4096 (4096)
I1110 22:09:08.560667  2748 net.cpp:165] Memory required for data: 6192640
I1110 22:09:08.560680  2748 layer_factory.hpp:76] Creating layer fc7
I1110 22:09:08.560715  2748 net.cpp:106] Creating Layer fc7
I1110 22:09:08.560732  2748 net.cpp:454] fc7 <- fc6
I1110 22:09:08.560765  2748 net.cpp:411] fc7 -> fc7
I1110 22:09:08.649991  2748 net.cpp:150] Setting up fc7
I1110 22:09:08.650094  2748 net.cpp:157] Top shape: 1 4096 (4096)
I1110 22:09:08.650107  2748 net.cpp:165] Memory required for data: 6209024
I1110 22:09:08.650164  2748 layer_factory.hpp:76] Creating layer relu7
I1110 22:09:08.650233  2748 net.cpp:106] Creating Layer relu7
I1110 22:09:08.650264  2748 net.cpp:454] relu7 <- fc7
I1110 22:09:08.650318  2748 net.cpp:397] relu7 -> fc7 (in-place)
I1110 22:09:08.650369  2748 net.cpp:150] Setting up relu7
I1110 22:09:08.650388  2748 net.cpp:157] Top shape: 1 4096 (4096)
I1110 22:09:08.650398  2748 net.cpp:165] Memory required for data: 6225408
I1110 22:09:08.650411  2748 layer_factory.hpp:76] Creating layer drop7
I1110 22:09:08.650445  2748 net.cpp:106] Creating Layer drop7
I1110 22:09:08.650478  2748 net.cpp:454] drop7 <- fc7
I1110 22:09:08.650509  2748 net.cpp:397] drop7 -> fc7 (in-place)
I1110 22:09:08.650574  2748 net.cpp:150] Setting up drop7
I1110 22:09:08.650596  2748 net.cpp:157] Top shape: 1 4096 (4096)
I1110 22:09:08.650607  2748 net.cpp:165] Memory required for data: 6241792
I1110 22:09:08.650621  2748 layer_factory.hpp:76] Creating layer fc8
I1110 22:09:08.650656  2748 net.cpp:106] Creating Layer fc8
I1110 22:09:08.650674  2748 net.cpp:454] fc8 <- fc7
I1110 22:09:08.650707  2748 net.cpp:411] fc8 -> fc8
I1110 22:09:08.672566  2748 net.cpp:150] Setting up fc8
I1110 22:09:08.672639  2748 net.cpp:157] Top shape: 1 1000 (1000)
I1110 22:09:08.672652  2748 net.cpp:165] Memory required for data: 6245792
I1110 22:09:08.672704  2748 layer_factory.hpp:76] Creating layer prob
I1110 22:09:08.672781  2748 net.cpp:106] Creating Layer prob
I1110 22:09:08.672811  2748 net.cpp:454] prob <- fc8
I1110 22:09:08.672862  2748 net.cpp:411] prob -> prob
I1110 22:09:08.672999  2748 net.cpp:150] Setting up prob
I1110 22:09:08.673024  2748 net.cpp:157] Top shape: 1 1000 (1000)
I1110 22:09:08.673037  2748 net.cpp:165] Memory required for data: 6249792
I1110 22:09:08.673054  2748 net.cpp:228] prob does not need backward computation.
I1110 22:09:08.673079  2748 net.cpp:228] fc8 does not need backward computation.
I1110 22:09:08.673094  2748 net.cpp:228] drop7 does not need backward computation.
I1110 22:09:08.673107  2748 net.cpp:228] relu7 does not need backward computation.
…
I1110 22:09:11.446797  2748 net.cpp:923] Copying source layer drop6
I1110 22:09:11.446809  2748 net.cpp:923] Copying source layer fc7
I1110 22:09:11.655150  2748 net.cpp:923] Copying source layer relu7
I1110 22:09:11.655180  2748 net.cpp:923] Copying source layer drop7
I1110 22:09:11.655191  2748 net.cpp:923] Copying source layer fc8
I1110 22:09:11.706156  2748 net.cpp:920] Ignoring source layer loss
I1110 22:09:11.780668  2748 net.cpp:49] Initializing net from parameters: 
name: "CaffeNet"
input: "data"
input_dim: 1
input_dim: 3
input_dim: 227
input_dim: 227
force_backward: true
state {
  phase: TEST
}
layer {
  name: "conv1"
  type: "Convolution"
  bottom: "data"
  top: "conv1"
  convolution_param {
    num_output: 96
    kernel_size: 11
    stride: 4
  }
}
layer {
  name: "relu1"
  type: "ReLU"
  bottom: "conv1"
  top: "conv1"
}
layer {
  name: "pool1"
  type: "Pooling"
  bottom: "conv1"
  top: "pool1"
  pooling_param {
    pool: MAX
    kernel_size: 3
    stride: 2
  }
}
layer {
  name: "norm1"
  type: "LRN"
  bottom: "pool1"
  top: "norm1"
  lrn_param {
    local_size: 5
    alpha: 0.0001
    beta: 0.75
  }
}
layer {
  name: "conv2"
  type: "Convolution"
  bottom: "norm1"
  top: "conv2"
  convolution_param {
    num_output: 256
    pad: 2
    kernel_size: 5
  }
}
layer {
  name: "relu2"
  type: "ReLU"
  bottom: "conv2"
  top: "conv2"
}
layer {
  name: "pool2"
  type: "Pooling"
  bottom: "conv2"
  top: "pool2"
  pooling_param {
    pool: MAX
    kernel_size: 3
    stride: 2
  }
}
layer {
  name: "norm2"
  type: "LRN"
  bottom: "pool2"
  top: "norm2"
  lrn_param {
    local_size: 5
    alpha: 0.0001
    beta: 0.75
  }
}
layer {
  name: "conv3"
  type: "Convolution"
  bottom: "norm2"
  top: "conv3"
  convolution_param {
    num_output: 384
    pad: 1
    kernel_size: 3
  }
}
layer {
  name: "relu3"
  type: "ReLU"
  bottom: "conv3"
  top: "conv3"
}
layer {
  name: "conv4"
  type: "Convolution"
  bottom: "conv3"
  top: "conv4"
  convolution_param {
    num_output: 384
    pad: 1
    kernel_size: 3
  }
}
layer {
  name: "relu4"
  type: "ReLU"
  bottom: "conv4"
  top: "conv4"
}
layer {
  name: "conv5"
  type: "Convolution"
  bottom: "conv4"
  top: "conv5"
  convolution_param {
    num_output: 256
    pad: 1
    kernel_size: 3
  }
}
layer {
  name: "relu5"
  type: "ReLU"
  bottom: "conv5"
  top: "conv5"
}
layer {
  name: "pool5"
  type: "Pooling"
  bottom: "conv5"
  top: "pool5"
  pooling_param {
    pool: MAX
    kernel_size: 3
    stride: 2
  }
}
layer {
  name: "fc6"
  type: "InnerProduct"
  bottom: "pool5"
  top: "fc6"
  inner_product_param {
    num_output: 4096
  }
}
layer {
  name: "relu6"
  type: "ReLU"
  bottom: "fc6"
  top: "fc6"
}
layer {
  name: "drop6"
  type: "Dropout"
  bottom: "fc6"
  top: "fc6"
  dropout_param {
    dropout_ratio: 0.5
  }
}
layer {
  name: "fc7"
  type: "InnerProduct"
  bottom: "fc6"
  top: "fc7"
  inner_product_param {
    num_output: 4096
  }
}
layer {
  name: "relu7"
  type: "ReLU"
  bottom: "fc7"
  top: "fc7"
}
layer {
  name: "drop7"
  type: "Dropout"
  bottom: "fc7"
  top: "fc7"
  dropout_param {
    dropout_ratio: 0.5
  }
}
layer {
  name: "fc8"
  type: "InnerProduct"
  bottom: "fc7"
  top: "fc8"
  inner_product_param {
    num_output: 1000
  }
}
layer {
  name: "prob"
  type: "Softmax"
  bottom: "fc8"
  top: "prob"
}
I1110 22:09:11.780954  2748 net.cpp:413] Input 0 -> data
I1110 22:09:11.781152  2748 layer_factory.hpp:76] Creating layer conv1
I1110 22:09:11.781218  2748 net.cpp:106] Creating Layer conv1
I1110 22:09:11.781237  2748 net.cpp:454] conv1 <- data
I1110 22:09:11.781268  2748 net.cpp:411] conv1 -> conv1
I1110 22:09:11.781702  2748 net.cpp:150] Setting up conv1
I1110 22:09:11.781731  2748 net.cpp:157] Top shape: 1 96 55 55 (290400)
I1110 22:09:11.781744  2748 net.cpp:165] Memory required for data: 1161600
I1110 22:09:11.781791  2748 layer_factory.hpp:76] Creating layer relu1
I1110 22:09:11.781837  2748 net.cpp:106] Creating Layer relu1
I1110 22:09:11.781854  2748 net.cpp:454] relu1 <- conv1
I1110 22:09:11.781880  2748 net.cpp:397] relu1 -> conv1 (in-place)
I1110 22:09:11.781906  2748 net.cpp:150] Setting up relu1
I1110 22:09:11.781922  2748 net.cpp:157] Top shape: 1 96 55 55 (290400)
I1110 22:09:11.781932  2748 net.cpp:165] Memory required for data: 2323200
I1110 22:09:11.781952  2748 layer_factory.hpp:76] Creating layer pool1
I1110 22:09:11.781981  2748 net.cpp:106] Creating Layer pool1
I1110 22:09:11.781998  2748 net.cpp:454] pool1 <- conv1
I1110 22:09:11.782027  2748 net.cpp:411] pool1 -> pool1
I1110 22:09:11.782105  2748 net.cpp:150] Setting up pool1
I1110 22:09:11.782130  2748 net.cpp:157] Top shape: 1 96 27 27 (69984)
I1110 22:09:11.782140  2748 net.cpp:165] Memory required for data: 2603136
I1110 22:09:11.782152  2748 layer_factory.hpp:76] Creating layer norm1
I1110 22:09:11.782179  2748 net.cpp:106] Creating Layer norm1
I1110 22:09:11.782196  2748 net.cpp:454] norm1 <- pool1
I1110 22:09:11.782224  2748 net.cpp:411] norm1 -> norm1
I1110 22:09:11.782292  2748 net.cpp:150] Setting up norm1
I1110 22:09:11.782313  2748 net.cpp:157] Top shape: 1 96 27 27 (69984)
I1110 22:09:11.782325  2748 net.cpp:165] Memory required for data: 2883072
I1110 22:09:11.782336  2748 layer_factory.hpp:76] Creating layer conv2
I1110 22:09:11.782366  2748 net.cpp:106] Creating Layer conv2
I1110 22:09:11.782389  2748 net.cpp:454] conv2 <- norm1
I1110 22:09:11.782419  2748 net.cpp:411] conv2 -> conv2
I1110 22:09:11.786342  2748 net.cpp:150] Setting up conv2
I1110 22:09:11.786387  2748 net.cpp:157] Top shape: 1 256 27 27 (186624)
I1110 22:09:11.786398  2748 net.cpp:165] Memory required for data: 3629568
I1110 22:09:11.786458  2748 layer_factory.hpp:76] Creating layer relu2
I1110 22:09:11.786497  2748 net.cpp:106] Creating Layer relu2
I1110 22:09:11.786519  2748 net.cpp:454] relu2 <- conv2
I1110 22:09:11.786553  2748 net.cpp:397] relu2 -> conv2 (in-place)
I1110 22:09:11.786587  2748 net.cpp:150] Setting up relu2
I1110 22:09:11.786603  2748 net.cpp:157] Top shape: 1 256 27 27 (186624)
I1110 22:09:11.786612  2748 net.cpp:165] Memory required for data: 4376064
I1110 22:09:11.786624  2748 layer_factory.hpp:76] Creating layer pool2
I1110 22:09:11.786651  2748 net.cpp:106] Creating Layer pool2
I1110 22:09:11.786666  2748 net.cpp:454] pool2 <- conv2
I1110 22:09:11.786695  2748 net.cpp:411] pool2 -> pool2
I1110 22:09:11.786772  2748 net.cpp:150] Setting up pool2
I1110 22:09:11.786800  2748 net.cpp:157] Top shape: 1 256 13 13 (43264)
I1110 22:09:11.786813  2748 net.cpp:165] Memory required for data: 4549120
I1110 22:09:11.786825  2748 layer_factory.hpp:76] Creating layer norm2
I1110 22:09:11.786854  2748 net.cpp:106] Creating Layer norm2
I1110 22:09:11.786870  2748 net.cpp:454] norm2 <- pool2
I1110 22:09:11.786898  2748 net.cpp:411] norm2 -> norm2
I1110 22:09:11.786964  2748 net.cpp:150] Setting up norm2
I1110 22:09:11.786986  2748 net.cpp:157] Top shape: 1 256 13 13 (43264)
I1110 22:09:11.786996  2748 net.cpp:165] Memory required for data: 4722176
I1110 22:09:11.787009  2748 layer_factory.hpp:76] Creating layer conv3
I1110 22:09:11.787050  2748 net.cpp:106] Creating Layer conv3
I1110 22:09:11.787066  2748 net.cpp:454] conv3 <- norm2
I1110 22:09:11.787096  2748 net.cpp:411] conv3 -> conv3
I1110 22:09:11.792654  2748 net.cpp:150] Setting up conv3
I1110 22:09:11.792693  2748 net.cpp:157] Top shape: 1 384 13 13 (64896)
I1110 22:09:11.792706  2748 net.cpp:165] Memory required for data: 4981760
I1110 22:09:11.792769  2748 layer_factory.hpp:76] Creating layer relu3
I1110 22:09:11.792814  2748 net.cpp:106] Creating Layer relu3
I1110 22:09:11.792835  2748 net.cpp:454] relu3 <- conv3
I1110 22:09:11.792867  2748 net.cpp:397] relu3 -> conv3 (in-place)
I1110 22:09:11.792901  2748 net.cpp:150] Setting up relu3
I1110 22:09:11.792917  2748 net.cpp:157] Top shape: 1 384 13 13 (64896)
I1110 22:09:11.792927  2748 net.cpp:165] Memory required for data: 5241344
I1110 22:09:11.792938  2748 layer_factory.hpp:76] Creating layer conv4
I1110 22:09:11.792969  2748 net.cpp:106] Creating Layer conv4
I1110 22:09:11.792984  2748 net.cpp:454] conv4 <- conv3
I1110 22:09:11.793011  2748 net.cpp:411] conv4 -> conv4
I1110 22:09:11.800014  2748 net.cpp:150] Setting up conv4
I1110 22:09:11.800057  2748 net.cpp:157] Top shape: 1 384 13 13 (64896)
I1110 22:09:11.800068  2748 net.cpp:165] Memory required for data: 5500928
I1110 22:09:11.800103  2748 layer_factory.hpp:76] Creating layer relu4
I1110 22:09:11.800140  2748 net.cpp:106] Creating Layer relu4
I1110 22:09:11.800161  2748 net.cpp:454] relu4 <- conv4
I1110 22:09:11.800194  2748 net.cpp:397] relu4 -> conv4 (in-place)
I1110 22:09:11.800226  2748 net.cpp:150] Setting up relu4
I1110 22:09:11.800241  2748 net.cpp:157] Top shape: 1 384 13 13 (64896)
I1110 22:09:11.800251  2748 net.cpp:165] Memory required for data: 5760512
I1110 22:09:11.800262  2748 layer_factory.hpp:76] Creating layer conv5
I1110 22:09:11.800290  2748 net.cpp:106] Creating Layer conv5
I1110 22:09:11.800305  2748 net.cpp:454] conv5 <- conv4
I1110 22:09:11.800333  2748 net.cpp:411] conv5 -> conv5
I1110 22:09:11.804991  2748 net.cpp:150] Setting up conv5
I1110 22:09:11.805027  2748 net.cpp:157] Top shape: 1 256 13 13 (43264)
I1110 22:09:11.805039  2748 net.cpp:165] Memory required for data: 5933568
I1110 22:09:11.805094  2748 layer_factory.hpp:76] Creating layer relu5
I1110 22:09:11.805126  2748 net.cpp:106] Creating Layer relu5
I1110 22:09:11.805145  2748 net.cpp:454] relu5 <- conv5
I1110 22:09:11.805171  2748 net.cpp:397] relu5 -> conv5 (in-place)
I1110 22:09:11.805213  2748 net.cpp:150] Setting up relu5
I1110 22:09:11.805230  2748 net.cpp:157] Top shape: 1 256 13 13 (43264)
I1110 22:09:11.805239  2748 net.cpp:165] Memory required for data: 6106624
I1110 22:09:11.805251  2748 layer_factory.hpp:76] Creating layer pool5
I1110 22:09:11.805281  2748 net.cpp:106] Creating Layer pool5
I1110 22:09:11.805299  2748 net.cpp:454] pool5 <- conv5
I1110 22:09:11.805325  2748 net.cpp:411] pool5 -> pool5
I1110 22:09:11.805407  2748 net.cpp:150] Setting up pool5
I1110 22:09:11.805428  2748 net.cpp:157] Top shape: 1 256 6 6 (9216)
I1110 22:09:11.805438  2748 net.cpp:165] Memory required for data: 6143488
I1110 22:09:11.805451  2748 layer_factory.hpp:76] Creating layer fc6
I1110 22:09:11.805477  2748 net.cpp:106] Creating Layer fc6
I1110 22:09:11.805492  2748 net.cpp:454] fc6 <- pool5
I1110 22:09:11.805519  2748 net.cpp:411] fc6 -> fc6
I1110 22:09:11.988054  2748 net.cpp:150] Setting up fc6
I1110 22:09:11.988097  2748 net.cpp:157] Top shape: 1 4096 (4096)
I1110 22:09:11.988108  2748 net.cpp:165] Memory required for data: 6159872
I1110 22:09:11.988143  2748 layer_factory.hpp:76] Creating layer relu6
I1110 22:09:11.988193  2748 net.cpp:106] Creating Layer relu6
I1110 22:09:11.988215  2748 net.cpp:454] relu6 <- fc6
I1110 22:09:11.988251  2748 net.cpp:397] relu6 -> fc6 (in-place)
I1110 22:09:11.988284  2748 net.cpp:150] Setting up relu6
I1110 22:09:11.988299  2748 net.cpp:157] Top shape: 1 4096 (4096)
I1110 22:09:11.988309  2748 net.cpp:165] Memory required for data: 6176256
I1110 22:09:11.988320  2748 layer_factory.hpp:76] Creating layer drop6
I1110 22:09:11.988347  2748 net.cpp:106] Creating Layer drop6
I1110 22:09:11.988360  2748 net.cpp:454] drop6 <- fc6
I1110 22:09:11.988389  2748 net.cpp:397] drop6 -> fc6 (in-place)
I1110 22:09:11.988441  2748 net.cpp:150] Setting up drop6
I1110 22:09:11.988459  2748 net.cpp:157] Top shape: 1 4096 (4096)
I1110 22:09:11.988469  2748 net.cpp:165] Memory required for data: 6192640
I1110 22:09:11.988481  2748 layer_factory.hpp:76] Creating layer fc7
I1110 22:09:11.988509  2748 net.cpp:106] Creating Layer fc7
I1110 22:09:11.988525  2748 net.cpp:454] fc7 <- fc6
I1110 22:09:11.988557  2748 net.cpp:411] fc7 -> fc7
I1110 22:09:12.067188  2748 net.cpp:150] Setting up fc7
I1110 22:09:12.067282  2748 net.cpp:157] Top shape: 1 4096 (4096)
I1110 22:09:12.067294  2748 net.cpp:165] Memory required for data: 6209024
I1110 22:09:12.067344  2748 layer_factory.hpp:76] Creating layer relu7
I1110 22:09:12.067406  2748 net.cpp:106] Creating Layer relu7
I1110 22:09:12.067435  2748 net.cpp:454] relu7 <- fc7
I1110 22:09:12.067479  2748 net.cpp:397] relu7 -> fc7 (in-place)
I1110 22:09:12.067520  2748 net.cpp:150] Setting up relu7
I1110 22:09:12.067535  2748 net.cpp:157] Top shape: 1 4096 (4096)
I1110 22:09:12.067549  2748 net.cpp:165] Memory required for data: 6225408
I1110 22:09:12.067562  2748 layer_factory.hpp:76] Creating layer drop7
I1110 22:09:12.067592  2748 net.cpp:106] Creating Layer drop7
I1110 22:09:12.067608  2748 net.cpp:454] drop7 <- fc7
I1110 22:09:12.067636  2748 net.cpp:397] drop7 -> fc7 (in-place)
I1110 22:09:12.067694  2748 net.cpp:150] Setting up drop7
I1110 22:09:12.067713  2748 net.cpp:157] Top shape: 1 4096 (4096)
I1110 22:09:12.067723  2748 net.cpp:165] Memory required for data: 6241792
I1110 22:09:12.067734  2748 layer_factory.hpp:76] Creating layer fc8
I1110 22:09:12.067770  2748 net.cpp:106] Creating Layer fc8
I1110 22:09:12.067785  2748 net.cpp:454] fc8 <- fc7
I1110 22:09:12.067813  2748 net.cpp:411] fc8 -> fc8
I1110 22:09:12.088212  2748 net.cpp:150] Setting up fc8
I1110 22:09:12.088296  2748 net.cpp:157] Top shape: 1 1000 (1000)
I1110 22:09:12.088307  2748 net.cpp:165] Memory required for data: 6245792
I1110 22:09:12.088361  2748 layer_factory.hpp:76] Creating layer prob
I1110 22:09:12.088431  2748 net.cpp:106] Creating Layer prob
I1110 22:09:12.088460  2748 net.cpp:454] prob <- fc8
I1110 22:09:12.088508  2748 net.cpp:411] prob -> prob
I1110 22:09:12.088650  2748 net.cpp:150] Setting up prob
I1110 22:09:12.088672  2748 net.cpp:157] Top shape: 1 1000 (1000)
I1110 22:09:12.088683  2748 net.cpp:165] Memory required for data: 6249792
I1110 22:09:12.088701  2748 net.cpp:228] prob does not need backward computation.
I1110 22:09:12.088714  2748 net.cpp:228] fc8 does not need backward computation.
I1110 22:09:12.088727  2748 net.cpp:228] drop7 does not need backward computation.
I1110 22:09:12.088740  2748 net.cpp:228] relu7 does not need backward computation.
…
