…
gamma: 0.5
momentum: 0.98
weight_decay: 0.0063096
stepsize: 1500
snapshot: 1000
snapshot_prefix: "stitch"
solver_mode: GPU
random_seed: 0
net: "network.prototxt"
regularization_type: "L1"
I1111 06:55:42.113163  2391 solver.cpp:90] Creating training net from net file: network.prototxt
I1111 06:55:42.130573  2391 net.cpp:49] Initializing net from parameters: 
name: "StitchNet"
input: "net0"
input: "net1"
input_dim: 32
input_dim: 96
input_dim: 55
input_dim: 55
input_dim: 32
input_dim: 96
input_dim: 55
input_dim: 55
state {
  phase: TRAIN
}
debug_info: true
layer {
  name: "stitch0"
  type: "Convolution"
  bottom: "net0"
  top: "stitch0"
  convolution_param {
    num_output: 96
    kernel_size: 1
    stride: 1
    weight_filler {
      type: "gaussian"
      std: 0.01
    }
  }
}
layer {
  name: "loss"
  type: "EuclideanLoss"
  bottom: "stitch0"
  bottom: "net1"
  top: "loss"
  loss_weight: 1
}
I1111 06:55:42.131006  2391 net.cpp:413] Input 0 -> net0
I1111 06:55:42.176430  2391 net.cpp:413] Input 1 -> net1
I1111 06:55:42.176702  2391 layer_factory.hpp:76] Creating layer stitch0
I1111 06:55:42.176812  2391 net.cpp:106] Creating Layer stitch0
I1111 06:55:42.176838  2391 net.cpp:454] stitch0 <- net0
I1111 06:55:42.176880  2391 net.cpp:411] stitch0 -> stitch0
I1111 06:55:42.180240  2391 net.cpp:150] Setting up stitch0
I1111 06:55:42.180325  2391 net.cpp:157] Top shape: 32 96 55 55 (9292800)
I1111 06:55:42.180343  2391 net.cpp:165] Memory required for data: 37171200
I1111 06:55:42.180449  2391 layer_factory.hpp:76] Creating layer loss
I1111 06:55:42.180495  2391 net.cpp:106] Creating Layer loss
I1111 06:55:42.180515  2391 net.cpp:454] loss <- stitch0
I1111 06:55:42.180539  2391 net.cpp:454] loss <- net1
I1111 06:55:42.180567  2391 net.cpp:411] loss -> loss
I1111 06:55:42.180660  2391 net.cpp:150] Setting up loss
I1111 06:55:42.180685  2391 net.cpp:157] Top shape: (1)
I1111 06:55:42.180697  2391 net.cpp:160]     with loss weight 1
I1111 06:55:42.180719  2391 net.cpp:165] Memory required for data: 37171204
I1111 06:55:42.180752  2391 net.cpp:226] loss needs backward computation.
I1111 06:55:42.180773  2391 net.cpp:226] stitch0 needs backward computation.
I1111 06:55:42.180788  2391 net.cpp:270] This network produces output loss
I1111 06:55:42.180826  2391 net.cpp:283] Network initialization done.
I1111 06:55:42.180902  2391 solver.cpp:59] Solver scaffolding done.
I1111 06:55:42.286044  2391 net.cpp:49] Initializing net from parameters: 
name: "CaffeNet"
input: "data"
input_dim: 1
input_dim: 3
input_dim: 227
input_dim: 227
force_backward: true
state {
  phase: TEST
}
layer {
  name: "conv1"
  type: "Convolution"
  bottom: "data"
  top: "conv1"
  convolution_param {
    num_output: 96
    kernel_size: 11
    stride: 4
  }
}
layer {
  name: "relu1"
  type: "ReLU"
  bottom: "conv1"
  top: "conv1"
}
layer {
  name: "pool1"
  type: "Pooling"
  bottom: "conv1"
  top: "pool1"
  pooling_param {
    pool: MAX
    kernel_size: 3
    stride: 2
  }
}
layer {
  name: "norm1"
  type: "LRN"
  bottom: "pool1"
  top: "norm1"
  lrn_param {
    local_size: 5
    alpha: 0.0001
    beta: 0.75
  }
}
layer {
  name: "conv2"
  type: "Convolution"
  bottom: "norm1"
  top: "conv2"
  convolution_param {
    num_output: 256
    pad: 2
    kernel_size: 5
  }
}
layer {
  name: "relu2"
  type: "ReLU"
  bottom: "conv2"
  top: "conv2"
}
layer {
  name: "pool2"
  type: "Pooling"
  bottom: "conv2"
  top: "pool2"
  pooling_param {
    pool: MAX
    kernel_size: 3
    stride: 2
  }
}
layer {
  name: "norm2"
  type: "LRN"
  bottom: "pool2"
  top: "norm2"
  lrn_param {
    local_size: 5
    alpha: 0.0001
    beta: 0.75
  }
}
layer {
  name: "conv3"
  type: "Convolution"
  bottom: "norm2"
  top: "conv3"
  convolution_param {
    num_output: 384
    pad: 1
    kernel_size: 3
  }
}
layer {
  name: "relu3"
  type: "ReLU"
  bottom: "conv3"
  top: "conv3"
}
layer {
  name: "conv4"
  type: "Convolution"
  bottom: "conv3"
  top: "conv4"
  convolution_param {
    num_output: 384
    pad: 1
    kernel_size: 3
  }
}
layer {
  name: "relu4"
  type: "ReLU"
  bottom: "conv4"
  top: "conv4"
}
layer {
  name: "conv5"
  type: "Convolution"
  bottom: "conv4"
  top: "conv5"
  convolution_param {
    num_output: 256
    pad: 1
    kernel_size: 3
  }
}
layer {
  name: "relu5"
  type: "ReLU"
  bottom: "conv5"
  top: "conv5"
}
layer {
  name: "pool5"
  type: "Pooling"
  bottom: "conv5"
  top: "pool5"
  pooling_param {
    pool: MAX
    kernel_size: 3
    stride: 2
  }
}
layer {
  name: "fc6"
  type: "InnerProduct"
  bottom: "pool5"
  top: "fc6"
  inner_product_param {
    num_output: 4096
  }
}
layer {
  name: "relu6"
  type: "ReLU"
  bottom: "fc6"
  top: "fc6"
}
layer {
  name: "drop6"
  type: "Dropout"
  bottom: "fc6"
  top: "fc6"
  dropout_param {
    dropout_ratio: 0.5
  }
}
layer {
  name: "fc7"
  type: "InnerProduct"
  bottom: "fc6"
  top: "fc7"
  inner_product_param {
    num_output: 4096
  }
}
layer {
  name: "relu7"
  type: "ReLU"
  bottom: "fc7"
  top: "fc7"
}
layer {
  name: "drop7"
  type: "Dropout"
  bottom: "fc7"
  top: "fc7"
  dropout_param {
    dropout_ratio: 0.5
  }
}
layer {
  name: "fc8"
  type: "InnerProduct"
  bottom: "fc7"
  top: "fc8"
  inner_product_param {
    num_output: 1000
  }
}
layer {
  name: "prob"
  type: "Softmax"
  bottom: "fc8"
  top: "prob"
}
I1111 06:55:42.286555  2391 net.cpp:413] Input 0 -> data
I1111 06:55:42.286798  2391 layer_factory.hpp:76] Creating layer conv1
I1111 06:55:42.286885  2391 net.cpp:106] Creating Layer conv1
I1111 06:55:42.286927  2391 net.cpp:454] conv1 <- data
I1111 06:55:42.286996  2391 net.cpp:411] conv1 -> conv1
I1111 06:55:42.289301  2391 net.cpp:150] Setting up conv1
I1111 06:55:42.289366  2391 net.cpp:157] Top shape: 1 96 55 55 (290400)
I1111 06:55:42.289397  2391 net.cpp:165] Memory required for data: 1161600
I1111 06:55:42.289504  2391 layer_factory.hpp:76] Creating layer relu1
I1111 06:55:42.289652  2391 net.cpp:106] Creating Layer relu1
I1111 06:55:42.289697  2391 net.cpp:454] relu1 <- conv1
I1111 06:55:42.289729  2391 net.cpp:397] relu1 -> conv1 (in-place)
I1111 06:55:42.289778  2391 net.cpp:150] Setting up relu1
I1111 06:55:42.289798  2391 net.cpp:157] Top shape: 1 96 55 55 (290400)
I1111 06:55:42.289809  2391 net.cpp:165] Memory required for data: 2323200
I1111 06:55:42.289824  2391 layer_factory.hpp:76] Creating layer pool1
I1111 06:55:42.289855  2391 net.cpp:106] Creating Layer pool1
I1111 06:55:42.289873  2391 net.cpp:454] pool1 <- conv1
I1111 06:55:42.289908  2391 net.cpp:411] pool1 -> pool1
I1111 06:55:42.290036  2391 net.cpp:150] Setting up pool1
I1111 06:55:42.290063  2391 net.cpp:157] Top shape: 1 96 27 27 (69984)
I1111 06:55:42.290076  2391 net.cpp:165] Memory required for data: 2603136
I1111 06:55:42.290089  2391 layer_factory.hpp:76] Creating layer norm1
I1111 06:55:42.290122  2391 net.cpp:106] Creating Layer norm1
I1111 06:55:42.290139  2391 net.cpp:454] norm1 <- pool1
I1111 06:55:42.290175  2391 net.cpp:411] norm1 -> norm1
I1111 06:55:42.290273  2391 net.cpp:150] Setting up norm1
I1111 06:55:42.290302  2391 net.cpp:157] Top shape: 1 96 27 27 (69984)
I1111 06:55:42.290313  2391 net.cpp:165] Memory required for data: 2883072
I1111 06:55:42.290328  2391 layer_factory.hpp:76] Creating layer conv2
I1111 06:55:42.290359  2391 net.cpp:106] Creating Layer conv2
I1111 06:55:42.290376  2391 net.cpp:454] conv2 <- norm1
I1111 06:55:42.290415  2391 net.cpp:411] conv2 -> conv2
I1111 06:55:42.295585  2391 net.cpp:150] Setting up conv2
I1111 06:55:42.295620  2391 net.cpp:157] Top shape: 1 256 27 27 (186624)
I1111 06:55:42.295637  2391 net.cpp:165] Memory required for data: 3629568
I1111 06:55:42.295678  2391 layer_factory.hpp:76] Creating layer relu2
I1111 06:55:42.295706  2391 net.cpp:106] Creating Layer relu2
I1111 06:55:42.295724  2391 net.cpp:454] relu2 <- conv2
I1111 06:55:42.295753  2391 net.cpp:397] relu2 -> conv2 (in-place)
I1111 06:55:42.295783  2391 net.cpp:150] Setting up relu2
I1111 06:55:42.295800  2391 net.cpp:157] Top shape: 1 256 27 27 (186624)
I1111 06:55:42.295812  2391 net.cpp:165] Memory required for data: 4376064
I1111 06:55:42.295825  2391 layer_factory.hpp:76] Creating layer pool2
I1111 06:55:42.295850  2391 net.cpp:106] Creating Layer pool2
I1111 06:55:42.295866  2391 net.cpp:454] pool2 <- conv2
I1111 06:55:42.295899  2391 net.cpp:411] pool2 -> pool2
I1111 06:55:42.295984  2391 net.cpp:150] Setting up pool2
I1111 06:55:42.296010  2391 net.cpp:157] Top shape: 1 256 13 13 (43264)
I1111 06:55:42.296020  2391 net.cpp:165] Memory required for data: 4549120
I1111 06:55:42.296036  2391 layer_factory.hpp:76] Creating layer norm2
I1111 06:55:42.296066  2391 net.cpp:106] Creating Layer norm2
I1111 06:55:42.296083  2391 net.cpp:454] norm2 <- pool2
I1111 06:55:42.296116  2391 net.cpp:411] norm2 -> norm2
I1111 06:55:42.296191  2391 net.cpp:150] Setting up norm2
I1111 06:55:42.296219  2391 net.cpp:157] Top shape: 1 256 13 13 (43264)
I1111 06:55:42.296232  2391 net.cpp:165] Memory required for data: 4722176
I1111 06:55:42.296247  2391 layer_factory.hpp:76] Creating layer conv3
I1111 06:55:42.296278  2391 net.cpp:106] Creating Layer conv3
I1111 06:55:42.296298  2391 net.cpp:454] conv3 <- norm2
I1111 06:55:42.296334  2391 net.cpp:411] conv3 -> conv3
I1111 06:55:42.302393  2391 net.cpp:150] Setting up conv3
I1111 06:55:42.302422  2391 net.cpp:157] Top shape: 1 384 13 13 (64896)
I1111 06:55:42.302434  2391 net.cpp:165] Memory required for data: 4981760
I1111 06:55:42.302475  2391 layer_factory.hpp:76] Creating layer relu3
I1111 06:55:42.302503  2391 net.cpp:106] Creating Layer relu3
I1111 06:55:42.302521  2391 net.cpp:454] relu3 <- conv3
I1111 06:55:42.302548  2391 net.cpp:397] relu3 -> conv3 (in-place)
I1111 06:55:42.302580  2391 net.cpp:150] Setting up relu3
I1111 06:55:42.302597  2391 net.cpp:157] Top shape: 1 384 13 13 (64896)
I1111 06:55:42.302614  2391 net.cpp:165] Memory required for data: 5241344
I1111 06:55:42.302628  2391 layer_factory.hpp:76] Creating layer conv4
I1111 06:55:42.302654  2391 net.cpp:106] Creating Layer conv4
I1111 06:55:42.302671  2391 net.cpp:454] conv4 <- conv3
I1111 06:55:42.302706  2391 net.cpp:411] conv4 -> conv4
I1111 06:55:42.311548  2391 net.cpp:150] Setting up conv4
I1111 06:55:42.311578  2391 net.cpp:157] Top shape: 1 384 13 13 (64896)
I1111 06:55:42.311591  2391 net.cpp:165] Memory required for data: 5500928
I1111 06:55:42.311624  2391 layer_factory.hpp:76] Creating layer relu4
I1111 06:55:42.311651  2391 net.cpp:106] Creating Layer relu4
I1111 06:55:42.311668  2391 net.cpp:454] relu4 <- conv4
I1111 06:55:42.311697  2391 net.cpp:397] relu4 -> conv4 (in-place)
I1111 06:55:42.311728  2391 net.cpp:150] Setting up relu4
I1111 06:55:42.311746  2391 net.cpp:157] Top shape: 1 384 13 13 (64896)
I1111 06:55:42.311758  2391 net.cpp:165] Memory required for data: 5760512
I1111 06:55:42.311771  2391 layer_factory.hpp:76] Creating layer conv5
I1111 06:55:42.311797  2391 net.cpp:106] Creating Layer conv5
I1111 06:55:42.311815  2391 net.cpp:454] conv5 <- conv4
I1111 06:55:42.311846  2391 net.cpp:411] conv5 -> conv5
I1111 06:55:42.317976  2391 net.cpp:150] Setting up conv5
I1111 06:55:42.318006  2391 net.cpp:157] Top shape: 1 256 13 13 (43264)
I1111 06:55:42.318017  2391 net.cpp:165] Memory required for data: 5933568
I1111 06:55:42.318063  2391 layer_factory.hpp:76] Creating layer relu5
I1111 06:55:42.318092  2391 net.cpp:106] Creating Layer relu5
I1111 06:55:42.318110  2391 net.cpp:454] relu5 <- conv5
I1111 06:55:42.318143  2391 net.cpp:397] relu5 -> conv5 (in-place)
I1111 06:55:42.318173  2391 net.cpp:150] Setting up relu5
I1111 06:55:42.318192  2391 net.cpp:157] Top shape: 1 256 13 13 (43264)
I1111 06:55:42.318202  2391 net.cpp:165] Memory required for data: 6106624
I1111 06:55:42.318217  2391 layer_factory.hpp:76] Creating layer pool5
I1111 06:55:42.318243  2391 net.cpp:106] Creating Layer pool5
I1111 06:55:42.318261  2391 net.cpp:454] pool5 <- conv5
I1111 06:55:42.318291  2391 net.cpp:411] pool5 -> pool5
I1111 06:55:42.318377  2391 net.cpp:150] Setting up pool5
I1111 06:55:42.318402  2391 net.cpp:157] Top shape: 1 256 6 6 (9216)
I1111 06:55:42.318414  2391 net.cpp:165] Memory required for data: 6143488
I1111 06:55:42.318428  2391 layer_factory.hpp:76] Creating layer fc6
I1111 06:55:42.318457  2391 net.cpp:106] Creating Layer fc6
I1111 06:55:42.318475  2391 net.cpp:454] fc6 <- pool5
I1111 06:55:42.318507  2391 net.cpp:411] fc6 -> fc6
I1111 06:55:42.563436  2391 net.cpp:150] Setting up fc6
I1111 06:55:42.563554  2391 net.cpp:157] Top shape: 1 4096 (4096)
I1111 06:55:42.563570  2391 net.cpp:165] Memory required for data: 6159872
I1111 06:55:42.563628  2391 layer_factory.hpp:76] Creating layer relu6
I1111 06:55:42.563719  2391 net.cpp:106] Creating Layer relu6
I1111 06:55:42.563750  2391 net.cpp:454] relu6 <- fc6
I1111 06:55:42.563801  2391 net.cpp:397] relu6 -> fc6 (in-place)
I1111 06:55:42.563846  2391 net.cpp:150] Setting up relu6
I1111 06:55:42.563866  2391 net.cpp:157] Top shape: 1 4096 (4096)
I1111 06:55:42.563876  2391 net.cpp:165] Memory required for data: 6176256
I1111 06:55:42.563892  2391 layer_factory.hpp:76] Creating layer drop6
I1111 06:55:42.563995  2391 net.cpp:106] Creating Layer drop6
I1111 06:55:42.564015  2391 net.cpp:454] drop6 <- fc6
I1111 06:55:42.564059  2391 net.cpp:397] drop6 -> fc6 (in-place)
I1111 06:55:42.564236  2391 net.cpp:150] Setting up drop6
I1111 06:55:42.564260  2391 net.cpp:157] Top shape: 1 4096 (4096)
I1111 06:55:42.564272  2391 net.cpp:165] Memory required for data: 6192640
I1111 06:55:42.564288  2391 layer_factory.hpp:76] Creating layer fc7
I1111 06:55:42.564322  2391 net.cpp:106] Creating Layer fc7
I1111 06:55:42.564344  2391 net.cpp:454] fc7 <- fc6
I1111 06:55:42.564378  2391 net.cpp:411] fc7 -> fc7
I1111 06:55:42.672853  2391 net.cpp:150] Setting up fc7
I1111 06:55:42.672973  2391 net.cpp:157] Top shape: 1 4096 (4096)
I1111 06:55:42.672988  2391 net.cpp:165] Memory required for data: 6209024
I1111 06:55:42.673040  2391 layer_factory.hpp:76] Creating layer relu7
I1111 06:55:42.673106  2391 net.cpp:106] Creating Layer relu7
I1111 06:55:42.673138  2391 net.cpp:454] relu7 <- fc7
I1111 06:55:42.673189  2391 net.cpp:397] relu7 -> fc7 (in-place)
I1111 06:55:42.673236  2391 net.cpp:150] Setting up relu7
I1111 06:55:42.673255  2391 net.cpp:157] Top shape: 1 4096 (4096)
I1111 06:55:42.673265  2391 net.cpp:165] Memory required for data: 6225408
I1111 06:55:42.673281  2391 layer_factory.hpp:76] Creating layer drop7
I1111 06:55:42.673317  2391 net.cpp:106] Creating Layer drop7
I1111 06:55:42.673337  2391 net.cpp:454] drop7 <- fc7
I1111 06:55:42.673365  2391 net.cpp:397] drop7 -> fc7 (in-place)
I1111 06:55:42.673429  2391 net.cpp:150] Setting up drop7
I1111 06:55:42.673449  2391 net.cpp:157] Top shape: 1 4096 (4096)
I1111 06:55:42.673462  2391 net.cpp:165] Memory required for data: 6241792
I1111 06:55:42.673476  2391 layer_factory.hpp:76] Creating layer fc8
I1111 06:55:42.673516  2391 net.cpp:106] Creating Layer fc8
I1111 06:55:42.673533  2391 net.cpp:454] fc8 <- fc7
I1111 06:55:42.673566  2391 net.cpp:411] fc8 -> fc8
I1111 06:55:42.699821  2391 net.cpp:150] Setting up fc8
I1111 06:55:42.699890  2391 net.cpp:157] Top shape: 1 1000 (1000)
I1111 06:55:42.699908  2391 net.cpp:165] Memory required for data: 6245792
I1111 06:55:42.699947  2391 layer_factory.hpp:76] Creating layer prob
I1111 06:55:42.700055  2391 net.cpp:106] Creating Layer prob
I1111 06:55:42.700083  2391 net.cpp:454] prob <- fc8
I1111 06:55:42.700122  2391 net.cpp:411] prob -> prob
I1111 06:55:42.700248  2391 net.cpp:150] Setting up prob
I1111 06:55:42.700273  2391 net.cpp:157] Top shape: 1 1000 (1000)
I1111 06:55:42.700285  2391 net.cpp:165] Memory required for data: 6249792
I1111 06:55:42.700304  2391 net.cpp:228] prob does not need backward computation.
I1111 06:55:42.700320  2391 net.cpp:228] fc8 does not need backward computation.
I1111 06:55:42.700335  2391 net.cpp:228] drop7 does not need backward computation.
I1111 06:55:42.700348  2391 net.cpp:228] relu7 does not need backward computation.
…
I1111 06:55:45.740200  2391 net.cpp:923] Copying source layer drop6
I1111 06:55:45.740213  2391 net.cpp:923] Copying source layer fc7
I1111 06:55:45.951797  2391 net.cpp:923] Copying source layer relu7
I1111 06:55:45.951879  2391 net.cpp:923] Copying source layer drop7
I1111 06:55:45.951892  2391 net.cpp:923] Copying source layer fc8
I1111 06:55:46.003504  2391 net.cpp:920] Ignoring source layer loss
I1111 06:55:46.057904  2391 net.cpp:49] Initializing net from parameters: 
name: "CaffeNet"
input: "data"
input_dim: 1
input_dim: 3
input_dim: 227
input_dim: 227
force_backward: true
state {
  phase: TEST
}
layer {
  name: "conv1"
  type: "Convolution"
  bottom: "data"
  top: "conv1"
  convolution_param {
    num_output: 96
    kernel_size: 11
    stride: 4
  }
}
layer {
  name: "relu1"
  type: "ReLU"
  bottom: "conv1"
  top: "conv1"
}
layer {
  name: "pool1"
  type: "Pooling"
  bottom: "conv1"
  top: "pool1"
  pooling_param {
    pool: MAX
    kernel_size: 3
    stride: 2
  }
}
layer {
  name: "norm1"
  type: "LRN"
  bottom: "pool1"
  top: "norm1"
  lrn_param {
    local_size: 5
    alpha: 0.0001
    beta: 0.75
  }
}
layer {
  name: "conv2"
  type: "Convolution"
  bottom: "norm1"
  top: "conv2"
  convolution_param {
    num_output: 256
    pad: 2
    kernel_size: 5
  }
}
layer {
  name: "relu2"
  type: "ReLU"
  bottom: "conv2"
  top: "conv2"
}
layer {
  name: "pool2"
  type: "Pooling"
  bottom: "conv2"
  top: "pool2"
  pooling_param {
    pool: MAX
    kernel_size: 3
    stride: 2
  }
}
layer {
  name: "norm2"
  type: "LRN"
  bottom: "pool2"
  top: "norm2"
  lrn_param {
    local_size: 5
    alpha: 0.0001
    beta: 0.75
  }
}
layer {
  name: "conv3"
  type: "Convolution"
  bottom: "norm2"
  top: "conv3"
  convolution_param {
    num_output: 384
    pad: 1
    kernel_size: 3
  }
}
layer {
  name: "relu3"
  type: "ReLU"
  bottom: "conv3"
  top: "conv3"
}
layer {
  name: "conv4"
  type: "Convolution"
  bottom: "conv3"
  top: "conv4"
  convolution_param {
    num_output: 384
    pad: 1
    kernel_size: 3
  }
}
layer {
  name: "relu4"
  type: "ReLU"
  bottom: "conv4"
  top: "conv4"
}
layer {
  name: "conv5"
  type: "Convolution"
  bottom: "conv4"
  top: "conv5"
  convolution_param {
    num_output: 256
    pad: 1
    kernel_size: 3
  }
}
layer {
  name: "relu5"
  type: "ReLU"
  bottom: "conv5"
  top: "conv5"
}
layer {
  name: "pool5"
  type: "Pooling"
  bottom: "conv5"
  top: "pool5"
  pooling_param {
    pool: MAX
    kernel_size: 3
    stride: 2
  }
}
layer {
  name: "fc6"
  type: "InnerProduct"
  bottom: "pool5"
  top: "fc6"
  inner_product_param {
    num_output: 4096
  }
}
layer {
  name: "relu6"
  type: "ReLU"
  bottom: "fc6"
  top: "fc6"
}
layer {
  name: "drop6"
  type: "Dropout"
  bottom: "fc6"
  top: "fc6"
  dropout_param {
    dropout_ratio: 0.5
  }
}
layer {
  name: "fc7"
  type: "InnerProduct"
  bottom: "fc6"
  top: "fc7"
  inner_product_param {
    num_output: 4096
  }
}
layer {
  name: "relu7"
  type: "ReLU"
  bottom: "fc7"
  top: "fc7"
}
layer {
  name: "drop7"
  type: "Dropout"
  bottom: "fc7"
  top: "fc7"
  dropout_param {
    dropout_ratio: 0.5
  }
}
layer {
  name: "fc8"
  type: "InnerProduct"
  bottom: "fc7"
  top: "fc8"
  inner_product_param {
    num_output: 1000
  }
}
layer {
  name: "prob"
  type: "Softmax"
  bottom: "fc8"
  top: "prob"
}
I1111 06:55:46.058421  2391 net.cpp:413] Input 0 -> data
I1111 06:55:46.058820  2391 layer_factory.hpp:76] Creating layer conv1
I1111 06:55:46.058928  2391 net.cpp:106] Creating Layer conv1
I1111 06:55:46.058974  2391 net.cpp:454] conv1 <- data
I1111 06:55:46.059048  2391 net.cpp:411] conv1 -> conv1
I1111 06:55:46.059844  2391 net.cpp:150] Setting up conv1
I1111 06:55:46.059881  2391 net.cpp:157] Top shape: 1 96 55 55 (290400)
I1111 06:55:46.059892  2391 net.cpp:165] Memory required for data: 1161600
I1111 06:55:46.059944  2391 layer_factory.hpp:76] Creating layer relu1
I1111 06:55:46.059978  2391 net.cpp:106] Creating Layer relu1
I1111 06:55:46.059993  2391 net.cpp:454] relu1 <- conv1
I1111 06:55:46.060019  2391 net.cpp:397] relu1 -> conv1 (in-place)
I1111 06:55:46.060045  2391 net.cpp:150] Setting up relu1
I1111 06:55:46.060060  2391 net.cpp:157] Top shape: 1 96 55 55 (290400)
I1111 06:55:46.060070  2391 net.cpp:165] Memory required for data: 2323200
I1111 06:55:46.060082  2391 layer_factory.hpp:76] Creating layer pool1
I1111 06:55:46.060111  2391 net.cpp:106] Creating Layer pool1
I1111 06:55:46.060125  2391 net.cpp:454] pool1 <- conv1
I1111 06:55:46.060153  2391 net.cpp:411] pool1 -> pool1
I1111 06:55:46.060231  2391 net.cpp:150] Setting up pool1
I1111 06:55:46.060255  2391 net.cpp:157] Top shape: 1 96 27 27 (69984)
I1111 06:55:46.060264  2391 net.cpp:165] Memory required for data: 2603136
I1111 06:55:46.060277  2391 layer_factory.hpp:76] Creating layer norm1
I1111 06:55:46.060304  2391 net.cpp:106] Creating Layer norm1
I1111 06:55:46.060319  2391 net.cpp:454] norm1 <- pool1
I1111 06:55:46.060346  2391 net.cpp:411] norm1 -> norm1
I1111 06:55:46.060412  2391 net.cpp:150] Setting up norm1
I1111 06:55:46.060433  2391 net.cpp:157] Top shape: 1 96 27 27 (69984)
I1111 06:55:46.060444  2391 net.cpp:165] Memory required for data: 2883072
I1111 06:55:46.060456  2391 layer_factory.hpp:76] Creating layer conv2
I1111 06:55:46.060487  2391 net.cpp:106] Creating Layer conv2
I1111 06:55:46.060503  2391 net.cpp:454] conv2 <- norm1
I1111 06:55:46.060533  2391 net.cpp:411] conv2 -> conv2
I1111 06:55:46.064610  2391 net.cpp:150] Setting up conv2
I1111 06:55:46.064636  2391 net.cpp:157] Top shape: 1 256 27 27 (186624)
I1111 06:55:46.064647  2391 net.cpp:165] Memory required for data: 3629568
I1111 06:55:46.064682  2391 layer_factory.hpp:76] Creating layer relu2
I1111 06:55:46.064707  2391 net.cpp:106] Creating Layer relu2
I1111 06:55:46.064723  2391 net.cpp:454] relu2 <- conv2
I1111 06:55:46.064748  2391 net.cpp:397] relu2 -> conv2 (in-place)
I1111 06:55:46.064774  2391 net.cpp:150] Setting up relu2
I1111 06:55:46.064788  2391 net.cpp:157] Top shape: 1 256 27 27 (186624)
I1111 06:55:46.064798  2391 net.cpp:165] Memory required for data: 4376064
I1111 06:55:46.064810  2391 layer_factory.hpp:76] Creating layer pool2
I1111 06:55:46.064831  2391 net.cpp:106] Creating Layer pool2
I1111 06:55:46.064846  2391 net.cpp:454] pool2 <- conv2
I1111 06:55:46.064872  2391 net.cpp:411] pool2 -> pool2
I1111 06:55:46.064944  2391 net.cpp:150] Setting up pool2
I1111 06:55:46.064965  2391 net.cpp:157] Top shape: 1 256 13 13 (43264)
I1111 06:55:46.064975  2391 net.cpp:165] Memory required for data: 4549120
I1111 06:55:46.064986  2391 layer_factory.hpp:76] Creating layer norm2
I1111 06:55:46.065011  2391 net.cpp:106] Creating Layer norm2
I1111 06:55:46.065026  2391 net.cpp:454] norm2 <- pool2
I1111 06:55:46.065052  2391 net.cpp:411] norm2 -> norm2
I1111 06:55:46.065116  2391 net.cpp:150] Setting up norm2
I1111 06:55:46.065137  2391 net.cpp:157] Top shape: 1 256 13 13 (43264)
I1111 06:55:46.065147  2391 net.cpp:165] Memory required for data: 4722176
I1111 06:55:46.065160  2391 layer_factory.hpp:76] Creating layer conv3
I1111 06:55:46.065189  2391 net.cpp:106] Creating Layer conv3
I1111 06:55:46.065207  2391 net.cpp:454] conv3 <- norm2
I1111 06:55:46.065233  2391 net.cpp:411] conv3 -> conv3
I1111 06:55:46.070576  2391 net.cpp:150] Setting up conv3
I1111 06:55:46.070601  2391 net.cpp:157] Top shape: 1 384 13 13 (64896)
I1111 06:55:46.070617  2391 net.cpp:165] Memory required for data: 4981760
I1111 06:55:46.070654  2391 layer_factory.hpp:76] Creating layer relu3
I1111 06:55:46.070683  2391 net.cpp:106] Creating Layer relu3
I1111 06:55:46.070699  2391 net.cpp:454] relu3 <- conv3
I1111 06:55:46.070724  2391 net.cpp:397] relu3 -> conv3 (in-place)
I1111 06:55:46.070750  2391 net.cpp:150] Setting up relu3
I1111 06:55:46.070766  2391 net.cpp:157] Top shape: 1 384 13 13 (64896)
I1111 06:55:46.070775  2391 net.cpp:165] Memory required for data: 5241344
I1111 06:55:46.070787  2391 layer_factory.hpp:76] Creating layer conv4
I1111 06:55:46.070813  2391 net.cpp:106] Creating Layer conv4
I1111 06:55:46.070829  2391 net.cpp:454] conv4 <- conv3
I1111 06:55:46.070855  2391 net.cpp:411] conv4 -> conv4
I1111 06:55:46.078616  2391 net.cpp:150] Setting up conv4
I1111 06:55:46.078644  2391 net.cpp:157] Top shape: 1 384 13 13 (64896)
I1111 06:55:46.078655  2391 net.cpp:165] Memory required for data: 5500928
I1111 06:55:46.078677  2391 layer_factory.hpp:76] Creating layer relu4
I1111 06:55:46.078701  2391 net.cpp:106] Creating Layer relu4
I1111 06:55:46.078716  2391 net.cpp:454] relu4 <- conv4
I1111 06:55:46.078739  2391 net.cpp:397] relu4 -> conv4 (in-place)
I1111 06:55:46.078765  2391 net.cpp:150] Setting up relu4
I1111 06:55:46.078780  2391 net.cpp:157] Top shape: 1 384 13 13 (64896)
I1111 06:55:46.078789  2391 net.cpp:165] Memory required for data: 5760512
I1111 06:55:46.078801  2391 layer_factory.hpp:76] Creating layer conv5
I1111 06:55:46.078827  2391 net.cpp:106] Creating Layer conv5
I1111 06:55:46.078843  2391 net.cpp:454] conv5 <- conv4
I1111 06:55:46.078872  2391 net.cpp:411] conv5 -> conv5
I1111 06:55:46.084262  2391 net.cpp:150] Setting up conv5
I1111 06:55:46.084286  2391 net.cpp:157] Top shape: 1 256 13 13 (43264)
I1111 06:55:46.084297  2391 net.cpp:165] Memory required for data: 5933568
I1111 06:55:46.084333  2391 layer_factory.hpp:76] Creating layer relu5
I1111 06:55:46.084359  2391 net.cpp:106] Creating Layer relu5
I1111 06:55:46.084375  2391 net.cpp:454] relu5 <- conv5
I1111 06:55:46.084399  2391 net.cpp:397] relu5 -> conv5 (in-place)
I1111 06:55:46.084425  2391 net.cpp:150] Setting up relu5
I1111 06:55:46.084444  2391 net.cpp:157] Top shape: 1 256 13 13 (43264)
I1111 06:55:46.084452  2391 net.cpp:165] Memory required for data: 6106624
I1111 06:55:46.084465  2391 layer_factory.hpp:76] Creating layer pool5
I1111 06:55:46.084491  2391 net.cpp:106] Creating Layer pool5
I1111 06:55:46.084507  2391 net.cpp:454] pool5 <- conv5
I1111 06:55:46.084533  2391 net.cpp:411] pool5 -> pool5
I1111 06:55:46.084614  2391 net.cpp:150] Setting up pool5
I1111 06:55:46.084635  2391 net.cpp:157] Top shape: 1 256 6 6 (9216)
I1111 06:55:46.084645  2391 net.cpp:165] Memory required for data: 6143488
I1111 06:55:46.084657  2391 layer_factory.hpp:76] Creating layer fc6
I1111 06:55:46.084681  2391 net.cpp:106] Creating Layer fc6
I1111 06:55:46.084700  2391 net.cpp:454] fc6 <- pool5
I1111 06:55:46.084727  2391 net.cpp:411] fc6 -> fc6
I1111 06:55:46.305068  2391 net.cpp:150] Setting up fc6
I1111 06:55:46.305171  2391 net.cpp:157] Top shape: 1 4096 (4096)
I1111 06:55:46.305182  2391 net.cpp:165] Memory required for data: 6159872
I1111 06:55:46.305232  2391 layer_factory.hpp:76] Creating layer relu6
I1111 06:55:46.305312  2391 net.cpp:106] Creating Layer relu6
I1111 06:55:46.305341  2391 net.cpp:454] relu6 <- fc6
I1111 06:55:46.305384  2391 net.cpp:397] relu6 -> fc6 (in-place)
I1111 06:55:46.305428  2391 net.cpp:150] Setting up relu6
I1111 06:55:46.305443  2391 net.cpp:157] Top shape: 1 4096 (4096)
I1111 06:55:46.305454  2391 net.cpp:165] Memory required for data: 6176256
I1111 06:55:46.305466  2391 layer_factory.hpp:76] Creating layer drop6
I1111 06:55:46.305500  2391 net.cpp:106] Creating Layer drop6
I1111 06:55:46.305516  2391 net.cpp:454] drop6 <- fc6
I1111 06:55:46.305542  2391 net.cpp:397] drop6 -> fc6 (in-place)
I1111 06:55:46.305595  2391 net.cpp:150] Setting up drop6
I1111 06:55:46.305620  2391 net.cpp:157] Top shape: 1 4096 (4096)
I1111 06:55:46.305630  2391 net.cpp:165] Memory required for data: 6192640
I1111 06:55:46.305646  2391 layer_factory.hpp:76] Creating layer fc7
I1111 06:55:46.305680  2391 net.cpp:106] Creating Layer fc7
I1111 06:55:46.305696  2391 net.cpp:454] fc7 <- fc6
I1111 06:55:46.305722  2391 net.cpp:411] fc7 -> fc7
I1111 06:55:46.407413  2391 net.cpp:150] Setting up fc7
I1111 06:55:46.407516  2391 net.cpp:157] Top shape: 1 4096 (4096)
I1111 06:55:46.407529  2391 net.cpp:165] Memory required for data: 6209024
I1111 06:55:46.407577  2391 layer_factory.hpp:76] Creating layer relu7
I1111 06:55:46.407639  2391 net.cpp:106] Creating Layer relu7
I1111 06:55:46.407670  2391 net.cpp:454] relu7 <- fc7
I1111 06:55:46.407714  2391 net.cpp:397] relu7 -> fc7 (in-place)
I1111 06:55:46.407758  2391 net.cpp:150] Setting up relu7
I1111 06:55:46.407773  2391 net.cpp:157] Top shape: 1 4096 (4096)
I1111 06:55:46.407783  2391 net.cpp:165] Memory required for data: 6225408
I1111 06:55:46.407795  2391 layer_factory.hpp:76] Creating layer drop7
I1111 06:55:46.407825  2391 net.cpp:106] Creating Layer drop7
I1111 06:55:46.407840  2391 net.cpp:454] drop7 <- fc7
I1111 06:55:46.407869  2391 net.cpp:397] drop7 -> fc7 (in-place)
I1111 06:55:46.407927  2391 net.cpp:150] Setting up drop7
I1111 06:55:46.407946  2391 net.cpp:157] Top shape: 1 4096 (4096)
I1111 06:55:46.407955  2391 net.cpp:165] Memory required for data: 6241792
I1111 06:55:46.407969  2391 layer_factory.hpp:76] Creating layer fc8
I1111 06:55:46.407999  2391 net.cpp:106] Creating Layer fc8
I1111 06:55:46.408015  2391 net.cpp:454] fc8 <- fc7
I1111 06:55:46.408043  2391 net.cpp:411] fc8 -> fc8
I1111 06:55:46.432107  2391 net.cpp:150] Setting up fc8
I1111 06:55:46.432175  2391 net.cpp:157] Top shape: 1 1000 (1000)
I1111 06:55:46.432186  2391 net.cpp:165] Memory required for data: 6245792
I1111 06:55:46.432221  2391 layer_factory.hpp:76] Creating layer prob
I1111 06:55:46.432265  2391 net.cpp:106] Creating Layer prob
I1111 06:55:46.432286  2391 net.cpp:454] prob <- fc8
I1111 06:55:46.432322  2391 net.cpp:411] prob -> prob
I1111 06:55:46.432441  2391 net.cpp:150] Setting up prob
I1111 06:55:46.432462  2391 net.cpp:157] Top shape: 1 1000 (1000)
I1111 06:55:46.432473  2391 net.cpp:165] Memory required for data: 6249792
I1111 06:55:46.432489  2391 net.cpp:228] prob does not need backward computation.
I1111 06:55:46.432502  2391 net.cpp:228] fc8 does not need backward computation.
I1111 06:55:46.432515  2391 net.cpp:228] drop7 does not need backward computation.
I1111 06:55:46.432528  2391 net.cpp:228] relu7 does not need backward computation.
…
