…
gamma: 0.5
momentum: 0.98
weight_decay: 0.0025119
stepsize: 1500
snapshot: 1000
snapshot_prefix: "stitch"
solver_mode: GPU
random_seed: 0
net: "network.prototxt"
regularization_type: "L1"
I1111 15:12:21.873196   749 solver.cpp:90] Creating training net from net file: network.prototxt
I1111 15:12:21.873500   749 net.cpp:49] Initializing net from parameters: 
name: "StitchNet"
input: "net0"
input: "net1"
input_dim: 32
input_dim: 96
input_dim: 55
input_dim: 55
input_dim: 32
input_dim: 96
input_dim: 55
input_dim: 55
state {
  phase: TRAIN
}
debug_info: true
layer {
  name: "stitch0"
  type: "Convolution"
  bottom: "net0"
  top: "stitch0"
  convolution_param {
    num_output: 96
    kernel_size: 1
    stride: 1
    weight_filler {
      type: "gaussian"
      std: 0.01
    }
  }
}
layer {
  name: "loss"
  type: "EuclideanLoss"
  bottom: "stitch0"
  bottom: "net1"
  top: "loss"
  loss_weight: 1
}
I1111 15:12:21.873642   749 net.cpp:413] Input 0 -> net0
I1111 15:12:21.909337   749 net.cpp:413] Input 1 -> net1
I1111 15:12:21.909505   749 layer_factory.hpp:76] Creating layer stitch0
I1111 15:12:21.909579   749 net.cpp:106] Creating Layer stitch0
I1111 15:12:21.909600   749 net.cpp:454] stitch0 <- net0
I1111 15:12:21.909649   749 net.cpp:411] stitch0 -> stitch0
I1111 15:12:21.912313   749 net.cpp:150] Setting up stitch0
I1111 15:12:21.912361   749 net.cpp:157] Top shape: 32 96 55 55 (9292800)
I1111 15:12:21.912374   749 net.cpp:165] Memory required for data: 37171200
I1111 15:12:21.912437   749 layer_factory.hpp:76] Creating layer loss
I1111 15:12:21.912470   749 net.cpp:106] Creating Layer loss
I1111 15:12:21.912488   749 net.cpp:454] loss <- stitch0
I1111 15:12:21.912510   749 net.cpp:454] loss <- net1
I1111 15:12:21.912535   749 net.cpp:411] loss -> loss
I1111 15:12:21.912611   749 net.cpp:150] Setting up loss
I1111 15:12:21.912636   749 net.cpp:157] Top shape: (1)
I1111 15:12:21.912647   749 net.cpp:160]     with loss weight 1
I1111 15:12:21.912667   749 net.cpp:165] Memory required for data: 37171204
I1111 15:12:21.912683   749 net.cpp:226] loss needs backward computation.
I1111 15:12:21.912700   749 net.cpp:226] stitch0 needs backward computation.
I1111 15:12:21.912714   749 net.cpp:270] This network produces output loss
I1111 15:12:21.912739   749 net.cpp:283] Network initialization done.
I1111 15:12:21.912792   749 solver.cpp:59] Solver scaffolding done.
I1111 15:12:21.960063   749 net.cpp:49] Initializing net from parameters: 
name: "CaffeNet"
input: "data"
input_dim: 1
input_dim: 3
input_dim: 227
input_dim: 227
force_backward: true
state {
  phase: TEST
}
layer {
  name: "conv1"
  type: "Convolution"
  bottom: "data"
  top: "conv1"
  convolution_param {
    num_output: 96
    kernel_size: 11
    stride: 4
  }
}
layer {
  name: "relu1"
  type: "ReLU"
  bottom: "conv1"
  top: "conv1"
}
layer {
  name: "pool1"
  type: "Pooling"
  bottom: "conv1"
  top: "pool1"
  pooling_param {
    pool: MAX
    kernel_size: 3
    stride: 2
  }
}
layer {
  name: "norm1"
  type: "LRN"
  bottom: "pool1"
  top: "norm1"
  lrn_param {
    local_size: 5
    alpha: 0.0001
    beta: 0.75
  }
}
layer {
  name: "conv2"
  type: "Convolution"
  bottom: "norm1"
  top: "conv2"
  convolution_param {
    num_output: 256
    pad: 2
    kernel_size: 5
  }
}
layer {
  name: "relu2"
  type: "ReLU"
  bottom: "conv2"
  top: "conv2"
}
layer {
  name: "pool2"
  type: "Pooling"
  bottom: "conv2"
  top: "pool2"
  pooling_param {
    pool: MAX
    kernel_size: 3
    stride: 2
  }
}
layer {
  name: "norm2"
  type: "LRN"
  bottom: "pool2"
  top: "norm2"
  lrn_param {
    local_size: 5
    alpha: 0.0001
    beta: 0.75
  }
}
layer {
  name: "conv3"
  type: "Convolution"
  bottom: "norm2"
  top: "conv3"
  convolution_param {
    num_output: 384
    pad: 1
    kernel_size: 3
  }
}
layer {
  name: "relu3"
  type: "ReLU"
  bottom: "conv3"
  top: "conv3"
}
layer {
  name: "conv4"
  type: "Convolution"
  bottom: "conv3"
  top: "conv4"
  convolution_param {
    num_output: 384
    pad: 1
    kernel_size: 3
  }
}
layer {
  name: "relu4"
  type: "ReLU"
  bottom: "conv4"
  top: "conv4"
}
layer {
  name: "conv5"
  type: "Convolution"
  bottom: "conv4"
  top: "conv5"
  convolution_param {
    num_output: 256
    pad: 1
    kernel_size: 3
  }
}
layer {
  name: "relu5"
  type: "ReLU"
  bottom: "conv5"
  top: "conv5"
}
layer {
  name: "pool5"
  type: "Pooling"
  bottom: "conv5"
  top: "pool5"
  pooling_param {
    pool: MAX
    kernel_size: 3
    stride: 2
  }
}
layer {
  name: "fc6"
  type: "InnerProduct"
  bottom: "pool5"
  top: "fc6"
  inner_product_param {
    num_output: 4096
  }
}
layer {
  name: "relu6"
  type: "ReLU"
  bottom: "fc6"
  top: "fc6"
}
layer {
  name: "drop6"
  type: "Dropout"
  bottom: "fc6"
  top: "fc6"
  dropout_param {
    dropout_ratio: 0.5
  }
}
layer {
  name: "fc7"
  type: "InnerProduct"
  bottom: "fc6"
  top: "fc7"
  inner_product_param {
    num_output: 4096
  }
}
layer {
  name: "relu7"
  type: "ReLU"
  bottom: "fc7"
  top: "fc7"
}
layer {
  name: "drop7"
  type: "Dropout"
  bottom: "fc7"
  top: "fc7"
  dropout_param {
    dropout_ratio: 0.5
  }
}
layer {
  name: "fc8"
  type: "InnerProduct"
  bottom: "fc7"
  top: "fc8"
  inner_product_param {
    num_output: 1000
  }
}
layer {
  name: "prob"
  type: "Softmax"
  bottom: "fc8"
  top: "prob"
}
I1111 15:12:21.960530   749 net.cpp:413] Input 0 -> data
I1111 15:12:21.960775   749 layer_factory.hpp:76] Creating layer conv1
I1111 15:12:21.960862   749 net.cpp:106] Creating Layer conv1
I1111 15:12:21.960904   749 net.cpp:454] conv1 <- data
I1111 15:12:21.960973   749 net.cpp:411] conv1 -> conv1
I1111 15:12:21.963206   749 net.cpp:150] Setting up conv1
I1111 15:12:21.963269   749 net.cpp:157] Top shape: 1 96 55 55 (290400)
I1111 15:12:21.963299   749 net.cpp:165] Memory required for data: 1161600
I1111 15:12:21.963408   749 layer_factory.hpp:76] Creating layer relu1
I1111 15:12:21.963522   749 net.cpp:106] Creating Layer relu1
I1111 15:12:21.963567   749 net.cpp:454] relu1 <- conv1
I1111 15:12:21.963645   749 net.cpp:397] relu1 -> conv1 (in-place)
I1111 15:12:21.963752   749 net.cpp:150] Setting up relu1
I1111 15:12:21.963795   749 net.cpp:157] Top shape: 1 96 55 55 (290400)
I1111 15:12:21.963819   749 net.cpp:165] Memory required for data: 2323200
I1111 15:12:21.963848   749 layer_factory.hpp:76] Creating layer pool1
I1111 15:12:21.963919   749 net.cpp:106] Creating Layer pool1
I1111 15:12:21.963958   749 net.cpp:454] pool1 <- conv1
I1111 15:12:21.964025   749 net.cpp:411] pool1 -> pool1
I1111 15:12:21.964287   749 net.cpp:150] Setting up pool1
I1111 15:12:21.964344   749 net.cpp:157] Top shape: 1 96 27 27 (69984)
I1111 15:12:21.964370   749 net.cpp:165] Memory required for data: 2603136
I1111 15:12:21.964401   749 layer_factory.hpp:76] Creating layer norm1
I1111 15:12:21.964462   749 net.cpp:106] Creating Layer norm1
I1111 15:12:21.964500   749 net.cpp:454] norm1 <- pool1
I1111 15:12:21.964566   749 net.cpp:411] norm1 -> norm1
I1111 15:12:21.964773   749 net.cpp:150] Setting up norm1
I1111 15:12:21.964828   749 net.cpp:157] Top shape: 1 96 27 27 (69984)
I1111 15:12:21.964854   749 net.cpp:165] Memory required for data: 2883072
I1111 15:12:21.964884   749 layer_factory.hpp:76] Creating layer conv2
I1111 15:12:21.964952   749 net.cpp:106] Creating Layer conv2
I1111 15:12:21.964993   749 net.cpp:454] conv2 <- norm1
I1111 15:12:21.965061   749 net.cpp:411] conv2 -> conv2
I1111 15:12:21.971911   749 net.cpp:150] Setting up conv2
I1111 15:12:21.971940   749 net.cpp:157] Top shape: 1 256 27 27 (186624)
I1111 15:12:21.971951   749 net.cpp:165] Memory required for data: 3629568
I1111 15:12:21.971987   749 layer_factory.hpp:76] Creating layer relu2
I1111 15:12:21.972012   749 net.cpp:106] Creating Layer relu2
I1111 15:12:21.972028   749 net.cpp:454] relu2 <- conv2
I1111 15:12:21.972051   749 net.cpp:397] relu2 -> conv2 (in-place)
I1111 15:12:21.972079   749 net.cpp:150] Setting up relu2
I1111 15:12:21.972093   749 net.cpp:157] Top shape: 1 256 27 27 (186624)
I1111 15:12:21.972103   749 net.cpp:165] Memory required for data: 4376064
I1111 15:12:21.972115   749 layer_factory.hpp:76] Creating layer pool2
I1111 15:12:21.972136   749 net.cpp:106] Creating Layer pool2
I1111 15:12:21.972149   749 net.cpp:454] pool2 <- conv2
I1111 15:12:21.972175   749 net.cpp:411] pool2 -> pool2
I1111 15:12:21.972241   749 net.cpp:150] Setting up pool2
I1111 15:12:21.972264   749 net.cpp:157] Top shape: 1 256 13 13 (43264)
I1111 15:12:21.972273   749 net.cpp:165] Memory required for data: 4549120
I1111 15:12:21.972285   749 layer_factory.hpp:76] Creating layer norm2
I1111 15:12:21.972308   749 net.cpp:106] Creating Layer norm2
I1111 15:12:21.972323   749 net.cpp:454] norm2 <- pool2
I1111 15:12:21.972349   749 net.cpp:411] norm2 -> norm2
I1111 15:12:21.972410   749 net.cpp:150] Setting up norm2
I1111 15:12:21.972431   749 net.cpp:157] Top shape: 1 256 13 13 (43264)
I1111 15:12:21.972441   749 net.cpp:165] Memory required for data: 4722176
I1111 15:12:21.972453   749 layer_factory.hpp:76] Creating layer conv3
I1111 15:12:21.972481   749 net.cpp:106] Creating Layer conv3
I1111 15:12:21.972498   749 net.cpp:454] conv3 <- norm2
I1111 15:12:21.972527   749 net.cpp:411] conv3 -> conv3
I1111 15:12:21.977943   749 net.cpp:150] Setting up conv3
I1111 15:12:21.977969   749 net.cpp:157] Top shape: 1 384 13 13 (64896)
I1111 15:12:21.977980   749 net.cpp:165] Memory required for data: 4981760
I1111 15:12:21.978016   749 layer_factory.hpp:76] Creating layer relu3
I1111 15:12:21.978041   749 net.cpp:106] Creating Layer relu3
I1111 15:12:21.978056   749 net.cpp:454] relu3 <- conv3
I1111 15:12:21.978081   749 net.cpp:397] relu3 -> conv3 (in-place)
I1111 15:12:21.978107   749 net.cpp:150] Setting up relu3
I1111 15:12:21.978122   749 net.cpp:157] Top shape: 1 384 13 13 (64896)
I1111 15:12:21.978132   749 net.cpp:165] Memory required for data: 5241344
I1111 15:12:21.978143   749 layer_factory.hpp:76] Creating layer conv4
I1111 15:12:21.978165   749 net.cpp:106] Creating Layer conv4
I1111 15:12:21.978181   749 net.cpp:454] conv4 <- conv3
I1111 15:12:21.978207   749 net.cpp:411] conv4 -> conv4
I1111 15:12:21.986059   749 net.cpp:150] Setting up conv4
I1111 15:12:21.986086   749 net.cpp:157] Top shape: 1 384 13 13 (64896)
I1111 15:12:21.986098   749 net.cpp:165] Memory required for data: 5500928
I1111 15:12:21.986122   749 layer_factory.hpp:76] Creating layer relu4
I1111 15:12:21.986145   749 net.cpp:106] Creating Layer relu4
I1111 15:12:21.986160   749 net.cpp:454] relu4 <- conv4
I1111 15:12:21.986186   749 net.cpp:397] relu4 -> conv4 (in-place)
I1111 15:12:21.986212   749 net.cpp:150] Setting up relu4
I1111 15:12:21.986228   749 net.cpp:157] Top shape: 1 384 13 13 (64896)
I1111 15:12:21.986238   749 net.cpp:165] Memory required for data: 5760512
I1111 15:12:21.986249   749 layer_factory.hpp:76] Creating layer conv5
I1111 15:12:21.986274   749 net.cpp:106] Creating Layer conv5
I1111 15:12:21.986289   749 net.cpp:454] conv5 <- conv4
I1111 15:12:21.986315   749 net.cpp:411] conv5 -> conv5
I1111 15:12:21.991708   749 net.cpp:150] Setting up conv5
I1111 15:12:21.991734   749 net.cpp:157] Top shape: 1 256 13 13 (43264)
I1111 15:12:21.991746   749 net.cpp:165] Memory required for data: 5933568
I1111 15:12:21.991783   749 layer_factory.hpp:76] Creating layer relu5
I1111 15:12:21.991809   749 net.cpp:106] Creating Layer relu5
I1111 15:12:21.991825   749 net.cpp:454] relu5 <- conv5
I1111 15:12:21.991850   749 net.cpp:397] relu5 -> conv5 (in-place)
I1111 15:12:21.991876   749 net.cpp:150] Setting up relu5
I1111 15:12:21.991893   749 net.cpp:157] Top shape: 1 256 13 13 (43264)
I1111 15:12:21.991901   749 net.cpp:165] Memory required for data: 6106624
I1111 15:12:21.991914   749 layer_factory.hpp:76] Creating layer pool5
I1111 15:12:21.991937   749 net.cpp:106] Creating Layer pool5
I1111 15:12:21.991952   749 net.cpp:454] pool5 <- conv5
I1111 15:12:21.991979   749 net.cpp:411] pool5 -> pool5
I1111 15:12:21.992048   749 net.cpp:150] Setting up pool5
I1111 15:12:21.992069   749 net.cpp:157] Top shape: 1 256 6 6 (9216)
I1111 15:12:21.992080   749 net.cpp:165] Memory required for data: 6143488
I1111 15:12:21.992092   749 layer_factory.hpp:76] Creating layer fc6
I1111 15:12:21.992125   749 net.cpp:106] Creating Layer fc6
I1111 15:12:21.992141   749 net.cpp:454] fc6 <- pool5
I1111 15:12:21.992167   749 net.cpp:411] fc6 -> fc6
I1111 15:12:22.212033   749 net.cpp:150] Setting up fc6
I1111 15:12:22.212152   749 net.cpp:157] Top shape: 1 4096 (4096)
I1111 15:12:22.212167   749 net.cpp:165] Memory required for data: 6159872
I1111 15:12:22.212215   749 layer_factory.hpp:76] Creating layer relu6
I1111 15:12:22.212297   749 net.cpp:106] Creating Layer relu6
I1111 15:12:22.212326   749 net.cpp:454] relu6 <- fc6
I1111 15:12:22.212373   749 net.cpp:397] relu6 -> fc6 (in-place)
I1111 15:12:22.212414   749 net.cpp:150] Setting up relu6
I1111 15:12:22.212432   749 net.cpp:157] Top shape: 1 4096 (4096)
I1111 15:12:22.212441   749 net.cpp:165] Memory required for data: 6176256
I1111 15:12:22.212455   749 layer_factory.hpp:76] Creating layer drop6
I1111 15:12:22.212560   749 net.cpp:106] Creating Layer drop6
I1111 15:12:22.212579   749 net.cpp:454] drop6 <- fc6
I1111 15:12:22.212611   749 net.cpp:397] drop6 -> fc6 (in-place)
I1111 15:12:22.212766   749 net.cpp:150] Setting up drop6
I1111 15:12:22.212787   749 net.cpp:157] Top shape: 1 4096 (4096)
I1111 15:12:22.212797   749 net.cpp:165] Memory required for data: 6192640
I1111 15:12:22.212811   749 layer_factory.hpp:76] Creating layer fc7
I1111 15:12:22.212842   749 net.cpp:106] Creating Layer fc7
I1111 15:12:22.212858   749 net.cpp:454] fc7 <- fc6
I1111 15:12:22.212888   749 net.cpp:411] fc7 -> fc7
I1111 15:12:22.310328   749 net.cpp:150] Setting up fc7
I1111 15:12:22.310446   749 net.cpp:157] Top shape: 1 4096 (4096)
I1111 15:12:22.310458   749 net.cpp:165] Memory required for data: 6209024
I1111 15:12:22.310506   749 layer_factory.hpp:76] Creating layer relu7
I1111 15:12:22.310569   749 net.cpp:106] Creating Layer relu7
I1111 15:12:22.310597   749 net.cpp:454] relu7 <- fc7
I1111 15:12:22.310648   749 net.cpp:397] relu7 -> fc7 (in-place)
I1111 15:12:22.310693   749 net.cpp:150] Setting up relu7
I1111 15:12:22.310708   749 net.cpp:157] Top shape: 1 4096 (4096)
I1111 15:12:22.310719   749 net.cpp:165] Memory required for data: 6225408
I1111 15:12:22.310730   749 layer_factory.hpp:76] Creating layer drop7
I1111 15:12:22.310761   749 net.cpp:106] Creating Layer drop7
I1111 15:12:22.310775   749 net.cpp:454] drop7 <- fc7
I1111 15:12:22.310804   749 net.cpp:397] drop7 -> fc7 (in-place)
I1111 15:12:22.310859   749 net.cpp:150] Setting up drop7
I1111 15:12:22.310883   749 net.cpp:157] Top shape: 1 4096 (4096)
I1111 15:12:22.310894   749 net.cpp:165] Memory required for data: 6241792
I1111 15:12:22.310907   749 layer_factory.hpp:76] Creating layer fc8
I1111 15:12:22.310936   749 net.cpp:106] Creating Layer fc8
I1111 15:12:22.310952   749 net.cpp:454] fc8 <- fc7
I1111 15:12:22.310979   749 net.cpp:411] fc8 -> fc8
I1111 15:12:22.337024   749 net.cpp:150] Setting up fc8
I1111 15:12:22.337095   749 net.cpp:157] Top shape: 1 1000 (1000)
I1111 15:12:22.337107   749 net.cpp:165] Memory required for data: 6245792
I1111 15:12:22.337146   749 layer_factory.hpp:76] Creating layer prob
I1111 15:12:22.337255   749 net.cpp:106] Creating Layer prob
I1111 15:12:22.337278   749 net.cpp:454] prob <- fc8
I1111 15:12:22.337318   749 net.cpp:411] prob -> prob
I1111 15:12:22.337430   749 net.cpp:150] Setting up prob
I1111 15:12:22.337452   749 net.cpp:157] Top shape: 1 1000 (1000)
I1111 15:12:22.337462   749 net.cpp:165] Memory required for data: 6249792
I1111 15:12:22.337478   749 net.cpp:228] prob does not need backward computation.
I1111 15:12:22.337492   749 net.cpp:228] fc8 does not need backward computation.
I1111 15:12:22.337504   749 net.cpp:228] drop7 does not need backward computation.
I1111 15:12:22.337517   749 net.cpp:228] relu7 does not need backward computation.
…
I1111 15:12:25.226192   749 net.cpp:923] Copying source layer drop6
I1111 15:12:25.226204   749 net.cpp:923] Copying source layer fc7
I1111 15:12:25.438581   749 net.cpp:923] Copying source layer relu7
I1111 15:12:25.438675   749 net.cpp:923] Copying source layer drop7
I1111 15:12:25.438690   749 net.cpp:923] Copying source layer fc8
I1111 15:12:25.490049   749 net.cpp:920] Ignoring source layer loss
I1111 15:12:25.547873   749 net.cpp:49] Initializing net from parameters: 
name: "CaffeNet"
input: "data"
input_dim: 1
input_dim: 3
input_dim: 227
input_dim: 227
force_backward: true
state {
  phase: TEST
}
layer {
  name: "conv1"
  type: "Convolution"
  bottom: "data"
  top: "conv1"
  convolution_param {
    num_output: 96
    kernel_size: 11
    stride: 4
  }
}
layer {
  name: "relu1"
  type: "ReLU"
  bottom: "conv1"
  top: "conv1"
}
layer {
  name: "pool1"
  type: "Pooling"
  bottom: "conv1"
  top: "pool1"
  pooling_param {
    pool: MAX
    kernel_size: 3
    stride: 2
  }
}
layer {
  name: "norm1"
  type: "LRN"
  bottom: "pool1"
  top: "norm1"
  lrn_param {
    local_size: 5
    alpha: 0.0001
    beta: 0.75
  }
}
layer {
  name: "conv2"
  type: "Convolution"
  bottom: "norm1"
  top: "conv2"
  convolution_param {
    num_output: 256
    pad: 2
    kernel_size: 5
  }
}
layer {
  name: "relu2"
  type: "ReLU"
  bottom: "conv2"
  top: "conv2"
}
layer {
  name: "pool2"
  type: "Pooling"
  bottom: "conv2"
  top: "pool2"
  pooling_param {
    pool: MAX
    kernel_size: 3
    stride: 2
  }
}
layer {
  name: "norm2"
  type: "LRN"
  bottom: "pool2"
  top: "norm2"
  lrn_param {
    local_size: 5
    alpha: 0.0001
    beta: 0.75
  }
}
layer {
  name: "conv3"
  type: "Convolution"
  bottom: "norm2"
  top: "conv3"
  convolution_param {
    num_output: 384
    pad: 1
    kernel_size: 3
  }
}
layer {
  name: "relu3"
  type: "ReLU"
  bottom: "conv3"
  top: "conv3"
}
layer {
  name: "conv4"
  type: "Convolution"
  bottom: "conv3"
  top: "conv4"
  convolution_param {
    num_output: 384
    pad: 1
    kernel_size: 3
  }
}
layer {
  name: "relu4"
  type: "ReLU"
  bottom: "conv4"
  top: "conv4"
}
layer {
  name: "conv5"
  type: "Convolution"
  bottom: "conv4"
  top: "conv5"
  convolution_param {
    num_output: 256
    pad: 1
    kernel_size: 3
  }
}
layer {
  name: "relu5"
  type: "ReLU"
  bottom: "conv5"
  top: "conv5"
}
layer {
  name: "pool5"
  type: "Pooling"
  bottom: "conv5"
  top: "pool5"
  pooling_param {
    pool: MAX
    kernel_size: 3
    stride: 2
  }
}
layer {
  name: "fc6"
  type: "InnerProduct"
  bottom: "pool5"
  top: "fc6"
  inner_product_param {
    num_output: 4096
  }
}
layer {
  name: "relu6"
  type: "ReLU"
  bottom: "fc6"
  top: "fc6"
}
layer {
  name: "drop6"
  type: "Dropout"
  bottom: "fc6"
  top: "fc6"
  dropout_param {
    dropout_ratio: 0.5
  }
}
layer {
  name: "fc7"
  type: "InnerProduct"
  bottom: "fc6"
  top: "fc7"
  inner_product_param {
    num_output: 4096
  }
}
layer {
  name: "relu7"
  type: "ReLU"
  bottom: "fc7"
  top: "fc7"
}
layer {
  name: "drop7"
  type: "Dropout"
  bottom: "fc7"
  top: "fc7"
  dropout_param {
    dropout_ratio: 0.5
  }
}
layer {
  name: "fc8"
  type: "InnerProduct"
  bottom: "fc7"
  top: "fc8"
  inner_product_param {
    num_output: 1000
  }
}
layer {
  name: "prob"
  type: "Softmax"
  bottom: "fc8"
  top: "prob"
}
I1111 15:12:25.548399   749 net.cpp:413] Input 0 -> data
I1111 15:12:25.548802   749 layer_factory.hpp:76] Creating layer conv1
I1111 15:12:25.548912   749 net.cpp:106] Creating Layer conv1
I1111 15:12:25.548957   749 net.cpp:454] conv1 <- data
I1111 15:12:25.549031   749 net.cpp:411] conv1 -> conv1
I1111 15:12:25.549834   749 net.cpp:150] Setting up conv1
I1111 15:12:25.549871   749 net.cpp:157] Top shape: 1 96 55 55 (290400)
I1111 15:12:25.549882   749 net.cpp:165] Memory required for data: 1161600
I1111 15:12:25.549937   749 layer_factory.hpp:76] Creating layer relu1
I1111 15:12:25.549968   749 net.cpp:106] Creating Layer relu1
I1111 15:12:25.549985   749 net.cpp:454] relu1 <- conv1
I1111 15:12:25.550010   749 net.cpp:397] relu1 -> conv1 (in-place)
I1111 15:12:25.550041   749 net.cpp:150] Setting up relu1
I1111 15:12:25.550056   749 net.cpp:157] Top shape: 1 96 55 55 (290400)
I1111 15:12:25.550066   749 net.cpp:165] Memory required for data: 2323200
I1111 15:12:25.550077   749 layer_factory.hpp:76] Creating layer pool1
I1111 15:12:25.550104   749 net.cpp:106] Creating Layer pool1
I1111 15:12:25.550119   749 net.cpp:454] pool1 <- conv1
I1111 15:12:25.550146   749 net.cpp:411] pool1 -> pool1
I1111 15:12:25.550223   749 net.cpp:150] Setting up pool1
I1111 15:12:25.550246   749 net.cpp:157] Top shape: 1 96 27 27 (69984)
I1111 15:12:25.550256   749 net.cpp:165] Memory required for data: 2603136
I1111 15:12:25.550268   749 layer_factory.hpp:76] Creating layer norm1
I1111 15:12:25.550297   749 net.cpp:106] Creating Layer norm1
I1111 15:12:25.550312   749 net.cpp:454] norm1 <- pool1
I1111 15:12:25.550339   749 net.cpp:411] norm1 -> norm1
I1111 15:12:25.550408   749 net.cpp:150] Setting up norm1
I1111 15:12:25.550429   749 net.cpp:157] Top shape: 1 96 27 27 (69984)
I1111 15:12:25.550441   749 net.cpp:165] Memory required for data: 2883072
I1111 15:12:25.550452   749 layer_factory.hpp:76] Creating layer conv2
I1111 15:12:25.550482   749 net.cpp:106] Creating Layer conv2
I1111 15:12:25.550496   749 net.cpp:454] conv2 <- norm1
I1111 15:12:25.550525   749 net.cpp:411] conv2 -> conv2
I1111 15:12:25.554335   749 net.cpp:150] Setting up conv2
I1111 15:12:25.554363   749 net.cpp:157] Top shape: 1 256 27 27 (186624)
I1111 15:12:25.554374   749 net.cpp:165] Memory required for data: 3629568
I1111 15:12:25.554409   749 layer_factory.hpp:76] Creating layer relu2
I1111 15:12:25.554435   749 net.cpp:106] Creating Layer relu2
I1111 15:12:25.554451   749 net.cpp:454] relu2 <- conv2
I1111 15:12:25.554477   749 net.cpp:397] relu2 -> conv2 (in-place)
I1111 15:12:25.554503   749 net.cpp:150] Setting up relu2
I1111 15:12:25.554518   749 net.cpp:157] Top shape: 1 256 27 27 (186624)
I1111 15:12:25.554527   749 net.cpp:165] Memory required for data: 4376064
I1111 15:12:25.554538   749 layer_factory.hpp:76] Creating layer pool2
I1111 15:12:25.554560   749 net.cpp:106] Creating Layer pool2
I1111 15:12:25.554575   749 net.cpp:454] pool2 <- conv2
I1111 15:12:25.554600   749 net.cpp:411] pool2 -> pool2
I1111 15:12:25.554677   749 net.cpp:150] Setting up pool2
I1111 15:12:25.554699   749 net.cpp:157] Top shape: 1 256 13 13 (43264)
I1111 15:12:25.554709   749 net.cpp:165] Memory required for data: 4549120
I1111 15:12:25.554721   749 layer_factory.hpp:76] Creating layer norm2
I1111 15:12:25.554747   749 net.cpp:106] Creating Layer norm2
I1111 15:12:25.554761   749 net.cpp:454] norm2 <- pool2
I1111 15:12:25.554788   749 net.cpp:411] norm2 -> norm2
I1111 15:12:25.554852   749 net.cpp:150] Setting up norm2
I1111 15:12:25.554873   749 net.cpp:157] Top shape: 1 256 13 13 (43264)
I1111 15:12:25.554883   749 net.cpp:165] Memory required for data: 4722176
I1111 15:12:25.554895   749 layer_factory.hpp:76] Creating layer conv3
I1111 15:12:25.554925   749 net.cpp:106] Creating Layer conv3
I1111 15:12:25.554941   749 net.cpp:454] conv3 <- norm2
I1111 15:12:25.554970   749 net.cpp:411] conv3 -> conv3
I1111 15:12:25.560387   749 net.cpp:150] Setting up conv3
I1111 15:12:25.560412   749 net.cpp:157] Top shape: 1 384 13 13 (64896)
I1111 15:12:25.560423   749 net.cpp:165] Memory required for data: 4981760
I1111 15:12:25.560459   749 layer_factory.hpp:76] Creating layer relu3
I1111 15:12:25.560483   749 net.cpp:106] Creating Layer relu3
I1111 15:12:25.560499   749 net.cpp:454] relu3 <- conv3
I1111 15:12:25.560523   749 net.cpp:397] relu3 -> conv3 (in-place)
I1111 15:12:25.560550   749 net.cpp:150] Setting up relu3
I1111 15:12:25.560565   749 net.cpp:157] Top shape: 1 384 13 13 (64896)
I1111 15:12:25.560575   749 net.cpp:165] Memory required for data: 5241344
I1111 15:12:25.560586   749 layer_factory.hpp:76] Creating layer conv4
I1111 15:12:25.560618   749 net.cpp:106] Creating Layer conv4
I1111 15:12:25.560634   749 net.cpp:454] conv4 <- conv3
I1111 15:12:25.560667   749 net.cpp:411] conv4 -> conv4
I1111 15:12:25.568466   749 net.cpp:150] Setting up conv4
I1111 15:12:25.568492   749 net.cpp:157] Top shape: 1 384 13 13 (64896)
I1111 15:12:25.568503   749 net.cpp:165] Memory required for data: 5500928
I1111 15:12:25.568527   749 layer_factory.hpp:76] Creating layer relu4
I1111 15:12:25.568549   749 net.cpp:106] Creating Layer relu4
I1111 15:12:25.568564   749 net.cpp:454] relu4 <- conv4
I1111 15:12:25.568589   749 net.cpp:397] relu4 -> conv4 (in-place)
I1111 15:12:25.568620   749 net.cpp:150] Setting up relu4
I1111 15:12:25.568637   749 net.cpp:157] Top shape: 1 384 13 13 (64896)
I1111 15:12:25.568647   749 net.cpp:165] Memory required for data: 5760512
I1111 15:12:25.568660   749 layer_factory.hpp:76] Creating layer conv5
I1111 15:12:25.568682   749 net.cpp:106] Creating Layer conv5
I1111 15:12:25.568697   749 net.cpp:454] conv5 <- conv4
I1111 15:12:25.568724   749 net.cpp:411] conv5 -> conv5
I1111 15:12:25.574167   749 net.cpp:150] Setting up conv5
I1111 15:12:25.574192   749 net.cpp:157] Top shape: 1 256 13 13 (43264)
I1111 15:12:25.574203   749 net.cpp:165] Memory required for data: 5933568
I1111 15:12:25.574241   749 layer_factory.hpp:76] Creating layer relu5
I1111 15:12:25.574266   749 net.cpp:106] Creating Layer relu5
I1111 15:12:25.574281   749 net.cpp:454] relu5 <- conv5
I1111 15:12:25.574309   749 net.cpp:397] relu5 -> conv5 (in-place)
I1111 15:12:25.574337   749 net.cpp:150] Setting up relu5
I1111 15:12:25.574352   749 net.cpp:157] Top shape: 1 256 13 13 (43264)
I1111 15:12:25.574362   749 net.cpp:165] Memory required for data: 6106624
I1111 15:12:25.574373   749 layer_factory.hpp:76] Creating layer pool5
I1111 15:12:25.574395   749 net.cpp:106] Creating Layer pool5
I1111 15:12:25.574410   749 net.cpp:454] pool5 <- conv5
I1111 15:12:25.574436   749 net.cpp:411] pool5 -> pool5
I1111 15:12:25.574509   749 net.cpp:150] Setting up pool5
I1111 15:12:25.574532   749 net.cpp:157] Top shape: 1 256 6 6 (9216)
I1111 15:12:25.574542   749 net.cpp:165] Memory required for data: 6143488
I1111 15:12:25.574553   749 layer_factory.hpp:76] Creating layer fc6
I1111 15:12:25.574580   749 net.cpp:106] Creating Layer fc6
I1111 15:12:25.574594   749 net.cpp:454] fc6 <- pool5
I1111 15:12:25.574637   749 net.cpp:411] fc6 -> fc6
I1111 15:12:25.793309   749 net.cpp:150] Setting up fc6
I1111 15:12:25.793424   749 net.cpp:157] Top shape: 1 4096 (4096)
I1111 15:12:25.793437   749 net.cpp:165] Memory required for data: 6159872
I1111 15:12:25.793486   749 layer_factory.hpp:76] Creating layer relu6
I1111 15:12:25.793570   749 net.cpp:106] Creating Layer relu6
I1111 15:12:25.793601   749 net.cpp:454] relu6 <- fc6
I1111 15:12:25.793653   749 net.cpp:397] relu6 -> fc6 (in-place)
I1111 15:12:25.793696   749 net.cpp:150] Setting up relu6
I1111 15:12:25.793711   749 net.cpp:157] Top shape: 1 4096 (4096)
I1111 15:12:25.793722   749 net.cpp:165] Memory required for data: 6176256
I1111 15:12:25.793735   749 layer_factory.hpp:76] Creating layer drop6
I1111 15:12:25.793766   749 net.cpp:106] Creating Layer drop6
I1111 15:12:25.793781   749 net.cpp:454] drop6 <- fc6
I1111 15:12:25.793809   749 net.cpp:397] drop6 -> fc6 (in-place)
I1111 15:12:25.793864   749 net.cpp:150] Setting up drop6
I1111 15:12:25.793884   749 net.cpp:157] Top shape: 1 4096 (4096)
I1111 15:12:25.793894   749 net.cpp:165] Memory required for data: 6192640
I1111 15:12:25.793907   749 layer_factory.hpp:76] Creating layer fc7
I1111 15:12:25.793938   749 net.cpp:106] Creating Layer fc7
I1111 15:12:25.793953   749 net.cpp:454] fc7 <- fc6
I1111 15:12:25.793982   749 net.cpp:411] fc7 -> fc7
I1111 15:12:25.890770   749 net.cpp:150] Setting up fc7
I1111 15:12:25.890889   749 net.cpp:157] Top shape: 1 4096 (4096)
I1111 15:12:25.890902   749 net.cpp:165] Memory required for data: 6209024
I1111 15:12:25.890950   749 layer_factory.hpp:76] Creating layer relu7
I1111 15:12:25.891013   749 net.cpp:106] Creating Layer relu7
I1111 15:12:25.891042   749 net.cpp:454] relu7 <- fc7
I1111 15:12:25.891089   749 net.cpp:397] relu7 -> fc7 (in-place)
I1111 15:12:25.891132   749 net.cpp:150] Setting up relu7
I1111 15:12:25.891147   749 net.cpp:157] Top shape: 1 4096 (4096)
I1111 15:12:25.891157   749 net.cpp:165] Memory required for data: 6225408
I1111 15:12:25.891170   749 layer_factory.hpp:76] Creating layer drop7
I1111 15:12:25.891203   749 net.cpp:106] Creating Layer drop7
I1111 15:12:25.891218   749 net.cpp:454] drop7 <- fc7
I1111 15:12:25.891244   749 net.cpp:397] drop7 -> fc7 (in-place)
I1111 15:12:25.891296   749 net.cpp:150] Setting up drop7
I1111 15:12:25.891315   749 net.cpp:157] Top shape: 1 4096 (4096)
I1111 15:12:25.891325   749 net.cpp:165] Memory required for data: 6241792
I1111 15:12:25.891340   749 layer_factory.hpp:76] Creating layer fc8
I1111 15:12:25.891372   749 net.cpp:106] Creating Layer fc8
I1111 15:12:25.891388   749 net.cpp:454] fc8 <- fc7
I1111 15:12:25.891417   749 net.cpp:411] fc8 -> fc8
I1111 15:12:25.914734   749 net.cpp:150] Setting up fc8
I1111 15:12:25.914786   749 net.cpp:157] Top shape: 1 1000 (1000)
I1111 15:12:25.914798   749 net.cpp:165] Memory required for data: 6245792
I1111 15:12:25.914832   749 layer_factory.hpp:76] Creating layer prob
I1111 15:12:25.914870   749 net.cpp:106] Creating Layer prob
I1111 15:12:25.914887   749 net.cpp:454] prob <- fc8
I1111 15:12:25.914917   749 net.cpp:411] prob -> prob
I1111 15:12:25.915024   749 net.cpp:150] Setting up prob
I1111 15:12:25.915045   749 net.cpp:157] Top shape: 1 1000 (1000)
I1111 15:12:25.915055   749 net.cpp:165] Memory required for data: 6249792
I1111 15:12:25.915069   749 net.cpp:228] prob does not need backward computation.
I1111 15:12:25.915084   749 net.cpp:228] fc8 does not need backward computation.
I1111 15:12:25.915096   749 net.cpp:228] drop7 does not need backward computation.
I1111 15:12:25.915107   749 net.cpp:228] relu7 does not need backward computation.
…
