…
gamma: 0.5
momentum: 0.98
weight_decay: 0.0039811
stepsize: 1500
snapshot: 1000
snapshot_prefix: "stitch"
solver_mode: GPU
random_seed: 0
net: "network.prototxt"
regularization_type: "L1"
I1111 06:55:51.739632  2417 solver.cpp:90] Creating training net from net file: network.prototxt
I1111 06:55:51.757848  2417 net.cpp:49] Initializing net from parameters: 
name: "StitchNet"
input: "net0"
input: "net1"
input_dim: 32
input_dim: 96
input_dim: 55
input_dim: 55
input_dim: 32
input_dim: 96
input_dim: 55
input_dim: 55
state {
  phase: TRAIN
}
debug_info: true
layer {
  name: "stitch0"
  type: "Convolution"
  bottom: "net0"
  top: "stitch0"
  convolution_param {
    num_output: 96
    kernel_size: 1
    stride: 1
    weight_filler {
      type: "gaussian"
      std: 0.01
    }
  }
}
layer {
  name: "loss"
  type: "EuclideanLoss"
  bottom: "stitch0"
  bottom: "net1"
  top: "loss"
  loss_weight: 1
}
I1111 06:55:51.758121  2417 net.cpp:413] Input 0 -> net0
I1111 06:55:51.790901  2417 net.cpp:413] Input 1 -> net1
I1111 06:55:51.791110  2417 layer_factory.hpp:76] Creating layer stitch0
I1111 06:55:51.791201  2417 net.cpp:106] Creating Layer stitch0
I1111 06:55:51.791224  2417 net.cpp:454] stitch0 <- net0
I1111 06:55:51.791260  2417 net.cpp:411] stitch0 -> stitch0
I1111 06:55:51.793596  2417 net.cpp:150] Setting up stitch0
I1111 06:55:51.793645  2417 net.cpp:157] Top shape: 32 96 55 55 (9292800)
I1111 06:55:51.793658  2417 net.cpp:165] Memory required for data: 37171200
I1111 06:55:51.793725  2417 layer_factory.hpp:76] Creating layer loss
I1111 06:55:51.793761  2417 net.cpp:106] Creating Layer loss
I1111 06:55:51.793777  2417 net.cpp:454] loss <- stitch0
I1111 06:55:51.793797  2417 net.cpp:454] loss <- net1
I1111 06:55:51.793820  2417 net.cpp:411] loss -> loss
I1111 06:55:51.793890  2417 net.cpp:150] Setting up loss
I1111 06:55:51.793911  2417 net.cpp:157] Top shape: (1)
I1111 06:55:51.793921  2417 net.cpp:160]     with loss weight 1
I1111 06:55:51.793941  2417 net.cpp:165] Memory required for data: 37171204
I1111 06:55:51.793958  2417 net.cpp:226] loss needs backward computation.
I1111 06:55:51.793972  2417 net.cpp:226] stitch0 needs backward computation.
I1111 06:55:51.793983  2417 net.cpp:270] This network produces output loss
I1111 06:55:51.794006  2417 net.cpp:283] Network initialization done.
I1111 06:55:51.794062  2417 solver.cpp:59] Solver scaffolding done.
I1111 06:55:51.794857  2417 net.cpp:49] Initializing net from parameters: 
name: "CaffeNet"
input: "data"
input_dim: 1
input_dim: 3
input_dim: 227
input_dim: 227
force_backward: true
state {
  phase: TEST
}
layer {
  name: "conv1"
  type: "Convolution"
  bottom: "data"
  top: "conv1"
  convolution_param {
    num_output: 96
    kernel_size: 11
    stride: 4
  }
}
layer {
  name: "relu1"
  type: "ReLU"
  bottom: "conv1"
  top: "conv1"
}
layer {
  name: "pool1"
  type: "Pooling"
  bottom: "conv1"
  top: "pool1"
  pooling_param {
    pool: MAX
    kernel_size: 3
    stride: 2
  }
}
layer {
  name: "norm1"
  type: "LRN"
  bottom: "pool1"
  top: "norm1"
  lrn_param {
    local_size: 5
    alpha: 0.0001
    beta: 0.75
  }
}
layer {
  name: "conv2"
  type: "Convolution"
  bottom: "norm1"
  top: "conv2"
  convolution_param {
    num_output: 256
    pad: 2
    kernel_size: 5
  }
}
layer {
  name: "relu2"
  type: "ReLU"
  bottom: "conv2"
  top: "conv2"
}
layer {
  name: "pool2"
  type: "Pooling"
  bottom: "conv2"
  top: "pool2"
  pooling_param {
    pool: MAX
    kernel_size: 3
    stride: 2
  }
}
layer {
  name: "norm2"
  type: "LRN"
  bottom: "pool2"
  top: "norm2"
  lrn_param {
    local_size: 5
    alpha: 0.0001
    beta: 0.75
  }
}
layer {
  name: "conv3"
  type: "Convolution"
  bottom: "norm2"
  top: "conv3"
  convolution_param {
    num_output: 384
    pad: 1
    kernel_size: 3
  }
}
layer {
  name: "relu3"
  type: "ReLU"
  bottom: "conv3"
  top: "conv3"
}
layer {
  name: "conv4"
  type: "Convolution"
  bottom: "conv3"
  top: "conv4"
  convolution_param {
    num_output: 384
    pad: 1
    kernel_size: 3
  }
}
layer {
  name: "relu4"
  type: "ReLU"
  bottom: "conv4"
  top: "conv4"
}
layer {
  name: "conv5"
  type: "Convolution"
  bottom: "conv4"
  top: "conv5"
  convolution_param {
    num_output: 256
    pad: 1
    kernel_size: 3
  }
}
layer {
  name: "relu5"
  type: "ReLU"
  bottom: "conv5"
  top: "conv5"
}
layer {
  name: "pool5"
  type: "Pooling"
  bottom: "conv5"
  top: "pool5"
  pooling_param {
    pool: MAX
    kernel_size: 3
    stride: 2
  }
}
layer {
  name: "fc6"
  type: "InnerProduct"
  bottom: "pool5"
  top: "fc6"
  inner_product_param {
    num_output: 4096
  }
}
layer {
  name: "relu6"
  type: "ReLU"
  bottom: "fc6"
  top: "fc6"
}
layer {
  name: "drop6"
  type: "Dropout"
  bottom: "fc6"
  top: "fc6"
  dropout_param {
    dropout_ratio: 0.5
  }
}
layer {
  name: "fc7"
  type: "InnerProduct"
  bottom: "fc6"
  top: "fc7"
  inner_product_param {
    num_output: 4096
  }
}
layer {
  name: "relu7"
  type: "ReLU"
  bottom: "fc7"
  top: "fc7"
}
layer {
  name: "drop7"
  type: "Dropout"
  bottom: "fc7"
  top: "fc7"
  dropout_param {
    dropout_ratio: 0.5
  }
}
layer {
  name: "fc8"
  type: "InnerProduct"
  bottom: "fc7"
  top: "fc8"
  inner_product_param {
    num_output: 1000
  }
}
layer {
  name: "prob"
  type: "Softmax"
  bottom: "fc8"
  top: "prob"
}
I1111 06:55:51.795081  2417 net.cpp:413] Input 0 -> data
I1111 06:55:51.795172  2417 layer_factory.hpp:76] Creating layer conv1
I1111 06:55:51.795207  2417 net.cpp:106] Creating Layer conv1
I1111 06:55:51.795222  2417 net.cpp:454] conv1 <- data
I1111 06:55:51.795248  2417 net.cpp:411] conv1 -> conv1
I1111 06:55:51.796169  2417 net.cpp:150] Setting up conv1
I1111 06:55:51.796195  2417 net.cpp:157] Top shape: 1 96 55 55 (290400)
I1111 06:55:51.796205  2417 net.cpp:165] Memory required for data: 1161600
I1111 06:55:51.796247  2417 layer_factory.hpp:76] Creating layer relu1
I1111 06:55:51.796282  2417 net.cpp:106] Creating Layer relu1
I1111 06:55:51.796298  2417 net.cpp:454] relu1 <- conv1
I1111 06:55:51.796321  2417 net.cpp:397] relu1 -> conv1 (in-place)
I1111 06:55:51.796350  2417 net.cpp:150] Setting up relu1
I1111 06:55:51.796365  2417 net.cpp:157] Top shape: 1 96 55 55 (290400)
I1111 06:55:51.796373  2417 net.cpp:165] Memory required for data: 2323200
I1111 06:55:51.796385  2417 layer_factory.hpp:76] Creating layer pool1
I1111 06:55:51.796413  2417 net.cpp:106] Creating Layer pool1
I1111 06:55:51.796429  2417 net.cpp:454] pool1 <- conv1
I1111 06:55:51.796455  2417 net.cpp:411] pool1 -> pool1
I1111 06:55:51.796538  2417 net.cpp:150] Setting up pool1
I1111 06:55:51.796561  2417 net.cpp:157] Top shape: 1 96 27 27 (69984)
I1111 06:55:51.796571  2417 net.cpp:165] Memory required for data: 2603136
I1111 06:55:51.796581  2417 layer_factory.hpp:76] Creating layer norm1
I1111 06:55:51.796609  2417 net.cpp:106] Creating Layer norm1
I1111 06:55:51.796624  2417 net.cpp:454] norm1 <- pool1
I1111 06:55:51.796650  2417 net.cpp:411] norm1 -> norm1
I1111 06:55:51.796725  2417 net.cpp:150] Setting up norm1
I1111 06:55:51.796747  2417 net.cpp:157] Top shape: 1 96 27 27 (69984)
I1111 06:55:51.796757  2417 net.cpp:165] Memory required for data: 2883072
I1111 06:55:51.796768  2417 layer_factory.hpp:76] Creating layer conv2
I1111 06:55:51.796794  2417 net.cpp:106] Creating Layer conv2
I1111 06:55:51.796810  2417 net.cpp:454] conv2 <- norm1
I1111 06:55:51.796841  2417 net.cpp:411] conv2 -> conv2
I1111 06:55:51.800531  2417 net.cpp:150] Setting up conv2
I1111 06:55:51.800557  2417 net.cpp:157] Top shape: 1 256 27 27 (186624)
I1111 06:55:51.800568  2417 net.cpp:165] Memory required for data: 3629568
I1111 06:55:51.800603  2417 layer_factory.hpp:76] Creating layer relu2
I1111 06:55:51.800626  2417 net.cpp:106] Creating Layer relu2
I1111 06:55:51.800642  2417 net.cpp:454] relu2 <- conv2
I1111 06:55:51.800664  2417 net.cpp:397] relu2 -> conv2 (in-place)
I1111 06:55:51.800690  2417 net.cpp:150] Setting up relu2
I1111 06:55:51.800710  2417 net.cpp:157] Top shape: 1 256 27 27 (186624)
I1111 06:55:51.800719  2417 net.cpp:165] Memory required for data: 4376064
I1111 06:55:51.800730  2417 layer_factory.hpp:76] Creating layer pool2
I1111 06:55:51.800755  2417 net.cpp:106] Creating Layer pool2
I1111 06:55:51.800770  2417 net.cpp:454] pool2 <- conv2
I1111 06:55:51.800794  2417 net.cpp:411] pool2 -> pool2
I1111 06:55:51.800865  2417 net.cpp:150] Setting up pool2
I1111 06:55:51.800886  2417 net.cpp:157] Top shape: 1 256 13 13 (43264)
I1111 06:55:51.800896  2417 net.cpp:165] Memory required for data: 4549120
I1111 06:55:51.800907  2417 layer_factory.hpp:76] Creating layer norm2
I1111 06:55:51.800932  2417 net.cpp:106] Creating Layer norm2
I1111 06:55:51.800947  2417 net.cpp:454] norm2 <- pool2
I1111 06:55:51.800973  2417 net.cpp:411] norm2 -> norm2
I1111 06:55:51.801039  2417 net.cpp:150] Setting up norm2
I1111 06:55:51.801059  2417 net.cpp:157] Top shape: 1 256 13 13 (43264)
I1111 06:55:51.801069  2417 net.cpp:165] Memory required for data: 4722176
I1111 06:55:51.801080  2417 layer_factory.hpp:76] Creating layer conv3
I1111 06:55:51.801110  2417 net.cpp:106] Creating Layer conv3
I1111 06:55:51.801126  2417 net.cpp:454] conv3 <- norm2
I1111 06:55:51.801153  2417 net.cpp:411] conv3 -> conv3
I1111 06:55:51.805402  2417 net.cpp:150] Setting up conv3
I1111 06:55:51.805426  2417 net.cpp:157] Top shape: 1 384 13 13 (64896)
I1111 06:55:51.805436  2417 net.cpp:165] Memory required for data: 4981760
I1111 06:55:51.805471  2417 layer_factory.hpp:76] Creating layer relu3
I1111 06:55:51.805495  2417 net.cpp:106] Creating Layer relu3
I1111 06:55:51.805510  2417 net.cpp:454] relu3 <- conv3
I1111 06:55:51.805532  2417 net.cpp:397] relu3 -> conv3 (in-place)
I1111 06:55:51.805557  2417 net.cpp:150] Setting up relu3
I1111 06:55:51.805572  2417 net.cpp:157] Top shape: 1 384 13 13 (64896)
I1111 06:55:51.805579  2417 net.cpp:165] Memory required for data: 5241344
I1111 06:55:51.805590  2417 layer_factory.hpp:76] Creating layer conv4
I1111 06:55:51.805616  2417 net.cpp:106] Creating Layer conv4
I1111 06:55:51.805631  2417 net.cpp:454] conv4 <- conv3
I1111 06:55:51.805657  2417 net.cpp:411] conv4 -> conv4
I1111 06:55:51.811799  2417 net.cpp:150] Setting up conv4
I1111 06:55:51.811825  2417 net.cpp:157] Top shape: 1 384 13 13 (64896)
I1111 06:55:51.811836  2417 net.cpp:165] Memory required for data: 5500928
I1111 06:55:51.811858  2417 layer_factory.hpp:76] Creating layer relu4
I1111 06:55:51.811879  2417 net.cpp:106] Creating Layer relu4
I1111 06:55:51.811894  2417 net.cpp:454] relu4 <- conv4
I1111 06:55:51.811918  2417 net.cpp:397] relu4 -> conv4 (in-place)
I1111 06:55:51.811944  2417 net.cpp:150] Setting up relu4
I1111 06:55:51.811959  2417 net.cpp:157] Top shape: 1 384 13 13 (64896)
I1111 06:55:51.811966  2417 net.cpp:165] Memory required for data: 5760512
I1111 06:55:51.811977  2417 layer_factory.hpp:76] Creating layer conv5
I1111 06:55:51.811998  2417 net.cpp:106] Creating Layer conv5
I1111 06:55:51.812013  2417 net.cpp:454] conv5 <- conv4
I1111 06:55:51.812041  2417 net.cpp:411] conv5 -> conv5
I1111 06:55:51.816289  2417 net.cpp:150] Setting up conv5
I1111 06:55:51.816314  2417 net.cpp:157] Top shape: 1 256 13 13 (43264)
I1111 06:55:51.816324  2417 net.cpp:165] Memory required for data: 5933568
I1111 06:55:51.816359  2417 layer_factory.hpp:76] Creating layer relu5
I1111 06:55:51.816383  2417 net.cpp:106] Creating Layer relu5
I1111 06:55:51.816398  2417 net.cpp:454] relu5 <- conv5
I1111 06:55:51.816421  2417 net.cpp:397] relu5 -> conv5 (in-place)
I1111 06:55:51.816447  2417 net.cpp:150] Setting up relu5
I1111 06:55:51.816462  2417 net.cpp:157] Top shape: 1 256 13 13 (43264)
I1111 06:55:51.816469  2417 net.cpp:165] Memory required for data: 6106624
I1111 06:55:51.816480  2417 layer_factory.hpp:76] Creating layer pool5
I1111 06:55:51.816501  2417 net.cpp:106] Creating Layer pool5
I1111 06:55:51.816516  2417 net.cpp:454] pool5 <- conv5
I1111 06:55:51.816545  2417 net.cpp:411] pool5 -> pool5
I1111 06:55:51.816614  2417 net.cpp:150] Setting up pool5
I1111 06:55:51.816637  2417 net.cpp:157] Top shape: 1 256 6 6 (9216)
I1111 06:55:51.816645  2417 net.cpp:165] Memory required for data: 6143488
I1111 06:55:51.816658  2417 layer_factory.hpp:76] Creating layer fc6
I1111 06:55:51.816684  2417 net.cpp:106] Creating Layer fc6
I1111 06:55:51.816705  2417 net.cpp:454] fc6 <- pool5
I1111 06:55:51.816732  2417 net.cpp:411] fc6 -> fc6
I1111 06:55:51.990789  2417 net.cpp:150] Setting up fc6
I1111 06:55:51.990891  2417 net.cpp:157] Top shape: 1 4096 (4096)
I1111 06:55:51.990902  2417 net.cpp:165] Memory required for data: 6159872
I1111 06:55:51.990949  2417 layer_factory.hpp:76] Creating layer relu6
I1111 06:55:51.991029  2417 net.cpp:106] Creating Layer relu6
I1111 06:55:51.991057  2417 net.cpp:454] relu6 <- fc6
I1111 06:55:51.991101  2417 net.cpp:397] relu6 -> fc6 (in-place)
I1111 06:55:51.991142  2417 net.cpp:150] Setting up relu6
I1111 06:55:51.991158  2417 net.cpp:157] Top shape: 1 4096 (4096)
I1111 06:55:51.991165  2417 net.cpp:165] Memory required for data: 6176256
I1111 06:55:51.991178  2417 layer_factory.hpp:76] Creating layer drop6
I1111 06:55:51.991219  2417 net.cpp:106] Creating Layer drop6
I1111 06:55:51.991233  2417 net.cpp:454] drop6 <- fc6
I1111 06:55:51.991257  2417 net.cpp:397] drop6 -> fc6 (in-place)
I1111 06:55:51.991318  2417 net.cpp:150] Setting up drop6
I1111 06:55:51.991336  2417 net.cpp:157] Top shape: 1 4096 (4096)
I1111 06:55:51.991344  2417 net.cpp:165] Memory required for data: 6192640
I1111 06:55:51.991356  2417 layer_factory.hpp:76] Creating layer fc7
I1111 06:55:51.991385  2417 net.cpp:106] Creating Layer fc7
I1111 06:55:51.991400  2417 net.cpp:454] fc7 <- fc6
I1111 06:55:51.991430  2417 net.cpp:411] fc7 -> fc7
I1111 06:55:52.068876  2417 net.cpp:150] Setting up fc7
I1111 06:55:52.068974  2417 net.cpp:157] Top shape: 1 4096 (4096)
I1111 06:55:52.068985  2417 net.cpp:165] Memory required for data: 6209024
I1111 06:55:52.069032  2417 layer_factory.hpp:76] Creating layer relu7
I1111 06:55:52.069092  2417 net.cpp:106] Creating Layer relu7
I1111 06:55:52.069118  2417 net.cpp:454] relu7 <- fc7
I1111 06:55:52.069166  2417 net.cpp:397] relu7 -> fc7 (in-place)
I1111 06:55:52.069210  2417 net.cpp:150] Setting up relu7
I1111 06:55:52.069223  2417 net.cpp:157] Top shape: 1 4096 (4096)
I1111 06:55:52.069231  2417 net.cpp:165] Memory required for data: 6225408
I1111 06:55:52.069242  2417 layer_factory.hpp:76] Creating layer drop7
I1111 06:55:52.069272  2417 net.cpp:106] Creating Layer drop7
I1111 06:55:52.069285  2417 net.cpp:454] drop7 <- fc7
I1111 06:55:52.069309  2417 net.cpp:397] drop7 -> fc7 (in-place)
I1111 06:55:52.069365  2417 net.cpp:150] Setting up drop7
I1111 06:55:52.069382  2417 net.cpp:157] Top shape: 1 4096 (4096)
I1111 06:55:52.069391  2417 net.cpp:165] Memory required for data: 6241792
I1111 06:55:52.069402  2417 layer_factory.hpp:76] Creating layer fc8
I1111 06:55:52.069432  2417 net.cpp:106] Creating Layer fc8
I1111 06:55:52.069447  2417 net.cpp:454] fc8 <- fc7
I1111 06:55:52.069476  2417 net.cpp:411] fc8 -> fc8
I1111 06:55:52.087659  2417 net.cpp:150] Setting up fc8
I1111 06:55:52.087714  2417 net.cpp:157] Top shape: 1 1000 (1000)
I1111 06:55:52.087725  2417 net.cpp:165] Memory required for data: 6245792
I1111 06:55:52.087762  2417 layer_factory.hpp:76] Creating layer prob
I1111 06:55:52.087815  2417 net.cpp:106] Creating Layer prob
I1111 06:55:52.087836  2417 net.cpp:454] prob <- fc8
I1111 06:55:52.087874  2417 net.cpp:411] prob -> prob
I1111 06:55:52.087981  2417 net.cpp:150] Setting up prob
I1111 06:55:52.088002  2417 net.cpp:157] Top shape: 1 1000 (1000)
I1111 06:55:52.088012  2417 net.cpp:165] Memory required for data: 6249792
I1111 06:55:52.088027  2417 net.cpp:228] prob does not need backward computation.
I1111 06:55:52.088040  2417 net.cpp:228] fc8 does not need backward computation.
I1111 06:55:52.088052  2417 net.cpp:228] drop7 does not need backward computation.
I1111 06:55:52.088062  2417 net.cpp:228] relu7 does not need backward computation.
…
I1111 06:55:54.563285  2417 net.cpp:923] Copying source layer drop6
I1111 06:55:54.563295  2417 net.cpp:923] Copying source layer fc7
I1111 06:55:54.770879  2417 net.cpp:923] Copying source layer relu7
I1111 06:55:54.770942  2417 net.cpp:923] Copying source layer drop7
I1111 06:55:54.770952  2417 net.cpp:923] Copying source layer fc8
I1111 06:55:54.821588  2417 net.cpp:920] Ignoring source layer loss
I1111 06:55:54.824183  2417 net.cpp:49] Initializing net from parameters: 
name: "CaffeNet"
input: "data"
input_dim: 1
input_dim: 3
input_dim: 227
input_dim: 227
force_backward: true
state {
  phase: TEST
}
layer {
  name: "conv1"
  type: "Convolution"
  bottom: "data"
  top: "conv1"
  convolution_param {
    num_output: 96
    kernel_size: 11
    stride: 4
  }
}
layer {
  name: "relu1"
  type: "ReLU"
  bottom: "conv1"
  top: "conv1"
}
layer {
  name: "pool1"
  type: "Pooling"
  bottom: "conv1"
  top: "pool1"
  pooling_param {
    pool: MAX
    kernel_size: 3
    stride: 2
  }
}
layer {
  name: "norm1"
  type: "LRN"
  bottom: "pool1"
  top: "norm1"
  lrn_param {
    local_size: 5
    alpha: 0.0001
    beta: 0.75
  }
}
layer {
  name: "conv2"
  type: "Convolution"
  bottom: "norm1"
  top: "conv2"
  convolution_param {
    num_output: 256
    pad: 2
    kernel_size: 5
  }
}
layer {
  name: "relu2"
  type: "ReLU"
  bottom: "conv2"
  top: "conv2"
}
layer {
  name: "pool2"
  type: "Pooling"
  bottom: "conv2"
  top: "pool2"
  pooling_param {
    pool: MAX
    kernel_size: 3
    stride: 2
  }
}
layer {
  name: "norm2"
  type: "LRN"
  bottom: "pool2"
  top: "norm2"
  lrn_param {
    local_size: 5
    alpha: 0.0001
    beta: 0.75
  }
}
layer {
  name: "conv3"
  type: "Convolution"
  bottom: "norm2"
  top: "conv3"
  convolution_param {
    num_output: 384
    pad: 1
    kernel_size: 3
  }
}
layer {
  name: "relu3"
  type: "ReLU"
  bottom: "conv3"
  top: "conv3"
}
layer {
  name: "conv4"
  type: "Convolution"
  bottom: "conv3"
  top: "conv4"
  convolution_param {
    num_output: 384
    pad: 1
    kernel_size: 3
  }
}
layer {
  name: "relu4"
  type: "ReLU"
  bottom: "conv4"
  top: "conv4"
}
layer {
  name: "conv5"
  type: "Convolution"
  bottom: "conv4"
  top: "conv5"
  convolution_param {
    num_output: 256
    pad: 1
    kernel_size: 3
  }
}
layer {
  name: "relu5"
  type: "ReLU"
  bottom: "conv5"
  top: "conv5"
}
layer {
  name: "pool5"
  type: "Pooling"
  bottom: "conv5"
  top: "pool5"
  pooling_param {
    pool: MAX
    kernel_size: 3
    stride: 2
  }
}
layer {
  name: "fc6"
  type: "InnerProduct"
  bottom: "pool5"
  top: "fc6"
  inner_product_param {
    num_output: 4096
  }
}
layer {
  name: "relu6"
  type: "ReLU"
  bottom: "fc6"
  top: "fc6"
}
layer {
  name: "drop6"
  type: "Dropout"
  bottom: "fc6"
  top: "fc6"
  dropout_param {
    dropout_ratio: 0.5
  }
}
layer {
  name: "fc7"
  type: "InnerProduct"
  bottom: "fc6"
  top: "fc7"
  inner_product_param {
    num_output: 4096
  }
}
layer {
  name: "relu7"
  type: "ReLU"
  bottom: "fc7"
  top: "fc7"
}
layer {
  name: "drop7"
  type: "Dropout"
  bottom: "fc7"
  top: "fc7"
  dropout_param {
    dropout_ratio: 0.5
  }
}
layer {
  name: "fc8"
  type: "InnerProduct"
  bottom: "fc7"
  top: "fc8"
  inner_product_param {
    num_output: 1000
  }
}
layer {
  name: "prob"
  type: "Softmax"
  bottom: "fc8"
  top: "prob"
}
I1111 06:55:54.824437  2417 net.cpp:413] Input 0 -> data
I1111 06:55:54.824657  2417 layer_factory.hpp:76] Creating layer conv1
I1111 06:55:54.824717  2417 net.cpp:106] Creating Layer conv1
I1111 06:55:54.824738  2417 net.cpp:454] conv1 <- data
I1111 06:55:54.824769  2417 net.cpp:411] conv1 -> conv1
I1111 06:55:54.825183  2417 net.cpp:150] Setting up conv1
I1111 06:55:54.825219  2417 net.cpp:157] Top shape: 1 96 55 55 (290400)
I1111 06:55:54.825229  2417 net.cpp:165] Memory required for data: 1161600
I1111 06:55:54.825278  2417 layer_factory.hpp:76] Creating layer relu1
I1111 06:55:54.825309  2417 net.cpp:106] Creating Layer relu1
I1111 06:55:54.825325  2417 net.cpp:454] relu1 <- conv1
I1111 06:55:54.825348  2417 net.cpp:397] relu1 -> conv1 (in-place)
I1111 06:55:54.825373  2417 net.cpp:150] Setting up relu1
I1111 06:55:54.825388  2417 net.cpp:157] Top shape: 1 96 55 55 (290400)
I1111 06:55:54.825397  2417 net.cpp:165] Memory required for data: 2323200
I1111 06:55:54.825407  2417 layer_factory.hpp:76] Creating layer pool1
I1111 06:55:54.825433  2417 net.cpp:106] Creating Layer pool1
I1111 06:55:54.825448  2417 net.cpp:454] pool1 <- conv1
I1111 06:55:54.825474  2417 net.cpp:411] pool1 -> pool1
I1111 06:55:54.825551  2417 net.cpp:150] Setting up pool1
I1111 06:55:54.825572  2417 net.cpp:157] Top shape: 1 96 27 27 (69984)
I1111 06:55:54.825582  2417 net.cpp:165] Memory required for data: 2603136
I1111 06:55:54.825593  2417 layer_factory.hpp:76] Creating layer norm1
I1111 06:55:54.825620  2417 net.cpp:106] Creating Layer norm1
I1111 06:55:54.825635  2417 net.cpp:454] norm1 <- pool1
I1111 06:55:54.825661  2417 net.cpp:411] norm1 -> norm1
I1111 06:55:54.825733  2417 net.cpp:150] Setting up norm1
I1111 06:55:54.825755  2417 net.cpp:157] Top shape: 1 96 27 27 (69984)
I1111 06:55:54.825765  2417 net.cpp:165] Memory required for data: 2883072
I1111 06:55:54.825776  2417 layer_factory.hpp:76] Creating layer conv2
I1111 06:55:54.825803  2417 net.cpp:106] Creating Layer conv2
I1111 06:55:54.825819  2417 net.cpp:454] conv2 <- norm1
I1111 06:55:54.825846  2417 net.cpp:411] conv2 -> conv2
I1111 06:55:54.828980  2417 net.cpp:150] Setting up conv2
I1111 06:55:54.829006  2417 net.cpp:157] Top shape: 1 256 27 27 (186624)
I1111 06:55:54.829016  2417 net.cpp:165] Memory required for data: 3629568
I1111 06:55:54.829051  2417 layer_factory.hpp:76] Creating layer relu2
I1111 06:55:54.829074  2417 net.cpp:106] Creating Layer relu2
I1111 06:55:54.829088  2417 net.cpp:454] relu2 <- conv2
I1111 06:55:54.829112  2417 net.cpp:397] relu2 -> conv2 (in-place)
I1111 06:55:54.829138  2417 net.cpp:150] Setting up relu2
I1111 06:55:54.829151  2417 net.cpp:157] Top shape: 1 256 27 27 (186624)
I1111 06:55:54.829159  2417 net.cpp:165] Memory required for data: 4376064
I1111 06:55:54.829170  2417 layer_factory.hpp:76] Creating layer pool2
I1111 06:55:54.829190  2417 net.cpp:106] Creating Layer pool2
I1111 06:55:54.829205  2417 net.cpp:454] pool2 <- conv2
I1111 06:55:54.829229  2417 net.cpp:411] pool2 -> pool2
I1111 06:55:54.829296  2417 net.cpp:150] Setting up pool2
I1111 06:55:54.829318  2417 net.cpp:157] Top shape: 1 256 13 13 (43264)
I1111 06:55:54.829326  2417 net.cpp:165] Memory required for data: 4549120
I1111 06:55:54.829339  2417 layer_factory.hpp:76] Creating layer norm2
I1111 06:55:54.829360  2417 net.cpp:106] Creating Layer norm2
I1111 06:55:54.829375  2417 net.cpp:454] norm2 <- pool2
I1111 06:55:54.829401  2417 net.cpp:411] norm2 -> norm2
I1111 06:55:54.829464  2417 net.cpp:150] Setting up norm2
I1111 06:55:54.829485  2417 net.cpp:157] Top shape: 1 256 13 13 (43264)
I1111 06:55:54.829494  2417 net.cpp:165] Memory required for data: 4722176
I1111 06:55:54.829505  2417 layer_factory.hpp:76] Creating layer conv3
I1111 06:55:54.829533  2417 net.cpp:106] Creating Layer conv3
I1111 06:55:54.829550  2417 net.cpp:454] conv3 <- norm2
I1111 06:55:54.829576  2417 net.cpp:411] conv3 -> conv3
I1111 06:55:54.833677  2417 net.cpp:150] Setting up conv3
I1111 06:55:54.833705  2417 net.cpp:157] Top shape: 1 384 13 13 (64896)
I1111 06:55:54.833716  2417 net.cpp:165] Memory required for data: 4981760
I1111 06:55:54.833755  2417 layer_factory.hpp:76] Creating layer relu3
I1111 06:55:54.833778  2417 net.cpp:106] Creating Layer relu3
I1111 06:55:54.833793  2417 net.cpp:454] relu3 <- conv3
I1111 06:55:54.833817  2417 net.cpp:397] relu3 -> conv3 (in-place)
I1111 06:55:54.833847  2417 net.cpp:150] Setting up relu3
I1111 06:55:54.833860  2417 net.cpp:157] Top shape: 1 384 13 13 (64896)
I1111 06:55:54.833869  2417 net.cpp:165] Memory required for data: 5241344
I1111 06:55:54.833880  2417 layer_factory.hpp:76] Creating layer conv4
I1111 06:55:54.833900  2417 net.cpp:106] Creating Layer conv4
I1111 06:55:54.833915  2417 net.cpp:454] conv4 <- conv3
I1111 06:55:54.833940  2417 net.cpp:411] conv4 -> conv4
I1111 06:55:54.839903  2417 net.cpp:150] Setting up conv4
I1111 06:55:54.839928  2417 net.cpp:157] Top shape: 1 384 13 13 (64896)
I1111 06:55:54.839939  2417 net.cpp:165] Memory required for data: 5500928
I1111 06:55:54.839962  2417 layer_factory.hpp:76] Creating layer relu4
I1111 06:55:54.839985  2417 net.cpp:106] Creating Layer relu4
I1111 06:55:54.840001  2417 net.cpp:454] relu4 <- conv4
I1111 06:55:54.840024  2417 net.cpp:397] relu4 -> conv4 (in-place)
I1111 06:55:54.840050  2417 net.cpp:150] Setting up relu4
I1111 06:55:54.840065  2417 net.cpp:157] Top shape: 1 384 13 13 (64896)
I1111 06:55:54.840073  2417 net.cpp:165] Memory required for data: 5760512
I1111 06:55:54.840085  2417 layer_factory.hpp:76] Creating layer conv5
I1111 06:55:54.840108  2417 net.cpp:106] Creating Layer conv5
I1111 06:55:54.840123  2417 net.cpp:454] conv5 <- conv4
I1111 06:55:54.840149  2417 net.cpp:411] conv5 -> conv5
I1111 06:55:54.844254  2417 net.cpp:150] Setting up conv5
I1111 06:55:54.844277  2417 net.cpp:157] Top shape: 1 256 13 13 (43264)
I1111 06:55:54.844287  2417 net.cpp:165] Memory required for data: 5933568
I1111 06:55:54.844322  2417 layer_factory.hpp:76] Creating layer relu5
I1111 06:55:54.844349  2417 net.cpp:106] Creating Layer relu5
I1111 06:55:54.844364  2417 net.cpp:454] relu5 <- conv5
I1111 06:55:54.844388  2417 net.cpp:397] relu5 -> conv5 (in-place)
I1111 06:55:54.844413  2417 net.cpp:150] Setting up relu5
I1111 06:55:54.844427  2417 net.cpp:157] Top shape: 1 256 13 13 (43264)
I1111 06:55:54.844436  2417 net.cpp:165] Memory required for data: 6106624
I1111 06:55:54.844447  2417 layer_factory.hpp:76] Creating layer pool5
I1111 06:55:54.844467  2417 net.cpp:106] Creating Layer pool5
I1111 06:55:54.844482  2417 net.cpp:454] pool5 <- conv5
I1111 06:55:54.844511  2417 net.cpp:411] pool5 -> pool5
I1111 06:55:54.844579  2417 net.cpp:150] Setting up pool5
I1111 06:55:54.844602  2417 net.cpp:157] Top shape: 1 256 6 6 (9216)
I1111 06:55:54.844612  2417 net.cpp:165] Memory required for data: 6143488
I1111 06:55:54.844624  2417 layer_factory.hpp:76] Creating layer fc6
I1111 06:55:54.844646  2417 net.cpp:106] Creating Layer fc6
I1111 06:55:54.844660  2417 net.cpp:454] fc6 <- pool5
I1111 06:55:54.844686  2417 net.cpp:411] fc6 -> fc6
I1111 06:55:55.011222  2417 net.cpp:150] Setting up fc6
I1111 06:55:55.011332  2417 net.cpp:157] Top shape: 1 4096 (4096)
I1111 06:55:55.011343  2417 net.cpp:165] Memory required for data: 6159872
I1111 06:55:55.011389  2417 layer_factory.hpp:76] Creating layer relu6
I1111 06:55:55.011463  2417 net.cpp:106] Creating Layer relu6
I1111 06:55:55.011490  2417 net.cpp:454] relu6 <- fc6
I1111 06:55:55.011535  2417 net.cpp:397] relu6 -> fc6 (in-place)
I1111 06:55:55.011575  2417 net.cpp:150] Setting up relu6
I1111 06:55:55.011590  2417 net.cpp:157] Top shape: 1 4096 (4096)
I1111 06:55:55.011598  2417 net.cpp:165] Memory required for data: 6176256
I1111 06:55:55.011610  2417 layer_factory.hpp:76] Creating layer drop6
I1111 06:55:55.011637  2417 net.cpp:106] Creating Layer drop6
I1111 06:55:55.011651  2417 net.cpp:454] drop6 <- fc6
I1111 06:55:55.011674  2417 net.cpp:397] drop6 -> fc6 (in-place)
I1111 06:55:55.011734  2417 net.cpp:150] Setting up drop6
I1111 06:55:55.011752  2417 net.cpp:157] Top shape: 1 4096 (4096)
I1111 06:55:55.011761  2417 net.cpp:165] Memory required for data: 6192640
I1111 06:55:55.011773  2417 layer_factory.hpp:76] Creating layer fc7
I1111 06:55:55.011802  2417 net.cpp:106] Creating Layer fc7
I1111 06:55:55.011816  2417 net.cpp:454] fc7 <- fc6
I1111 06:55:55.011843  2417 net.cpp:411] fc7 -> fc7
I1111 06:55:55.085925  2417 net.cpp:150] Setting up fc7
I1111 06:55:55.086025  2417 net.cpp:157] Top shape: 1 4096 (4096)
I1111 06:55:55.086035  2417 net.cpp:165] Memory required for data: 6209024
I1111 06:55:55.086079  2417 layer_factory.hpp:76] Creating layer relu7
I1111 06:55:55.086134  2417 net.cpp:106] Creating Layer relu7
I1111 06:55:55.086161  2417 net.cpp:454] relu7 <- fc7
I1111 06:55:55.086206  2417 net.cpp:397] relu7 -> fc7 (in-place)
I1111 06:55:55.086247  2417 net.cpp:150] Setting up relu7
I1111 06:55:55.086262  2417 net.cpp:157] Top shape: 1 4096 (4096)
I1111 06:55:55.086271  2417 net.cpp:165] Memory required for data: 6225408
I1111 06:55:55.086282  2417 layer_factory.hpp:76] Creating layer drop7
I1111 06:55:55.086310  2417 net.cpp:106] Creating Layer drop7
I1111 06:55:55.086324  2417 net.cpp:454] drop7 <- fc7
I1111 06:55:55.086347  2417 net.cpp:397] drop7 -> fc7 (in-place)
I1111 06:55:55.086401  2417 net.cpp:150] Setting up drop7
I1111 06:55:55.086419  2417 net.cpp:157] Top shape: 1 4096 (4096)
I1111 06:55:55.086428  2417 net.cpp:165] Memory required for data: 6241792
I1111 06:55:55.086439  2417 layer_factory.hpp:76] Creating layer fc8
I1111 06:55:55.086467  2417 net.cpp:106] Creating Layer fc8
I1111 06:55:55.086483  2417 net.cpp:454] fc8 <- fc7
I1111 06:55:55.086511  2417 net.cpp:411] fc8 -> fc8
I1111 06:55:55.104274  2417 net.cpp:150] Setting up fc8
I1111 06:55:55.104322  2417 net.cpp:157] Top shape: 1 1000 (1000)
I1111 06:55:55.104333  2417 net.cpp:165] Memory required for data: 6245792
I1111 06:55:55.104360  2417 layer_factory.hpp:76] Creating layer prob
I1111 06:55:55.104390  2417 net.cpp:106] Creating Layer prob
I1111 06:55:55.104408  2417 net.cpp:454] prob <- fc8
I1111 06:55:55.104439  2417 net.cpp:411] prob -> prob
I1111 06:55:55.104542  2417 net.cpp:150] Setting up prob
I1111 06:55:55.104563  2417 net.cpp:157] Top shape: 1 1000 (1000)
I1111 06:55:55.104573  2417 net.cpp:165] Memory required for data: 6249792
I1111 06:55:55.104588  2417 net.cpp:228] prob does not need backward computation.
I1111 06:55:55.104600  2417 net.cpp:228] fc8 does not need backward computation.
I1111 06:55:55.104611  2417 net.cpp:228] drop7 does not need backward computation.
I1111 06:55:55.104621  2417 net.cpp:228] relu7 does not need backward computation.
…
