…
gamma: 0.5
momentum: 0.98
weight_decay: 1e-05
stepsize: 1500
snapshot: 1000
snapshot_prefix: "stitch"
solver_mode: GPU
random_seed: 0
net: "network.prototxt"
regularization_type: "L1"
I1110 22:07:38.991741  1975 solver.cpp:90] Creating training net from net file: network.prototxt
I1110 22:07:39.029062  1975 net.cpp:49] Initializing net from parameters: 
name: "StitchNet"
input: "net0"
input: "net1"
input_dim: 32
input_dim: 96
input_dim: 55
input_dim: 55
input_dim: 32
input_dim: 96
input_dim: 55
input_dim: 55
state {
  phase: TRAIN
}
debug_info: true
layer {
  name: "stitch0"
  type: "Convolution"
  bottom: "net0"
  top: "stitch0"
  convolution_param {
    num_output: 96
    kernel_size: 1
    stride: 1
    weight_filler {
      type: "gaussian"
      std: 0.01
    }
  }
}
layer {
  name: "loss"
  type: "EuclideanLoss"
  bottom: "stitch0"
  bottom: "net1"
  top: "loss"
  loss_weight: 1
}
I1110 22:07:39.029208  1975 net.cpp:413] Input 0 -> net0
I1110 22:07:39.060469  1975 net.cpp:413] Input 1 -> net1
I1110 22:07:39.060652  1975 layer_factory.hpp:76] Creating layer stitch0
I1110 22:07:39.060725  1975 net.cpp:106] Creating Layer stitch0
I1110 22:07:39.060745  1975 net.cpp:454] stitch0 <- net0
I1110 22:07:39.060780  1975 net.cpp:411] stitch0 -> stitch0
I1110 22:07:39.063031  1975 net.cpp:150] Setting up stitch0
I1110 22:07:39.063074  1975 net.cpp:157] Top shape: 32 96 55 55 (9292800)
I1110 22:07:39.063086  1975 net.cpp:165] Memory required for data: 37171200
I1110 22:07:39.063143  1975 layer_factory.hpp:76] Creating layer loss
I1110 22:07:39.063174  1975 net.cpp:106] Creating Layer loss
I1110 22:07:39.063190  1975 net.cpp:454] loss <- stitch0
I1110 22:07:39.063215  1975 net.cpp:454] loss <- net1
I1110 22:07:39.063240  1975 net.cpp:411] loss -> loss
I1110 22:07:39.063313  1975 net.cpp:150] Setting up loss
I1110 22:07:39.063334  1975 net.cpp:157] Top shape: (1)
I1110 22:07:39.063344  1975 net.cpp:160]     with loss weight 1
I1110 22:07:39.063364  1975 net.cpp:165] Memory required for data: 37171204
I1110 22:07:39.063380  1975 net.cpp:226] loss needs backward computation.
I1110 22:07:39.063396  1975 net.cpp:226] stitch0 needs backward computation.
I1110 22:07:39.063410  1975 net.cpp:270] This network produces output loss
I1110 22:07:39.063432  1975 net.cpp:283] Network initialization done.
I1110 22:07:39.063477  1975 solver.cpp:59] Solver scaffolding done.
I1110 22:07:39.275825  1975 net.cpp:49] Initializing net from parameters: 
name: "CaffeNet"
input: "data"
input_dim: 1
input_dim: 3
input_dim: 227
input_dim: 227
force_backward: true
state {
  phase: TEST
}
layer {
  name: "conv1"
  type: "Convolution"
  bottom: "data"
  top: "conv1"
  convolution_param {
    num_output: 96
    kernel_size: 11
    stride: 4
  }
}
layer {
  name: "relu1"
  type: "ReLU"
  bottom: "conv1"
  top: "conv1"
}
layer {
  name: "pool1"
  type: "Pooling"
  bottom: "conv1"
  top: "pool1"
  pooling_param {
    pool: MAX
    kernel_size: 3
    stride: 2
  }
}
layer {
  name: "norm1"
  type: "LRN"
  bottom: "pool1"
  top: "norm1"
  lrn_param {
    local_size: 5
    alpha: 0.0001
    beta: 0.75
  }
}
layer {
  name: "conv2"
  type: "Convolution"
  bottom: "norm1"
  top: "conv2"
  convolution_param {
    num_output: 256
    pad: 2
    kernel_size: 5
  }
}
layer {
  name: "relu2"
  type: "ReLU"
  bottom: "conv2"
  top: "conv2"
}
layer {
  name: "pool2"
  type: "Pooling"
  bottom: "conv2"
  top: "pool2"
  pooling_param {
    pool: MAX
    kernel_size: 3
    stride: 2
  }
}
layer {
  name: "norm2"
  type: "LRN"
  bottom: "pool2"
  top: "norm2"
  lrn_param {
    local_size: 5
    alpha: 0.0001
    beta: 0.75
  }
}
layer {
  name: "conv3"
  type: "Convolution"
  bottom: "norm2"
  top: "conv3"
  convolution_param {
    num_output: 384
    pad: 1
    kernel_size: 3
  }
}
layer {
  name: "relu3"
  type: "ReLU"
  bottom: "conv3"
  top: "conv3"
}
layer {
  name: "conv4"
  type: "Convolution"
  bottom: "conv3"
  top: "conv4"
  convolution_param {
    num_output: 384
    pad: 1
    kernel_size: 3
  }
}
layer {
  name: "relu4"
  type: "ReLU"
  bottom: "conv4"
  top: "conv4"
}
layer {
  name: "conv5"
  type: "Convolution"
  bottom: "conv4"
  top: "conv5"
  convolution_param {
    num_output: 256
    pad: 1
    kernel_size: 3
  }
}
layer {
  name: "relu5"
  type: "ReLU"
  bottom: "conv5"
  top: "conv5"
}
layer {
  name: "pool5"
  type: "Pooling"
  bottom: "conv5"
  top: "pool5"
  pooling_param {
    pool: MAX
    kernel_size: 3
    stride: 2
  }
}
layer {
  name: "fc6"
  type: "InnerProduct"
  bottom: "pool5"
  top: "fc6"
  inner_product_param {
    num_output: 4096
  }
}
layer {
  name: "relu6"
  type: "ReLU"
  bottom: "fc6"
  top: "fc6"
}
layer {
  name: "drop6"
  type: "Dropout"
  bottom: "fc6"
  top: "fc6"
  dropout_param {
    dropout_ratio: 0.5
  }
}
layer {
  name: "fc7"
  type: "InnerProduct"
  bottom: "fc6"
  top: "fc7"
  inner_product_param {
    num_output: 4096
  }
}
layer {
  name: "relu7"
  type: "ReLU"
  bottom: "fc7"
  top: "fc7"
}
layer {
  name: "drop7"
  type: "Dropout"
  bottom: "fc7"
  top: "fc7"
  dropout_param {
    dropout_ratio: 0.5
  }
}
layer {
  name: "fc8"
  type: "InnerProduct"
  bottom: "fc7"
  top: "fc8"
  inner_product_param {
    num_output: 1000
  }
}
layer {
  name: "prob"
  type: "Softmax"
  bottom: "fc8"
  top: "prob"
}
I1110 22:07:39.276365  1975 net.cpp:413] Input 0 -> data
I1110 22:07:39.276701  1975 layer_factory.hpp:76] Creating layer conv1
I1110 22:07:39.276798  1975 net.cpp:106] Creating Layer conv1
I1110 22:07:39.276842  1975 net.cpp:454] conv1 <- data
I1110 22:07:39.276912  1975 net.cpp:411] conv1 -> conv1
I1110 22:07:39.279189  1975 net.cpp:150] Setting up conv1
I1110 22:07:39.279263  1975 net.cpp:157] Top shape: 1 96 55 55 (290400)
I1110 22:07:39.279289  1975 net.cpp:165] Memory required for data: 1161600
I1110 22:07:39.279400  1975 layer_factory.hpp:76] Creating layer relu1
I1110 22:07:39.279481  1975 net.cpp:106] Creating Layer relu1
I1110 22:07:39.279522  1975 net.cpp:454] relu1 <- conv1
I1110 22:07:39.279590  1975 net.cpp:397] relu1 -> conv1 (in-place)
I1110 22:07:39.279697  1975 net.cpp:150] Setting up relu1
I1110 22:07:39.279713  1975 net.cpp:157] Top shape: 1 96 55 55 (290400)
I1110 22:07:39.279723  1975 net.cpp:165] Memory required for data: 2323200
I1110 22:07:39.279734  1975 layer_factory.hpp:76] Creating layer pool1
I1110 22:07:39.279762  1975 net.cpp:106] Creating Layer pool1
I1110 22:07:39.279777  1975 net.cpp:454] pool1 <- conv1
I1110 22:07:39.279803  1975 net.cpp:411] pool1 -> pool1
I1110 22:07:39.279886  1975 net.cpp:150] Setting up pool1
I1110 22:07:39.279908  1975 net.cpp:157] Top shape: 1 96 27 27 (69984)
I1110 22:07:39.279918  1975 net.cpp:165] Memory required for data: 2603136
I1110 22:07:39.279930  1975 layer_factory.hpp:76] Creating layer norm1
I1110 22:07:39.279958  1975 net.cpp:106] Creating Layer norm1
I1110 22:07:39.279973  1975 net.cpp:454] norm1 <- pool1
I1110 22:07:39.279999  1975 net.cpp:411] norm1 -> norm1
I1110 22:07:39.280071  1975 net.cpp:150] Setting up norm1
I1110 22:07:39.280092  1975 net.cpp:157] Top shape: 1 96 27 27 (69984)
I1110 22:07:39.280102  1975 net.cpp:165] Memory required for data: 2883072
I1110 22:07:39.280114  1975 layer_factory.hpp:76] Creating layer conv2
I1110 22:07:39.280143  1975 net.cpp:106] Creating Layer conv2
I1110 22:07:39.280159  1975 net.cpp:454] conv2 <- norm1
I1110 22:07:39.280186  1975 net.cpp:411] conv2 -> conv2
I1110 22:07:39.283841  1975 net.cpp:150] Setting up conv2
I1110 22:07:39.283869  1975 net.cpp:157] Top shape: 1 256 27 27 (186624)
I1110 22:07:39.283879  1975 net.cpp:165] Memory required for data: 3629568
I1110 22:07:39.283913  1975 layer_factory.hpp:76] Creating layer relu2
I1110 22:07:39.283941  1975 net.cpp:106] Creating Layer relu2
I1110 22:07:39.283957  1975 net.cpp:454] relu2 <- conv2
I1110 22:07:39.283980  1975 net.cpp:397] relu2 -> conv2 (in-place)
I1110 22:07:39.284006  1975 net.cpp:150] Setting up relu2
I1110 22:07:39.284021  1975 net.cpp:157] Top shape: 1 256 27 27 (186624)
I1110 22:07:39.284030  1975 net.cpp:165] Memory required for data: 4376064
I1110 22:07:39.284041  1975 layer_factory.hpp:76] Creating layer pool2
I1110 22:07:39.284061  1975 net.cpp:106] Creating Layer pool2
I1110 22:07:39.284075  1975 net.cpp:454] pool2 <- conv2
I1110 22:07:39.284101  1975 net.cpp:411] pool2 -> pool2
I1110 22:07:39.284170  1975 net.cpp:150] Setting up pool2
I1110 22:07:39.284193  1975 net.cpp:157] Top shape: 1 256 13 13 (43264)
I1110 22:07:39.284201  1975 net.cpp:165] Memory required for data: 4549120
I1110 22:07:39.284214  1975 layer_factory.hpp:76] Creating layer norm2
I1110 22:07:39.284238  1975 net.cpp:106] Creating Layer norm2
I1110 22:07:39.284253  1975 net.cpp:454] norm2 <- pool2
I1110 22:07:39.284279  1975 net.cpp:411] norm2 -> norm2
I1110 22:07:39.284344  1975 net.cpp:150] Setting up norm2
I1110 22:07:39.284365  1975 net.cpp:157] Top shape: 1 256 13 13 (43264)
I1110 22:07:39.284375  1975 net.cpp:165] Memory required for data: 4722176
I1110 22:07:39.284387  1975 layer_factory.hpp:76] Creating layer conv3
I1110 22:07:39.284417  1975 net.cpp:106] Creating Layer conv3
I1110 22:07:39.284433  1975 net.cpp:454] conv3 <- norm2
I1110 22:07:39.284461  1975 net.cpp:411] conv3 -> conv3
I1110 22:07:39.288732  1975 net.cpp:150] Setting up conv3
I1110 22:07:39.288756  1975 net.cpp:157] Top shape: 1 384 13 13 (64896)
I1110 22:07:39.288768  1975 net.cpp:165] Memory required for data: 4981760
I1110 22:07:39.288805  1975 layer_factory.hpp:76] Creating layer relu3
I1110 22:07:39.288830  1975 net.cpp:106] Creating Layer relu3
I1110 22:07:39.288844  1975 net.cpp:454] relu3 <- conv3
I1110 22:07:39.288872  1975 net.cpp:397] relu3 -> conv3 (in-place)
I1110 22:07:39.288897  1975 net.cpp:150] Setting up relu3
I1110 22:07:39.288913  1975 net.cpp:157] Top shape: 1 384 13 13 (64896)
I1110 22:07:39.288921  1975 net.cpp:165] Memory required for data: 5241344
I1110 22:07:39.288933  1975 layer_factory.hpp:76] Creating layer conv4
I1110 22:07:39.288954  1975 net.cpp:106] Creating Layer conv4
I1110 22:07:39.288969  1975 net.cpp:454] conv4 <- conv3
I1110 22:07:39.288993  1975 net.cpp:411] conv4 -> conv4
I1110 22:07:39.295143  1975 net.cpp:150] Setting up conv4
I1110 22:07:39.295171  1975 net.cpp:157] Top shape: 1 384 13 13 (64896)
I1110 22:07:39.295181  1975 net.cpp:165] Memory required for data: 5500928
I1110 22:07:39.295203  1975 layer_factory.hpp:76] Creating layer relu4
I1110 22:07:39.295228  1975 net.cpp:106] Creating Layer relu4
I1110 22:07:39.295243  1975 net.cpp:454] relu4 <- conv4
I1110 22:07:39.295267  1975 net.cpp:397] relu4 -> conv4 (in-place)
I1110 22:07:39.295294  1975 net.cpp:150] Setting up relu4
I1110 22:07:39.295308  1975 net.cpp:157] Top shape: 1 384 13 13 (64896)
I1110 22:07:39.295316  1975 net.cpp:165] Memory required for data: 5760512
I1110 22:07:39.295328  1975 layer_factory.hpp:76] Creating layer conv5
I1110 22:07:39.295352  1975 net.cpp:106] Creating Layer conv5
I1110 22:07:39.295369  1975 net.cpp:454] conv5 <- conv4
I1110 22:07:39.295395  1975 net.cpp:411] conv5 -> conv5
I1110 22:07:39.299648  1975 net.cpp:150] Setting up conv5
I1110 22:07:39.299671  1975 net.cpp:157] Top shape: 1 256 13 13 (43264)
I1110 22:07:39.299682  1975 net.cpp:165] Memory required for data: 5933568
I1110 22:07:39.299717  1975 layer_factory.hpp:76] Creating layer relu5
I1110 22:07:39.299744  1975 net.cpp:106] Creating Layer relu5
I1110 22:07:39.299760  1975 net.cpp:454] relu5 <- conv5
I1110 22:07:39.299784  1975 net.cpp:397] relu5 -> conv5 (in-place)
I1110 22:07:39.299809  1975 net.cpp:150] Setting up relu5
I1110 22:07:39.299825  1975 net.cpp:157] Top shape: 1 256 13 13 (43264)
I1110 22:07:39.299834  1975 net.cpp:165] Memory required for data: 6106624
I1110 22:07:39.299845  1975 layer_factory.hpp:76] Creating layer pool5
I1110 22:07:39.299870  1975 net.cpp:106] Creating Layer pool5
I1110 22:07:39.299885  1975 net.cpp:454] pool5 <- conv5
I1110 22:07:39.299911  1975 net.cpp:411] pool5 -> pool5
I1110 22:07:39.299981  1975 net.cpp:150] Setting up pool5
I1110 22:07:39.300003  1975 net.cpp:157] Top shape: 1 256 6 6 (9216)
I1110 22:07:39.300012  1975 net.cpp:165] Memory required for data: 6143488
I1110 22:07:39.300024  1975 layer_factory.hpp:76] Creating layer fc6
I1110 22:07:39.300047  1975 net.cpp:106] Creating Layer fc6
I1110 22:07:39.300061  1975 net.cpp:454] fc6 <- pool5
I1110 22:07:39.300086  1975 net.cpp:411] fc6 -> fc6
I1110 22:07:39.473924  1975 net.cpp:150] Setting up fc6
I1110 22:07:39.474014  1975 net.cpp:157] Top shape: 1 4096 (4096)
I1110 22:07:39.474025  1975 net.cpp:165] Memory required for data: 6159872
I1110 22:07:39.474062  1975 layer_factory.hpp:76] Creating layer relu6
I1110 22:07:39.474120  1975 net.cpp:106] Creating Layer relu6
I1110 22:07:39.474143  1975 net.cpp:454] relu6 <- fc6
I1110 22:07:39.474182  1975 net.cpp:397] relu6 -> fc6 (in-place)
I1110 22:07:39.474218  1975 net.cpp:150] Setting up relu6
I1110 22:07:39.474233  1975 net.cpp:157] Top shape: 1 4096 (4096)
I1110 22:07:39.474242  1975 net.cpp:165] Memory required for data: 6176256
I1110 22:07:39.474253  1975 layer_factory.hpp:76] Creating layer drop6
I1110 22:07:39.474287  1975 net.cpp:106] Creating Layer drop6
I1110 22:07:39.474302  1975 net.cpp:454] drop6 <- fc6
I1110 22:07:39.474325  1975 net.cpp:397] drop6 -> fc6 (in-place)
I1110 22:07:39.474382  1975 net.cpp:150] Setting up drop6
I1110 22:07:39.474401  1975 net.cpp:157] Top shape: 1 4096 (4096)
I1110 22:07:39.474411  1975 net.cpp:165] Memory required for data: 6192640
I1110 22:07:39.474423  1975 layer_factory.hpp:76] Creating layer fc7
I1110 22:07:39.474449  1975 net.cpp:106] Creating Layer fc7
I1110 22:07:39.474464  1975 net.cpp:454] fc7 <- fc6
I1110 22:07:39.474490  1975 net.cpp:411] fc7 -> fc7
I1110 22:07:39.551861  1975 net.cpp:150] Setting up fc7
I1110 22:07:39.551937  1975 net.cpp:157] Top shape: 1 4096 (4096)
I1110 22:07:39.551947  1975 net.cpp:165] Memory required for data: 6209024
I1110 22:07:39.551985  1975 layer_factory.hpp:76] Creating layer relu7
I1110 22:07:39.552028  1975 net.cpp:106] Creating Layer relu7
I1110 22:07:39.552049  1975 net.cpp:454] relu7 <- fc7
I1110 22:07:39.552088  1975 net.cpp:397] relu7 -> fc7 (in-place)
I1110 22:07:39.552124  1975 net.cpp:150] Setting up relu7
I1110 22:07:39.552139  1975 net.cpp:157] Top shape: 1 4096 (4096)
I1110 22:07:39.552148  1975 net.cpp:165] Memory required for data: 6225408
I1110 22:07:39.552160  1975 layer_factory.hpp:76] Creating layer drop7
I1110 22:07:39.552186  1975 net.cpp:106] Creating Layer drop7
I1110 22:07:39.552198  1975 net.cpp:454] drop7 <- fc7
I1110 22:07:39.552225  1975 net.cpp:397] drop7 -> fc7 (in-place)
I1110 22:07:39.552278  1975 net.cpp:150] Setting up drop7
I1110 22:07:39.552295  1975 net.cpp:157] Top shape: 1 4096 (4096)
I1110 22:07:39.552304  1975 net.cpp:165] Memory required for data: 6241792
I1110 22:07:39.552315  1975 layer_factory.hpp:76] Creating layer fc8
I1110 22:07:39.552341  1975 net.cpp:106] Creating Layer fc8
I1110 22:07:39.552356  1975 net.cpp:454] fc8 <- fc7
I1110 22:07:39.552384  1975 net.cpp:411] fc8 -> fc8
I1110 22:07:39.570230  1975 net.cpp:150] Setting up fc8
I1110 22:07:39.570287  1975 net.cpp:157] Top shape: 1 1000 (1000)
I1110 22:07:39.570298  1975 net.cpp:165] Memory required for data: 6245792
I1110 22:07:39.570333  1975 layer_factory.hpp:76] Creating layer prob
I1110 22:07:39.570379  1975 net.cpp:106] Creating Layer prob
I1110 22:07:39.570399  1975 net.cpp:454] prob <- fc8
I1110 22:07:39.570433  1975 net.cpp:411] prob -> prob
I1110 22:07:39.570538  1975 net.cpp:150] Setting up prob
I1110 22:07:39.570559  1975 net.cpp:157] Top shape: 1 1000 (1000)
I1110 22:07:39.570569  1975 net.cpp:165] Memory required for data: 6249792
I1110 22:07:39.570583  1975 net.cpp:228] prob does not need backward computation.
I1110 22:07:39.570596  1975 net.cpp:228] fc8 does not need backward computation.
I1110 22:07:39.570615  1975 net.cpp:228] drop7 does not need backward computation.
I1110 22:07:39.570626  1975 net.cpp:228] relu7 does not need backward computation.
…
I1110 22:07:43.220372  1975 net.cpp:923] Copying source layer drop6
I1110 22:07:43.220382  1975 net.cpp:923] Copying source layer fc7
I1110 22:07:43.428357  1975 net.cpp:923] Copying source layer relu7
I1110 22:07:43.428426  1975 net.cpp:923] Copying source layer drop7
I1110 22:07:43.428436  1975 net.cpp:923] Copying source layer fc8
I1110 22:07:43.478853  1975 net.cpp:920] Ignoring source layer loss
I1110 22:07:43.887897  1975 net.cpp:49] Initializing net from parameters: 
name: "CaffeNet"
input: "data"
input_dim: 1
input_dim: 3
input_dim: 227
input_dim: 227
force_backward: true
state {
  phase: TEST
}
layer {
  name: "conv1"
  type: "Convolution"
  bottom: "data"
  top: "conv1"
  convolution_param {
    num_output: 96
    kernel_size: 11
    stride: 4
  }
}
layer {
  name: "relu1"
  type: "ReLU"
  bottom: "conv1"
  top: "conv1"
}
layer {
  name: "pool1"
  type: "Pooling"
  bottom: "conv1"
  top: "pool1"
  pooling_param {
    pool: MAX
    kernel_size: 3
    stride: 2
  }
}
layer {
  name: "norm1"
  type: "LRN"
  bottom: "pool1"
  top: "norm1"
  lrn_param {
    local_size: 5
    alpha: 0.0001
    beta: 0.75
  }
}
layer {
  name: "conv2"
  type: "Convolution"
  bottom: "norm1"
  top: "conv2"
  convolution_param {
    num_output: 256
    pad: 2
    kernel_size: 5
  }
}
layer {
  name: "relu2"
  type: "ReLU"
  bottom: "conv2"
  top: "conv2"
}
layer {
  name: "pool2"
  type: "Pooling"
  bottom: "conv2"
  top: "pool2"
  pooling_param {
    pool: MAX
    kernel_size: 3
    stride: 2
  }
}
layer {
  name: "norm2"
  type: "LRN"
  bottom: "pool2"
  top: "norm2"
  lrn_param {
    local_size: 5
    alpha: 0.0001
    beta: 0.75
  }
}
layer {
  name: "conv3"
  type: "Convolution"
  bottom: "norm2"
  top: "conv3"
  convolution_param {
    num_output: 384
    pad: 1
    kernel_size: 3
  }
}
layer {
  name: "relu3"
  type: "ReLU"
  bottom: "conv3"
  top: "conv3"
}
layer {
  name: "conv4"
  type: "Convolution"
  bottom: "conv3"
  top: "conv4"
  convolution_param {
    num_output: 384
    pad: 1
    kernel_size: 3
  }
}
layer {
  name: "relu4"
  type: "ReLU"
  bottom: "conv4"
  top: "conv4"
}
layer {
  name: "conv5"
  type: "Convolution"
  bottom: "conv4"
  top: "conv5"
  convolution_param {
    num_output: 256
    pad: 1
    kernel_size: 3
  }
}
layer {
  name: "relu5"
  type: "ReLU"
  bottom: "conv5"
  top: "conv5"
}
layer {
  name: "pool5"
  type: "Pooling"
  bottom: "conv5"
  top: "pool5"
  pooling_param {
    pool: MAX
    kernel_size: 3
    stride: 2
  }
}
layer {
  name: "fc6"
  type: "InnerProduct"
  bottom: "pool5"
  top: "fc6"
  inner_product_param {
    num_output: 4096
  }
}
layer {
  name: "relu6"
  type: "ReLU"
  bottom: "fc6"
  top: "fc6"
}
layer {
  name: "drop6"
  type: "Dropout"
  bottom: "fc6"
  top: "fc6"
  dropout_param {
    dropout_ratio: 0.5
  }
}
layer {
  name: "fc7"
  type: "InnerProduct"
  bottom: "fc6"
  top: "fc7"
  inner_product_param {
    num_output: 4096
  }
}
layer {
  name: "relu7"
  type: "ReLU"
  bottom: "fc7"
  top: "fc7"
}
layer {
  name: "drop7"
  type: "Dropout"
  bottom: "fc7"
  top: "fc7"
  dropout_param {
    dropout_ratio: 0.5
  }
}
layer {
  name: "fc8"
  type: "InnerProduct"
  bottom: "fc7"
  top: "fc8"
  inner_product_param {
    num_output: 1000
  }
}
layer {
  name: "prob"
  type: "Softmax"
  bottom: "fc8"
  top: "prob"
}
I1110 22:07:43.888151  1975 net.cpp:413] Input 0 -> data
I1110 22:07:43.888334  1975 layer_factory.hpp:76] Creating layer conv1
I1110 22:07:43.888382  1975 net.cpp:106] Creating Layer conv1
I1110 22:07:43.888401  1975 net.cpp:454] conv1 <- data
I1110 22:07:43.888430  1975 net.cpp:411] conv1 -> conv1
I1110 22:07:43.888838  1975 net.cpp:150] Setting up conv1
I1110 22:07:43.888870  1975 net.cpp:157] Top shape: 1 96 55 55 (290400)
I1110 22:07:43.888880  1975 net.cpp:165] Memory required for data: 1161600
I1110 22:07:43.888927  1975 layer_factory.hpp:76] Creating layer relu1
I1110 22:07:43.888958  1975 net.cpp:106] Creating Layer relu1
I1110 22:07:43.888973  1975 net.cpp:454] relu1 <- conv1
I1110 22:07:43.888998  1975 net.cpp:397] relu1 -> conv1 (in-place)
I1110 22:07:43.889025  1975 net.cpp:150] Setting up relu1
I1110 22:07:43.889040  1975 net.cpp:157] Top shape: 1 96 55 55 (290400)
I1110 22:07:43.889050  1975 net.cpp:165] Memory required for data: 2323200
I1110 22:07:43.889060  1975 layer_factory.hpp:76] Creating layer pool1
I1110 22:07:43.889086  1975 net.cpp:106] Creating Layer pool1
I1110 22:07:43.889102  1975 net.cpp:454] pool1 <- conv1
I1110 22:07:43.889128  1975 net.cpp:411] pool1 -> pool1
I1110 22:07:43.889202  1975 net.cpp:150] Setting up pool1
I1110 22:07:43.889225  1975 net.cpp:157] Top shape: 1 96 27 27 (69984)
I1110 22:07:43.889235  1975 net.cpp:165] Memory required for data: 2603136
I1110 22:07:43.889247  1975 layer_factory.hpp:76] Creating layer norm1
I1110 22:07:43.889272  1975 net.cpp:106] Creating Layer norm1
I1110 22:07:43.889287  1975 net.cpp:454] norm1 <- pool1
I1110 22:07:43.889353  1975 net.cpp:411] norm1 -> norm1
I1110 22:07:43.889508  1975 net.cpp:150] Setting up norm1
I1110 22:07:43.889560  1975 net.cpp:157] Top shape: 1 96 27 27 (69984)
I1110 22:07:43.889585  1975 net.cpp:165] Memory required for data: 2883072
I1110 22:07:43.889613  1975 layer_factory.hpp:76] Creating layer conv2
I1110 22:07:43.889685  1975 net.cpp:106] Creating Layer conv2
I1110 22:07:43.889714  1975 net.cpp:454] conv2 <- norm1
I1110 22:07:43.889746  1975 net.cpp:411] conv2 -> conv2
I1110 22:07:43.893118  1975 net.cpp:150] Setting up conv2
I1110 22:07:43.893144  1975 net.cpp:157] Top shape: 1 256 27 27 (186624)
I1110 22:07:43.893156  1975 net.cpp:165] Memory required for data: 3629568
I1110 22:07:43.893189  1975 layer_factory.hpp:76] Creating layer relu2
I1110 22:07:43.893214  1975 net.cpp:106] Creating Layer relu2
I1110 22:07:43.893229  1975 net.cpp:454] relu2 <- conv2
I1110 22:07:43.893254  1975 net.cpp:397] relu2 -> conv2 (in-place)
I1110 22:07:43.893280  1975 net.cpp:150] Setting up relu2
I1110 22:07:43.893293  1975 net.cpp:157] Top shape: 1 256 27 27 (186624)
I1110 22:07:43.893302  1975 net.cpp:165] Memory required for data: 4376064
I1110 22:07:43.893314  1975 layer_factory.hpp:76] Creating layer pool2
I1110 22:07:43.893335  1975 net.cpp:106] Creating Layer pool2
I1110 22:07:43.893349  1975 net.cpp:454] pool2 <- conv2
I1110 22:07:43.893374  1975 net.cpp:411] pool2 -> pool2
I1110 22:07:43.893441  1975 net.cpp:150] Setting up pool2
I1110 22:07:43.893463  1975 net.cpp:157] Top shape: 1 256 13 13 (43264)
I1110 22:07:43.893472  1975 net.cpp:165] Memory required for data: 4549120
I1110 22:07:43.893484  1975 layer_factory.hpp:76] Creating layer norm2
I1110 22:07:43.893507  1975 net.cpp:106] Creating Layer norm2
I1110 22:07:43.893522  1975 net.cpp:454] norm2 <- pool2
I1110 22:07:43.893548  1975 net.cpp:411] norm2 -> norm2
I1110 22:07:43.893611  1975 net.cpp:150] Setting up norm2
I1110 22:07:43.893632  1975 net.cpp:157] Top shape: 1 256 13 13 (43264)
I1110 22:07:43.893641  1975 net.cpp:165] Memory required for data: 4722176
I1110 22:07:43.893653  1975 layer_factory.hpp:76] Creating layer conv3
I1110 22:07:43.893682  1975 net.cpp:106] Creating Layer conv3
I1110 22:07:43.893702  1975 net.cpp:454] conv3 <- norm2
I1110 22:07:43.893733  1975 net.cpp:411] conv3 -> conv3
I1110 22:07:43.898074  1975 net.cpp:150] Setting up conv3
I1110 22:07:43.898098  1975 net.cpp:157] Top shape: 1 384 13 13 (64896)
I1110 22:07:43.898108  1975 net.cpp:165] Memory required for data: 4981760
I1110 22:07:43.898144  1975 layer_factory.hpp:76] Creating layer relu3
I1110 22:07:43.898169  1975 net.cpp:106] Creating Layer relu3
I1110 22:07:43.898183  1975 net.cpp:454] relu3 <- conv3
I1110 22:07:43.898210  1975 net.cpp:397] relu3 -> conv3 (in-place)
I1110 22:07:43.898237  1975 net.cpp:150] Setting up relu3
I1110 22:07:43.898252  1975 net.cpp:157] Top shape: 1 384 13 13 (64896)
I1110 22:07:43.898260  1975 net.cpp:165] Memory required for data: 5241344
I1110 22:07:43.898272  1975 layer_factory.hpp:76] Creating layer conv4
I1110 22:07:43.898294  1975 net.cpp:106] Creating Layer conv4
I1110 22:07:43.898308  1975 net.cpp:454] conv4 <- conv3
I1110 22:07:43.898336  1975 net.cpp:411] conv4 -> conv4
I1110 22:07:43.904544  1975 net.cpp:150] Setting up conv4
I1110 22:07:43.904572  1975 net.cpp:157] Top shape: 1 384 13 13 (64896)
I1110 22:07:43.904582  1975 net.cpp:165] Memory required for data: 5500928
I1110 22:07:43.904605  1975 layer_factory.hpp:76] Creating layer relu4
I1110 22:07:43.904628  1975 net.cpp:106] Creating Layer relu4
I1110 22:07:43.904642  1975 net.cpp:454] relu4 <- conv4
I1110 22:07:43.904666  1975 net.cpp:397] relu4 -> conv4 (in-place)
I1110 22:07:43.904692  1975 net.cpp:150] Setting up relu4
I1110 22:07:43.904713  1975 net.cpp:157] Top shape: 1 384 13 13 (64896)
I1110 22:07:43.904723  1975 net.cpp:165] Memory required for data: 5760512
I1110 22:07:43.904734  1975 layer_factory.hpp:76] Creating layer conv5
I1110 22:07:43.904760  1975 net.cpp:106] Creating Layer conv5
I1110 22:07:43.904777  1975 net.cpp:454] conv5 <- conv4
I1110 22:07:43.904803  1975 net.cpp:411] conv5 -> conv5
I1110 22:07:43.909050  1975 net.cpp:150] Setting up conv5
I1110 22:07:43.909075  1975 net.cpp:157] Top shape: 1 256 13 13 (43264)
I1110 22:07:43.909085  1975 net.cpp:165] Memory required for data: 5933568
I1110 22:07:43.909121  1975 layer_factory.hpp:76] Creating layer relu5
I1110 22:07:43.909145  1975 net.cpp:106] Creating Layer relu5
I1110 22:07:43.909159  1975 net.cpp:454] relu5 <- conv5
I1110 22:07:43.909183  1975 net.cpp:397] relu5 -> conv5 (in-place)
I1110 22:07:43.909209  1975 net.cpp:150] Setting up relu5
I1110 22:07:43.909224  1975 net.cpp:157] Top shape: 1 256 13 13 (43264)
I1110 22:07:43.909234  1975 net.cpp:165] Memory required for data: 6106624
I1110 22:07:43.909245  1975 layer_factory.hpp:76] Creating layer pool5
I1110 22:07:43.909270  1975 net.cpp:106] Creating Layer pool5
I1110 22:07:43.909284  1975 net.cpp:454] pool5 <- conv5
I1110 22:07:43.909310  1975 net.cpp:411] pool5 -> pool5
I1110 22:07:43.909380  1975 net.cpp:150] Setting up pool5
I1110 22:07:43.909402  1975 net.cpp:157] Top shape: 1 256 6 6 (9216)
I1110 22:07:43.909412  1975 net.cpp:165] Memory required for data: 6143488
I1110 22:07:43.909423  1975 layer_factory.hpp:76] Creating layer fc6
I1110 22:07:43.909451  1975 net.cpp:106] Creating Layer fc6
I1110 22:07:43.909466  1975 net.cpp:454] fc6 <- pool5
I1110 22:07:43.909494  1975 net.cpp:411] fc6 -> fc6
I1110 22:07:44.081704  1975 net.cpp:150] Setting up fc6
I1110 22:07:45.084393  1975 net.cpp:157] Top shape: 1 4096 (4096)
I1110 22:07:45.084424  1975 net.cpp:165] Memory required for data: 6159872
I1110 22:07:45.084468  1975 layer_factory.hpp:76] Creating layer relu6
I1110 22:07:45.084524  1975 net.cpp:106] Creating Layer relu6
I1110 22:07:45.084547  1975 net.cpp:454] relu6 <- fc6
I1110 22:07:45.084611  1975 net.cpp:397] relu6 -> fc6 (in-place)
I1110 22:07:45.084695  1975 net.cpp:150] Setting up relu6
I1110 22:07:45.084797  1975 net.cpp:157] Top shape: 1 4096 (4096)
I1110 22:07:45.084821  1975 net.cpp:165] Memory required for data: 6176256
I1110 22:07:45.084851  1975 layer_factory.hpp:76] Creating layer drop6
I1110 22:07:45.084913  1975 net.cpp:106] Creating Layer drop6
I1110 22:07:45.084949  1975 net.cpp:454] drop6 <- fc6
I1110 22:07:45.085019  1975 net.cpp:397] drop6 -> fc6 (in-place)
I1110 22:07:45.085194  1975 net.cpp:150] Setting up drop6
I1110 22:07:45.085239  1975 net.cpp:157] Top shape: 1 4096 (4096)
I1110 22:07:45.085263  1975 net.cpp:165] Memory required for data: 6192640
I1110 22:07:45.085292  1975 layer_factory.hpp:76] Creating layer fc7
I1110 22:07:45.085351  1975 net.cpp:106] Creating Layer fc7
I1110 22:07:45.085387  1975 net.cpp:454] fc7 <- fc6
I1110 22:07:45.085458  1975 net.cpp:411] fc7 -> fc7
I1110 22:07:45.164412  1975 net.cpp:150] Setting up fc7
I1110 22:07:45.164486  1975 net.cpp:157] Top shape: 1 4096 (4096)
I1110 22:07:45.164497  1975 net.cpp:165] Memory required for data: 6209024
I1110 22:07:45.164535  1975 layer_factory.hpp:76] Creating layer relu7
I1110 22:07:45.164580  1975 net.cpp:106] Creating Layer relu7
I1110 22:07:45.164603  1975 net.cpp:454] relu7 <- fc7
I1110 22:07:45.164639  1975 net.cpp:397] relu7 -> fc7 (in-place)
I1110 22:07:45.164674  1975 net.cpp:150] Setting up relu7
I1110 22:07:45.164690  1975 net.cpp:157] Top shape: 1 4096 (4096)
I1110 22:07:45.164702  1975 net.cpp:165] Memory required for data: 6225408
I1110 22:07:45.164715  1975 layer_factory.hpp:76] Creating layer drop7
I1110 22:07:45.164741  1975 net.cpp:106] Creating Layer drop7
I1110 22:07:45.164757  1975 net.cpp:454] drop7 <- fc7
I1110 22:07:45.164780  1975 net.cpp:397] drop7 -> fc7 (in-place)
I1110 22:07:45.164834  1975 net.cpp:150] Setting up drop7
I1110 22:07:45.164851  1975 net.cpp:157] Top shape: 1 4096 (4096)
I1110 22:07:45.164860  1975 net.cpp:165] Memory required for data: 6241792
I1110 22:07:45.164872  1975 layer_factory.hpp:76] Creating layer fc8
I1110 22:07:45.164901  1975 net.cpp:106] Creating Layer fc8
I1110 22:07:45.164916  1975 net.cpp:454] fc8 <- fc7
I1110 22:07:45.164942  1975 net.cpp:411] fc8 -> fc8
I1110 22:07:45.183084  1975 net.cpp:150] Setting up fc8
I1110 22:07:45.183128  1975 net.cpp:157] Top shape: 1 1000 (1000)
I1110 22:07:45.183140  1975 net.cpp:165] Memory required for data: 6245792
I1110 22:07:45.183167  1975 layer_factory.hpp:76] Creating layer prob
I1110 22:07:45.183197  1975 net.cpp:106] Creating Layer prob
I1110 22:07:45.183214  1975 net.cpp:454] prob <- fc8
I1110 22:07:45.183245  1975 net.cpp:411] prob -> prob
I1110 22:07:45.183348  1975 net.cpp:150] Setting up prob
I1110 22:07:45.183369  1975 net.cpp:157] Top shape: 1 1000 (1000)
I1110 22:07:45.183379  1975 net.cpp:165] Memory required for data: 6249792
I1110 22:07:45.183393  1975 net.cpp:228] prob does not need backward computation.
I1110 22:07:45.183406  1975 net.cpp:228] fc8 does not need backward computation.
I1110 22:07:45.183418  1975 net.cpp:228] drop7 does not need backward computation.
I1110 22:07:45.183429  1975 net.cpp:228] relu7 does not need backward computation.
…
