…
gamma: 0.5
momentum: 0.98
weight_decay: 0.0025119
stepsize: 1500
snapshot: 1000
snapshot_prefix: "stitch"
solver_mode: GPU
random_seed: 0
net: "network.prototxt"
regularization_type: "L1"
I1111 07:12:32.401412  3864 solver.cpp:90] Creating training net from net file: network.prototxt
I1111 07:12:32.420501  3864 net.cpp:49] Initializing net from parameters: 
name: "StitchNet"
input: "net0"
input: "net1"
input_dim: 32
input_dim: 256
input_dim: 27
input_dim: 27
input_dim: 32
input_dim: 256
input_dim: 27
input_dim: 27
state {
  phase: TRAIN
}
debug_info: true
layer {
  name: "stitch0"
  type: "Convolution"
  bottom: "net0"
  top: "stitch0"
  convolution_param {
    num_output: 256
    kernel_size: 1
    stride: 1
    weight_filler {
      type: "gaussian"
      std: 0.01
    }
  }
}
layer {
  name: "loss"
  type: "EuclideanLoss"
  bottom: "stitch0"
  bottom: "net1"
  top: "loss"
  loss_weight: 1
}
I1111 07:12:32.420794  3864 net.cpp:413] Input 0 -> net0
I1111 07:12:32.460257  3864 net.cpp:413] Input 1 -> net1
I1111 07:12:32.460388  3864 layer_factory.hpp:76] Creating layer stitch0
I1111 07:12:32.460451  3864 net.cpp:106] Creating Layer stitch0
I1111 07:12:32.460474  3864 net.cpp:454] stitch0 <- net0
I1111 07:12:32.460515  3864 net.cpp:411] stitch0 -> stitch0
I1111 07:12:32.469084  3864 net.cpp:150] Setting up stitch0
I1111 07:12:32.469140  3864 net.cpp:157] Top shape: 32 256 27 27 (5971968)
I1111 07:12:32.469153  3864 net.cpp:165] Memory required for data: 23887872
I1111 07:12:32.469223  3864 layer_factory.hpp:76] Creating layer loss
I1111 07:12:32.469269  3864 net.cpp:106] Creating Layer loss
I1111 07:12:32.469291  3864 net.cpp:454] loss <- stitch0
I1111 07:12:32.469318  3864 net.cpp:454] loss <- net1
I1111 07:12:32.469347  3864 net.cpp:411] loss -> loss
I1111 07:12:32.469434  3864 net.cpp:150] Setting up loss
I1111 07:12:32.469458  3864 net.cpp:157] Top shape: (1)
I1111 07:12:32.469470  3864 net.cpp:160]     with loss weight 1
I1111 07:12:32.469488  3864 net.cpp:165] Memory required for data: 23887876
I1111 07:12:32.469506  3864 net.cpp:226] loss needs backward computation.
I1111 07:12:32.469542  3864 net.cpp:226] stitch0 needs backward computation.
I1111 07:12:32.469558  3864 net.cpp:270] This network produces output loss
I1111 07:12:32.469585  3864 net.cpp:283] Network initialization done.
I1111 07:12:32.469633  3864 solver.cpp:59] Solver scaffolding done.
I1111 07:12:32.583120  3864 net.cpp:49] Initializing net from parameters: 
name: "CaffeNet"
input: "data"
input_dim: 1
input_dim: 3
input_dim: 227
input_dim: 227
force_backward: true
state {
  phase: TEST
}
layer {
  name: "conv1"
  type: "Convolution"
  bottom: "data"
  top: "conv1"
  convolution_param {
    num_output: 96
    kernel_size: 11
    stride: 4
  }
}
layer {
  name: "relu1"
  type: "ReLU"
  bottom: "conv1"
  top: "conv1"
}
layer {
  name: "pool1"
  type: "Pooling"
  bottom: "conv1"
  top: "pool1"
  pooling_param {
    pool: MAX
    kernel_size: 3
    stride: 2
  }
}
layer {
  name: "norm1"
  type: "LRN"
  bottom: "pool1"
  top: "norm1"
  lrn_param {
    local_size: 5
    alpha: 0.0001
    beta: 0.75
  }
}
layer {
  name: "conv2"
  type: "Convolution"
  bottom: "norm1"
  top: "conv2"
  convolution_param {
    num_output: 256
    pad: 2
    kernel_size: 5
  }
}
layer {
  name: "relu2"
  type: "ReLU"
  bottom: "conv2"
  top: "conv2"
}
layer {
  name: "pool2"
  type: "Pooling"
  bottom: "conv2"
  top: "pool2"
  pooling_param {
    pool: MAX
    kernel_size: 3
    stride: 2
  }
}
layer {
  name: "norm2"
  type: "LRN"
  bottom: "pool2"
  top: "norm2"
  lrn_param {
    local_size: 5
    alpha: 0.0001
    beta: 0.75
  }
}
layer {
  name: "conv3"
  type: "Convolution"
  bottom: "norm2"
  top: "conv3"
  convolution_param {
    num_output: 384
    pad: 1
    kernel_size: 3
  }
}
layer {
  name: "relu3"
  type: "ReLU"
  bottom: "conv3"
  top: "conv3"
}
layer {
  name: "conv4"
  type: "Convolution"
  bottom: "conv3"
  top: "conv4"
  convolution_param {
    num_output: 384
    pad: 1
    kernel_size: 3
  }
}
layer {
  name: "relu4"
  type: "ReLU"
  bottom: "conv4"
  top: "conv4"
}
layer {
  name: "conv5"
  type: "Convolution"
  bottom: "conv4"
  top: "conv5"
  convolution_param {
    num_output: 256
    pad: 1
    kernel_size: 3
  }
}
layer {
  name: "relu5"
  type: "ReLU"
  bottom: "conv5"
  top: "conv5"
}
layer {
  name: "pool5"
  type: "Pooling"
  bottom: "conv5"
  top: "pool5"
  pooling_param {
    pool: MAX
    kernel_size: 3
    stride: 2
  }
}
layer {
  name: "fc6"
  type: "InnerProduct"
  bottom: "pool5"
  top: "fc6"
  inner_product_param {
    num_output: 4096
  }
}
layer {
  name: "relu6"
  type: "ReLU"
  bottom: "fc6"
  top: "fc6"
}
layer {
  name: "drop6"
  type: "Dropout"
  bottom: "fc6"
  top: "fc6"
  dropout_param {
    dropout_ratio: 0.5
  }
}
layer {
  name: "fc7"
  type: "InnerProduct"
  bottom: "fc6"
  top: "fc7"
  inner_product_param {
    num_output: 4096
  }
}
layer {
  name: "relu7"
  type: "ReLU"
  bottom: "fc7"
  top: "fc7"
}
layer {
  name: "drop7"
  type: "Dropout"
  bottom: "fc7"
  top: "fc7"
  dropout_param {
    dropout_ratio: 0.5
  }
}
layer {
  name: "fc8"
  type: "InnerProduct"
  bottom: "fc7"
  top: "fc8"
  inner_product_param {
    num_output: 1000
  }
}
layer {
  name: "prob"
  type: "Softmax"
  bottom: "fc8"
  top: "prob"
}
I1111 07:12:32.583721  3864 net.cpp:413] Input 0 -> data
I1111 07:12:32.584044  3864 layer_factory.hpp:76] Creating layer conv1
I1111 07:12:32.584180  3864 net.cpp:106] Creating Layer conv1
I1111 07:12:32.584225  3864 net.cpp:454] conv1 <- data
I1111 07:12:32.584297  3864 net.cpp:411] conv1 -> conv1
I1111 07:12:32.587590  3864 net.cpp:150] Setting up conv1
I1111 07:12:32.587668  3864 net.cpp:157] Top shape: 1 96 55 55 (290400)
I1111 07:12:32.587697  3864 net.cpp:165] Memory required for data: 1161600
I1111 07:12:32.587816  3864 layer_factory.hpp:76] Creating layer relu1
I1111 07:12:32.587908  3864 net.cpp:106] Creating Layer relu1
I1111 07:12:32.587951  3864 net.cpp:454] relu1 <- conv1
I1111 07:12:32.588033  3864 net.cpp:397] relu1 -> conv1 (in-place)
I1111 07:12:32.588119  3864 net.cpp:150] Setting up relu1
I1111 07:12:32.588160  3864 net.cpp:157] Top shape: 1 96 55 55 (290400)
I1111 07:12:32.588184  3864 net.cpp:165] Memory required for data: 2323200
I1111 07:12:32.588215  3864 layer_factory.hpp:76] Creating layer pool1
I1111 07:12:32.588284  3864 net.cpp:106] Creating Layer pool1
I1111 07:12:32.588322  3864 net.cpp:454] pool1 <- conv1
I1111 07:12:32.588390  3864 net.cpp:411] pool1 -> pool1
I1111 07:12:32.588618  3864 net.cpp:150] Setting up pool1
I1111 07:12:32.588678  3864 net.cpp:157] Top shape: 1 96 27 27 (69984)
I1111 07:12:32.588704  3864 net.cpp:165] Memory required for data: 2603136
I1111 07:12:32.588737  3864 layer_factory.hpp:76] Creating layer norm1
I1111 07:12:32.588804  3864 net.cpp:106] Creating Layer norm1
I1111 07:12:32.588842  3864 net.cpp:454] norm1 <- pool1
I1111 07:12:32.588910  3864 net.cpp:411] norm1 -> norm1
I1111 07:12:32.589088  3864 net.cpp:150] Setting up norm1
I1111 07:12:32.589143  3864 net.cpp:157] Top shape: 1 96 27 27 (69984)
I1111 07:12:32.589169  3864 net.cpp:165] Memory required for data: 2883072
I1111 07:12:32.589201  3864 layer_factory.hpp:76] Creating layer conv2
I1111 07:12:32.589300  3864 net.cpp:106] Creating Layer conv2
I1111 07:12:32.589344  3864 net.cpp:454] conv2 <- norm1
I1111 07:12:32.589416  3864 net.cpp:411] conv2 -> conv2
I1111 07:12:32.593276  3864 net.cpp:150] Setting up conv2
I1111 07:12:32.593314  3864 net.cpp:157] Top shape: 1 256 27 27 (186624)
I1111 07:12:32.593327  3864 net.cpp:165] Memory required for data: 3629568
I1111 07:12:32.593374  3864 layer_factory.hpp:76] Creating layer relu2
I1111 07:12:32.593408  3864 net.cpp:106] Creating Layer relu2
I1111 07:12:32.593428  3864 net.cpp:454] relu2 <- conv2
I1111 07:12:32.593457  3864 net.cpp:397] relu2 -> conv2 (in-place)
I1111 07:12:32.593489  3864 net.cpp:150] Setting up relu2
I1111 07:12:32.593508  3864 net.cpp:157] Top shape: 1 256 27 27 (186624)
I1111 07:12:32.593523  3864 net.cpp:165] Memory required for data: 4376064
I1111 07:12:32.593538  3864 layer_factory.hpp:76] Creating layer pool2
I1111 07:12:32.593569  3864 net.cpp:106] Creating Layer pool2
I1111 07:12:32.593586  3864 net.cpp:454] pool2 <- conv2
I1111 07:12:32.593617  3864 net.cpp:411] pool2 -> pool2
I1111 07:12:32.593703  3864 net.cpp:150] Setting up pool2
I1111 07:12:32.593727  3864 net.cpp:157] Top shape: 1 256 13 13 (43264)
I1111 07:12:32.593740  3864 net.cpp:165] Memory required for data: 4549120
I1111 07:12:32.593755  3864 layer_factory.hpp:76] Creating layer norm2
I1111 07:12:32.593783  3864 net.cpp:106] Creating Layer norm2
I1111 07:12:32.593801  3864 net.cpp:454] norm2 <- pool2
I1111 07:12:32.593837  3864 net.cpp:411] norm2 -> norm2
I1111 07:12:32.593915  3864 net.cpp:150] Setting up norm2
I1111 07:12:32.593940  3864 net.cpp:157] Top shape: 1 256 13 13 (43264)
I1111 07:12:32.593952  3864 net.cpp:165] Memory required for data: 4722176
I1111 07:12:32.593967  3864 layer_factory.hpp:76] Creating layer conv3
I1111 07:12:32.594007  3864 net.cpp:106] Creating Layer conv3
I1111 07:12:32.594025  3864 net.cpp:454] conv3 <- norm2
I1111 07:12:32.594061  3864 net.cpp:411] conv3 -> conv3
I1111 07:12:32.599087  3864 net.cpp:150] Setting up conv3
I1111 07:12:32.599131  3864 net.cpp:157] Top shape: 1 384 13 13 (64896)
I1111 07:12:32.599144  3864 net.cpp:165] Memory required for data: 4981760
I1111 07:12:32.599200  3864 layer_factory.hpp:76] Creating layer relu3
I1111 07:12:32.599241  3864 net.cpp:106] Creating Layer relu3
I1111 07:12:32.599261  3864 net.cpp:454] relu3 <- conv3
I1111 07:12:32.599293  3864 net.cpp:397] relu3 -> conv3 (in-place)
I1111 07:12:32.599328  3864 net.cpp:150] Setting up relu3
I1111 07:12:32.599346  3864 net.cpp:157] Top shape: 1 384 13 13 (64896)
I1111 07:12:32.599356  3864 net.cpp:165] Memory required for data: 5241344
I1111 07:12:32.599370  3864 layer_factory.hpp:76] Creating layer conv4
I1111 07:12:32.599403  3864 net.cpp:106] Creating Layer conv4
I1111 07:12:32.599421  3864 net.cpp:454] conv4 <- conv3
I1111 07:12:32.599452  3864 net.cpp:411] conv4 -> conv4
I1111 07:12:32.607214  3864 net.cpp:150] Setting up conv4
I1111 07:12:32.607261  3864 net.cpp:157] Top shape: 1 384 13 13 (64896)
I1111 07:12:32.607273  3864 net.cpp:165] Memory required for data: 5500928
I1111 07:12:32.607306  3864 layer_factory.hpp:76] Creating layer relu4
I1111 07:12:32.607342  3864 net.cpp:106] Creating Layer relu4
I1111 07:12:32.607362  3864 net.cpp:454] relu4 <- conv4
I1111 07:12:32.607398  3864 net.cpp:397] relu4 -> conv4 (in-place)
I1111 07:12:32.607434  3864 net.cpp:150] Setting up relu4
I1111 07:12:32.607451  3864 net.cpp:157] Top shape: 1 384 13 13 (64896)
I1111 07:12:32.607462  3864 net.cpp:165] Memory required for data: 5760512
I1111 07:12:32.607475  3864 layer_factory.hpp:76] Creating layer conv5
I1111 07:12:32.607513  3864 net.cpp:106] Creating Layer conv5
I1111 07:12:32.607533  3864 net.cpp:454] conv5 <- conv4
I1111 07:12:32.607569  3864 net.cpp:411] conv5 -> conv5
I1111 07:12:32.612925  3864 net.cpp:150] Setting up conv5
I1111 07:12:32.612967  3864 net.cpp:157] Top shape: 1 256 13 13 (43264)
I1111 07:12:32.612979  3864 net.cpp:165] Memory required for data: 5933568
I1111 07:12:32.613036  3864 layer_factory.hpp:76] Creating layer relu5
I1111 07:12:32.613073  3864 net.cpp:106] Creating Layer relu5
I1111 07:12:32.613093  3864 net.cpp:454] relu5 <- conv5
I1111 07:12:32.613126  3864 net.cpp:397] relu5 -> conv5 (in-place)
I1111 07:12:32.613160  3864 net.cpp:150] Setting up relu5
I1111 07:12:32.613178  3864 net.cpp:157] Top shape: 1 256 13 13 (43264)
I1111 07:12:32.613188  3864 net.cpp:165] Memory required for data: 6106624
I1111 07:12:32.613203  3864 layer_factory.hpp:76] Creating layer pool5
I1111 07:12:32.613234  3864 net.cpp:106] Creating Layer pool5
I1111 07:12:32.613251  3864 net.cpp:454] pool5 <- conv5
I1111 07:12:32.613282  3864 net.cpp:411] pool5 -> pool5
I1111 07:12:32.613373  3864 net.cpp:150] Setting up pool5
I1111 07:12:32.613399  3864 net.cpp:157] Top shape: 1 256 6 6 (9216)
I1111 07:12:32.613411  3864 net.cpp:165] Memory required for data: 6143488
I1111 07:12:32.613425  3864 layer_factory.hpp:76] Creating layer fc6
I1111 07:12:32.613454  3864 net.cpp:106] Creating Layer fc6
I1111 07:12:32.613476  3864 net.cpp:454] fc6 <- pool5
I1111 07:12:32.613507  3864 net.cpp:411] fc6 -> fc6
I1111 07:12:32.838522  3864 net.cpp:150] Setting up fc6
I1111 07:12:32.838579  3864 net.cpp:157] Top shape: 1 4096 (4096)
I1111 07:12:32.838593  3864 net.cpp:165] Memory required for data: 6159872
I1111 07:12:32.838629  3864 layer_factory.hpp:76] Creating layer relu6
I1111 07:12:32.838681  3864 net.cpp:106] Creating Layer relu6
I1111 07:12:32.838704  3864 net.cpp:454] relu6 <- fc6
I1111 07:12:32.838740  3864 net.cpp:397] relu6 -> fc6 (in-place)
I1111 07:12:32.838775  3864 net.cpp:150] Setting up relu6
I1111 07:12:32.838793  3864 net.cpp:157] Top shape: 1 4096 (4096)
I1111 07:12:32.838804  3864 net.cpp:165] Memory required for data: 6176256
I1111 07:12:32.838817  3864 layer_factory.hpp:76] Creating layer drop6
I1111 07:12:32.838858  3864 net.cpp:106] Creating Layer drop6
I1111 07:12:32.838876  3864 net.cpp:454] drop6 <- fc6
I1111 07:12:32.838906  3864 net.cpp:397] drop6 -> fc6 (in-place)
I1111 07:12:32.838968  3864 net.cpp:150] Setting up drop6
I1111 07:12:32.838990  3864 net.cpp:157] Top shape: 1 4096 (4096)
I1111 07:12:32.839001  3864 net.cpp:165] Memory required for data: 6192640
I1111 07:12:32.839015  3864 layer_factory.hpp:76] Creating layer fc7
I1111 07:12:32.839049  3864 net.cpp:106] Creating Layer fc7
I1111 07:12:32.839067  3864 net.cpp:454] fc7 <- fc6
I1111 07:12:32.839098  3864 net.cpp:411] fc7 -> fc7
I1111 07:12:32.925818  3864 net.cpp:150] Setting up fc7
I1111 07:12:32.925886  3864 net.cpp:157] Top shape: 1 4096 (4096)
I1111 07:12:32.925899  3864 net.cpp:165] Memory required for data: 6209024
I1111 07:12:32.925938  3864 layer_factory.hpp:76] Creating layer relu7
I1111 07:12:32.925981  3864 net.cpp:106] Creating Layer relu7
I1111 07:12:32.926005  3864 net.cpp:454] relu7 <- fc7
I1111 07:12:32.926045  3864 net.cpp:397] relu7 -> fc7 (in-place)
I1111 07:12:32.926084  3864 net.cpp:150] Setting up relu7
I1111 07:12:32.926102  3864 net.cpp:157] Top shape: 1 4096 (4096)
I1111 07:12:32.926112  3864 net.cpp:165] Memory required for data: 6225408
I1111 07:12:32.926126  3864 layer_factory.hpp:76] Creating layer drop7
I1111 07:12:32.926156  3864 net.cpp:106] Creating Layer drop7
I1111 07:12:32.926172  3864 net.cpp:454] drop7 <- fc7
I1111 07:12:32.926204  3864 net.cpp:397] drop7 -> fc7 (in-place)
I1111 07:12:32.926270  3864 net.cpp:150] Setting up drop7
I1111 07:12:32.926292  3864 net.cpp:157] Top shape: 1 4096 (4096)
I1111 07:12:32.926303  3864 net.cpp:165] Memory required for data: 6241792
I1111 07:12:32.926316  3864 layer_factory.hpp:76] Creating layer fc8
I1111 07:12:32.926347  3864 net.cpp:106] Creating Layer fc8
I1111 07:12:32.926364  3864 net.cpp:454] fc8 <- fc7
I1111 07:12:32.926395  3864 net.cpp:411] fc8 -> fc8
I1111 07:12:32.948137  3864 net.cpp:150] Setting up fc8
I1111 07:12:32.948184  3864 net.cpp:157] Top shape: 1 1000 (1000)
I1111 07:12:32.948197  3864 net.cpp:165] Memory required for data: 6245792
I1111 07:12:32.948232  3864 layer_factory.hpp:76] Creating layer prob
I1111 07:12:32.948278  3864 net.cpp:106] Creating Layer prob
I1111 07:12:32.948300  3864 net.cpp:454] prob <- fc8
I1111 07:12:32.948335  3864 net.cpp:411] prob -> prob
I1111 07:12:32.948458  3864 net.cpp:150] Setting up prob
I1111 07:12:32.948483  3864 net.cpp:157] Top shape: 1 1000 (1000)
I1111 07:12:32.948494  3864 net.cpp:165] Memory required for data: 6249792
I1111 07:12:32.948515  3864 net.cpp:228] prob does not need backward computation.
I1111 07:12:32.948532  3864 net.cpp:228] fc8 does not need backward computation.
I1111 07:12:32.948545  3864 net.cpp:228] drop7 does not need backward computation.
I1111 07:12:32.948559  3864 net.cpp:228] relu7 does not need backward computation.
…
I1111 07:12:35.668658  3864 net.cpp:923] Copying source layer drop6
I1111 07:12:35.668669  3864 net.cpp:923] Copying source layer fc7
I1111 07:12:35.876507  3864 net.cpp:923] Copying source layer relu7
I1111 07:12:35.876569  3864 net.cpp:923] Copying source layer drop7
I1111 07:12:35.876584  3864 net.cpp:923] Copying source layer fc8
I1111 07:12:35.927325  3864 net.cpp:920] Ignoring source layer loss
I1111 07:12:36.003988  3864 net.cpp:49] Initializing net from parameters: 
name: "CaffeNet"
input: "data"
input_dim: 1
input_dim: 3
input_dim: 227
input_dim: 227
force_backward: true
state {
  phase: TEST
}
layer {
  name: "conv1"
  type: "Convolution"
  bottom: "data"
  top: "conv1"
  convolution_param {
    num_output: 96
    kernel_size: 11
    stride: 4
  }
}
layer {
  name: "relu1"
  type: "ReLU"
  bottom: "conv1"
  top: "conv1"
}
layer {
  name: "pool1"
  type: "Pooling"
  bottom: "conv1"
  top: "pool1"
  pooling_param {
    pool: MAX
    kernel_size: 3
    stride: 2
  }
}
layer {
  name: "norm1"
  type: "LRN"
  bottom: "pool1"
  top: "norm1"
  lrn_param {
    local_size: 5
    alpha: 0.0001
    beta: 0.75
  }
}
layer {
  name: "conv2"
  type: "Convolution"
  bottom: "norm1"
  top: "conv2"
  convolution_param {
    num_output: 256
    pad: 2
    kernel_size: 5
  }
}
layer {
  name: "relu2"
  type: "ReLU"
  bottom: "conv2"
  top: "conv2"
}
layer {
  name: "pool2"
  type: "Pooling"
  bottom: "conv2"
  top: "pool2"
  pooling_param {
    pool: MAX
    kernel_size: 3
    stride: 2
  }
}
layer {
  name: "norm2"
  type: "LRN"
  bottom: "pool2"
  top: "norm2"
  lrn_param {
    local_size: 5
    alpha: 0.0001
    beta: 0.75
  }
}
layer {
  name: "conv3"
  type: "Convolution"
  bottom: "norm2"
  top: "conv3"
  convolution_param {
    num_output: 384
    pad: 1
    kernel_size: 3
  }
}
layer {
  name: "relu3"
  type: "ReLU"
  bottom: "conv3"
  top: "conv3"
}
layer {
  name: "conv4"
  type: "Convolution"
  bottom: "conv3"
  top: "conv4"
  convolution_param {
    num_output: 384
    pad: 1
    kernel_size: 3
  }
}
layer {
  name: "relu4"
  type: "ReLU"
  bottom: "conv4"
  top: "conv4"
}
layer {
  name: "conv5"
  type: "Convolution"
  bottom: "conv4"
  top: "conv5"
  convolution_param {
    num_output: 256
    pad: 1
    kernel_size: 3
  }
}
layer {
  name: "relu5"
  type: "ReLU"
  bottom: "conv5"
  top: "conv5"
}
layer {
  name: "pool5"
  type: "Pooling"
  bottom: "conv5"
  top: "pool5"
  pooling_param {
    pool: MAX
    kernel_size: 3
    stride: 2
  }
}
layer {
  name: "fc6"
  type: "InnerProduct"
  bottom: "pool5"
  top: "fc6"
  inner_product_param {
    num_output: 4096
  }
}
layer {
  name: "relu6"
  type: "ReLU"
  bottom: "fc6"
  top: "fc6"
}
layer {
  name: "drop6"
  type: "Dropout"
  bottom: "fc6"
  top: "fc6"
  dropout_param {
    dropout_ratio: 0.5
  }
}
layer {
  name: "fc7"
  type: "InnerProduct"
  bottom: "fc6"
  top: "fc7"
  inner_product_param {
    num_output: 4096
  }
}
layer {
  name: "relu7"
  type: "ReLU"
  bottom: "fc7"
  top: "fc7"
}
layer {
  name: "drop7"
  type: "Dropout"
  bottom: "fc7"
  top: "fc7"
  dropout_param {
    dropout_ratio: 0.5
  }
}
layer {
  name: "fc8"
  type: "InnerProduct"
  bottom: "fc7"
  top: "fc8"
  inner_product_param {
    num_output: 1000
  }
}
layer {
  name: "prob"
  type: "Softmax"
  bottom: "fc8"
  top: "prob"
}
I1111 07:12:36.004519  3864 net.cpp:413] Input 0 -> data
I1111 07:12:36.004858  3864 layer_factory.hpp:76] Creating layer conv1
I1111 07:12:36.004968  3864 net.cpp:106] Creating Layer conv1
I1111 07:12:36.005015  3864 net.cpp:454] conv1 <- data
I1111 07:12:36.005087  3864 net.cpp:411] conv1 -> conv1
I1111 07:12:36.006027  3864 net.cpp:150] Setting up conv1
I1111 07:12:36.006093  3864 net.cpp:157] Top shape: 1 96 55 55 (290400)
I1111 07:12:36.006120  3864 net.cpp:165] Memory required for data: 1161600
I1111 07:12:36.006230  3864 layer_factory.hpp:76] Creating layer relu1
I1111 07:12:36.006302  3864 net.cpp:106] Creating Layer relu1
I1111 07:12:36.006342  3864 net.cpp:454] relu1 <- conv1
I1111 07:12:36.006403  3864 net.cpp:397] relu1 -> conv1 (in-place)
I1111 07:12:36.006470  3864 net.cpp:150] Setting up relu1
I1111 07:12:36.006507  3864 net.cpp:157] Top shape: 1 96 55 55 (290400)
I1111 07:12:36.006531  3864 net.cpp:165] Memory required for data: 2323200
I1111 07:12:36.006559  3864 layer_factory.hpp:76] Creating layer pool1
I1111 07:12:36.006635  3864 net.cpp:106] Creating Layer pool1
I1111 07:12:36.006675  3864 net.cpp:454] pool1 <- conv1
I1111 07:12:36.006742  3864 net.cpp:411] pool1 -> pool1
I1111 07:12:36.006923  3864 net.cpp:150] Setting up pool1
I1111 07:12:36.006980  3864 net.cpp:157] Top shape: 1 96 27 27 (69984)
I1111 07:12:36.007006  3864 net.cpp:165] Memory required for data: 2603136
I1111 07:12:36.007036  3864 layer_factory.hpp:76] Creating layer norm1
I1111 07:12:36.007096  3864 net.cpp:106] Creating Layer norm1
I1111 07:12:36.007133  3864 net.cpp:454] norm1 <- pool1
I1111 07:12:36.007200  3864 net.cpp:411] norm1 -> norm1
I1111 07:12:36.007359  3864 net.cpp:150] Setting up norm1
I1111 07:12:36.007411  3864 net.cpp:157] Top shape: 1 96 27 27 (69984)
I1111 07:12:36.007437  3864 net.cpp:165] Memory required for data: 2883072
I1111 07:12:36.007467  3864 layer_factory.hpp:76] Creating layer conv2
I1111 07:12:36.007534  3864 net.cpp:106] Creating Layer conv2
I1111 07:12:36.007583  3864 net.cpp:454] conv2 <- norm1
I1111 07:12:36.007657  3864 net.cpp:411] conv2 -> conv2
I1111 07:12:36.012585  3864 net.cpp:150] Setting up conv2
I1111 07:12:36.012612  3864 net.cpp:157] Top shape: 1 256 27 27 (186624)
I1111 07:12:36.012622  3864 net.cpp:165] Memory required for data: 3629568
I1111 07:12:36.012657  3864 layer_factory.hpp:76] Creating layer relu2
I1111 07:12:36.012682  3864 net.cpp:106] Creating Layer relu2
I1111 07:12:36.012696  3864 net.cpp:454] relu2 <- conv2
I1111 07:12:36.012722  3864 net.cpp:397] relu2 -> conv2 (in-place)
I1111 07:12:36.012748  3864 net.cpp:150] Setting up relu2
I1111 07:12:36.012763  3864 net.cpp:157] Top shape: 1 256 27 27 (186624)
I1111 07:12:36.012771  3864 net.cpp:165] Memory required for data: 4376064
I1111 07:12:36.012784  3864 layer_factory.hpp:76] Creating layer pool2
I1111 07:12:36.012805  3864 net.cpp:106] Creating Layer pool2
I1111 07:12:36.012820  3864 net.cpp:454] pool2 <- conv2
I1111 07:12:36.012846  3864 net.cpp:411] pool2 -> pool2
I1111 07:12:36.012917  3864 net.cpp:150] Setting up pool2
I1111 07:12:36.012938  3864 net.cpp:157] Top shape: 1 256 13 13 (43264)
I1111 07:12:36.012948  3864 net.cpp:165] Memory required for data: 4549120
I1111 07:12:36.012960  3864 layer_factory.hpp:76] Creating layer norm2
I1111 07:12:36.012984  3864 net.cpp:106] Creating Layer norm2
I1111 07:12:36.013000  3864 net.cpp:454] norm2 <- pool2
I1111 07:12:36.013026  3864 net.cpp:411] norm2 -> norm2
I1111 07:12:36.013090  3864 net.cpp:150] Setting up norm2
I1111 07:12:36.013111  3864 net.cpp:157] Top shape: 1 256 13 13 (43264)
I1111 07:12:36.013120  3864 net.cpp:165] Memory required for data: 4722176
I1111 07:12:36.013133  3864 layer_factory.hpp:76] Creating layer conv3
I1111 07:12:36.013161  3864 net.cpp:106] Creating Layer conv3
I1111 07:12:36.013177  3864 net.cpp:454] conv3 <- norm2
I1111 07:12:36.013206  3864 net.cpp:411] conv3 -> conv3
I1111 07:12:36.017640  3864 net.cpp:150] Setting up conv3
I1111 07:12:36.017705  3864 net.cpp:157] Top shape: 1 384 13 13 (64896)
I1111 07:12:36.017716  3864 net.cpp:165] Memory required for data: 4981760
I1111 07:12:36.017781  3864 layer_factory.hpp:76] Creating layer relu3
I1111 07:12:36.017818  3864 net.cpp:106] Creating Layer relu3
I1111 07:12:36.017838  3864 net.cpp:454] relu3 <- conv3
I1111 07:12:36.017866  3864 net.cpp:397] relu3 -> conv3 (in-place)
I1111 07:12:36.017899  3864 net.cpp:150] Setting up relu3
I1111 07:12:36.017913  3864 net.cpp:157] Top shape: 1 384 13 13 (64896)
I1111 07:12:36.017922  3864 net.cpp:165] Memory required for data: 5241344
I1111 07:12:36.017935  3864 layer_factory.hpp:76] Creating layer conv4
I1111 07:12:36.017966  3864 net.cpp:106] Creating Layer conv4
I1111 07:12:36.017982  3864 net.cpp:454] conv4 <- conv3
I1111 07:12:36.018009  3864 net.cpp:411] conv4 -> conv4
I1111 07:12:36.024473  3864 net.cpp:150] Setting up conv4
I1111 07:12:36.024562  3864 net.cpp:157] Top shape: 1 384 13 13 (64896)
I1111 07:12:36.024579  3864 net.cpp:165] Memory required for data: 5500928
I1111 07:12:36.024621  3864 layer_factory.hpp:76] Creating layer relu4
I1111 07:12:36.024670  3864 net.cpp:106] Creating Layer relu4
I1111 07:12:36.024693  3864 net.cpp:454] relu4 <- conv4
I1111 07:12:36.024735  3864 net.cpp:397] relu4 -> conv4 (in-place)
I1111 07:12:36.024775  3864 net.cpp:150] Setting up relu4
I1111 07:12:36.024790  3864 net.cpp:157] Top shape: 1 384 13 13 (64896)
I1111 07:12:36.024799  3864 net.cpp:165] Memory required for data: 5760512
I1111 07:12:36.024811  3864 layer_factory.hpp:76] Creating layer conv5
I1111 07:12:36.024843  3864 net.cpp:106] Creating Layer conv5
I1111 07:12:36.024858  3864 net.cpp:454] conv5 <- conv4
I1111 07:12:36.024888  3864 net.cpp:411] conv5 -> conv5
I1111 07:12:36.029366  3864 net.cpp:150] Setting up conv5
I1111 07:12:36.029409  3864 net.cpp:157] Top shape: 1 256 13 13 (43264)
I1111 07:12:36.029420  3864 net.cpp:165] Memory required for data: 5933568
I1111 07:12:36.029470  3864 layer_factory.hpp:76] Creating layer relu5
I1111 07:12:36.029500  3864 net.cpp:106] Creating Layer relu5
I1111 07:12:36.029515  3864 net.cpp:454] relu5 <- conv5
I1111 07:12:36.029541  3864 net.cpp:397] relu5 -> conv5 (in-place)
I1111 07:12:36.029568  3864 net.cpp:150] Setting up relu5
I1111 07:12:36.029588  3864 net.cpp:157] Top shape: 1 256 13 13 (43264)
I1111 07:12:36.029597  3864 net.cpp:165] Memory required for data: 6106624
I1111 07:12:36.029610  3864 layer_factory.hpp:76] Creating layer pool5
I1111 07:12:36.029639  3864 net.cpp:106] Creating Layer pool5
I1111 07:12:36.029654  3864 net.cpp:454] pool5 <- conv5
I1111 07:12:36.029681  3864 net.cpp:411] pool5 -> pool5
I1111 07:12:36.029759  3864 net.cpp:150] Setting up pool5
I1111 07:12:36.029781  3864 net.cpp:157] Top shape: 1 256 6 6 (9216)
I1111 07:12:36.029791  3864 net.cpp:165] Memory required for data: 6143488
I1111 07:12:36.029804  3864 layer_factory.hpp:76] Creating layer fc6
I1111 07:12:36.029831  3864 net.cpp:106] Creating Layer fc6
I1111 07:12:36.029845  3864 net.cpp:454] fc6 <- pool5
I1111 07:12:36.029876  3864 net.cpp:411] fc6 -> fc6
I1111 07:12:36.216296  3864 net.cpp:150] Setting up fc6
I1111 07:12:36.216401  3864 net.cpp:157] Top shape: 1 4096 (4096)
I1111 07:12:36.216413  3864 net.cpp:165] Memory required for data: 6159872
I1111 07:12:36.216460  3864 layer_factory.hpp:76] Creating layer relu6
I1111 07:12:36.216532  3864 net.cpp:106] Creating Layer relu6
I1111 07:12:36.216557  3864 net.cpp:454] relu6 <- fc6
I1111 07:12:36.216603  3864 net.cpp:397] relu6 -> fc6 (in-place)
I1111 07:12:36.216644  3864 net.cpp:150] Setting up relu6
I1111 07:12:36.216660  3864 net.cpp:157] Top shape: 1 4096 (4096)
I1111 07:12:36.216668  3864 net.cpp:165] Memory required for data: 6176256
I1111 07:12:36.216680  3864 layer_factory.hpp:76] Creating layer drop6
I1111 07:12:36.216711  3864 net.cpp:106] Creating Layer drop6
I1111 07:12:36.216725  3864 net.cpp:454] drop6 <- fc6
I1111 07:12:36.216750  3864 net.cpp:397] drop6 -> fc6 (in-place)
I1111 07:12:36.216805  3864 net.cpp:150] Setting up drop6
I1111 07:12:36.216823  3864 net.cpp:157] Top shape: 1 4096 (4096)
I1111 07:12:36.216833  3864 net.cpp:165] Memory required for data: 6192640
I1111 07:12:36.216845  3864 layer_factory.hpp:76] Creating layer fc7
I1111 07:12:36.216872  3864 net.cpp:106] Creating Layer fc7
I1111 07:12:36.216887  3864 net.cpp:454] fc7 <- fc6
I1111 07:12:36.216914  3864 net.cpp:411] fc7 -> fc7
I1111 07:12:36.293261  3864 net.cpp:150] Setting up fc7
I1111 07:12:36.293360  3864 net.cpp:157] Top shape: 1 4096 (4096)
I1111 07:12:36.293371  3864 net.cpp:165] Memory required for data: 6209024
I1111 07:12:36.293416  3864 layer_factory.hpp:76] Creating layer relu7
I1111 07:12:36.293472  3864 net.cpp:106] Creating Layer relu7
I1111 07:12:36.293495  3864 net.cpp:454] relu7 <- fc7
I1111 07:12:36.293540  3864 net.cpp:397] relu7 -> fc7 (in-place)
I1111 07:12:36.293583  3864 net.cpp:150] Setting up relu7
I1111 07:12:36.293599  3864 net.cpp:157] Top shape: 1 4096 (4096)
I1111 07:12:36.293608  3864 net.cpp:165] Memory required for data: 6225408
I1111 07:12:36.293619  3864 layer_factory.hpp:76] Creating layer drop7
I1111 07:12:36.293650  3864 net.cpp:106] Creating Layer drop7
I1111 07:12:36.293666  3864 net.cpp:454] drop7 <- fc7
I1111 07:12:36.293691  3864 net.cpp:397] drop7 -> fc7 (in-place)
I1111 07:12:36.293751  3864 net.cpp:150] Setting up drop7
I1111 07:12:36.293768  3864 net.cpp:157] Top shape: 1 4096 (4096)
I1111 07:12:36.293777  3864 net.cpp:165] Memory required for data: 6241792
I1111 07:12:36.293789  3864 layer_factory.hpp:76] Creating layer fc8
I1111 07:12:36.293817  3864 net.cpp:106] Creating Layer fc8
I1111 07:12:36.293831  3864 net.cpp:454] fc8 <- fc7
I1111 07:12:36.293861  3864 net.cpp:411] fc8 -> fc8
I1111 07:12:36.313210  3864 net.cpp:150] Setting up fc8
I1111 07:12:36.313303  3864 net.cpp:157] Top shape: 1 1000 (1000)
I1111 07:12:36.313314  3864 net.cpp:165] Memory required for data: 6245792
I1111 07:12:36.313357  3864 layer_factory.hpp:76] Creating layer prob
I1111 07:12:36.313411  3864 net.cpp:106] Creating Layer prob
I1111 07:12:36.313434  3864 net.cpp:454] prob <- fc8
I1111 07:12:36.313477  3864 net.cpp:411] prob -> prob
I1111 07:12:36.313598  3864 net.cpp:150] Setting up prob
I1111 07:12:36.313621  3864 net.cpp:157] Top shape: 1 1000 (1000)
I1111 07:12:36.313630  3864 net.cpp:165] Memory required for data: 6249792
I1111 07:12:36.313645  3864 net.cpp:228] prob does not need backward computation.
I1111 07:12:36.313659  3864 net.cpp:228] fc8 does not need backward computation.
I1111 07:12:36.313671  3864 net.cpp:228] drop7 does not need backward computation.
I1111 07:12:36.313683  3864 net.cpp:228] relu7 does not need backward computation.
…
