…
gamma: 0.5
momentum: 0.98
weight_decay: 0.001
stepsize: 1500
snapshot: 1000
snapshot_prefix: "stitch"
solver_mode: GPU
random_seed: 0
net: "network.prototxt"
regularization_type: "L1"
I1110 22:09:08.128082  2771 solver.cpp:90] Creating training net from net file: network.prototxt
I1110 22:09:08.149096  2771 net.cpp:49] Initializing net from parameters: 
name: "StitchNet"
input: "net0"
input: "net1"
input_dim: 32
input_dim: 256
input_dim: 27
input_dim: 27
input_dim: 32
input_dim: 256
input_dim: 27
input_dim: 27
state {
  phase: TRAIN
}
debug_info: true
layer {
  name: "stitch0"
  type: "Convolution"
  bottom: "net0"
  top: "stitch0"
  convolution_param {
    num_output: 256
    kernel_size: 1
    stride: 1
    weight_filler {
      type: "gaussian"
      std: 0.01
    }
  }
}
layer {
  name: "loss"
  type: "EuclideanLoss"
  bottom: "stitch0"
  bottom: "net1"
  top: "loss"
  loss_weight: 1
}
I1110 22:09:08.149276  2771 net.cpp:413] Input 0 -> net0
I1110 22:09:08.186043  2771 net.cpp:413] Input 1 -> net1
I1110 22:09:08.186204  2771 layer_factory.hpp:76] Creating layer stitch0
I1110 22:09:08.186282  2771 net.cpp:106] Creating Layer stitch0
I1110 22:09:08.186305  2771 net.cpp:454] stitch0 <- net0
I1110 22:09:08.186345  2771 net.cpp:411] stitch0 -> stitch0
I1110 22:09:08.195163  2771 net.cpp:150] Setting up stitch0
I1110 22:09:08.195250  2771 net.cpp:157] Top shape: 32 256 27 27 (5971968)
I1110 22:09:08.195266  2771 net.cpp:165] Memory required for data: 23887872
I1110 22:09:08.195360  2771 layer_factory.hpp:76] Creating layer loss
I1110 22:09:08.195432  2771 net.cpp:106] Creating Layer loss
I1110 22:09:08.195461  2771 net.cpp:454] loss <- stitch0
I1110 22:09:08.195492  2771 net.cpp:454] loss <- net1
I1110 22:09:08.195523  2771 net.cpp:411] loss -> loss
I1110 22:09:08.195639  2771 net.cpp:150] Setting up loss
I1110 22:09:08.195667  2771 net.cpp:157] Top shape: (1)
I1110 22:09:08.195678  2771 net.cpp:160]     with loss weight 1
I1110 22:09:08.195703  2771 net.cpp:165] Memory required for data: 23887876
I1110 22:09:08.195722  2771 net.cpp:226] loss needs backward computation.
I1110 22:09:08.195739  2771 net.cpp:226] stitch0 needs backward computation.
I1110 22:09:08.195754  2771 net.cpp:270] This network produces output loss
I1110 22:09:08.195780  2771 net.cpp:283] Network initialization done.
I1110 22:09:08.195840  2771 solver.cpp:59] Solver scaffolding done.
I1110 22:09:08.319203  2771 net.cpp:49] Initializing net from parameters: 
name: "CaffeNet"
input: "data"
input_dim: 1
input_dim: 3
input_dim: 227
input_dim: 227
force_backward: true
state {
  phase: TEST
}
layer {
  name: "conv1"
  type: "Convolution"
  bottom: "data"
  top: "conv1"
  convolution_param {
    num_output: 96
    kernel_size: 11
    stride: 4
  }
}
layer {
  name: "relu1"
  type: "ReLU"
  bottom: "conv1"
  top: "conv1"
}
layer {
  name: "pool1"
  type: "Pooling"
  bottom: "conv1"
  top: "pool1"
  pooling_param {
    pool: MAX
    kernel_size: 3
    stride: 2
  }
}
layer {
  name: "norm1"
  type: "LRN"
  bottom: "pool1"
  top: "norm1"
  lrn_param {
    local_size: 5
    alpha: 0.0001
    beta: 0.75
  }
}
layer {
  name: "conv2"
  type: "Convolution"
  bottom: "norm1"
  top: "conv2"
  convolution_param {
    num_output: 256
    pad: 2
    kernel_size: 5
  }
}
layer {
  name: "relu2"
  type: "ReLU"
  bottom: "conv2"
  top: "conv2"
}
layer {
  name: "pool2"
  type: "Pooling"
  bottom: "conv2"
  top: "pool2"
  pooling_param {
    pool: MAX
    kernel_size: 3
    stride: 2
  }
}
layer {
  name: "norm2"
  type: "LRN"
  bottom: "pool2"
  top: "norm2"
  lrn_param {
    local_size: 5
    alpha: 0.0001
    beta: 0.75
  }
}
layer {
  name: "conv3"
  type: "Convolution"
  bottom: "norm2"
  top: "conv3"
  convolution_param {
    num_output: 384
    pad: 1
    kernel_size: 3
  }
}
layer {
  name: "relu3"
  type: "ReLU"
  bottom: "conv3"
  top: "conv3"
}
layer {
  name: "conv4"
  type: "Convolution"
  bottom: "conv3"
  top: "conv4"
  convolution_param {
    num_output: 384
    pad: 1
    kernel_size: 3
  }
}
layer {
  name: "relu4"
  type: "ReLU"
  bottom: "conv4"
  top: "conv4"
}
layer {
  name: "conv5"
  type: "Convolution"
  bottom: "conv4"
  top: "conv5"
  convolution_param {
    num_output: 256
    pad: 1
    kernel_size: 3
  }
}
layer {
  name: "relu5"
  type: "ReLU"
  bottom: "conv5"
  top: "conv5"
}
layer {
  name: "pool5"
  type: "Pooling"
  bottom: "conv5"
  top: "pool5"
  pooling_param {
    pool: MAX
    kernel_size: 3
    stride: 2
  }
}
layer {
  name: "fc6"
  type: "InnerProduct"
  bottom: "pool5"
  top: "fc6"
  inner_product_param {
    num_output: 4096
  }
}
layer {
  name: "relu6"
  type: "ReLU"
  bottom: "fc6"
  top: "fc6"
}
layer {
  name: "drop6"
  type: "Dropout"
  bottom: "fc6"
  top: "fc6"
  dropout_param {
    dropout_ratio: 0.5
  }
}
layer {
  name: "fc7"
  type: "InnerProduct"
  bottom: "fc6"
  top: "fc7"
  inner_product_param {
    num_output: 4096
  }
}
layer {
  name: "relu7"
  type: "ReLU"
  bottom: "fc7"
  top: "fc7"
}
layer {
  name: "drop7"
  type: "Dropout"
  bottom: "fc7"
  top: "fc7"
  dropout_param {
    dropout_ratio: 0.5
  }
}
layer {
  name: "fc8"
  type: "InnerProduct"
  bottom: "fc7"
  top: "fc8"
  inner_product_param {
    num_output: 1000
  }
}
layer {
  name: "prob"
  type: "Softmax"
  bottom: "fc8"
  top: "prob"
}
I1110 22:09:08.319495  2771 net.cpp:413] Input 0 -> data
I1110 22:09:08.319720  2771 layer_factory.hpp:76] Creating layer conv1
I1110 22:09:08.319777  2771 net.cpp:106] Creating Layer conv1
I1110 22:09:08.319799  2771 net.cpp:454] conv1 <- data
I1110 22:09:08.319911  2771 net.cpp:411] conv1 -> conv1
I1110 22:09:08.321830  2771 net.cpp:150] Setting up conv1
I1110 22:09:08.321869  2771 net.cpp:157] Top shape: 1 96 55 55 (290400)
I1110 22:09:08.321882  2771 net.cpp:165] Memory required for data: 1161600
I1110 22:09:08.321943  2771 layer_factory.hpp:76] Creating layer relu1
I1110 22:09:08.321990  2771 net.cpp:106] Creating Layer relu1
I1110 22:09:08.322010  2771 net.cpp:454] relu1 <- conv1
I1110 22:09:08.322039  2771 net.cpp:397] relu1 -> conv1 (in-place)
I1110 22:09:08.322075  2771 net.cpp:150] Setting up relu1
I1110 22:09:08.322093  2771 net.cpp:157] Top shape: 1 96 55 55 (290400)
I1110 22:09:08.322104  2771 net.cpp:165] Memory required for data: 2323200
I1110 22:09:08.322118  2771 layer_factory.hpp:76] Creating layer pool1
I1110 22:09:08.322150  2771 net.cpp:106] Creating Layer pool1
I1110 22:09:08.322170  2771 net.cpp:454] pool1 <- conv1
I1110 22:09:08.322201  2771 net.cpp:411] pool1 -> pool1
I1110 22:09:08.322306  2771 net.cpp:150] Setting up pool1
I1110 22:09:08.322334  2771 net.cpp:157] Top shape: 1 96 27 27 (69984)
I1110 22:09:08.322346  2771 net.cpp:165] Memory required for data: 2603136
I1110 22:09:08.322365  2771 layer_factory.hpp:76] Creating layer norm1
I1110 22:09:08.322402  2771 net.cpp:106] Creating Layer norm1
I1110 22:09:08.322422  2771 net.cpp:454] norm1 <- pool1
I1110 22:09:08.322454  2771 net.cpp:411] norm1 -> norm1
I1110 22:09:08.322536  2771 net.cpp:150] Setting up norm1
I1110 22:09:08.322561  2771 net.cpp:157] Top shape: 1 96 27 27 (69984)
I1110 22:09:08.322573  2771 net.cpp:165] Memory required for data: 2883072
I1110 22:09:08.322587  2771 layer_factory.hpp:76] Creating layer conv2
I1110 22:09:08.322624  2771 net.cpp:106] Creating Layer conv2
I1110 22:09:08.322643  2771 net.cpp:454] conv2 <- norm1
I1110 22:09:08.322675  2771 net.cpp:411] conv2 -> conv2
I1110 22:09:08.326442  2771 net.cpp:150] Setting up conv2
I1110 22:09:08.326498  2771 net.cpp:157] Top shape: 1 256 27 27 (186624)
I1110 22:09:08.326510  2771 net.cpp:165] Memory required for data: 3629568
I1110 22:09:08.326570  2771 layer_factory.hpp:76] Creating layer relu2
I1110 22:09:08.326616  2771 net.cpp:106] Creating Layer relu2
I1110 22:09:08.326640  2771 net.cpp:454] relu2 <- conv2
I1110 22:09:08.326675  2771 net.cpp:397] relu2 -> conv2 (in-place)
I1110 22:09:08.326714  2771 net.cpp:150] Setting up relu2
I1110 22:09:08.326731  2771 net.cpp:157] Top shape: 1 256 27 27 (186624)
I1110 22:09:08.326742  2771 net.cpp:165] Memory required for data: 4376064
I1110 22:09:08.326756  2771 layer_factory.hpp:76] Creating layer pool2
I1110 22:09:08.326786  2771 net.cpp:106] Creating Layer pool2
I1110 22:09:08.326802  2771 net.cpp:454] pool2 <- conv2
I1110 22:09:08.326838  2771 net.cpp:411] pool2 -> pool2
I1110 22:09:08.326925  2771 net.cpp:150] Setting up pool2
I1110 22:09:08.326951  2771 net.cpp:157] Top shape: 1 256 13 13 (43264)
I1110 22:09:08.326963  2771 net.cpp:165] Memory required for data: 4549120
I1110 22:09:08.326977  2771 layer_factory.hpp:76] Creating layer norm2
I1110 22:09:08.327010  2771 net.cpp:106] Creating Layer norm2
I1110 22:09:08.327028  2771 net.cpp:454] norm2 <- pool2
I1110 22:09:08.327064  2771 net.cpp:411] norm2 -> norm2
I1110 22:09:08.327142  2771 net.cpp:150] Setting up norm2
I1110 22:09:08.327167  2771 net.cpp:157] Top shape: 1 256 13 13 (43264)
I1110 22:09:08.327178  2771 net.cpp:165] Memory required for data: 4722176
I1110 22:09:08.327193  2771 layer_factory.hpp:76] Creating layer conv3
I1110 22:09:08.327234  2771 net.cpp:106] Creating Layer conv3
I1110 22:09:08.327255  2771 net.cpp:454] conv3 <- norm2
I1110 22:09:08.327291  2771 net.cpp:411] conv3 -> conv3
I1110 22:09:08.332892  2771 net.cpp:150] Setting up conv3
I1110 22:09:08.332973  2771 net.cpp:157] Top shape: 1 384 13 13 (64896)
I1110 22:09:08.332985  2771 net.cpp:165] Memory required for data: 4981760
I1110 22:09:08.333062  2771 layer_factory.hpp:76] Creating layer relu3
I1110 22:09:08.333118  2771 net.cpp:106] Creating Layer relu3
I1110 22:09:08.333148  2771 net.cpp:454] relu3 <- conv3
I1110 22:09:08.333190  2771 net.cpp:397] relu3 -> conv3 (in-place)
I1110 22:09:08.333237  2771 net.cpp:150] Setting up relu3
I1110 22:09:08.333256  2771 net.cpp:157] Top shape: 1 384 13 13 (64896)
I1110 22:09:08.333266  2771 net.cpp:165] Memory required for data: 5241344
I1110 22:09:08.333281  2771 layer_factory.hpp:76] Creating layer conv4
I1110 22:09:08.333319  2771 net.cpp:106] Creating Layer conv4
I1110 22:09:08.333338  2771 net.cpp:454] conv4 <- conv3
I1110 22:09:08.333379  2771 net.cpp:411] conv4 -> conv4
I1110 22:09:08.341322  2771 net.cpp:150] Setting up conv4
I1110 22:09:08.341435  2771 net.cpp:157] Top shape: 1 384 13 13 (64896)
I1110 22:09:08.341450  2771 net.cpp:165] Memory required for data: 5500928
I1110 22:09:08.341493  2771 layer_factory.hpp:76] Creating layer relu4
I1110 22:09:08.341547  2771 net.cpp:106] Creating Layer relu4
I1110 22:09:08.341574  2771 net.cpp:454] relu4 <- conv4
I1110 22:09:08.341615  2771 net.cpp:397] relu4 -> conv4 (in-place)
I1110 22:09:08.341660  2771 net.cpp:150] Setting up relu4
I1110 22:09:08.341680  2771 net.cpp:157] Top shape: 1 384 13 13 (64896)
I1110 22:09:08.341691  2771 net.cpp:165] Memory required for data: 5760512
I1110 22:09:08.341706  2771 layer_factory.hpp:76] Creating layer conv5
I1110 22:09:08.341747  2771 net.cpp:106] Creating Layer conv5
I1110 22:09:08.341766  2771 net.cpp:454] conv5 <- conv4
I1110 22:09:08.341801  2771 net.cpp:411] conv5 -> conv5
I1110 22:09:08.347492  2771 net.cpp:150] Setting up conv5
I1110 22:09:08.347540  2771 net.cpp:157] Top shape: 1 256 13 13 (43264)
I1110 22:09:08.347554  2771 net.cpp:165] Memory required for data: 5933568
I1110 22:09:08.347620  2771 layer_factory.hpp:76] Creating layer relu5
I1110 22:09:08.347658  2771 net.cpp:106] Creating Layer relu5
I1110 22:09:08.347681  2771 net.cpp:454] relu5 <- conv5
I1110 22:09:08.347712  2771 net.cpp:397] relu5 -> conv5 (in-place)
I1110 22:09:08.347746  2771 net.cpp:150] Setting up relu5
I1110 22:09:08.347764  2771 net.cpp:157] Top shape: 1 256 13 13 (43264)
I1110 22:09:08.347775  2771 net.cpp:165] Memory required for data: 6106624
I1110 22:09:08.347789  2771 layer_factory.hpp:76] Creating layer pool5
I1110 22:09:08.347820  2771 net.cpp:106] Creating Layer pool5
I1110 22:09:08.347838  2771 net.cpp:454] pool5 <- conv5
I1110 22:09:08.347872  2771 net.cpp:411] pool5 -> pool5
I1110 22:09:08.347965  2771 net.cpp:150] Setting up pool5
I1110 22:09:08.347991  2771 net.cpp:157] Top shape: 1 256 6 6 (9216)
I1110 22:09:08.348003  2771 net.cpp:165] Memory required for data: 6143488
I1110 22:09:08.348017  2771 layer_factory.hpp:76] Creating layer fc6
I1110 22:09:08.348047  2771 net.cpp:106] Creating Layer fc6
I1110 22:09:08.348064  2771 net.cpp:454] fc6 <- pool5
I1110 22:09:08.348098  2771 net.cpp:411] fc6 -> fc6
I1110 22:09:08.555625  2771 net.cpp:150] Setting up fc6
I1110 22:09:08.555696  2771 net.cpp:157] Top shape: 1 4096 (4096)
I1110 22:09:08.555708  2771 net.cpp:165] Memory required for data: 6159872
I1110 22:09:08.555748  2771 layer_factory.hpp:76] Creating layer relu6
I1110 22:09:08.555807  2771 net.cpp:106] Creating Layer relu6
I1110 22:09:08.555835  2771 net.cpp:454] relu6 <- fc6
I1110 22:09:08.555873  2771 net.cpp:397] relu6 -> fc6 (in-place)
I1110 22:09:08.555912  2771 net.cpp:150] Setting up relu6
I1110 22:09:08.555929  2771 net.cpp:157] Top shape: 1 4096 (4096)
I1110 22:09:08.555939  2771 net.cpp:165] Memory required for data: 6176256
I1110 22:09:08.555953  2771 layer_factory.hpp:76] Creating layer drop6
I1110 22:09:08.555991  2771 net.cpp:106] Creating Layer drop6
I1110 22:09:08.556010  2771 net.cpp:454] drop6 <- fc6
I1110 22:09:08.556042  2771 net.cpp:397] drop6 -> fc6 (in-place)
I1110 22:09:08.556107  2771 net.cpp:150] Setting up drop6
I1110 22:09:08.556129  2771 net.cpp:157] Top shape: 1 4096 (4096)
I1110 22:09:08.556140  2771 net.cpp:165] Memory required for data: 6192640
I1110 22:09:08.556154  2771 layer_factory.hpp:76] Creating layer fc7
I1110 22:09:08.556188  2771 net.cpp:106] Creating Layer fc7
I1110 22:09:08.556206  2771 net.cpp:454] fc7 <- fc6
I1110 22:09:08.556237  2771 net.cpp:411] fc7 -> fc7
I1110 22:09:08.644588  2771 net.cpp:150] Setting up fc7
I1110 22:09:08.644665  2771 net.cpp:157] Top shape: 1 4096 (4096)
I1110 22:09:08.644677  2771 net.cpp:165] Memory required for data: 6209024
I1110 22:09:08.644721  2771 layer_factory.hpp:76] Creating layer relu7
I1110 22:09:08.644773  2771 net.cpp:106] Creating Layer relu7
I1110 22:09:08.644800  2771 net.cpp:454] relu7 <- fc7
I1110 22:09:08.644843  2771 net.cpp:397] relu7 -> fc7 (in-place)
I1110 22:09:08.644886  2771 net.cpp:150] Setting up relu7
I1110 22:09:08.644903  2771 net.cpp:157] Top shape: 1 4096 (4096)
I1110 22:09:08.644913  2771 net.cpp:165] Memory required for data: 6225408
I1110 22:09:08.644927  2771 layer_factory.hpp:76] Creating layer drop7
I1110 22:09:08.644958  2771 net.cpp:106] Creating Layer drop7
I1110 22:09:08.644975  2771 net.cpp:454] drop7 <- fc7
I1110 22:09:08.645006  2771 net.cpp:397] drop7 -> fc7 (in-place)
I1110 22:09:08.645068  2771 net.cpp:150] Setting up drop7
I1110 22:09:08.645093  2771 net.cpp:157] Top shape: 1 4096 (4096)
I1110 22:09:08.645104  2771 net.cpp:165] Memory required for data: 6241792
I1110 22:09:08.645118  2771 layer_factory.hpp:76] Creating layer fc8
I1110 22:09:08.645151  2771 net.cpp:106] Creating Layer fc8
I1110 22:09:08.645169  2771 net.cpp:454] fc8 <- fc7
I1110 22:09:08.645200  2771 net.cpp:411] fc8 -> fc8
I1110 22:09:08.667201  2771 net.cpp:150] Setting up fc8
I1110 22:09:08.667258  2771 net.cpp:157] Top shape: 1 1000 (1000)
I1110 22:09:08.667269  2771 net.cpp:165] Memory required for data: 6245792
I1110 22:09:08.667310  2771 layer_factory.hpp:76] Creating layer prob
I1110 22:09:08.667367  2771 net.cpp:106] Creating Layer prob
I1110 22:09:08.667394  2771 net.cpp:454] prob <- fc8
I1110 22:09:08.667443  2771 net.cpp:411] prob -> prob
I1110 22:09:08.667573  2771 net.cpp:150] Setting up prob
I1110 22:09:08.667598  2771 net.cpp:157] Top shape: 1 1000 (1000)
I1110 22:09:08.667610  2771 net.cpp:165] Memory required for data: 6249792
I1110 22:09:08.667626  2771 net.cpp:228] prob does not need backward computation.
I1110 22:09:08.667641  2771 net.cpp:228] fc8 does not need backward computation.
I1110 22:09:08.667655  2771 net.cpp:228] drop7 does not need backward computation.
I1110 22:09:08.667668  2771 net.cpp:228] relu7 does not need backward computation.
…
I1110 22:09:11.563495  2771 net.cpp:923] Copying source layer drop6
I1110 22:09:11.563506  2771 net.cpp:923] Copying source layer fc7
I1110 22:09:11.774708  2771 net.cpp:923] Copying source layer relu7
I1110 22:09:11.774775  2771 net.cpp:923] Copying source layer drop7
I1110 22:09:11.774785  2771 net.cpp:923] Copying source layer fc8
I1110 22:09:11.826520  2771 net.cpp:920] Ignoring source layer loss
I1110 22:09:11.829751  2771 net.cpp:49] Initializing net from parameters: 
name: "CaffeNet"
input: "data"
input_dim: 1
input_dim: 3
input_dim: 227
input_dim: 227
force_backward: true
state {
  phase: TEST
}
layer {
  name: "conv1"
  type: "Convolution"
  bottom: "data"
  top: "conv1"
  convolution_param {
    num_output: 96
    kernel_size: 11
    stride: 4
  }
}
layer {
  name: "relu1"
  type: "ReLU"
  bottom: "conv1"
  top: "conv1"
}
layer {
  name: "pool1"
  type: "Pooling"
  bottom: "conv1"
  top: "pool1"
  pooling_param {
    pool: MAX
    kernel_size: 3
    stride: 2
  }
}
layer {
  name: "norm1"
  type: "LRN"
  bottom: "pool1"
  top: "norm1"
  lrn_param {
    local_size: 5
    alpha: 0.0001
    beta: 0.75
  }
}
layer {
  name: "conv2"
  type: "Convolution"
  bottom: "norm1"
  top: "conv2"
  convolution_param {
    num_output: 256
    pad: 2
    kernel_size: 5
  }
}
layer {
  name: "relu2"
  type: "ReLU"
  bottom: "conv2"
  top: "conv2"
}
layer {
  name: "pool2"
  type: "Pooling"
  bottom: "conv2"
  top: "pool2"
  pooling_param {
    pool: MAX
    kernel_size: 3
    stride: 2
  }
}
layer {
  name: "norm2"
  type: "LRN"
  bottom: "pool2"
  top: "norm2"
  lrn_param {
    local_size: 5
    alpha: 0.0001
    beta: 0.75
  }
}
layer {
  name: "conv3"
  type: "Convolution"
  bottom: "norm2"
  top: "conv3"
  convolution_param {
    num_output: 384
    pad: 1
    kernel_size: 3
  }
}
layer {
  name: "relu3"
  type: "ReLU"
  bottom: "conv3"
  top: "conv3"
}
layer {
  name: "conv4"
  type: "Convolution"
  bottom: "conv3"
  top: "conv4"
  convolution_param {
    num_output: 384
    pad: 1
    kernel_size: 3
  }
}
layer {
  name: "relu4"
  type: "ReLU"
  bottom: "conv4"
  top: "conv4"
}
layer {
  name: "conv5"
  type: "Convolution"
  bottom: "conv4"
  top: "conv5"
  convolution_param {
    num_output: 256
    pad: 1
    kernel_size: 3
  }
}
layer {
  name: "relu5"
  type: "ReLU"
  bottom: "conv5"
  top: "conv5"
}
layer {
  name: "pool5"
  type: "Pooling"
  bottom: "conv5"
  top: "pool5"
  pooling_param {
    pool: MAX
    kernel_size: 3
    stride: 2
  }
}
layer {
  name: "fc6"
  type: "InnerProduct"
  bottom: "pool5"
  top: "fc6"
  inner_product_param {
    num_output: 4096
  }
}
layer {
  name: "relu6"
  type: "ReLU"
  bottom: "fc6"
  top: "fc6"
}
layer {
  name: "drop6"
  type: "Dropout"
  bottom: "fc6"
  top: "fc6"
  dropout_param {
    dropout_ratio: 0.5
  }
}
layer {
  name: "fc7"
  type: "InnerProduct"
  bottom: "fc6"
  top: "fc7"
  inner_product_param {
    num_output: 4096
  }
}
layer {
  name: "relu7"
  type: "ReLU"
  bottom: "fc7"
  top: "fc7"
}
layer {
  name: "drop7"
  type: "Dropout"
  bottom: "fc7"
  top: "fc7"
  dropout_param {
    dropout_ratio: 0.5
  }
}
layer {
  name: "fc8"
  type: "InnerProduct"
  bottom: "fc7"
  top: "fc8"
  inner_product_param {
    num_output: 1000
  }
}
layer {
  name: "prob"
  type: "Softmax"
  bottom: "fc8"
  top: "prob"
}
I1110 22:09:11.830042  2771 net.cpp:413] Input 0 -> data
I1110 22:09:11.830240  2771 layer_factory.hpp:76] Creating layer conv1
I1110 22:09:11.830288  2771 net.cpp:106] Creating Layer conv1
I1110 22:09:11.830307  2771 net.cpp:454] conv1 <- data
I1110 22:09:11.830338  2771 net.cpp:411] conv1 -> conv1
I1110 22:09:11.830760  2771 net.cpp:150] Setting up conv1
I1110 22:09:11.830792  2771 net.cpp:157] Top shape: 1 96 55 55 (290400)
I1110 22:09:11.830803  2771 net.cpp:165] Memory required for data: 1161600
I1110 22:09:11.830852  2771 layer_factory.hpp:76] Creating layer relu1
I1110 22:09:11.830883  2771 net.cpp:106] Creating Layer relu1
I1110 22:09:11.830899  2771 net.cpp:454] relu1 <- conv1
I1110 22:09:11.830925  2771 net.cpp:397] relu1 -> conv1 (in-place)
I1110 22:09:11.830952  2771 net.cpp:150] Setting up relu1
I1110 22:09:11.830967  2771 net.cpp:157] Top shape: 1 96 55 55 (290400)
I1110 22:09:11.830976  2771 net.cpp:165] Memory required for data: 2323200
I1110 22:09:11.830988  2771 layer_factory.hpp:76] Creating layer pool1
I1110 22:09:11.831015  2771 net.cpp:106] Creating Layer pool1
I1110 22:09:11.831032  2771 net.cpp:454] pool1 <- conv1
I1110 22:09:11.831058  2771 net.cpp:411] pool1 -> pool1
I1110 22:09:11.831137  2771 net.cpp:150] Setting up pool1
I1110 22:09:11.831161  2771 net.cpp:157] Top shape: 1 96 27 27 (69984)
I1110 22:09:11.831171  2771 net.cpp:165] Memory required for data: 2603136
I1110 22:09:11.831183  2771 layer_factory.hpp:76] Creating layer norm1
I1110 22:09:11.831210  2771 net.cpp:106] Creating Layer norm1
I1110 22:09:11.831226  2771 net.cpp:454] norm1 <- pool1
I1110 22:09:11.831254  2771 net.cpp:411] norm1 -> norm1
I1110 22:09:11.831321  2771 net.cpp:150] Setting up norm1
I1110 22:09:11.831344  2771 net.cpp:157] Top shape: 1 96 27 27 (69984)
I1110 22:09:11.831353  2771 net.cpp:165] Memory required for data: 2883072
I1110 22:09:11.831365  2771 layer_factory.hpp:76] Creating layer conv2
I1110 22:09:11.831394  2771 net.cpp:106] Creating Layer conv2
I1110 22:09:11.831410  2771 net.cpp:454] conv2 <- norm1
I1110 22:09:11.831439  2771 net.cpp:411] conv2 -> conv2
I1110 22:09:11.834745  2771 net.cpp:150] Setting up conv2
I1110 22:09:11.834828  2771 net.cpp:157] Top shape: 1 256 27 27 (186624)
I1110 22:09:11.834841  2771 net.cpp:165] Memory required for data: 3629568
I1110 22:09:11.834903  2771 layer_factory.hpp:76] Creating layer relu2
I1110 22:09:11.834946  2771 net.cpp:106] Creating Layer relu2
I1110 22:09:11.834969  2771 net.cpp:454] relu2 <- conv2
I1110 22:09:11.835000  2771 net.cpp:397] relu2 -> conv2 (in-place)
I1110 22:09:11.835034  2771 net.cpp:150] Setting up relu2
I1110 22:09:11.835050  2771 net.cpp:157] Top shape: 1 256 27 27 (186624)
I1110 22:09:11.835059  2771 net.cpp:165] Memory required for data: 4376064
I1110 22:09:11.835070  2771 layer_factory.hpp:76] Creating layer pool2
I1110 22:09:11.835100  2771 net.cpp:106] Creating Layer pool2
I1110 22:09:11.835115  2771 net.cpp:454] pool2 <- conv2
I1110 22:09:11.835142  2771 net.cpp:411] pool2 -> pool2
I1110 22:09:11.835221  2771 net.cpp:150] Setting up pool2
I1110 22:09:11.835242  2771 net.cpp:157] Top shape: 1 256 13 13 (43264)
I1110 22:09:11.835253  2771 net.cpp:165] Memory required for data: 4549120
I1110 22:09:11.835265  2771 layer_factory.hpp:76] Creating layer norm2
I1110 22:09:11.835299  2771 net.cpp:106] Creating Layer norm2
I1110 22:09:11.835316  2771 net.cpp:454] norm2 <- pool2
I1110 22:09:11.835347  2771 net.cpp:411] norm2 -> norm2
I1110 22:09:11.835417  2771 net.cpp:150] Setting up norm2
I1110 22:09:11.835438  2771 net.cpp:157] Top shape: 1 256 13 13 (43264)
I1110 22:09:11.835448  2771 net.cpp:165] Memory required for data: 4722176
I1110 22:09:11.835460  2771 layer_factory.hpp:76] Creating layer conv3
I1110 22:09:11.835502  2771 net.cpp:106] Creating Layer conv3
I1110 22:09:11.835520  2771 net.cpp:454] conv3 <- norm2
I1110 22:09:11.835547  2771 net.cpp:411] conv3 -> conv3
I1110 22:09:11.840194  2771 net.cpp:150] Setting up conv3
I1110 22:09:11.840271  2771 net.cpp:157] Top shape: 1 384 13 13 (64896)
I1110 22:09:11.840282  2771 net.cpp:165] Memory required for data: 4981760
I1110 22:09:11.840364  2771 layer_factory.hpp:76] Creating layer relu3
I1110 22:09:11.840415  2771 net.cpp:106] Creating Layer relu3
I1110 22:09:11.840438  2771 net.cpp:454] relu3 <- conv3
I1110 22:09:11.840472  2771 net.cpp:397] relu3 -> conv3 (in-place)
I1110 22:09:11.840510  2771 net.cpp:150] Setting up relu3
I1110 22:09:11.840526  2771 net.cpp:157] Top shape: 1 384 13 13 (64896)
I1110 22:09:11.840535  2771 net.cpp:165] Memory required for data: 5241344
I1110 22:09:11.840546  2771 layer_factory.hpp:76] Creating layer conv4
I1110 22:09:11.840581  2771 net.cpp:106] Creating Layer conv4
I1110 22:09:11.840596  2771 net.cpp:454] conv4 <- conv3
I1110 22:09:11.840628  2771 net.cpp:411] conv4 -> conv4
I1110 22:09:11.847003  2771 net.cpp:150] Setting up conv4
I1110 22:09:11.847085  2771 net.cpp:157] Top shape: 1 384 13 13 (64896)
I1110 22:09:11.847097  2771 net.cpp:165] Memory required for data: 5500928
I1110 22:09:11.847136  2771 layer_factory.hpp:76] Creating layer relu4
I1110 22:09:11.847182  2771 net.cpp:106] Creating Layer relu4
I1110 22:09:11.847205  2771 net.cpp:454] relu4 <- conv4
I1110 22:09:11.847245  2771 net.cpp:397] relu4 -> conv4 (in-place)
I1110 22:09:11.847282  2771 net.cpp:150] Setting up relu4
I1110 22:09:11.847298  2771 net.cpp:157] Top shape: 1 384 13 13 (64896)
I1110 22:09:11.847307  2771 net.cpp:165] Memory required for data: 5760512
I1110 22:09:11.847319  2771 layer_factory.hpp:76] Creating layer conv5
I1110 22:09:11.847352  2771 net.cpp:106] Creating Layer conv5
I1110 22:09:11.847367  2771 net.cpp:454] conv5 <- conv4
I1110 22:09:11.847394  2771 net.cpp:411] conv5 -> conv5
I1110 22:09:11.851758  2771 net.cpp:150] Setting up conv5
I1110 22:09:11.851796  2771 net.cpp:157] Top shape: 1 256 13 13 (43264)
I1110 22:09:11.851806  2771 net.cpp:165] Memory required for data: 5933568
I1110 22:09:11.851866  2771 layer_factory.hpp:76] Creating layer relu5
I1110 22:09:11.851896  2771 net.cpp:106] Creating Layer relu5
I1110 22:09:11.851913  2771 net.cpp:454] relu5 <- conv5
I1110 22:09:11.851941  2771 net.cpp:397] relu5 -> conv5 (in-place)
I1110 22:09:11.851969  2771 net.cpp:150] Setting up relu5
I1110 22:09:11.851985  2771 net.cpp:157] Top shape: 1 256 13 13 (43264)
I1110 22:09:11.851994  2771 net.cpp:165] Memory required for data: 6106624
I1110 22:09:11.852006  2771 layer_factory.hpp:76] Creating layer pool5
I1110 22:09:11.852036  2771 net.cpp:106] Creating Layer pool5
I1110 22:09:11.852051  2771 net.cpp:454] pool5 <- conv5
I1110 22:09:11.852078  2771 net.cpp:411] pool5 -> pool5
I1110 22:09:11.852159  2771 net.cpp:150] Setting up pool5
I1110 22:09:11.852180  2771 net.cpp:157] Top shape: 1 256 6 6 (9216)
I1110 22:09:11.852190  2771 net.cpp:165] Memory required for data: 6143488
I1110 22:09:11.852202  2771 layer_factory.hpp:76] Creating layer fc6
I1110 22:09:11.852229  2771 net.cpp:106] Creating Layer fc6
I1110 22:09:11.852246  2771 net.cpp:454] fc6 <- pool5
I1110 22:09:11.852273  2771 net.cpp:411] fc6 -> fc6
I1110 22:09:12.025143  2771 net.cpp:150] Setting up fc6
I1110 22:09:12.025255  2771 net.cpp:157] Top shape: 1 4096 (4096)
I1110 22:09:12.025267  2771 net.cpp:165] Memory required for data: 6159872
I1110 22:09:12.025312  2771 layer_factory.hpp:76] Creating layer relu6
I1110 22:09:12.025389  2771 net.cpp:106] Creating Layer relu6
I1110 22:09:12.025416  2771 net.cpp:454] relu6 <- fc6
I1110 22:09:12.025460  2771 net.cpp:397] relu6 -> fc6 (in-place)
I1110 22:09:12.025502  2771 net.cpp:150] Setting up relu6
I1110 22:09:12.025518  2771 net.cpp:157] Top shape: 1 4096 (4096)
I1110 22:09:12.025527  2771 net.cpp:165] Memory required for data: 6176256
I1110 22:09:12.025539  2771 layer_factory.hpp:76] Creating layer drop6
I1110 22:09:12.025574  2771 net.cpp:106] Creating Layer drop6
I1110 22:09:12.025589  2771 net.cpp:454] drop6 <- fc6
I1110 22:09:12.025617  2771 net.cpp:397] drop6 -> fc6 (in-place)
I1110 22:09:12.025684  2771 net.cpp:150] Setting up drop6
I1110 22:09:12.025704  2771 net.cpp:157] Top shape: 1 4096 (4096)
I1110 22:09:12.025714  2771 net.cpp:165] Memory required for data: 6192640
I1110 22:09:12.025727  2771 layer_factory.hpp:76] Creating layer fc7
I1110 22:09:12.025764  2771 net.cpp:106] Creating Layer fc7
I1110 22:09:12.025779  2771 net.cpp:454] fc7 <- fc6
I1110 22:09:12.025811  2771 net.cpp:411] fc7 -> fc7
I1110 22:09:12.106667  2771 net.cpp:150] Setting up fc7
I1110 22:09:12.106784  2771 net.cpp:157] Top shape: 1 4096 (4096)
I1110 22:09:12.106796  2771 net.cpp:165] Memory required for data: 6209024
I1110 22:09:12.106854  2771 layer_factory.hpp:76] Creating layer relu7
I1110 22:09:12.106923  2771 net.cpp:106] Creating Layer relu7
I1110 22:09:12.106953  2771 net.cpp:454] relu7 <- fc7
I1110 22:09:12.107009  2771 net.cpp:397] relu7 -> fc7 (in-place)
I1110 22:09:12.107058  2771 net.cpp:150] Setting up relu7
I1110 22:09:12.107074  2771 net.cpp:157] Top shape: 1 4096 (4096)
I1110 22:09:12.107082  2771 net.cpp:165] Memory required for data: 6225408
I1110 22:09:12.107095  2771 layer_factory.hpp:76] Creating layer drop7
I1110 22:09:12.107131  2771 net.cpp:106] Creating Layer drop7
I1110 22:09:12.107147  2771 net.cpp:454] drop7 <- fc7
I1110 22:09:12.107173  2771 net.cpp:397] drop7 -> fc7 (in-place)
I1110 22:09:12.107266  2771 net.cpp:150] Setting up drop7
I1110 22:09:12.107286  2771 net.cpp:157] Top shape: 1 4096 (4096)
I1110 22:09:12.107296  2771 net.cpp:165] Memory required for data: 6241792
I1110 22:09:12.107308  2771 layer_factory.hpp:76] Creating layer fc8
I1110 22:09:12.107342  2771 net.cpp:106] Creating Layer fc8
I1110 22:09:12.107357  2771 net.cpp:454] fc8 <- fc7
I1110 22:09:12.107386  2771 net.cpp:411] fc8 -> fc8
I1110 22:09:12.128906  2771 net.cpp:150] Setting up fc8
I1110 22:09:12.129040  2771 net.cpp:157] Top shape: 1 1000 (1000)
I1110 22:09:12.129053  2771 net.cpp:165] Memory required for data: 6245792
I1110 22:09:12.129104  2771 layer_factory.hpp:76] Creating layer prob
I1110 22:09:12.129164  2771 net.cpp:106] Creating Layer prob
I1110 22:09:12.129190  2771 net.cpp:454] prob <- fc8
I1110 22:09:12.129238  2771 net.cpp:411] prob -> prob
I1110 22:09:12.129389  2771 net.cpp:150] Setting up prob
I1110 22:09:12.129412  2771 net.cpp:157] Top shape: 1 1000 (1000)
I1110 22:09:12.129422  2771 net.cpp:165] Memory required for data: 6249792
I1110 22:09:12.129438  2771 net.cpp:228] prob does not need backward computation.
I1110 22:09:12.129452  2771 net.cpp:228] fc8 does not need backward computation.
I1110 22:09:12.129464  2771 net.cpp:228] drop7 does not need backward computation.
I1110 22:09:12.129475  2771 net.cpp:228] relu7 does not need backward computation.
…
