…
momentum: 0.98
weight_decay: 0.00025118864
stepsize: 1500
snapshot: 1000
snapshot_prefix: "stitch"
solver_mode: GPU
random_seed: 0
net: "network.prototxt"
regularization_type: "L1"
I1111 07:12:32.407675  3941 solver.cpp:90] Creating training net from net file: network.prototxt
I1111 07:12:32.437585  3941 net.cpp:49] Initializing net from parameters: 
name: "StitchNet"
input: "net0"
input: "net1"
input_dim: 32
input_dim: 256
input_dim: 27
input_dim: 27
input_dim: 32
input_dim: 256
input_dim: 27
input_dim: 27
state {
  phase: TRAIN
}
debug_info: true
layer {
  name: "stitch0"
  type: "Convolution"
  bottom: "net0"
  top: "stitch0"
  convolution_param {
    num_output: 256
    kernel_size: 1
    stride: 1
    weight_filler {
      type: "gaussian"
      std: 0.01
    }
  }
}
layer {
  name: "loss"
  type: "EuclideanLoss"
  bottom: "stitch0"
  bottom: "net1"
  top: "loss"
  loss_weight: 1
}
I1111 07:12:32.437763  3941 net.cpp:413] Input 0 -> net0
I1111 07:12:32.471959  3941 net.cpp:413] Input 1 -> net1
I1111 07:12:32.472131  3941 layer_factory.hpp:76] Creating layer stitch0
I1111 07:12:32.472210  3941 net.cpp:106] Creating Layer stitch0
I1111 07:12:32.472234  3941 net.cpp:454] stitch0 <- net0
I1111 07:12:32.472272  3941 net.cpp:411] stitch0 -> stitch0
I1111 07:12:32.480823  3941 net.cpp:150] Setting up stitch0
I1111 07:12:32.480885  3941 net.cpp:157] Top shape: 32 256 27 27 (5971968)
I1111 07:12:32.480898  3941 net.cpp:165] Memory required for data: 23887872
I1111 07:12:32.480972  3941 layer_factory.hpp:76] Creating layer loss
I1111 07:12:32.481016  3941 net.cpp:106] Creating Layer loss
I1111 07:12:32.481037  3941 net.cpp:454] loss <- stitch0
I1111 07:12:32.481063  3941 net.cpp:454] loss <- net1
I1111 07:12:32.481091  3941 net.cpp:411] loss -> loss
I1111 07:12:32.481174  3941 net.cpp:150] Setting up loss
I1111 07:12:32.481199  3941 net.cpp:157] Top shape: (1)
I1111 07:12:32.481210  3941 net.cpp:160]     with loss weight 1
I1111 07:12:32.481236  3941 net.cpp:165] Memory required for data: 23887876
I1111 07:12:32.481256  3941 net.cpp:226] loss needs backward computation.
I1111 07:12:32.481272  3941 net.cpp:226] stitch0 needs backward computation.
I1111 07:12:32.481287  3941 net.cpp:270] This network produces output loss
I1111 07:12:32.481314  3941 net.cpp:283] Network initialization done.
I1111 07:12:32.481377  3941 solver.cpp:59] Solver scaffolding done.
I1111 07:12:32.583300  3941 net.cpp:49] Initializing net from parameters: 
name: "CaffeNet"
input: "data"
input_dim: 1
input_dim: 3
input_dim: 227
input_dim: 227
force_backward: true
state {
  phase: TEST
}
layer {
  name: "conv1"
  type: "Convolution"
  bottom: "data"
  top: "conv1"
  convolution_param {
    num_output: 96
    kernel_size: 11
    stride: 4
  }
}
layer {
  name: "relu1"
  type: "ReLU"
  bottom: "conv1"
  top: "conv1"
}
layer {
  name: "pool1"
  type: "Pooling"
  bottom: "conv1"
  top: "pool1"
  pooling_param {
    pool: MAX
    kernel_size: 3
    stride: 2
  }
}
layer {
  name: "norm1"
  type: "LRN"
  bottom: "pool1"
  top: "norm1"
  lrn_param {
    local_size: 5
    alpha: 0.0001
    beta: 0.75
  }
}
layer {
  name: "conv2"
  type: "Convolution"
  bottom: "norm1"
  top: "conv2"
  convolution_param {
    num_output: 256
    pad: 2
    kernel_size: 5
  }
}
layer {
  name: "relu2"
  type: "ReLU"
  bottom: "conv2"
  top: "conv2"
}
layer {
  name: "pool2"
  type: "Pooling"
  bottom: "conv2"
  top: "pool2"
  pooling_param {
    pool: MAX
    kernel_size: 3
    stride: 2
  }
}
layer {
  name: "norm2"
  type: "LRN"
  bottom: "pool2"
  top: "norm2"
  lrn_param {
    local_size: 5
    alpha: 0.0001
    beta: 0.75
  }
}
layer {
  name: "conv3"
  type: "Convolution"
  bottom: "norm2"
  top: "conv3"
  convolution_param {
    num_output: 384
    pad: 1
    kernel_size: 3
  }
}
layer {
  name: "relu3"
  type: "ReLU"
  bottom: "conv3"
  top: "conv3"
}
layer {
  name: "conv4"
  type: "Convolution"
  bottom: "conv3"
  top: "conv4"
  convolution_param {
    num_output: 384
    pad: 1
    kernel_size: 3
  }
}
layer {
  name: "relu4"
  type: "ReLU"
  bottom: "conv4"
  top: "conv4"
}
layer {
  name: "conv5"
  type: "Convolution"
  bottom: "conv4"
  top: "conv5"
  convolution_param {
    num_output: 256
    pad: 1
    kernel_size: 3
  }
}
layer {
  name: "relu5"
  type: "ReLU"
  bottom: "conv5"
  top: "conv5"
}
layer {
  name: "pool5"
  type: "Pooling"
  bottom: "conv5"
  top: "pool5"
  pooling_param {
    pool: MAX
    kernel_size: 3
    stride: 2
  }
}
layer {
  name: "fc6"
  type: "InnerProduct"
  bottom: "pool5"
  top: "fc6"
  inner_product_param {
    num_output: 4096
  }
}
layer {
  name: "relu6"
  type: "ReLU"
  bottom: "fc6"
  top: "fc6"
}
layer {
  name: "drop6"
  type: "Dropout"
  bottom: "fc6"
  top: "fc6"
  dropout_param {
    dropout_ratio: 0.5
  }
}
layer {
  name: "fc7"
  type: "InnerProduct"
  bottom: "fc6"
  top: "fc7"
  inner_product_param {
    num_output: 4096
  }
}
layer {
  name: "relu7"
  type: "ReLU"
  bottom: "fc7"
  top: "fc7"
}
layer {
  name: "drop7"
  type: "Dropout"
  bottom: "fc7"
  top: "fc7"
  dropout_param {
    dropout_ratio: 0.5
  }
}
layer {
  name: "fc8"
  type: "InnerProduct"
  bottom: "fc7"
  top: "fc8"
  inner_product_param {
    num_output: 1000
  }
}
layer {
  name: "prob"
  type: "Softmax"
  bottom: "fc8"
  top: "prob"
}
I1111 07:12:32.583837  3941 net.cpp:413] Input 0 -> data
I1111 07:12:32.584162  3941 layer_factory.hpp:76] Creating layer conv1
I1111 07:12:32.584255  3941 net.cpp:106] Creating Layer conv1
I1111 07:12:32.584300  3941 net.cpp:454] conv1 <- data
I1111 07:12:32.584403  3941 net.cpp:411] conv1 -> conv1
I1111 07:12:32.587720  3941 net.cpp:150] Setting up conv1
I1111 07:12:32.587793  3941 net.cpp:157] Top shape: 1 96 55 55 (290400)
I1111 07:12:32.587821  3941 net.cpp:165] Memory required for data: 1161600
I1111 07:12:32.587939  3941 layer_factory.hpp:76] Creating layer relu1
I1111 07:12:32.588047  3941 net.cpp:106] Creating Layer relu1
I1111 07:12:32.588093  3941 net.cpp:454] relu1 <- conv1
I1111 07:12:32.588155  3941 net.cpp:397] relu1 -> conv1 (in-place)
I1111 07:12:32.588230  3941 net.cpp:150] Setting up relu1
I1111 07:12:32.588294  3941 net.cpp:157] Top shape: 1 96 55 55 (290400)
I1111 07:12:32.588320  3941 net.cpp:165] Memory required for data: 2323200
I1111 07:12:32.588351  3941 layer_factory.hpp:76] Creating layer pool1
I1111 07:12:32.588429  3941 net.cpp:106] Creating Layer pool1
I1111 07:12:32.588470  3941 net.cpp:454] pool1 <- conv1
I1111 07:12:32.588537  3941 net.cpp:411] pool1 -> pool1
I1111 07:12:32.588743  3941 net.cpp:150] Setting up pool1
I1111 07:12:32.588801  3941 net.cpp:157] Top shape: 1 96 27 27 (69984)
I1111 07:12:32.588829  3941 net.cpp:165] Memory required for data: 2603136
I1111 07:12:32.588860  3941 layer_factory.hpp:76] Creating layer norm1
I1111 07:12:32.588922  3941 net.cpp:106] Creating Layer norm1
I1111 07:12:32.588959  3941 net.cpp:454] norm1 <- pool1
I1111 07:12:32.589027  3941 net.cpp:411] norm1 -> norm1
I1111 07:12:32.589193  3941 net.cpp:150] Setting up norm1
I1111 07:12:32.589282  3941 net.cpp:157] Top shape: 1 96 27 27 (69984)
I1111 07:12:32.589310  3941 net.cpp:165] Memory required for data: 2883072
I1111 07:12:32.589341  3941 layer_factory.hpp:76] Creating layer conv2
I1111 07:12:32.589426  3941 net.cpp:106] Creating Layer conv2
I1111 07:12:32.589468  3941 net.cpp:454] conv2 <- norm1
I1111 07:12:32.589540  3941 net.cpp:411] conv2 -> conv2
I1111 07:12:32.593533  3941 net.cpp:150] Setting up conv2
I1111 07:12:32.593569  3941 net.cpp:157] Top shape: 1 256 27 27 (186624)
I1111 07:12:32.593582  3941 net.cpp:165] Memory required for data: 3629568
I1111 07:12:32.593633  3941 layer_factory.hpp:76] Creating layer relu2
I1111 07:12:32.593667  3941 net.cpp:106] Creating Layer relu2
I1111 07:12:32.593688  3941 net.cpp:454] relu2 <- conv2
I1111 07:12:32.593718  3941 net.cpp:397] relu2 -> conv2 (in-place)
I1111 07:12:32.593750  3941 net.cpp:150] Setting up relu2
I1111 07:12:32.593766  3941 net.cpp:157] Top shape: 1 256 27 27 (186624)
I1111 07:12:32.593777  3941 net.cpp:165] Memory required for data: 4376064
I1111 07:12:32.593791  3941 layer_factory.hpp:76] Creating layer pool2
I1111 07:12:32.593819  3941 net.cpp:106] Creating Layer pool2
I1111 07:12:32.593837  3941 net.cpp:454] pool2 <- conv2
I1111 07:12:32.593866  3941 net.cpp:411] pool2 -> pool2
I1111 07:12:32.593951  3941 net.cpp:150] Setting up pool2
I1111 07:12:32.593977  3941 net.cpp:157] Top shape: 1 256 13 13 (43264)
I1111 07:12:32.593989  3941 net.cpp:165] Memory required for data: 4549120
I1111 07:12:32.594003  3941 layer_factory.hpp:76] Creating layer norm2
I1111 07:12:32.594034  3941 net.cpp:106] Creating Layer norm2
I1111 07:12:32.594053  3941 net.cpp:454] norm2 <- pool2
I1111 07:12:32.594084  3941 net.cpp:411] norm2 -> norm2
I1111 07:12:32.594159  3941 net.cpp:150] Setting up norm2
I1111 07:12:32.594184  3941 net.cpp:157] Top shape: 1 256 13 13 (43264)
I1111 07:12:32.594197  3941 net.cpp:165] Memory required for data: 4722176
I1111 07:12:32.594209  3941 layer_factory.hpp:76] Creating layer conv3
I1111 07:12:32.594249  3941 net.cpp:106] Creating Layer conv3
I1111 07:12:32.594269  3941 net.cpp:454] conv3 <- norm2
I1111 07:12:32.594300  3941 net.cpp:411] conv3 -> conv3
I1111 07:12:32.599405  3941 net.cpp:150] Setting up conv3
I1111 07:12:32.599448  3941 net.cpp:157] Top shape: 1 384 13 13 (64896)
I1111 07:12:32.599460  3941 net.cpp:165] Memory required for data: 4981760
I1111 07:12:32.599519  3941 layer_factory.hpp:76] Creating layer relu3
I1111 07:12:32.599560  3941 net.cpp:106] Creating Layer relu3
I1111 07:12:32.599581  3941 net.cpp:454] relu3 <- conv3
I1111 07:12:32.599613  3941 net.cpp:397] relu3 -> conv3 (in-place)
I1111 07:12:32.599649  3941 net.cpp:150] Setting up relu3
I1111 07:12:32.599666  3941 net.cpp:157] Top shape: 1 384 13 13 (64896)
I1111 07:12:32.599676  3941 net.cpp:165] Memory required for data: 5241344
I1111 07:12:32.599689  3941 layer_factory.hpp:76] Creating layer conv4
I1111 07:12:32.599720  3941 net.cpp:106] Creating Layer conv4
I1111 07:12:32.599738  3941 net.cpp:454] conv4 <- conv3
I1111 07:12:32.599771  3941 net.cpp:411] conv4 -> conv4
I1111 07:12:32.607298  3941 net.cpp:150] Setting up conv4
I1111 07:12:32.607345  3941 net.cpp:157] Top shape: 1 384 13 13 (64896)
I1111 07:12:32.607363  3941 net.cpp:165] Memory required for data: 5500928
I1111 07:12:32.607400  3941 layer_factory.hpp:76] Creating layer relu4
I1111 07:12:32.607439  3941 net.cpp:106] Creating Layer relu4
I1111 07:12:32.607462  3941 net.cpp:454] relu4 <- conv4
I1111 07:12:32.607498  3941 net.cpp:397] relu4 -> conv4 (in-place)
I1111 07:12:32.607534  3941 net.cpp:150] Setting up relu4
I1111 07:12:32.607553  3941 net.cpp:157] Top shape: 1 384 13 13 (64896)
I1111 07:12:32.607563  3941 net.cpp:165] Memory required for data: 5760512
I1111 07:12:32.607575  3941 layer_factory.hpp:76] Creating layer conv5
I1111 07:12:32.607609  3941 net.cpp:106] Creating Layer conv5
I1111 07:12:32.607625  3941 net.cpp:454] conv5 <- conv4
I1111 07:12:32.607656  3941 net.cpp:411] conv5 -> conv5
I1111 07:12:32.612989  3941 net.cpp:150] Setting up conv5
I1111 07:12:32.613031  3941 net.cpp:157] Top shape: 1 256 13 13 (43264)
I1111 07:12:32.613044  3941 net.cpp:165] Memory required for data: 5933568
I1111 07:12:32.613104  3941 layer_factory.hpp:76] Creating layer relu5
I1111 07:12:32.613144  3941 net.cpp:106] Creating Layer relu5
I1111 07:12:32.613168  3941 net.cpp:454] relu5 <- conv5
I1111 07:12:32.613199  3941 net.cpp:397] relu5 -> conv5 (in-place)
I1111 07:12:32.613235  3941 net.cpp:150] Setting up relu5
I1111 07:12:32.613253  3941 net.cpp:157] Top shape: 1 256 13 13 (43264)
I1111 07:12:32.613263  3941 net.cpp:165] Memory required for data: 6106624
I1111 07:12:32.613276  3941 layer_factory.hpp:76] Creating layer pool5
I1111 07:12:32.613306  3941 net.cpp:106] Creating Layer pool5
I1111 07:12:32.613323  3941 net.cpp:454] pool5 <- conv5
I1111 07:12:32.613358  3941 net.cpp:411] pool5 -> pool5
I1111 07:12:32.613450  3941 net.cpp:150] Setting up pool5
I1111 07:12:32.613474  3941 net.cpp:157] Top shape: 1 256 6 6 (9216)
I1111 07:12:32.613487  3941 net.cpp:165] Memory required for data: 6143488
I1111 07:12:32.613502  3941 layer_factory.hpp:76] Creating layer fc6
I1111 07:12:32.613530  3941 net.cpp:106] Creating Layer fc6
I1111 07:12:32.613548  3941 net.cpp:454] fc6 <- pool5
I1111 07:12:32.613586  3941 net.cpp:411] fc6 -> fc6
I1111 07:12:32.841148  3941 net.cpp:150] Setting up fc6
I1111 07:12:32.841212  3941 net.cpp:157] Top shape: 1 4096 (4096)
I1111 07:12:32.841225  3941 net.cpp:165] Memory required for data: 6159872
I1111 07:12:32.841265  3941 layer_factory.hpp:76] Creating layer relu6
I1111 07:12:32.841320  3941 net.cpp:106] Creating Layer relu6
I1111 07:12:32.841346  3941 net.cpp:454] relu6 <- fc6
I1111 07:12:32.841390  3941 net.cpp:397] relu6 -> fc6 (in-place)
I1111 07:12:32.841428  3941 net.cpp:150] Setting up relu6
I1111 07:12:32.841445  3941 net.cpp:157] Top shape: 1 4096 (4096)
I1111 07:12:32.841456  3941 net.cpp:165] Memory required for data: 6176256
I1111 07:12:32.841469  3941 layer_factory.hpp:76] Creating layer drop6
I1111 07:12:32.841506  3941 net.cpp:106] Creating Layer drop6
I1111 07:12:32.841524  3941 net.cpp:454] drop6 <- fc6
I1111 07:12:32.841552  3941 net.cpp:397] drop6 -> fc6 (in-place)
I1111 07:12:32.841616  3941 net.cpp:150] Setting up drop6
I1111 07:12:32.841637  3941 net.cpp:157] Top shape: 1 4096 (4096)
I1111 07:12:32.841648  3941 net.cpp:165] Memory required for data: 6192640
I1111 07:12:32.841661  3941 layer_factory.hpp:76] Creating layer fc7
I1111 07:12:32.841691  3941 net.cpp:106] Creating Layer fc7
I1111 07:12:32.841708  3941 net.cpp:454] fc7 <- fc6
I1111 07:12:32.841738  3941 net.cpp:411] fc7 -> fc7
I1111 07:12:32.928593  3941 net.cpp:150] Setting up fc7
I1111 07:12:32.928688  3941 net.cpp:157] Top shape: 1 4096 (4096)
I1111 07:12:32.928699  3941 net.cpp:165] Memory required for data: 6209024
I1111 07:12:32.928745  3941 layer_factory.hpp:76] Creating layer relu7
I1111 07:12:32.928798  3941 net.cpp:106] Creating Layer relu7
I1111 07:12:32.928825  3941 net.cpp:454] relu7 <- fc7
I1111 07:12:32.928872  3941 net.cpp:397] relu7 -> fc7 (in-place)
I1111 07:12:32.928916  3941 net.cpp:150] Setting up relu7
I1111 07:12:32.928933  3941 net.cpp:157] Top shape: 1 4096 (4096)
I1111 07:12:32.928943  3941 net.cpp:165] Memory required for data: 6225408
I1111 07:12:32.928956  3941 layer_factory.hpp:76] Creating layer drop7
I1111 07:12:32.928987  3941 net.cpp:106] Creating Layer drop7
I1111 07:12:32.929004  3941 net.cpp:454] drop7 <- fc7
I1111 07:12:32.929033  3941 net.cpp:397] drop7 -> fc7 (in-place)
I1111 07:12:32.929095  3941 net.cpp:150] Setting up drop7
I1111 07:12:32.929116  3941 net.cpp:157] Top shape: 1 4096 (4096)
I1111 07:12:32.929126  3941 net.cpp:165] Memory required for data: 6241792
I1111 07:12:32.929139  3941 layer_factory.hpp:76] Creating layer fc8
I1111 07:12:32.929170  3941 net.cpp:106] Creating Layer fc8
I1111 07:12:32.929188  3941 net.cpp:454] fc8 <- fc7
I1111 07:12:32.929221  3941 net.cpp:411] fc8 -> fc8
I1111 07:12:32.950800  3941 net.cpp:150] Setting up fc8
I1111 07:12:32.950855  3941 net.cpp:157] Top shape: 1 1000 (1000)
I1111 07:12:32.950868  3941 net.cpp:165] Memory required for data: 6245792
I1111 07:12:32.950906  3941 layer_factory.hpp:76] Creating layer prob
I1111 07:12:32.950955  3941 net.cpp:106] Creating Layer prob
I1111 07:12:32.950984  3941 net.cpp:454] prob <- fc8
I1111 07:12:32.951021  3941 net.cpp:411] prob -> prob
I1111 07:12:32.951143  3941 net.cpp:150] Setting up prob
I1111 07:12:32.951167  3941 net.cpp:157] Top shape: 1 1000 (1000)
I1111 07:12:32.951179  3941 net.cpp:165] Memory required for data: 6249792
I1111 07:12:32.951195  3941 net.cpp:228] prob does not need backward computation.
I1111 07:12:32.951208  3941 net.cpp:228] fc8 does not need backward computation.
I1111 07:12:32.951222  3941 net.cpp:228] drop7 does not need backward computation.
I1111 07:12:32.951236  3941 net.cpp:228] relu7 does not need backward computation.
…
I1111 07:12:35.669008  3941 net.cpp:923] Copying source layer drop6
I1111 07:12:35.669018  3941 net.cpp:923] Copying source layer fc7
I1111 07:12:35.876551  3941 net.cpp:923] Copying source layer relu7
I1111 07:12:35.876580  3941 net.cpp:923] Copying source layer drop7
I1111 07:12:35.876591  3941 net.cpp:923] Copying source layer fc8
I1111 07:12:35.927392  3941 net.cpp:920] Ignoring source layer loss
I1111 07:12:36.004006  3941 net.cpp:49] Initializing net from parameters: 
name: "CaffeNet"
input: "data"
input_dim: 1
input_dim: 3
input_dim: 227
input_dim: 227
force_backward: true
state {
  phase: TEST
}
layer {
  name: "conv1"
  type: "Convolution"
  bottom: "data"
  top: "conv1"
  convolution_param {
    num_output: 96
    kernel_size: 11
    stride: 4
  }
}
layer {
  name: "relu1"
  type: "ReLU"
  bottom: "conv1"
  top: "conv1"
}
layer {
  name: "pool1"
  type: "Pooling"
  bottom: "conv1"
  top: "pool1"
  pooling_param {
    pool: MAX
    kernel_size: 3
    stride: 2
  }
}
layer {
  name: "norm1"
  type: "LRN"
  bottom: "pool1"
  top: "norm1"
  lrn_param {
    local_size: 5
    alpha: 0.0001
    beta: 0.75
  }
}
layer {
  name: "conv2"
  type: "Convolution"
  bottom: "norm1"
  top: "conv2"
  convolution_param {
    num_output: 256
    pad: 2
    kernel_size: 5
  }
}
layer {
  name: "relu2"
  type: "ReLU"
  bottom: "conv2"
  top: "conv2"
}
layer {
  name: "pool2"
  type: "Pooling"
  bottom: "conv2"
  top: "pool2"
  pooling_param {
    pool: MAX
    kernel_size: 3
    stride: 2
  }
}
layer {
  name: "norm2"
  type: "LRN"
  bottom: "pool2"
  top: "norm2"
  lrn_param {
    local_size: 5
    alpha: 0.0001
    beta: 0.75
  }
}
layer {
  name: "conv3"
  type: "Convolution"
  bottom: "norm2"
  top: "conv3"
  convolution_param {
    num_output: 384
    pad: 1
    kernel_size: 3
  }
}
layer {
  name: "relu3"
  type: "ReLU"
  bottom: "conv3"
  top: "conv3"
}
layer {
  name: "conv4"
  type: "Convolution"
  bottom: "conv3"
  top: "conv4"
  convolution_param {
    num_output: 384
    pad: 1
    kernel_size: 3
  }
}
layer {
  name: "relu4"
  type: "ReLU"
  bottom: "conv4"
  top: "conv4"
}
layer {
  name: "conv5"
  type: "Convolution"
  bottom: "conv4"
  top: "conv5"
  convolution_param {
    num_output: 256
    pad: 1
    kernel_size: 3
  }
}
layer {
  name: "relu5"
  type: "ReLU"
  bottom: "conv5"
  top: "conv5"
}
layer {
  name: "pool5"
  type: "Pooling"
  bottom: "conv5"
  top: "pool5"
  pooling_param {
    pool: MAX
    kernel_size: 3
    stride: 2
  }
}
layer {
  name: "fc6"
  type: "InnerProduct"
  bottom: "pool5"
  top: "fc6"
  inner_product_param {
    num_output: 4096
  }
}
layer {
  name: "relu6"
  type: "ReLU"
  bottom: "fc6"
  top: "fc6"
}
layer {
  name: "drop6"
  type: "Dropout"
  bottom: "fc6"
  top: "fc6"
  dropout_param {
    dropout_ratio: 0.5
  }
}
layer {
  name: "fc7"
  type: "InnerProduct"
  bottom: "fc6"
  top: "fc7"
  inner_product_param {
    num_output: 4096
  }
}
layer {
  name: "relu7"
  type: "ReLU"
  bottom: "fc7"
  top: "fc7"
}
layer {
  name: "drop7"
  type: "Dropout"
  bottom: "fc7"
  top: "fc7"
  dropout_param {
    dropout_ratio: 0.5
  }
}
layer {
  name: "fc8"
  type: "InnerProduct"
  bottom: "fc7"
  top: "fc8"
  inner_product_param {
    num_output: 1000
  }
}
layer {
  name: "prob"
  type: "Softmax"
  bottom: "fc8"
  top: "prob"
}
I1111 07:12:36.004534  3941 net.cpp:413] Input 0 -> data
I1111 07:12:36.004858  3941 layer_factory.hpp:76] Creating layer conv1
I1111 07:12:36.004959  3941 net.cpp:106] Creating Layer conv1
I1111 07:12:36.005018  3941 net.cpp:454] conv1 <- data
I1111 07:12:36.005095  3941 net.cpp:411] conv1 -> conv1
I1111 07:12:36.006031  3941 net.cpp:150] Setting up conv1
I1111 07:12:36.006098  3941 net.cpp:157] Top shape: 1 96 55 55 (290400)
I1111 07:12:36.006124  3941 net.cpp:165] Memory required for data: 1161600
I1111 07:12:36.006235  3941 layer_factory.hpp:76] Creating layer relu1
I1111 07:12:36.006306  3941 net.cpp:106] Creating Layer relu1
I1111 07:12:36.006346  3941 net.cpp:454] relu1 <- conv1
I1111 07:12:36.006407  3941 net.cpp:397] relu1 -> conv1 (in-place)
I1111 07:12:36.006472  3941 net.cpp:150] Setting up relu1
I1111 07:12:36.006520  3941 net.cpp:157] Top shape: 1 96 55 55 (290400)
I1111 07:12:36.006546  3941 net.cpp:165] Memory required for data: 2323200
I1111 07:12:36.006575  3941 layer_factory.hpp:76] Creating layer pool1
I1111 07:12:36.006641  3941 net.cpp:106] Creating Layer pool1
I1111 07:12:36.006680  3941 net.cpp:454] pool1 <- conv1
I1111 07:12:36.006747  3941 net.cpp:411] pool1 -> pool1
I1111 07:12:36.006932  3941 net.cpp:150] Setting up pool1
I1111 07:12:36.006990  3941 net.cpp:157] Top shape: 1 96 27 27 (69984)
I1111 07:12:36.007015  3941 net.cpp:165] Memory required for data: 2603136
I1111 07:12:36.007046  3941 layer_factory.hpp:76] Creating layer norm1
I1111 07:12:36.007105  3941 net.cpp:106] Creating Layer norm1
I1111 07:12:36.007143  3941 net.cpp:454] norm1 <- pool1
I1111 07:12:36.007211  3941 net.cpp:411] norm1 -> norm1
I1111 07:12:36.007372  3941 net.cpp:150] Setting up norm1
I1111 07:12:36.007426  3941 net.cpp:157] Top shape: 1 96 27 27 (69984)
I1111 07:12:36.007449  3941 net.cpp:165] Memory required for data: 2883072
I1111 07:12:36.007479  3941 layer_factory.hpp:76] Creating layer conv2
I1111 07:12:36.007560  3941 net.cpp:106] Creating Layer conv2
I1111 07:12:36.007601  3941 net.cpp:454] conv2 <- norm1
I1111 07:12:36.007671  3941 net.cpp:411] conv2 -> conv2
I1111 07:12:36.012794  3941 net.cpp:150] Setting up conv2
I1111 07:12:36.012820  3941 net.cpp:157] Top shape: 1 256 27 27 (186624)
I1111 07:12:36.012831  3941 net.cpp:165] Memory required for data: 3629568
I1111 07:12:36.012867  3941 layer_factory.hpp:76] Creating layer relu2
I1111 07:12:36.012892  3941 net.cpp:106] Creating Layer relu2
I1111 07:12:36.012907  3941 net.cpp:454] relu2 <- conv2
I1111 07:12:36.012933  3941 net.cpp:397] relu2 -> conv2 (in-place)
I1111 07:12:36.012959  3941 net.cpp:150] Setting up relu2
I1111 07:12:36.012974  3941 net.cpp:157] Top shape: 1 256 27 27 (186624)
I1111 07:12:36.012984  3941 net.cpp:165] Memory required for data: 4376064
I1111 07:12:36.012995  3941 layer_factory.hpp:76] Creating layer pool2
I1111 07:12:36.013016  3941 net.cpp:106] Creating Layer pool2
I1111 07:12:36.013031  3941 net.cpp:454] pool2 <- conv2
I1111 07:12:36.013056  3941 net.cpp:411] pool2 -> pool2
I1111 07:12:36.013128  3941 net.cpp:150] Setting up pool2
I1111 07:12:36.013149  3941 net.cpp:157] Top shape: 1 256 13 13 (43264)
I1111 07:12:36.013159  3941 net.cpp:165] Memory required for data: 4549120
I1111 07:12:36.013170  3941 layer_factory.hpp:76] Creating layer norm2
I1111 07:12:36.013195  3941 net.cpp:106] Creating Layer norm2
I1111 07:12:36.013209  3941 net.cpp:454] norm2 <- pool2
I1111 07:12:36.013236  3941 net.cpp:411] norm2 -> norm2
I1111 07:12:36.013300  3941 net.cpp:150] Setting up norm2
I1111 07:12:36.013321  3941 net.cpp:157] Top shape: 1 256 13 13 (43264)
I1111 07:12:36.013330  3941 net.cpp:165] Memory required for data: 4722176
I1111 07:12:36.013344  3941 layer_factory.hpp:76] Creating layer conv3
I1111 07:12:36.013371  3941 net.cpp:106] Creating Layer conv3
I1111 07:12:36.013387  3941 net.cpp:454] conv3 <- norm2
I1111 07:12:36.013416  3941 net.cpp:411] conv3 -> conv3
I1111 07:12:36.017999  3941 net.cpp:150] Setting up conv3
I1111 07:12:36.018034  3941 net.cpp:157] Top shape: 1 384 13 13 (64896)
I1111 07:12:36.018045  3941 net.cpp:165] Memory required for data: 4981760
I1111 07:12:36.018096  3941 layer_factory.hpp:76] Creating layer relu3
I1111 07:12:36.018129  3941 net.cpp:106] Creating Layer relu3
I1111 07:12:36.018148  3941 net.cpp:454] relu3 <- conv3
I1111 07:12:36.018175  3941 net.cpp:397] relu3 -> conv3 (in-place)
I1111 07:12:36.018206  3941 net.cpp:150] Setting up relu3
I1111 07:12:36.018221  3941 net.cpp:157] Top shape: 1 384 13 13 (64896)
I1111 07:12:36.018230  3941 net.cpp:165] Memory required for data: 5241344
I1111 07:12:36.018241  3941 layer_factory.hpp:76] Creating layer conv4
I1111 07:12:36.018270  3941 net.cpp:106] Creating Layer conv4
I1111 07:12:36.018286  3941 net.cpp:454] conv4 <- conv3
I1111 07:12:36.018316  3941 net.cpp:411] conv4 -> conv4
I1111 07:12:36.024898  3941 net.cpp:150] Setting up conv4
I1111 07:12:36.024938  3941 net.cpp:157] Top shape: 1 384 13 13 (64896)
I1111 07:12:36.024950  3941 net.cpp:165] Memory required for data: 5500928
I1111 07:12:36.024981  3941 layer_factory.hpp:76] Creating layer relu4
I1111 07:12:36.025017  3941 net.cpp:106] Creating Layer relu4
I1111 07:12:36.025037  3941 net.cpp:454] relu4 <- conv4
I1111 07:12:36.025068  3941 net.cpp:397] relu4 -> conv4 (in-place)
I1111 07:12:36.025101  3941 net.cpp:150] Setting up relu4
I1111 07:12:36.025116  3941 net.cpp:157] Top shape: 1 384 13 13 (64896)
I1111 07:12:36.025125  3941 net.cpp:165] Memory required for data: 5760512
I1111 07:12:36.025136  3941 layer_factory.hpp:76] Creating layer conv5
I1111 07:12:36.025167  3941 net.cpp:106] Creating Layer conv5
I1111 07:12:36.025182  3941 net.cpp:454] conv5 <- conv4
I1111 07:12:36.025210  3941 net.cpp:411] conv5 -> conv5
I1111 07:12:36.029764  3941 net.cpp:150] Setting up conv5
I1111 07:12:36.029794  3941 net.cpp:157] Top shape: 1 256 13 13 (43264)
I1111 07:12:36.029805  3941 net.cpp:165] Memory required for data: 5933568
I1111 07:12:36.029851  3941 layer_factory.hpp:76] Creating layer relu5
I1111 07:12:36.029881  3941 net.cpp:106] Creating Layer relu5
I1111 07:12:36.029897  3941 net.cpp:454] relu5 <- conv5
I1111 07:12:36.029922  3941 net.cpp:397] relu5 -> conv5 (in-place)
I1111 07:12:36.029948  3941 net.cpp:150] Setting up relu5
I1111 07:12:36.029963  3941 net.cpp:157] Top shape: 1 256 13 13 (43264)
I1111 07:12:36.029973  3941 net.cpp:165] Memory required for data: 6106624
I1111 07:12:36.029983  3941 layer_factory.hpp:76] Creating layer pool5
I1111 07:12:36.030010  3941 net.cpp:106] Creating Layer pool5
I1111 07:12:36.030025  3941 net.cpp:454] pool5 <- conv5
I1111 07:12:36.030055  3941 net.cpp:411] pool5 -> pool5
I1111 07:12:36.030133  3941 net.cpp:150] Setting up pool5
I1111 07:12:36.030154  3941 net.cpp:157] Top shape: 1 256 6 6 (9216)
I1111 07:12:36.030164  3941 net.cpp:165] Memory required for data: 6143488
I1111 07:12:36.030176  3941 layer_factory.hpp:76] Creating layer fc6
I1111 07:12:36.030206  3941 net.cpp:106] Creating Layer fc6
I1111 07:12:36.030222  3941 net.cpp:454] fc6 <- pool5
I1111 07:12:36.030251  3941 net.cpp:411] fc6 -> fc6
I1111 07:12:36.218997  3941 net.cpp:150] Setting up fc6
I1111 07:12:36.219045  3941 net.cpp:157] Top shape: 1 4096 (4096)
I1111 07:12:36.219056  3941 net.cpp:165] Memory required for data: 6159872
I1111 07:12:36.219090  3941 layer_factory.hpp:76] Creating layer relu6
I1111 07:12:36.219138  3941 net.cpp:106] Creating Layer relu6
I1111 07:12:36.219159  3941 net.cpp:454] relu6 <- fc6
I1111 07:12:36.219194  3941 net.cpp:397] relu6 -> fc6 (in-place)
I1111 07:12:36.219228  3941 net.cpp:150] Setting up relu6
I1111 07:12:36.219244  3941 net.cpp:157] Top shape: 1 4096 (4096)
I1111 07:12:36.219252  3941 net.cpp:165] Memory required for data: 6176256
I1111 07:12:36.219264  3941 layer_factory.hpp:76] Creating layer drop6
I1111 07:12:36.219288  3941 net.cpp:106] Creating Layer drop6
I1111 07:12:36.219303  3941 net.cpp:454] drop6 <- fc6
I1111 07:12:36.219331  3941 net.cpp:397] drop6 -> fc6 (in-place)
I1111 07:12:36.219383  3941 net.cpp:150] Setting up drop6
I1111 07:12:36.219401  3941 net.cpp:157] Top shape: 1 4096 (4096)
I1111 07:12:36.219410  3941 net.cpp:165] Memory required for data: 6192640
I1111 07:12:36.219422  3941 layer_factory.hpp:76] Creating layer fc7
I1111 07:12:36.219447  3941 net.cpp:106] Creating Layer fc7
I1111 07:12:36.219462  3941 net.cpp:454] fc7 <- fc6
I1111 07:12:36.219491  3941 net.cpp:411] fc7 -> fc7
I1111 07:12:36.295727  3941 net.cpp:150] Setting up fc7
I1111 07:12:36.295816  3941 net.cpp:157] Top shape: 1 4096 (4096)
I1111 07:12:36.295827  3941 net.cpp:165] Memory required for data: 6209024
I1111 07:12:36.295871  3941 layer_factory.hpp:76] Creating layer relu7
I1111 07:12:36.295922  3941 net.cpp:106] Creating Layer relu7
I1111 07:12:36.295953  3941 net.cpp:454] relu7 <- fc7
I1111 07:12:36.295996  3941 net.cpp:397] relu7 -> fc7 (in-place)
I1111 07:12:36.296036  3941 net.cpp:150] Setting up relu7
I1111 07:12:36.296051  3941 net.cpp:157] Top shape: 1 4096 (4096)
I1111 07:12:36.296059  3941 net.cpp:165] Memory required for data: 6225408
I1111 07:12:36.296072  3941 layer_factory.hpp:76] Creating layer drop7
I1111 07:12:36.296099  3941 net.cpp:106] Creating Layer drop7
I1111 07:12:36.296114  3941 net.cpp:454] drop7 <- fc7
I1111 07:12:36.296139  3941 net.cpp:397] drop7 -> fc7 (in-place)
I1111 07:12:36.296195  3941 net.cpp:150] Setting up drop7
I1111 07:12:36.296213  3941 net.cpp:157] Top shape: 1 4096 (4096)
I1111 07:12:36.296223  3941 net.cpp:165] Memory required for data: 6241792
I1111 07:12:36.296234  3941 layer_factory.hpp:76] Creating layer fc8
I1111 07:12:36.296267  3941 net.cpp:106] Creating Layer fc8
I1111 07:12:36.296283  3941 net.cpp:454] fc8 <- fc7
I1111 07:12:36.296309  3941 net.cpp:411] fc8 -> fc8
I1111 07:12:36.315567  3941 net.cpp:150] Setting up fc8
I1111 07:12:36.315634  3941 net.cpp:157] Top shape: 1 1000 (1000)
I1111 07:12:36.315644  3941 net.cpp:165] Memory required for data: 6245792
I1111 07:12:36.315685  3941 layer_factory.hpp:76] Creating layer prob
I1111 07:12:36.315732  3941 net.cpp:106] Creating Layer prob
I1111 07:12:36.315755  3941 net.cpp:454] prob <- fc8
I1111 07:12:36.315796  3941 net.cpp:411] prob -> prob
I1111 07:12:36.315914  3941 net.cpp:150] Setting up prob
I1111 07:12:36.315937  3941 net.cpp:157] Top shape: 1 1000 (1000)
I1111 07:12:36.315946  3941 net.cpp:165] Memory required for data: 6249792
I1111 07:12:36.315960  3941 net.cpp:228] prob does not need backward computation.
I1111 07:12:36.315974  3941 net.cpp:228] fc8 does not need backward computation.
I1111 07:12:36.315985  3941 net.cpp:228] drop7 does not need backward computation.
I1111 07:12:36.315997  3941 net.cpp:228] relu7 does not need backward computation.
…
