…
gamma: 0.5
momentum: 0.98
weight_decay: 0.0025119
stepsize: 1500
snapshot: 1000
snapshot_prefix: "stitch"
solver_mode: GPU
random_seed: 0
net: "network.prototxt"
regularization_type: "L1"
I1111 06:56:08.171530  2442 solver.cpp:90] Creating training net from net file: network.prototxt
I1111 06:56:08.184931  2442 net.cpp:49] Initializing net from parameters: 
name: "StitchNet"
input: "net0"
input: "net1"
input_dim: 32
input_dim: 96
input_dim: 55
input_dim: 55
input_dim: 32
input_dim: 96
input_dim: 55
input_dim: 55
state {
  phase: TRAIN
}
debug_info: true
layer {
  name: "stitch0"
  type: "Convolution"
  bottom: "net0"
  top: "stitch0"
  convolution_param {
    num_output: 96
    kernel_size: 1
    stride: 1
    weight_filler {
      type: "gaussian"
      std: 0.01
    }
  }
}
layer {
  name: "loss"
  type: "EuclideanLoss"
  bottom: "stitch0"
  bottom: "net1"
  top: "loss"
  loss_weight: 1
}
I1111 06:56:08.185096  2442 net.cpp:413] Input 0 -> net0
I1111 06:56:08.213901  2442 net.cpp:413] Input 1 -> net1
I1111 06:56:08.214112  2442 layer_factory.hpp:76] Creating layer stitch0
I1111 06:56:08.214210  2442 net.cpp:106] Creating Layer stitch0
I1111 06:56:08.214231  2442 net.cpp:454] stitch0 <- net0
I1111 06:56:08.214269  2442 net.cpp:411] stitch0 -> stitch0
I1111 06:56:08.216615  2442 net.cpp:150] Setting up stitch0
I1111 06:56:08.216670  2442 net.cpp:157] Top shape: 32 96 55 55 (9292800)
I1111 06:56:08.216681  2442 net.cpp:165] Memory required for data: 37171200
I1111 06:56:08.216747  2442 layer_factory.hpp:76] Creating layer loss
I1111 06:56:08.216780  2442 net.cpp:106] Creating Layer loss
I1111 06:56:08.216796  2442 net.cpp:454] loss <- stitch0
I1111 06:56:08.216817  2442 net.cpp:454] loss <- net1
I1111 06:56:08.216840  2442 net.cpp:411] loss -> loss
I1111 06:56:08.216915  2442 net.cpp:150] Setting up loss
I1111 06:56:08.216936  2442 net.cpp:157] Top shape: (1)
I1111 06:56:08.216946  2442 net.cpp:160]     with loss weight 1
I1111 06:56:08.216969  2442 net.cpp:165] Memory required for data: 37171204
I1111 06:56:08.216986  2442 net.cpp:226] loss needs backward computation.
I1111 06:56:08.217000  2442 net.cpp:226] stitch0 needs backward computation.
I1111 06:56:08.217012  2442 net.cpp:270] This network produces output loss
I1111 06:56:08.217036  2442 net.cpp:283] Network initialization done.
I1111 06:56:08.217089  2442 solver.cpp:59] Solver scaffolding done.
I1111 06:56:08.217908  2442 net.cpp:49] Initializing net from parameters: 
name: "CaffeNet"
input: "data"
input_dim: 1
input_dim: 3
input_dim: 227
input_dim: 227
force_backward: true
state {
  phase: TEST
}
layer {
  name: "conv1"
  type: "Convolution"
  bottom: "data"
  top: "conv1"
  convolution_param {
    num_output: 96
    kernel_size: 11
    stride: 4
  }
}
layer {
  name: "relu1"
  type: "ReLU"
  bottom: "conv1"
  top: "conv1"
}
layer {
  name: "pool1"
  type: "Pooling"
  bottom: "conv1"
  top: "pool1"
  pooling_param {
    pool: MAX
    kernel_size: 3
    stride: 2
  }
}
layer {
  name: "norm1"
  type: "LRN"
  bottom: "pool1"
  top: "norm1"
  lrn_param {
    local_size: 5
    alpha: 0.0001
    beta: 0.75
  }
}
layer {
  name: "conv2"
  type: "Convolution"
  bottom: "norm1"
  top: "conv2"
  convolution_param {
    num_output: 256
    pad: 2
    kernel_size: 5
  }
}
layer {
  name: "relu2"
  type: "ReLU"
  bottom: "conv2"
  top: "conv2"
}
layer {
  name: "pool2"
  type: "Pooling"
  bottom: "conv2"
  top: "pool2"
  pooling_param {
    pool: MAX
    kernel_size: 3
    stride: 2
  }
}
layer {
  name: "norm2"
  type: "LRN"
  bottom: "pool2"
  top: "norm2"
  lrn_param {
    local_size: 5
    alpha: 0.0001
    beta: 0.75
  }
}
layer {
  name: "conv3"
  type: "Convolution"
  bottom: "norm2"
  top: "conv3"
  convolution_param {
    num_output: 384
    pad: 1
    kernel_size: 3
  }
}
layer {
  name: "relu3"
  type: "ReLU"
  bottom: "conv3"
  top: "conv3"
}
layer {
  name: "conv4"
  type: "Convolution"
  bottom: "conv3"
  top: "conv4"
  convolution_param {
    num_output: 384
    pad: 1
    kernel_size: 3
  }
}
layer {
  name: "relu4"
  type: "ReLU"
  bottom: "conv4"
  top: "conv4"
}
layer {
  name: "conv5"
  type: "Convolution"
  bottom: "conv4"
  top: "conv5"
  convolution_param {
    num_output: 256
    pad: 1
    kernel_size: 3
  }
}
layer {
  name: "relu5"
  type: "ReLU"
  bottom: "conv5"
  top: "conv5"
}
layer {
  name: "pool5"
  type: "Pooling"
  bottom: "conv5"
  top: "pool5"
  pooling_param {
    pool: MAX
    kernel_size: 3
    stride: 2
  }
}
layer {
  name: "fc6"
  type: "InnerProduct"
  bottom: "pool5"
  top: "fc6"
  inner_product_param {
    num_output: 4096
  }
}
layer {
  name: "relu6"
  type: "ReLU"
  bottom: "fc6"
  top: "fc6"
}
layer {
  name: "drop6"
  type: "Dropout"
  bottom: "fc6"
  top: "fc6"
  dropout_param {
    dropout_ratio: 0.5
  }
}
layer {
  name: "fc7"
  type: "InnerProduct"
  bottom: "fc6"
  top: "fc7"
  inner_product_param {
    num_output: 4096
  }
}
layer {
  name: "relu7"
  type: "ReLU"
  bottom: "fc7"
  top: "fc7"
}
layer {
  name: "drop7"
  type: "Dropout"
  bottom: "fc7"
  top: "fc7"
  dropout_param {
    dropout_ratio: 0.5
  }
}
layer {
  name: "fc8"
  type: "InnerProduct"
  bottom: "fc7"
  top: "fc8"
  inner_product_param {
    num_output: 1000
  }
}
layer {
  name: "prob"
  type: "Softmax"
  bottom: "fc8"
  top: "prob"
}
I1111 06:56:08.218133  2442 net.cpp:413] Input 0 -> data
I1111 06:56:08.218224  2442 layer_factory.hpp:76] Creating layer conv1
I1111 06:56:08.218257  2442 net.cpp:106] Creating Layer conv1
I1111 06:56:08.218273  2442 net.cpp:454] conv1 <- data
I1111 06:56:08.218300  2442 net.cpp:411] conv1 -> conv1
I1111 06:56:08.219213  2442 net.cpp:150] Setting up conv1
I1111 06:56:08.219239  2442 net.cpp:157] Top shape: 1 96 55 55 (290400)
I1111 06:56:08.219249  2442 net.cpp:165] Memory required for data: 1161600
I1111 06:56:08.219291  2442 layer_factory.hpp:76] Creating layer relu1
I1111 06:56:08.219326  2442 net.cpp:106] Creating Layer relu1
I1111 06:56:08.219341  2442 net.cpp:454] relu1 <- conv1
I1111 06:56:08.219369  2442 net.cpp:397] relu1 -> conv1 (in-place)
I1111 06:56:08.219399  2442 net.cpp:150] Setting up relu1
I1111 06:56:08.219414  2442 net.cpp:157] Top shape: 1 96 55 55 (290400)
I1111 06:56:08.219436  2442 net.cpp:165] Memory required for data: 2323200
I1111 06:56:08.219449  2442 layer_factory.hpp:76] Creating layer pool1
I1111 06:56:08.219476  2442 net.cpp:106] Creating Layer pool1
I1111 06:56:08.219492  2442 net.cpp:454] pool1 <- conv1
I1111 06:56:08.219521  2442 net.cpp:411] pool1 -> pool1
I1111 06:56:08.219604  2442 net.cpp:150] Setting up pool1
I1111 06:56:08.219629  2442 net.cpp:157] Top shape: 1 96 27 27 (69984)
I1111 06:56:08.219640  2442 net.cpp:165] Memory required for data: 2603136
I1111 06:56:08.219650  2442 layer_factory.hpp:76] Creating layer norm1
I1111 06:56:08.219676  2442 net.cpp:106] Creating Layer norm1
I1111 06:56:08.219691  2442 net.cpp:454] norm1 <- pool1
I1111 06:56:08.219719  2442 net.cpp:411] norm1 -> norm1
I1111 06:56:08.219789  2442 net.cpp:150] Setting up norm1
I1111 06:56:08.219810  2442 net.cpp:157] Top shape: 1 96 27 27 (69984)
I1111 06:56:08.219818  2442 net.cpp:165] Memory required for data: 2883072
I1111 06:56:08.219830  2442 layer_factory.hpp:76] Creating layer conv2
I1111 06:56:08.219859  2442 net.cpp:106] Creating Layer conv2
I1111 06:56:08.219876  2442 net.cpp:454] conv2 <- norm1
I1111 06:56:08.219904  2442 net.cpp:411] conv2 -> conv2
I1111 06:56:08.223543  2442 net.cpp:150] Setting up conv2
I1111 06:56:08.223570  2442 net.cpp:157] Top shape: 1 256 27 27 (186624)
I1111 06:56:08.223582  2442 net.cpp:165] Memory required for data: 3629568
I1111 06:56:08.223616  2442 layer_factory.hpp:76] Creating layer relu2
I1111 06:56:08.223644  2442 net.cpp:106] Creating Layer relu2
I1111 06:56:08.223659  2442 net.cpp:454] relu2 <- conv2
I1111 06:56:08.223683  2442 net.cpp:397] relu2 -> conv2 (in-place)
I1111 06:56:08.223709  2442 net.cpp:150] Setting up relu2
I1111 06:56:08.223723  2442 net.cpp:157] Top shape: 1 256 27 27 (186624)
I1111 06:56:08.223731  2442 net.cpp:165] Memory required for data: 4376064
I1111 06:56:08.223742  2442 layer_factory.hpp:76] Creating layer pool2
I1111 06:56:08.223762  2442 net.cpp:106] Creating Layer pool2
I1111 06:56:08.223778  2442 net.cpp:454] pool2 <- conv2
I1111 06:56:08.223805  2442 net.cpp:411] pool2 -> pool2
I1111 06:56:08.223875  2442 net.cpp:150] Setting up pool2
I1111 06:56:08.223896  2442 net.cpp:157] Top shape: 1 256 13 13 (43264)
I1111 06:56:08.223906  2442 net.cpp:165] Memory required for data: 4549120
I1111 06:56:08.223917  2442 layer_factory.hpp:76] Creating layer norm2
I1111 06:56:08.223938  2442 net.cpp:106] Creating Layer norm2
I1111 06:56:08.223953  2442 net.cpp:454] norm2 <- pool2
I1111 06:56:08.223981  2442 net.cpp:411] norm2 -> norm2
I1111 06:56:08.224045  2442 net.cpp:150] Setting up norm2
I1111 06:56:08.224066  2442 net.cpp:157] Top shape: 1 256 13 13 (43264)
I1111 06:56:08.224076  2442 net.cpp:165] Memory required for data: 4722176
I1111 06:56:08.224086  2442 layer_factory.hpp:76] Creating layer conv3
I1111 06:56:08.224117  2442 net.cpp:106] Creating Layer conv3
I1111 06:56:08.224133  2442 net.cpp:454] conv3 <- norm2
I1111 06:56:08.224161  2442 net.cpp:411] conv3 -> conv3
I1111 06:56:08.228389  2442 net.cpp:150] Setting up conv3
I1111 06:56:08.228412  2442 net.cpp:157] Top shape: 1 384 13 13 (64896)
I1111 06:56:08.228431  2442 net.cpp:165] Memory required for data: 4981760
I1111 06:56:08.228467  2442 layer_factory.hpp:76] Creating layer relu3
I1111 06:56:08.228492  2442 net.cpp:106] Creating Layer relu3
I1111 06:56:08.228507  2442 net.cpp:454] relu3 <- conv3
I1111 06:56:08.228534  2442 net.cpp:397] relu3 -> conv3 (in-place)
I1111 06:56:08.228560  2442 net.cpp:150] Setting up relu3
I1111 06:56:08.228574  2442 net.cpp:157] Top shape: 1 384 13 13 (64896)
I1111 06:56:08.228584  2442 net.cpp:165] Memory required for data: 5241344
I1111 06:56:08.228595  2442 layer_factory.hpp:76] Creating layer conv4
I1111 06:56:08.228615  2442 net.cpp:106] Creating Layer conv4
I1111 06:56:08.228633  2442 net.cpp:454] conv4 <- conv3
I1111 06:56:08.228659  2442 net.cpp:411] conv4 -> conv4
I1111 06:56:08.234948  2442 net.cpp:150] Setting up conv4
I1111 06:56:08.235005  2442 net.cpp:157] Top shape: 1 384 13 13 (64896)
I1111 06:56:08.235015  2442 net.cpp:165] Memory required for data: 5500928
I1111 06:56:08.235052  2442 layer_factory.hpp:76] Creating layer relu4
I1111 06:56:08.235095  2442 net.cpp:106] Creating Layer relu4
I1111 06:56:08.235117  2442 net.cpp:454] relu4 <- conv4
I1111 06:56:08.235157  2442 net.cpp:397] relu4 -> conv4 (in-place)
I1111 06:56:08.235190  2442 net.cpp:150] Setting up relu4
I1111 06:56:08.235205  2442 net.cpp:157] Top shape: 1 384 13 13 (64896)
I1111 06:56:08.235213  2442 net.cpp:165] Memory required for data: 5760512
I1111 06:56:08.235224  2442 layer_factory.hpp:76] Creating layer conv5
I1111 06:56:08.235256  2442 net.cpp:106] Creating Layer conv5
I1111 06:56:08.235271  2442 net.cpp:454] conv5 <- conv4
I1111 06:56:08.235301  2442 net.cpp:411] conv5 -> conv5
I1111 06:56:08.239665  2442 net.cpp:150] Setting up conv5
I1111 06:56:08.239691  2442 net.cpp:157] Top shape: 1 256 13 13 (43264)
I1111 06:56:08.239701  2442 net.cpp:165] Memory required for data: 5933568
I1111 06:56:08.239751  2442 layer_factory.hpp:76] Creating layer relu5
I1111 06:56:08.239776  2442 net.cpp:106] Creating Layer relu5
I1111 06:56:08.239792  2442 net.cpp:454] relu5 <- conv5
I1111 06:56:08.239815  2442 net.cpp:397] relu5 -> conv5 (in-place)
I1111 06:56:08.239842  2442 net.cpp:150] Setting up relu5
I1111 06:56:08.239857  2442 net.cpp:157] Top shape: 1 256 13 13 (43264)
I1111 06:56:08.239866  2442 net.cpp:165] Memory required for data: 6106624
I1111 06:56:08.239876  2442 layer_factory.hpp:76] Creating layer pool5
I1111 06:56:08.239913  2442 net.cpp:106] Creating Layer pool5
I1111 06:56:08.239928  2442 net.cpp:454] pool5 <- conv5
I1111 06:56:08.239954  2442 net.cpp:411] pool5 -> pool5
I1111 06:56:08.240031  2442 net.cpp:150] Setting up pool5
I1111 06:56:08.240053  2442 net.cpp:157] Top shape: 1 256 6 6 (9216)
I1111 06:56:08.240062  2442 net.cpp:165] Memory required for data: 6143488
I1111 06:56:08.240074  2442 layer_factory.hpp:76] Creating layer fc6
I1111 06:56:08.240103  2442 net.cpp:106] Creating Layer fc6
I1111 06:56:08.240116  2442 net.cpp:454] fc6 <- pool5
I1111 06:56:08.240144  2442 net.cpp:411] fc6 -> fc6
I1111 06:56:08.415194  2442 net.cpp:150] Setting up fc6
I1111 06:56:08.415271  2442 net.cpp:157] Top shape: 1 4096 (4096)
I1111 06:56:08.415282  2442 net.cpp:165] Memory required for data: 6159872
I1111 06:56:08.415329  2442 layer_factory.hpp:76] Creating layer relu6
I1111 06:56:08.415413  2442 net.cpp:106] Creating Layer relu6
I1111 06:56:08.415446  2442 net.cpp:454] relu6 <- fc6
I1111 06:56:08.415491  2442 net.cpp:397] relu6 -> fc6 (in-place)
I1111 06:56:08.415534  2442 net.cpp:150] Setting up relu6
I1111 06:56:08.415549  2442 net.cpp:157] Top shape: 1 4096 (4096)
I1111 06:56:08.415556  2442 net.cpp:165] Memory required for data: 6176256
I1111 06:56:08.415567  2442 layer_factory.hpp:76] Creating layer drop6
I1111 06:56:08.415606  2442 net.cpp:106] Creating Layer drop6
I1111 06:56:08.415621  2442 net.cpp:454] drop6 <- fc6
I1111 06:56:08.415649  2442 net.cpp:397] drop6 -> fc6 (in-place)
I1111 06:56:08.415707  2442 net.cpp:150] Setting up drop6
I1111 06:56:08.415724  2442 net.cpp:157] Top shape: 1 4096 (4096)
I1111 06:56:08.415734  2442 net.cpp:165] Memory required for data: 6192640
I1111 06:56:08.415745  2442 layer_factory.hpp:76] Creating layer fc7
I1111 06:56:08.415777  2442 net.cpp:106] Creating Layer fc7
I1111 06:56:08.415792  2442 net.cpp:454] fc7 <- fc6
I1111 06:56:08.415819  2442 net.cpp:411] fc7 -> fc7
I1111 06:56:08.494199  2442 net.cpp:150] Setting up fc7
I1111 06:56:08.494290  2442 net.cpp:157] Top shape: 1 4096 (4096)
I1111 06:56:08.494302  2442 net.cpp:165] Memory required for data: 6209024
I1111 06:56:08.494349  2442 layer_factory.hpp:76] Creating layer relu7
I1111 06:56:08.494408  2442 net.cpp:106] Creating Layer relu7
I1111 06:56:08.494464  2442 net.cpp:454] relu7 <- fc7
I1111 06:56:08.494514  2442 net.cpp:397] relu7 -> fc7 (in-place)
I1111 06:56:08.494556  2442 net.cpp:150] Setting up relu7
I1111 06:56:08.494570  2442 net.cpp:157] Top shape: 1 4096 (4096)
I1111 06:56:08.494580  2442 net.cpp:165] Memory required for data: 6225408
I1111 06:56:08.494590  2442 layer_factory.hpp:76] Creating layer drop7
I1111 06:56:08.494621  2442 net.cpp:106] Creating Layer drop7
I1111 06:56:08.494634  2442 net.cpp:454] drop7 <- fc7
I1111 06:56:08.494660  2442 net.cpp:397] drop7 -> fc7 (in-place)
I1111 06:56:08.494714  2442 net.cpp:150] Setting up drop7
I1111 06:56:08.494735  2442 net.cpp:157] Top shape: 1 4096 (4096)
I1111 06:56:08.494743  2442 net.cpp:165] Memory required for data: 6241792
I1111 06:56:08.494755  2442 layer_factory.hpp:76] Creating layer fc8
I1111 06:56:08.494784  2442 net.cpp:106] Creating Layer fc8
I1111 06:56:08.494799  2442 net.cpp:454] fc8 <- fc7
I1111 06:56:08.494825  2442 net.cpp:411] fc8 -> fc8
I1111 06:56:08.514466  2442 net.cpp:150] Setting up fc8
I1111 06:56:08.514545  2442 net.cpp:157] Top shape: 1 1000 (1000)
I1111 06:56:08.514555  2442 net.cpp:165] Memory required for data: 6245792
I1111 06:56:08.514601  2442 layer_factory.hpp:76] Creating layer prob
I1111 06:56:08.514672  2442 net.cpp:106] Creating Layer prob
I1111 06:56:08.514698  2442 net.cpp:454] prob <- fc8
I1111 06:56:08.514744  2442 net.cpp:411] prob -> prob
I1111 06:56:08.514864  2442 net.cpp:150] Setting up prob
I1111 06:56:08.514885  2442 net.cpp:157] Top shape: 1 1000 (1000)
I1111 06:56:08.514895  2442 net.cpp:165] Memory required for data: 6249792
I1111 06:56:08.514909  2442 net.cpp:228] prob does not need backward computation.
I1111 06:56:08.514922  2442 net.cpp:228] fc8 does not need backward computation.
I1111 06:56:08.514933  2442 net.cpp:228] drop7 does not need backward computation.
I1111 06:56:08.514945  2442 net.cpp:228] relu7 does not need backward computation.
…
I1111 06:56:10.977063  2442 net.cpp:923] Copying source layer drop6
I1111 06:56:10.977073  2442 net.cpp:923] Copying source layer fc7
I1111 06:56:11.185236  2442 net.cpp:923] Copying source layer relu7
I1111 06:56:11.185291  2442 net.cpp:923] Copying source layer drop7
I1111 06:56:11.185300  2442 net.cpp:923] Copying source layer fc8
I1111 06:56:11.236047  2442 net.cpp:920] Ignoring source layer loss
I1111 06:56:11.238476  2442 net.cpp:49] Initializing net from parameters: 
name: "CaffeNet"
input: "data"
input_dim: 1
input_dim: 3
input_dim: 227
input_dim: 227
force_backward: true
state {
  phase: TEST
}
layer {
  name: "conv1"
  type: "Convolution"
  bottom: "data"
  top: "conv1"
  convolution_param {
    num_output: 96
    kernel_size: 11
    stride: 4
  }
}
layer {
  name: "relu1"
  type: "ReLU"
  bottom: "conv1"
  top: "conv1"
}
layer {
  name: "pool1"
  type: "Pooling"
  bottom: "conv1"
  top: "pool1"
  pooling_param {
    pool: MAX
    kernel_size: 3
    stride: 2
  }
}
layer {
  name: "norm1"
  type: "LRN"
  bottom: "pool1"
  top: "norm1"
  lrn_param {
    local_size: 5
    alpha: 0.0001
    beta: 0.75
  }
}
layer {
  name: "conv2"
  type: "Convolution"
  bottom: "norm1"
  top: "conv2"
  convolution_param {
    num_output: 256
    pad: 2
    kernel_size: 5
  }
}
layer {
  name: "relu2"
  type: "ReLU"
  bottom: "conv2"
  top: "conv2"
}
layer {
  name: "pool2"
  type: "Pooling"
  bottom: "conv2"
  top: "pool2"
  pooling_param {
    pool: MAX
    kernel_size: 3
    stride: 2
  }
}
layer {
  name: "norm2"
  type: "LRN"
  bottom: "pool2"
  top: "norm2"
  lrn_param {
    local_size: 5
    alpha: 0.0001
    beta: 0.75
  }
}
layer {
  name: "conv3"
  type: "Convolution"
  bottom: "norm2"
  top: "conv3"
  convolution_param {
    num_output: 384
    pad: 1
    kernel_size: 3
  }
}
layer {
  name: "relu3"
  type: "ReLU"
  bottom: "conv3"
  top: "conv3"
}
layer {
  name: "conv4"
  type: "Convolution"
  bottom: "conv3"
  top: "conv4"
  convolution_param {
    num_output: 384
    pad: 1
    kernel_size: 3
  }
}
layer {
  name: "relu4"
  type: "ReLU"
  bottom: "conv4"
  top: "conv4"
}
layer {
  name: "conv5"
  type: "Convolution"
  bottom: "conv4"
  top: "conv5"
  convolution_param {
    num_output: 256
    pad: 1
    kernel_size: 3
  }
}
layer {
  name: "relu5"
  type: "ReLU"
  bottom: "conv5"
  top: "conv5"
}
layer {
  name: "pool5"
  type: "Pooling"
  bottom: "conv5"
  top: "pool5"
  pooling_param {
    pool: MAX
    kernel_size: 3
    stride: 2
  }
}
layer {
  name: "fc6"
  type: "InnerProduct"
  bottom: "pool5"
  top: "fc6"
  inner_product_param {
    num_output: 4096
  }
}
layer {
  name: "relu6"
  type: "ReLU"
  bottom: "fc6"
  top: "fc6"
}
layer {
  name: "drop6"
  type: "Dropout"
  bottom: "fc6"
  top: "fc6"
  dropout_param {
    dropout_ratio: 0.5
  }
}
layer {
  name: "fc7"
  type: "InnerProduct"
  bottom: "fc6"
  top: "fc7"
  inner_product_param {
    num_output: 4096
  }
}
layer {
  name: "relu7"
  type: "ReLU"
  bottom: "fc7"
  top: "fc7"
}
layer {
  name: "drop7"
  type: "Dropout"
  bottom: "fc7"
  top: "fc7"
  dropout_param {
    dropout_ratio: 0.5
  }
}
layer {
  name: "fc8"
  type: "InnerProduct"
  bottom: "fc7"
  top: "fc8"
  inner_product_param {
    num_output: 1000
  }
}
layer {
  name: "prob"
  type: "Softmax"
  bottom: "fc8"
  top: "prob"
}
I1111 06:56:11.238723  2442 net.cpp:413] Input 0 -> data
I1111 06:56:11.238939  2442 layer_factory.hpp:76] Creating layer conv1
I1111 06:56:11.238992  2442 net.cpp:106] Creating Layer conv1
I1111 06:56:11.239012  2442 net.cpp:454] conv1 <- data
I1111 06:56:11.239044  2442 net.cpp:411] conv1 -> conv1
I1111 06:56:11.239480  2442 net.cpp:150] Setting up conv1
I1111 06:56:11.239517  2442 net.cpp:157] Top shape: 1 96 55 55 (290400)
I1111 06:56:11.239527  2442 net.cpp:165] Memory required for data: 1161600
I1111 06:56:11.239580  2442 layer_factory.hpp:76] Creating layer relu1
I1111 06:56:11.239612  2442 net.cpp:106] Creating Layer relu1
I1111 06:56:11.239629  2442 net.cpp:454] relu1 <- conv1
I1111 06:56:11.239653  2442 net.cpp:397] relu1 -> conv1 (in-place)
I1111 06:56:11.239680  2442 net.cpp:150] Setting up relu1
I1111 06:56:11.239694  2442 net.cpp:157] Top shape: 1 96 55 55 (290400)
I1111 06:56:11.239702  2442 net.cpp:165] Memory required for data: 2323200
I1111 06:56:11.239713  2442 layer_factory.hpp:76] Creating layer pool1
I1111 06:56:11.239740  2442 net.cpp:106] Creating Layer pool1
I1111 06:56:11.239755  2442 net.cpp:454] pool1 <- conv1
I1111 06:56:11.239781  2442 net.cpp:411] pool1 -> pool1
I1111 06:56:11.239856  2442 net.cpp:150] Setting up pool1
I1111 06:56:11.239877  2442 net.cpp:157] Top shape: 1 96 27 27 (69984)
I1111 06:56:11.239887  2442 net.cpp:165] Memory required for data: 2603136
I1111 06:56:11.239899  2442 layer_factory.hpp:76] Creating layer norm1
I1111 06:56:11.239927  2442 net.cpp:106] Creating Layer norm1
I1111 06:56:11.239941  2442 net.cpp:454] norm1 <- pool1
I1111 06:56:11.239969  2442 net.cpp:411] norm1 -> norm1
I1111 06:56:11.240036  2442 net.cpp:150] Setting up norm1
I1111 06:56:11.240057  2442 net.cpp:157] Top shape: 1 96 27 27 (69984)
I1111 06:56:11.240067  2442 net.cpp:165] Memory required for data: 2883072
I1111 06:56:11.240078  2442 layer_factory.hpp:76] Creating layer conv2
I1111 06:56:11.240106  2442 net.cpp:106] Creating Layer conv2
I1111 06:56:11.240123  2442 net.cpp:454] conv2 <- norm1
I1111 06:56:11.240149  2442 net.cpp:411] conv2 -> conv2
I1111 06:56:11.243453  2442 net.cpp:150] Setting up conv2
I1111 06:56:11.243481  2442 net.cpp:157] Top shape: 1 256 27 27 (186624)
I1111 06:56:11.243492  2442 net.cpp:165] Memory required for data: 3629568
I1111 06:56:11.243530  2442 layer_factory.hpp:76] Creating layer relu2
I1111 06:56:11.243556  2442 net.cpp:106] Creating Layer relu2
I1111 06:56:11.243571  2442 net.cpp:454] relu2 <- conv2
I1111 06:56:11.243595  2442 net.cpp:397] relu2 -> conv2 (in-place)
I1111 06:56:11.243621  2442 net.cpp:150] Setting up relu2
I1111 06:56:11.243636  2442 net.cpp:157] Top shape: 1 256 27 27 (186624)
I1111 06:56:11.243644  2442 net.cpp:165] Memory required for data: 4376064
I1111 06:56:11.243655  2442 layer_factory.hpp:76] Creating layer pool2
I1111 06:56:11.243677  2442 net.cpp:106] Creating Layer pool2
I1111 06:56:11.243691  2442 net.cpp:454] pool2 <- conv2
I1111 06:56:11.243717  2442 net.cpp:411] pool2 -> pool2
I1111 06:56:11.243785  2442 net.cpp:150] Setting up pool2
I1111 06:56:11.243806  2442 net.cpp:157] Top shape: 1 256 13 13 (43264)
I1111 06:56:11.243815  2442 net.cpp:165] Memory required for data: 4549120
I1111 06:56:11.243827  2442 layer_factory.hpp:76] Creating layer norm2
I1111 06:56:11.243851  2442 net.cpp:106] Creating Layer norm2
I1111 06:56:11.243866  2442 net.cpp:454] norm2 <- pool2
I1111 06:56:11.243892  2442 net.cpp:411] norm2 -> norm2
I1111 06:56:11.243954  2442 net.cpp:150] Setting up norm2
I1111 06:56:11.243974  2442 net.cpp:157] Top shape: 1 256 13 13 (43264)
I1111 06:56:11.243983  2442 net.cpp:165] Memory required for data: 4722176
I1111 06:56:11.243994  2442 layer_factory.hpp:76] Creating layer conv3
I1111 06:56:11.244024  2442 net.cpp:106] Creating Layer conv3
I1111 06:56:11.244038  2442 net.cpp:454] conv3 <- norm2
I1111 06:56:11.244065  2442 net.cpp:411] conv3 -> conv3
I1111 06:56:11.248309  2442 net.cpp:150] Setting up conv3
I1111 06:56:11.248333  2442 net.cpp:157] Top shape: 1 384 13 13 (64896)
I1111 06:56:11.248343  2442 net.cpp:165] Memory required for data: 4981760
I1111 06:56:11.248378  2442 layer_factory.hpp:76] Creating layer relu3
I1111 06:56:11.248402  2442 net.cpp:106] Creating Layer relu3
I1111 06:56:11.248421  2442 net.cpp:454] relu3 <- conv3
I1111 06:56:11.248447  2442 net.cpp:397] relu3 -> conv3 (in-place)
I1111 06:56:11.248473  2442 net.cpp:150] Setting up relu3
I1111 06:56:11.248487  2442 net.cpp:157] Top shape: 1 384 13 13 (64896)
I1111 06:56:11.248497  2442 net.cpp:165] Memory required for data: 5241344
I1111 06:56:11.248507  2442 layer_factory.hpp:76] Creating layer conv4
I1111 06:56:11.248530  2442 net.cpp:106] Creating Layer conv4
I1111 06:56:11.248544  2442 net.cpp:454] conv4 <- conv3
I1111 06:56:11.248572  2442 net.cpp:411] conv4 -> conv4
I1111 06:56:11.254760  2442 net.cpp:150] Setting up conv4
I1111 06:56:11.254786  2442 net.cpp:157] Top shape: 1 384 13 13 (64896)
I1111 06:56:11.254796  2442 net.cpp:165] Memory required for data: 5500928
I1111 06:56:11.254819  2442 layer_factory.hpp:76] Creating layer relu4
I1111 06:56:11.254842  2442 net.cpp:106] Creating Layer relu4
I1111 06:56:11.254855  2442 net.cpp:454] relu4 <- conv4
I1111 06:56:11.254879  2442 net.cpp:397] relu4 -> conv4 (in-place)
I1111 06:56:11.254904  2442 net.cpp:150] Setting up relu4
I1111 06:56:11.254920  2442 net.cpp:157] Top shape: 1 384 13 13 (64896)
I1111 06:56:11.254927  2442 net.cpp:165] Memory required for data: 5760512
I1111 06:56:11.254938  2442 layer_factory.hpp:76] Creating layer conv5
I1111 06:56:11.254961  2442 net.cpp:106] Creating Layer conv5
I1111 06:56:11.254974  2442 net.cpp:454] conv5 <- conv4
I1111 06:56:11.255002  2442 net.cpp:411] conv5 -> conv5
I1111 06:56:11.259224  2442 net.cpp:150] Setting up conv5
I1111 06:56:11.259249  2442 net.cpp:157] Top shape: 1 256 13 13 (43264)
I1111 06:56:11.259259  2442 net.cpp:165] Memory required for data: 5933568
I1111 06:56:11.259297  2442 layer_factory.hpp:76] Creating layer relu5
I1111 06:56:11.259322  2442 net.cpp:106] Creating Layer relu5
I1111 06:56:11.259337  2442 net.cpp:454] relu5 <- conv5
I1111 06:56:11.259361  2442 net.cpp:397] relu5 -> conv5 (in-place)
I1111 06:56:11.259387  2442 net.cpp:150] Setting up relu5
I1111 06:56:11.259400  2442 net.cpp:157] Top shape: 1 256 13 13 (43264)
I1111 06:56:11.259409  2442 net.cpp:165] Memory required for data: 6106624
I1111 06:56:11.259433  2442 layer_factory.hpp:76] Creating layer pool5
I1111 06:56:11.259459  2442 net.cpp:106] Creating Layer pool5
I1111 06:56:11.259474  2442 net.cpp:454] pool5 <- conv5
I1111 06:56:11.259500  2442 net.cpp:411] pool5 -> pool5
I1111 06:56:11.259570  2442 net.cpp:150] Setting up pool5
I1111 06:56:11.259593  2442 net.cpp:157] Top shape: 1 256 6 6 (9216)
I1111 06:56:11.259601  2442 net.cpp:165] Memory required for data: 6143488
I1111 06:56:11.259613  2442 layer_factory.hpp:76] Creating layer fc6
I1111 06:56:11.259642  2442 net.cpp:106] Creating Layer fc6
I1111 06:56:11.259657  2442 net.cpp:454] fc6 <- pool5
I1111 06:56:11.259685  2442 net.cpp:411] fc6 -> fc6
I1111 06:56:11.434906  2442 net.cpp:150] Setting up fc6
I1111 06:56:11.434988  2442 net.cpp:157] Top shape: 1 4096 (4096)
I1111 06:56:11.434999  2442 net.cpp:165] Memory required for data: 6159872
I1111 06:56:11.435047  2442 layer_factory.hpp:76] Creating layer relu6
I1111 06:56:11.435127  2442 net.cpp:106] Creating Layer relu6
I1111 06:56:11.435155  2442 net.cpp:454] relu6 <- fc6
I1111 06:56:11.435200  2442 net.cpp:397] relu6 -> fc6 (in-place)
I1111 06:56:11.435243  2442 net.cpp:150] Setting up relu6
I1111 06:56:11.435257  2442 net.cpp:157] Top shape: 1 4096 (4096)
I1111 06:56:11.435266  2442 net.cpp:165] Memory required for data: 6176256
I1111 06:56:11.435277  2442 layer_factory.hpp:76] Creating layer drop6
I1111 06:56:11.435307  2442 net.cpp:106] Creating Layer drop6
I1111 06:56:11.435322  2442 net.cpp:454] drop6 <- fc6
I1111 06:56:11.435348  2442 net.cpp:397] drop6 -> fc6 (in-place)
I1111 06:56:11.435401  2442 net.cpp:150] Setting up drop6
I1111 06:56:11.435423  2442 net.cpp:157] Top shape: 1 4096 (4096)
I1111 06:56:11.435433  2442 net.cpp:165] Memory required for data: 6192640
I1111 06:56:11.435446  2442 layer_factory.hpp:76] Creating layer fc7
I1111 06:56:11.435475  2442 net.cpp:106] Creating Layer fc7
I1111 06:56:11.435489  2442 net.cpp:454] fc7 <- fc6
I1111 06:56:11.435516  2442 net.cpp:411] fc7 -> fc7
I1111 06:56:11.513803  2442 net.cpp:150] Setting up fc7
I1111 06:56:11.513883  2442 net.cpp:157] Top shape: 1 4096 (4096)
I1111 06:56:11.513893  2442 net.cpp:165] Memory required for data: 6209024
I1111 06:56:11.513942  2442 layer_factory.hpp:76] Creating layer relu7
I1111 06:56:11.514009  2442 net.cpp:106] Creating Layer relu7
I1111 06:56:11.514036  2442 net.cpp:454] relu7 <- fc7
I1111 06:56:11.514086  2442 net.cpp:397] relu7 -> fc7 (in-place)
I1111 06:56:11.514128  2442 net.cpp:150] Setting up relu7
I1111 06:56:11.514142  2442 net.cpp:157] Top shape: 1 4096 (4096)
I1111 06:56:11.514152  2442 net.cpp:165] Memory required for data: 6225408
I1111 06:56:11.514163  2442 layer_factory.hpp:76] Creating layer drop7
I1111 06:56:11.514194  2442 net.cpp:106] Creating Layer drop7
I1111 06:56:11.514209  2442 net.cpp:454] drop7 <- fc7
I1111 06:56:11.514233  2442 net.cpp:397] drop7 -> fc7 (in-place)
I1111 06:56:11.514286  2442 net.cpp:150] Setting up drop7
I1111 06:56:11.514303  2442 net.cpp:157] Top shape: 1 4096 (4096)
I1111 06:56:11.514312  2442 net.cpp:165] Memory required for data: 6241792
I1111 06:56:11.514324  2442 layer_factory.hpp:76] Creating layer fc8
I1111 06:56:11.514358  2442 net.cpp:106] Creating Layer fc8
I1111 06:56:11.514374  2442 net.cpp:454] fc8 <- fc7
I1111 06:56:11.514401  2442 net.cpp:411] fc8 -> fc8
I1111 06:56:11.532614  2442 net.cpp:150] Setting up fc8
I1111 06:56:11.532663  2442 net.cpp:157] Top shape: 1 1000 (1000)
I1111 06:56:11.532673  2442 net.cpp:165] Memory required for data: 6245792
I1111 06:56:11.532703  2442 layer_factory.hpp:76] Creating layer prob
I1111 06:56:11.532738  2442 net.cpp:106] Creating Layer prob
I1111 06:56:11.532755  2442 net.cpp:454] prob <- fc8
I1111 06:56:11.532785  2442 net.cpp:411] prob -> prob
I1111 06:56:11.532886  2442 net.cpp:150] Setting up prob
I1111 06:56:11.532907  2442 net.cpp:157] Top shape: 1 1000 (1000)
I1111 06:56:11.532915  2442 net.cpp:165] Memory required for data: 6249792
I1111 06:56:11.532930  2442 net.cpp:228] prob does not need backward computation.
I1111 06:56:11.532943  2442 net.cpp:228] fc8 does not need backward computation.
I1111 06:56:11.532954  2442 net.cpp:228] drop7 does not need backward computation.
I1111 06:56:11.532965  2442 net.cpp:228] relu7 does not need backward computation.
…
