…
gamma: 0.5
momentum: 0.98
weight_decay: 0.0001
stepsize: 1500
snapshot: 1000
snapshot_prefix: "stitch"
solver_mode: GPU
random_seed: 0
net: "network.prototxt"
regularization_type: "L1"
I1110 22:09:08.129777  2790 solver.cpp:90] Creating training net from net file: network.prototxt
I1110 22:09:08.143241  2790 net.cpp:49] Initializing net from parameters: 
name: "StitchNet"
input: "net0"
input: "net1"
input_dim: 32
input_dim: 256
input_dim: 27
input_dim: 27
input_dim: 32
input_dim: 256
input_dim: 27
input_dim: 27
state {
  phase: TRAIN
}
debug_info: true
layer {
  name: "stitch0"
  type: "Convolution"
  bottom: "net0"
  top: "stitch0"
  convolution_param {
    num_output: 256
    kernel_size: 1
    stride: 1
    weight_filler {
      type: "gaussian"
      std: 0.01
    }
  }
}
layer {
  name: "loss"
  type: "EuclideanLoss"
  bottom: "stitch0"
  bottom: "net1"
  top: "loss"
  loss_weight: 1
}
I1110 22:09:08.143437  2790 net.cpp:413] Input 0 -> net0
I1110 22:09:08.178279  2790 net.cpp:413] Input 1 -> net1
I1110 22:09:08.178424  2790 layer_factory.hpp:76] Creating layer stitch0
I1110 22:09:08.178493  2790 net.cpp:106] Creating Layer stitch0
I1110 22:09:08.178515  2790 net.cpp:454] stitch0 <- net0
I1110 22:09:08.178553  2790 net.cpp:411] stitch0 -> stitch0
I1110 22:09:08.187233  2790 net.cpp:150] Setting up stitch0
I1110 22:09:08.187286  2790 net.cpp:157] Top shape: 32 256 27 27 (5971968)
I1110 22:09:08.187300  2790 net.cpp:165] Memory required for data: 23887872
I1110 22:09:08.187372  2790 layer_factory.hpp:76] Creating layer loss
I1110 22:09:08.187420  2790 net.cpp:106] Creating Layer loss
I1110 22:09:08.187446  2790 net.cpp:454] loss <- stitch0
I1110 22:09:08.187474  2790 net.cpp:454] loss <- net1
I1110 22:09:08.187502  2790 net.cpp:411] loss -> loss
I1110 22:09:08.187595  2790 net.cpp:150] Setting up loss
I1110 22:09:08.187623  2790 net.cpp:157] Top shape: (1)
I1110 22:09:08.187635  2790 net.cpp:160]     with loss weight 1
I1110 22:09:08.187654  2790 net.cpp:165] Memory required for data: 23887876
I1110 22:09:08.187671  2790 net.cpp:226] loss needs backward computation.
I1110 22:09:08.187688  2790 net.cpp:226] stitch0 needs backward computation.
I1110 22:09:08.187701  2790 net.cpp:270] This network produces output loss
I1110 22:09:08.187727  2790 net.cpp:283] Network initialization done.
I1110 22:09:08.187775  2790 solver.cpp:59] Solver scaffolding done.
I1110 22:09:08.319183  2790 net.cpp:49] Initializing net from parameters: 
name: "CaffeNet"
input: "data"
input_dim: 1
input_dim: 3
input_dim: 227
input_dim: 227
force_backward: true
state {
  phase: TEST
}
layer {
  name: "conv1"
  type: "Convolution"
  bottom: "data"
  top: "conv1"
  convolution_param {
    num_output: 96
    kernel_size: 11
    stride: 4
  }
}
layer {
  name: "relu1"
  type: "ReLU"
  bottom: "conv1"
  top: "conv1"
}
layer {
  name: "pool1"
  type: "Pooling"
  bottom: "conv1"
  top: "pool1"
  pooling_param {
    pool: MAX
    kernel_size: 3
    stride: 2
  }
}
layer {
  name: "norm1"
  type: "LRN"
  bottom: "pool1"
  top: "norm1"
  lrn_param {
    local_size: 5
    alpha: 0.0001
    beta: 0.75
  }
}
layer {
  name: "conv2"
  type: "Convolution"
  bottom: "norm1"
  top: "conv2"
  convolution_param {
    num_output: 256
    pad: 2
    kernel_size: 5
  }
}
layer {
  name: "relu2"
  type: "ReLU"
  bottom: "conv2"
  top: "conv2"
}
layer {
  name: "pool2"
  type: "Pooling"
  bottom: "conv2"
  top: "pool2"
  pooling_param {
    pool: MAX
    kernel_size: 3
    stride: 2
  }
}
layer {
  name: "norm2"
  type: "LRN"
  bottom: "pool2"
  top: "norm2"
  lrn_param {
    local_size: 5
    alpha: 0.0001
    beta: 0.75
  }
}
layer {
  name: "conv3"
  type: "Convolution"
  bottom: "norm2"
  top: "conv3"
  convolution_param {
    num_output: 384
    pad: 1
    kernel_size: 3
  }
}
layer {
  name: "relu3"
  type: "ReLU"
  bottom: "conv3"
  top: "conv3"
}
layer {
  name: "conv4"
  type: "Convolution"
  bottom: "conv3"
  top: "conv4"
  convolution_param {
    num_output: 384
    pad: 1
    kernel_size: 3
  }
}
layer {
  name: "relu4"
  type: "ReLU"
  bottom: "conv4"
  top: "conv4"
}
layer {
  name: "conv5"
  type: "Convolution"
  bottom: "conv4"
  top: "conv5"
  convolution_param {
    num_output: 256
    pad: 1
    kernel_size: 3
  }
}
layer {
  name: "relu5"
  type: "ReLU"
  bottom: "conv5"
  top: "conv5"
}
layer {
  name: "pool5"
  type: "Pooling"
  bottom: "conv5"
  top: "pool5"
  pooling_param {
    pool: MAX
    kernel_size: 3
    stride: 2
  }
}
layer {
  name: "fc6"
  type: "InnerProduct"
  bottom: "pool5"
  top: "fc6"
  inner_product_param {
    num_output: 4096
  }
}
layer {
  name: "relu6"
  type: "ReLU"
  bottom: "fc6"
  top: "fc6"
}
layer {
  name: "drop6"
  type: "Dropout"
  bottom: "fc6"
  top: "fc6"
  dropout_param {
    dropout_ratio: 0.5
  }
}
layer {
  name: "fc7"
  type: "InnerProduct"
  bottom: "fc6"
  top: "fc7"
  inner_product_param {
    num_output: 4096
  }
}
layer {
  name: "relu7"
  type: "ReLU"
  bottom: "fc7"
  top: "fc7"
}
layer {
  name: "drop7"
  type: "Dropout"
  bottom: "fc7"
  top: "fc7"
  dropout_param {
    dropout_ratio: 0.5
  }
}
layer {
  name: "fc8"
  type: "InnerProduct"
  bottom: "fc7"
  top: "fc8"
  inner_product_param {
    num_output: 1000
  }
}
layer {
  name: "prob"
  type: "Softmax"
  bottom: "fc8"
  top: "prob"
}
I1110 22:09:08.319495  2790 net.cpp:413] Input 0 -> data
I1110 22:09:08.319716  2790 layer_factory.hpp:76] Creating layer conv1
I1110 22:09:08.319777  2790 net.cpp:106] Creating Layer conv1
I1110 22:09:08.319799  2790 net.cpp:454] conv1 <- data
I1110 22:09:08.319936  2790 net.cpp:411] conv1 -> conv1
I1110 22:09:08.321743  2790 net.cpp:150] Setting up conv1
I1110 22:09:08.321797  2790 net.cpp:157] Top shape: 1 96 55 55 (290400)
I1110 22:09:08.321810  2790 net.cpp:165] Memory required for data: 1161600
I1110 22:09:08.321880  2790 layer_factory.hpp:76] Creating layer relu1
I1110 22:09:08.321933  2790 net.cpp:106] Creating Layer relu1
I1110 22:09:08.321954  2790 net.cpp:454] relu1 <- conv1
I1110 22:09:08.321986  2790 net.cpp:397] relu1 -> conv1 (in-place)
I1110 22:09:08.322024  2790 net.cpp:150] Setting up relu1
I1110 22:09:08.322042  2790 net.cpp:157] Top shape: 1 96 55 55 (290400)
I1110 22:09:08.322053  2790 net.cpp:165] Memory required for data: 2323200
I1110 22:09:08.322068  2790 layer_factory.hpp:76] Creating layer pool1
I1110 22:09:08.322104  2790 net.cpp:106] Creating Layer pool1
I1110 22:09:08.322124  2790 net.cpp:454] pool1 <- conv1
I1110 22:09:08.322155  2790 net.cpp:411] pool1 -> pool1
I1110 22:09:08.322265  2790 net.cpp:150] Setting up pool1
I1110 22:09:08.322304  2790 net.cpp:157] Top shape: 1 96 27 27 (69984)
I1110 22:09:08.322317  2790 net.cpp:165] Memory required for data: 2603136
I1110 22:09:08.322331  2790 layer_factory.hpp:76] Creating layer norm1
I1110 22:09:08.322367  2790 net.cpp:106] Creating Layer norm1
I1110 22:09:08.322386  2790 net.cpp:454] norm1 <- pool1
I1110 22:09:08.322417  2790 net.cpp:411] norm1 -> norm1
I1110 22:09:08.322510  2790 net.cpp:150] Setting up norm1
I1110 22:09:08.322535  2790 net.cpp:157] Top shape: 1 96 27 27 (69984)
I1110 22:09:08.322546  2790 net.cpp:165] Memory required for data: 2883072
I1110 22:09:08.322561  2790 layer_factory.hpp:76] Creating layer conv2
I1110 22:09:08.322599  2790 net.cpp:106] Creating Layer conv2
I1110 22:09:08.322618  2790 net.cpp:454] conv2 <- norm1
I1110 22:09:08.322654  2790 net.cpp:411] conv2 -> conv2
I1110 22:09:08.326555  2790 net.cpp:150] Setting up conv2
I1110 22:09:08.326601  2790 net.cpp:157] Top shape: 1 256 27 27 (186624)
I1110 22:09:08.326613  2790 net.cpp:165] Memory required for data: 3629568
I1110 22:09:08.326669  2790 layer_factory.hpp:76] Creating layer relu2
I1110 22:09:08.326709  2790 net.cpp:106] Creating Layer relu2
I1110 22:09:08.326728  2790 net.cpp:454] relu2 <- conv2
I1110 22:09:08.326760  2790 net.cpp:397] relu2 -> conv2 (in-place)
I1110 22:09:08.326793  2790 net.cpp:150] Setting up relu2
I1110 22:09:08.326812  2790 net.cpp:157] Top shape: 1 256 27 27 (186624)
I1110 22:09:08.326822  2790 net.cpp:165] Memory required for data: 4376064
I1110 22:09:08.326835  2790 layer_factory.hpp:76] Creating layer pool2
I1110 22:09:08.326864  2790 net.cpp:106] Creating Layer pool2
I1110 22:09:08.326880  2790 net.cpp:454] pool2 <- conv2
I1110 22:09:08.326910  2790 net.cpp:411] pool2 -> pool2
I1110 22:09:08.326998  2790 net.cpp:150] Setting up pool2
I1110 22:09:08.327023  2790 net.cpp:157] Top shape: 1 256 13 13 (43264)
I1110 22:09:08.327034  2790 net.cpp:165] Memory required for data: 4549120
I1110 22:09:08.327049  2790 layer_factory.hpp:76] Creating layer norm2
I1110 22:09:08.327081  2790 net.cpp:106] Creating Layer norm2
I1110 22:09:08.327100  2790 net.cpp:454] norm2 <- pool2
I1110 22:09:08.327131  2790 net.cpp:411] norm2 -> norm2
I1110 22:09:08.327210  2790 net.cpp:150] Setting up norm2
I1110 22:09:08.327234  2790 net.cpp:157] Top shape: 1 256 13 13 (43264)
I1110 22:09:08.327245  2790 net.cpp:165] Memory required for data: 4722176
I1110 22:09:08.327260  2790 layer_factory.hpp:76] Creating layer conv3
I1110 22:09:08.327299  2790 net.cpp:106] Creating Layer conv3
I1110 22:09:08.327318  2790 net.cpp:454] conv3 <- norm2
I1110 22:09:08.327349  2790 net.cpp:411] conv3 -> conv3
I1110 22:09:08.333014  2790 net.cpp:150] Setting up conv3
I1110 22:09:08.333060  2790 net.cpp:157] Top shape: 1 384 13 13 (64896)
I1110 22:09:08.333072  2790 net.cpp:165] Memory required for data: 4981760
I1110 22:09:08.333138  2790 layer_factory.hpp:76] Creating layer relu3
I1110 22:09:08.333180  2790 net.cpp:106] Creating Layer relu3
I1110 22:09:08.333205  2790 net.cpp:454] relu3 <- conv3
I1110 22:09:08.333241  2790 net.cpp:397] relu3 -> conv3 (in-place)
I1110 22:09:08.333277  2790 net.cpp:150] Setting up relu3
I1110 22:09:08.333295  2790 net.cpp:157] Top shape: 1 384 13 13 (64896)
I1110 22:09:08.333307  2790 net.cpp:165] Memory required for data: 5241344
I1110 22:09:08.333319  2790 layer_factory.hpp:76] Creating layer conv4
I1110 22:09:08.333350  2790 net.cpp:106] Creating Layer conv4
I1110 22:09:08.333367  2790 net.cpp:454] conv4 <- conv3
I1110 22:09:08.333398  2790 net.cpp:411] conv4 -> conv4
I1110 22:09:08.341403  2790 net.cpp:150] Setting up conv4
I1110 22:09:08.341452  2790 net.cpp:157] Top shape: 1 384 13 13 (64896)
I1110 22:09:08.341465  2790 net.cpp:165] Memory required for data: 5500928
I1110 22:09:08.341500  2790 layer_factory.hpp:76] Creating layer relu4
I1110 22:09:08.341549  2790 net.cpp:106] Creating Layer relu4
I1110 22:09:08.341578  2790 net.cpp:454] relu4 <- conv4
I1110 22:09:08.341617  2790 net.cpp:397] relu4 -> conv4 (in-place)
I1110 22:09:08.341660  2790 net.cpp:150] Setting up relu4
I1110 22:09:08.341678  2790 net.cpp:157] Top shape: 1 384 13 13 (64896)
I1110 22:09:08.341691  2790 net.cpp:165] Memory required for data: 5760512
I1110 22:09:08.341704  2790 layer_factory.hpp:76] Creating layer conv5
I1110 22:09:08.341743  2790 net.cpp:106] Creating Layer conv5
I1110 22:09:08.341763  2790 net.cpp:454] conv5 <- conv4
I1110 22:09:08.341794  2790 net.cpp:411] conv5 -> conv5
I1110 22:09:08.347370  2790 net.cpp:150] Setting up conv5
I1110 22:09:08.347424  2790 net.cpp:157] Top shape: 1 256 13 13 (43264)
I1110 22:09:08.347436  2790 net.cpp:165] Memory required for data: 5933568
I1110 22:09:08.347511  2790 layer_factory.hpp:76] Creating layer relu5
I1110 22:09:08.347560  2790 net.cpp:106] Creating Layer relu5
I1110 22:09:08.347589  2790 net.cpp:454] relu5 <- conv5
I1110 22:09:08.347626  2790 net.cpp:397] relu5 -> conv5 (in-place)
I1110 22:09:08.347664  2790 net.cpp:150] Setting up relu5
I1110 22:09:08.347681  2790 net.cpp:157] Top shape: 1 256 13 13 (43264)
I1110 22:09:08.347692  2790 net.cpp:165] Memory required for data: 6106624
I1110 22:09:08.347707  2790 layer_factory.hpp:76] Creating layer pool5
I1110 22:09:08.347739  2790 net.cpp:106] Creating Layer pool5
I1110 22:09:08.347760  2790 net.cpp:454] pool5 <- conv5
I1110 22:09:08.347792  2790 net.cpp:411] pool5 -> pool5
I1110 22:09:08.347887  2790 net.cpp:150] Setting up pool5
I1110 22:09:08.347914  2790 net.cpp:157] Top shape: 1 256 6 6 (9216)
I1110 22:09:08.347926  2790 net.cpp:165] Memory required for data: 6143488
I1110 22:09:08.347941  2790 layer_factory.hpp:76] Creating layer fc6
I1110 22:09:08.347971  2790 net.cpp:106] Creating Layer fc6
I1110 22:09:08.347988  2790 net.cpp:454] fc6 <- pool5
I1110 22:09:08.348018  2790 net.cpp:411] fc6 -> fc6
I1110 22:09:08.552871  2790 net.cpp:150] Setting up fc6
I1110 22:09:08.552969  2790 net.cpp:157] Top shape: 1 4096 (4096)
I1110 22:09:08.552983  2790 net.cpp:165] Memory required for data: 6159872
I1110 22:09:08.553035  2790 layer_factory.hpp:76] Creating layer relu6
I1110 22:09:08.553120  2790 net.cpp:106] Creating Layer relu6
I1110 22:09:08.553150  2790 net.cpp:454] relu6 <- fc6
I1110 22:09:08.553203  2790 net.cpp:397] relu6 -> fc6 (in-place)
I1110 22:09:08.553251  2790 net.cpp:150] Setting up relu6
I1110 22:09:08.553268  2790 net.cpp:157] Top shape: 1 4096 (4096)
I1110 22:09:08.553278  2790 net.cpp:165] Memory required for data: 6176256
I1110 22:09:08.553292  2790 layer_factory.hpp:76] Creating layer drop6
I1110 22:09:08.553334  2790 net.cpp:106] Creating Layer drop6
I1110 22:09:08.553351  2790 net.cpp:454] drop6 <- fc6
I1110 22:09:08.553380  2790 net.cpp:397] drop6 -> fc6 (in-place)
I1110 22:09:08.553449  2790 net.cpp:150] Setting up drop6
I1110 22:09:08.553469  2790 net.cpp:157] Top shape: 1 4096 (4096)
I1110 22:09:08.553480  2790 net.cpp:165] Memory required for data: 6192640
I1110 22:09:08.553494  2790 layer_factory.hpp:76] Creating layer fc7
I1110 22:09:08.553527  2790 net.cpp:106] Creating Layer fc7
I1110 22:09:08.553544  2790 net.cpp:454] fc7 <- fc6
I1110 22:09:08.553580  2790 net.cpp:411] fc7 -> fc7
I1110 22:09:08.641823  2790 net.cpp:150] Setting up fc7
I1110 22:09:08.641921  2790 net.cpp:157] Top shape: 1 4096 (4096)
I1110 22:09:08.641933  2790 net.cpp:165] Memory required for data: 6209024
I1110 22:09:08.641981  2790 layer_factory.hpp:76] Creating layer relu7
I1110 22:09:08.642040  2790 net.cpp:106] Creating Layer relu7
I1110 22:09:08.642068  2790 net.cpp:454] relu7 <- fc7
I1110 22:09:08.642117  2790 net.cpp:397] relu7 -> fc7 (in-place)
I1110 22:09:08.642164  2790 net.cpp:150] Setting up relu7
I1110 22:09:08.642182  2790 net.cpp:157] Top shape: 1 4096 (4096)
I1110 22:09:08.642192  2790 net.cpp:165] Memory required for data: 6225408
I1110 22:09:08.642206  2790 layer_factory.hpp:76] Creating layer drop7
I1110 22:09:08.642240  2790 net.cpp:106] Creating Layer drop7
I1110 22:09:08.642256  2790 net.cpp:454] drop7 <- fc7
I1110 22:09:08.642284  2790 net.cpp:397] drop7 -> fc7 (in-place)
I1110 22:09:08.642352  2790 net.cpp:150] Setting up drop7
I1110 22:09:08.642374  2790 net.cpp:157] Top shape: 1 4096 (4096)
I1110 22:09:08.642384  2790 net.cpp:165] Memory required for data: 6241792
I1110 22:09:08.642397  2790 layer_factory.hpp:76] Creating layer fc8
I1110 22:09:08.642431  2790 net.cpp:106] Creating Layer fc8
I1110 22:09:08.642448  2790 net.cpp:454] fc8 <- fc7
I1110 22:09:08.642484  2790 net.cpp:411] fc8 -> fc8
I1110 22:09:08.664657  2790 net.cpp:150] Setting up fc8
I1110 22:09:08.664753  2790 net.cpp:157] Top shape: 1 1000 (1000)
I1110 22:09:08.664767  2790 net.cpp:165] Memory required for data: 6245792
I1110 22:09:08.664821  2790 layer_factory.hpp:76] Creating layer prob
I1110 22:09:08.664906  2790 net.cpp:106] Creating Layer prob
I1110 22:09:08.664940  2790 net.cpp:454] prob <- fc8
I1110 22:09:08.664994  2790 net.cpp:411] prob -> prob
I1110 22:09:08.665135  2790 net.cpp:150] Setting up prob
I1110 22:09:08.665159  2790 net.cpp:157] Top shape: 1 1000 (1000)
I1110 22:09:08.665171  2790 net.cpp:165] Memory required for data: 6249792
I1110 22:09:08.665189  2790 net.cpp:228] prob does not need backward computation.
I1110 22:09:08.665205  2790 net.cpp:228] fc8 does not need backward computation.
I1110 22:09:08.665218  2790 net.cpp:228] drop7 does not need backward computation.
I1110 22:09:08.665231  2790 net.cpp:228] relu7 does not need backward computation.
…
I1110 22:09:11.445727  2790 net.cpp:923] Copying source layer drop6
I1110 22:09:11.445737  2790 net.cpp:923] Copying source layer fc7
I1110 22:09:11.653707  2790 net.cpp:923] Copying source layer relu7
I1110 22:09:11.653738  2790 net.cpp:923] Copying source layer drop7
I1110 22:09:11.653748  2790 net.cpp:923] Copying source layer fc8
I1110 22:09:11.704435  2790 net.cpp:920] Ignoring source layer loss
I1110 22:09:11.780668  2790 net.cpp:49] Initializing net from parameters: 
name: "CaffeNet"
input: "data"
input_dim: 1
input_dim: 3
input_dim: 227
input_dim: 227
force_backward: true
state {
  phase: TEST
}
layer {
  name: "conv1"
  type: "Convolution"
  bottom: "data"
  top: "conv1"
  convolution_param {
    num_output: 96
    kernel_size: 11
    stride: 4
  }
}
layer {
  name: "relu1"
  type: "ReLU"
  bottom: "conv1"
  top: "conv1"
}
layer {
  name: "pool1"
  type: "Pooling"
  bottom: "conv1"
  top: "pool1"
  pooling_param {
    pool: MAX
    kernel_size: 3
    stride: 2
  }
}
layer {
  name: "norm1"
  type: "LRN"
  bottom: "pool1"
  top: "norm1"
  lrn_param {
    local_size: 5
    alpha: 0.0001
    beta: 0.75
  }
}
layer {
  name: "conv2"
  type: "Convolution"
  bottom: "norm1"
  top: "conv2"
  convolution_param {
    num_output: 256
    pad: 2
    kernel_size: 5
  }
}
layer {
  name: "relu2"
  type: "ReLU"
  bottom: "conv2"
  top: "conv2"
}
layer {
  name: "pool2"
  type: "Pooling"
  bottom: "conv2"
  top: "pool2"
  pooling_param {
    pool: MAX
    kernel_size: 3
    stride: 2
  }
}
layer {
  name: "norm2"
  type: "LRN"
  bottom: "pool2"
  top: "norm2"
  lrn_param {
    local_size: 5
    alpha: 0.0001
    beta: 0.75
  }
}
layer {
  name: "conv3"
  type: "Convolution"
  bottom: "norm2"
  top: "conv3"
  convolution_param {
    num_output: 384
    pad: 1
    kernel_size: 3
  }
}
layer {
  name: "relu3"
  type: "ReLU"
  bottom: "conv3"
  top: "conv3"
}
layer {
  name: "conv4"
  type: "Convolution"
  bottom: "conv3"
  top: "conv4"
  convolution_param {
    num_output: 384
    pad: 1
    kernel_size: 3
  }
}
layer {
  name: "relu4"
  type: "ReLU"
  bottom: "conv4"
  top: "conv4"
}
layer {
  name: "conv5"
  type: "Convolution"
  bottom: "conv4"
  top: "conv5"
  convolution_param {
    num_output: 256
    pad: 1
    kernel_size: 3
  }
}
layer {
  name: "relu5"
  type: "ReLU"
  bottom: "conv5"
  top: "conv5"
}
layer {
  name: "pool5"
  type: "Pooling"
  bottom: "conv5"
  top: "pool5"
  pooling_param {
    pool: MAX
    kernel_size: 3
    stride: 2
  }
}
layer {
  name: "fc6"
  type: "InnerProduct"
  bottom: "pool5"
  top: "fc6"
  inner_product_param {
    num_output: 4096
  }
}
layer {
  name: "relu6"
  type: "ReLU"
  bottom: "fc6"
  top: "fc6"
}
layer {
  name: "drop6"
  type: "Dropout"
  bottom: "fc6"
  top: "fc6"
  dropout_param {
    dropout_ratio: 0.5
  }
}
layer {
  name: "fc7"
  type: "InnerProduct"
  bottom: "fc6"
  top: "fc7"
  inner_product_param {
    num_output: 4096
  }
}
layer {
  name: "relu7"
  type: "ReLU"
  bottom: "fc7"
  top: "fc7"
}
layer {
  name: "drop7"
  type: "Dropout"
  bottom: "fc7"
  top: "fc7"
  dropout_param {
    dropout_ratio: 0.5
  }
}
layer {
  name: "fc8"
  type: "InnerProduct"
  bottom: "fc7"
  top: "fc8"
  inner_product_param {
    num_output: 1000
  }
}
layer {
  name: "prob"
  type: "Softmax"
  bottom: "fc8"
  top: "prob"
}
I1110 22:09:11.780954  2790 net.cpp:413] Input 0 -> data
I1110 22:09:11.781152  2790 layer_factory.hpp:76] Creating layer conv1
I1110 22:09:11.781219  2790 net.cpp:106] Creating Layer conv1
I1110 22:09:11.781246  2790 net.cpp:454] conv1 <- data
I1110 22:09:11.781278  2790 net.cpp:411] conv1 -> conv1
I1110 22:09:11.781690  2790 net.cpp:150] Setting up conv1
I1110 22:09:11.781728  2790 net.cpp:157] Top shape: 1 96 55 55 (290400)
I1110 22:09:11.781738  2790 net.cpp:165] Memory required for data: 1161600
I1110 22:09:11.781788  2790 layer_factory.hpp:76] Creating layer relu1
I1110 22:09:11.781821  2790 net.cpp:106] Creating Layer relu1
I1110 22:09:11.781836  2790 net.cpp:454] relu1 <- conv1
I1110 22:09:11.781862  2790 net.cpp:397] relu1 -> conv1 (in-place)
I1110 22:09:11.781889  2790 net.cpp:150] Setting up relu1
I1110 22:09:11.781916  2790 net.cpp:157] Top shape: 1 96 55 55 (290400)
I1110 22:09:11.781926  2790 net.cpp:165] Memory required for data: 2323200
I1110 22:09:11.781939  2790 layer_factory.hpp:76] Creating layer pool1
I1110 22:09:11.781971  2790 net.cpp:106] Creating Layer pool1
I1110 22:09:11.781988  2790 net.cpp:454] pool1 <- conv1
I1110 22:09:11.782016  2790 net.cpp:411] pool1 -> pool1
I1110 22:09:11.782094  2790 net.cpp:150] Setting up pool1
I1110 22:09:11.782120  2790 net.cpp:157] Top shape: 1 96 27 27 (69984)
I1110 22:09:11.782131  2790 net.cpp:165] Memory required for data: 2603136
I1110 22:09:11.782145  2790 layer_factory.hpp:76] Creating layer norm1
I1110 22:09:11.782171  2790 net.cpp:106] Creating Layer norm1
I1110 22:09:11.782187  2790 net.cpp:454] norm1 <- pool1
I1110 22:09:11.782215  2790 net.cpp:411] norm1 -> norm1
I1110 22:09:11.782282  2790 net.cpp:150] Setting up norm1
I1110 22:09:11.782304  2790 net.cpp:157] Top shape: 1 96 27 27 (69984)
I1110 22:09:11.782315  2790 net.cpp:165] Memory required for data: 2883072
I1110 22:09:11.782326  2790 layer_factory.hpp:76] Creating layer conv2
I1110 22:09:11.782369  2790 net.cpp:106] Creating Layer conv2
I1110 22:09:11.782397  2790 net.cpp:454] conv2 <- norm1
I1110 22:09:11.782428  2790 net.cpp:411] conv2 -> conv2
I1110 22:09:11.786536  2790 net.cpp:150] Setting up conv2
I1110 22:09:11.786581  2790 net.cpp:157] Top shape: 1 256 27 27 (186624)
I1110 22:09:11.786593  2790 net.cpp:165] Memory required for data: 3629568
I1110 22:09:11.786648  2790 layer_factory.hpp:76] Creating layer relu2
I1110 22:09:11.786684  2790 net.cpp:106] Creating Layer relu2
I1110 22:09:11.786702  2790 net.cpp:454] relu2 <- conv2
I1110 22:09:11.786731  2790 net.cpp:397] relu2 -> conv2 (in-place)
I1110 22:09:11.786761  2790 net.cpp:150] Setting up relu2
I1110 22:09:11.786794  2790 net.cpp:157] Top shape: 1 256 27 27 (186624)
I1110 22:09:11.786804  2790 net.cpp:165] Memory required for data: 4376064
I1110 22:09:11.786818  2790 layer_factory.hpp:76] Creating layer pool2
I1110 22:09:11.786844  2790 net.cpp:106] Creating Layer pool2
I1110 22:09:11.786866  2790 net.cpp:454] pool2 <- conv2
I1110 22:09:11.786896  2790 net.cpp:411] pool2 -> pool2
I1110 22:09:11.786972  2790 net.cpp:150] Setting up pool2
I1110 22:09:11.786994  2790 net.cpp:157] Top shape: 1 256 13 13 (43264)
I1110 22:09:11.787004  2790 net.cpp:165] Memory required for data: 4549120
I1110 22:09:11.787017  2790 layer_factory.hpp:76] Creating layer norm2
I1110 22:09:11.787045  2790 net.cpp:106] Creating Layer norm2
I1110 22:09:11.787060  2790 net.cpp:454] norm2 <- pool2
I1110 22:09:11.787088  2790 net.cpp:411] norm2 -> norm2
I1110 22:09:11.787154  2790 net.cpp:150] Setting up norm2
I1110 22:09:11.787175  2790 net.cpp:157] Top shape: 1 256 13 13 (43264)
I1110 22:09:11.787186  2790 net.cpp:165] Memory required for data: 4722176
I1110 22:09:11.787199  2790 layer_factory.hpp:76] Creating layer conv3
I1110 22:09:11.787235  2790 net.cpp:106] Creating Layer conv3
I1110 22:09:11.787252  2790 net.cpp:454] conv3 <- norm2
I1110 22:09:11.787281  2790 net.cpp:411] conv3 -> conv3
I1110 22:09:11.792852  2790 net.cpp:150] Setting up conv3
I1110 22:09:11.792891  2790 net.cpp:157] Top shape: 1 384 13 13 (64896)
I1110 22:09:11.792901  2790 net.cpp:165] Memory required for data: 4981760
I1110 22:09:11.792958  2790 layer_factory.hpp:76] Creating layer relu3
I1110 22:09:11.792994  2790 net.cpp:106] Creating Layer relu3
I1110 22:09:11.793012  2790 net.cpp:454] relu3 <- conv3
I1110 22:09:11.793040  2790 net.cpp:397] relu3 -> conv3 (in-place)
I1110 22:09:11.793071  2790 net.cpp:150] Setting up relu3
I1110 22:09:11.793087  2790 net.cpp:157] Top shape: 1 384 13 13 (64896)
I1110 22:09:11.793097  2790 net.cpp:165] Memory required for data: 5241344
I1110 22:09:11.793108  2790 layer_factory.hpp:76] Creating layer conv4
I1110 22:09:11.793138  2790 net.cpp:106] Creating Layer conv4
I1110 22:09:11.793154  2790 net.cpp:454] conv4 <- conv3
I1110 22:09:11.793184  2790 net.cpp:411] conv4 -> conv4
I1110 22:09:11.800253  2790 net.cpp:150] Setting up conv4
I1110 22:09:11.800298  2790 net.cpp:157] Top shape: 1 384 13 13 (64896)
I1110 22:09:11.800309  2790 net.cpp:165] Memory required for data: 5500928
I1110 22:09:11.800341  2790 layer_factory.hpp:76] Creating layer relu4
I1110 22:09:11.800397  2790 net.cpp:106] Creating Layer relu4
I1110 22:09:11.800418  2790 net.cpp:454] relu4 <- conv4
I1110 22:09:11.800452  2790 net.cpp:397] relu4 -> conv4 (in-place)
I1110 22:09:11.800483  2790 net.cpp:150] Setting up relu4
I1110 22:09:11.800498  2790 net.cpp:157] Top shape: 1 384 13 13 (64896)
I1110 22:09:11.800508  2790 net.cpp:165] Memory required for data: 5760512
I1110 22:09:11.800520  2790 layer_factory.hpp:76] Creating layer conv5
I1110 22:09:11.800550  2790 net.cpp:106] Creating Layer conv5
I1110 22:09:11.800566  2790 net.cpp:454] conv5 <- conv4
I1110 22:09:11.800595  2790 net.cpp:411] conv5 -> conv5
I1110 22:09:11.805326  2790 net.cpp:150] Setting up conv5
I1110 22:09:11.805366  2790 net.cpp:157] Top shape: 1 256 13 13 (43264)
I1110 22:09:11.805377  2790 net.cpp:165] Memory required for data: 5933568
I1110 22:09:11.805428  2790 layer_factory.hpp:76] Creating layer relu5
I1110 22:09:11.805459  2790 net.cpp:106] Creating Layer relu5
I1110 22:09:11.805476  2790 net.cpp:454] relu5 <- conv5
I1110 22:09:11.805501  2790 net.cpp:397] relu5 -> conv5 (in-place)
I1110 22:09:11.805531  2790 net.cpp:150] Setting up relu5
I1110 22:09:11.805546  2790 net.cpp:157] Top shape: 1 256 13 13 (43264)
I1110 22:09:11.805555  2790 net.cpp:165] Memory required for data: 6106624
I1110 22:09:11.805567  2790 layer_factory.hpp:76] Creating layer pool5
I1110 22:09:11.805593  2790 net.cpp:106] Creating Layer pool5
I1110 22:09:11.805608  2790 net.cpp:454] pool5 <- conv5
I1110 22:09:11.805636  2790 net.cpp:411] pool5 -> pool5
I1110 22:09:11.805716  2790 net.cpp:150] Setting up pool5
I1110 22:09:11.805737  2790 net.cpp:157] Top shape: 1 256 6 6 (9216)
I1110 22:09:11.805747  2790 net.cpp:165] Memory required for data: 6143488
I1110 22:09:11.805758  2790 layer_factory.hpp:76] Creating layer fc6
I1110 22:09:11.805786  2790 net.cpp:106] Creating Layer fc6
I1110 22:09:11.805802  2790 net.cpp:454] fc6 <- pool5
I1110 22:09:11.805842  2790 net.cpp:411] fc6 -> fc6
I1110 22:09:11.992503  2790 net.cpp:150] Setting up fc6
I1110 22:09:11.992558  2790 net.cpp:157] Top shape: 1 4096 (4096)
I1110 22:09:11.992569  2790 net.cpp:165] Memory required for data: 6159872
I1110 22:09:11.992605  2790 layer_factory.hpp:76] Creating layer relu6
I1110 22:09:11.992658  2790 net.cpp:106] Creating Layer relu6
I1110 22:09:11.992679  2790 net.cpp:454] relu6 <- fc6
I1110 22:09:11.992717  2790 net.cpp:397] relu6 -> fc6 (in-place)
I1110 22:09:11.992750  2790 net.cpp:150] Setting up relu6
I1110 22:09:11.992766  2790 net.cpp:157] Top shape: 1 4096 (4096)
I1110 22:09:11.992775  2790 net.cpp:165] Memory required for data: 6176256
I1110 22:09:11.992789  2790 layer_factory.hpp:76] Creating layer drop6
I1110 22:09:11.992813  2790 net.cpp:106] Creating Layer drop6
I1110 22:09:11.992828  2790 net.cpp:454] drop6 <- fc6
I1110 22:09:11.992856  2790 net.cpp:397] drop6 -> fc6 (in-place)
I1110 22:09:11.992910  2790 net.cpp:150] Setting up drop6
I1110 22:09:11.992928  2790 net.cpp:157] Top shape: 1 4096 (4096)
I1110 22:09:11.992938  2790 net.cpp:165] Memory required for data: 6192640
I1110 22:09:11.992950  2790 layer_factory.hpp:76] Creating layer fc7
I1110 22:09:11.992976  2790 net.cpp:106] Creating Layer fc7
I1110 22:09:11.992991  2790 net.cpp:454] fc7 <- fc6
I1110 22:09:11.993021  2790 net.cpp:411] fc7 -> fc7
I1110 22:09:12.071663  2790 net.cpp:150] Setting up fc7
I1110 22:09:12.071761  2790 net.cpp:157] Top shape: 1 4096 (4096)
I1110 22:09:12.071774  2790 net.cpp:165] Memory required for data: 6209024
I1110 22:09:12.071820  2790 layer_factory.hpp:76] Creating layer relu7
I1110 22:09:12.071877  2790 net.cpp:106] Creating Layer relu7
I1110 22:09:12.071905  2790 net.cpp:454] relu7 <- fc7
I1110 22:09:12.071952  2790 net.cpp:397] relu7 -> fc7 (in-place)
I1110 22:09:12.071993  2790 net.cpp:150] Setting up relu7
I1110 22:09:12.072010  2790 net.cpp:157] Top shape: 1 4096 (4096)
I1110 22:09:12.072018  2790 net.cpp:165] Memory required for data: 6225408
I1110 22:09:12.072031  2790 layer_factory.hpp:76] Creating layer drop7
I1110 22:09:12.072062  2790 net.cpp:106] Creating Layer drop7
I1110 22:09:12.072077  2790 net.cpp:454] drop7 <- fc7
I1110 22:09:12.072101  2790 net.cpp:397] drop7 -> fc7 (in-place)
I1110 22:09:12.072162  2790 net.cpp:150] Setting up drop7
I1110 22:09:12.072182  2790 net.cpp:157] Top shape: 1 4096 (4096)
I1110 22:09:12.072191  2790 net.cpp:165] Memory required for data: 6241792
I1110 22:09:12.072204  2790 layer_factory.hpp:76] Creating layer fc8
I1110 22:09:12.072237  2790 net.cpp:106] Creating Layer fc8
I1110 22:09:12.072253  2790 net.cpp:454] fc8 <- fc7
I1110 22:09:12.072283  2790 net.cpp:411] fc8 -> fc8
I1110 22:09:12.092809  2790 net.cpp:150] Setting up fc8
I1110 22:09:12.092890  2790 net.cpp:157] Top shape: 1 1000 (1000)
I1110 22:09:12.092900  2790 net.cpp:165] Memory required for data: 6245792
I1110 22:09:12.092948  2790 layer_factory.hpp:76] Creating layer prob
I1110 22:09:12.093019  2790 net.cpp:106] Creating Layer prob
I1110 22:09:12.093044  2790 net.cpp:454] prob <- fc8
I1110 22:09:12.093096  2790 net.cpp:411] prob -> prob
I1110 22:09:12.093221  2790 net.cpp:150] Setting up prob
I1110 22:09:12.093242  2790 net.cpp:157] Top shape: 1 1000 (1000)
I1110 22:09:12.093252  2790 net.cpp:165] Memory required for data: 6249792
I1110 22:09:12.093268  2790 net.cpp:228] prob does not need backward computation.
I1110 22:09:12.093282  2790 net.cpp:228] fc8 does not need backward computation.
I1110 22:09:12.093294  2790 net.cpp:228] drop7 does not need backward computation.
I1110 22:09:12.093307  2790 net.cpp:228] relu7 does not need backward computation.
…
