…
momentum: 0.98
weight_decay: 0.00015848932
stepsize: 1500
snapshot: 1000
snapshot_prefix: "stitch"
solver_mode: GPU
random_seed: 0
net: "network.prototxt"
regularization_type: "L1"
I1111 07:12:32.407708  3961 solver.cpp:90] Creating training net from net file: network.prototxt
I1111 07:12:32.419000  3961 net.cpp:49] Initializing net from parameters: 
name: "StitchNet"
input: "net0"
input: "net1"
input_dim: 32
input_dim: 256
input_dim: 27
input_dim: 27
input_dim: 32
input_dim: 256
input_dim: 27
input_dim: 27
state {
  phase: TRAIN
}
debug_info: true
layer {
  name: "stitch0"
  type: "Convolution"
  bottom: "net0"
  top: "stitch0"
  convolution_param {
    num_output: 256
    kernel_size: 1
    stride: 1
    weight_filler {
      type: "gaussian"
      std: 0.01
    }
  }
}
layer {
  name: "loss"
  type: "EuclideanLoss"
  bottom: "stitch0"
  bottom: "net1"
  top: "loss"
  loss_weight: 1
}
I1111 07:12:32.419229  3961 net.cpp:413] Input 0 -> net0
I1111 07:12:32.459092  3961 net.cpp:413] Input 1 -> net1
I1111 07:12:32.459223  3961 layer_factory.hpp:76] Creating layer stitch0
I1111 07:12:32.459285  3961 net.cpp:106] Creating Layer stitch0
I1111 07:12:32.459306  3961 net.cpp:454] stitch0 <- net0
I1111 07:12:32.459343  3961 net.cpp:411] stitch0 -> stitch0
I1111 07:12:32.468116  3961 net.cpp:150] Setting up stitch0
I1111 07:12:32.468171  3961 net.cpp:157] Top shape: 32 256 27 27 (5971968)
I1111 07:12:32.468185  3961 net.cpp:165] Memory required for data: 23887872
I1111 07:12:32.468255  3961 layer_factory.hpp:76] Creating layer loss
I1111 07:12:32.468300  3961 net.cpp:106] Creating Layer loss
I1111 07:12:32.468323  3961 net.cpp:454] loss <- stitch0
I1111 07:12:32.468350  3961 net.cpp:454] loss <- net1
I1111 07:12:32.468379  3961 net.cpp:411] loss -> loss
I1111 07:12:32.468468  3961 net.cpp:150] Setting up loss
I1111 07:12:32.468494  3961 net.cpp:157] Top shape: (1)
I1111 07:12:32.468507  3961 net.cpp:160]     with loss weight 1
I1111 07:12:32.468524  3961 net.cpp:165] Memory required for data: 23887876
I1111 07:12:32.468543  3961 net.cpp:226] loss needs backward computation.
I1111 07:12:32.468559  3961 net.cpp:226] stitch0 needs backward computation.
I1111 07:12:32.468575  3961 net.cpp:270] This network produces output loss
I1111 07:12:32.468601  3961 net.cpp:283] Network initialization done.
I1111 07:12:32.468652  3961 solver.cpp:59] Solver scaffolding done.
I1111 07:12:32.583199  3961 net.cpp:49] Initializing net from parameters: 
name: "CaffeNet"
input: "data"
input_dim: 1
input_dim: 3
input_dim: 227
input_dim: 227
force_backward: true
state {
  phase: TEST
}
layer {
  name: "conv1"
  type: "Convolution"
  bottom: "data"
  top: "conv1"
  convolution_param {
    num_output: 96
    kernel_size: 11
    stride: 4
  }
}
layer {
  name: "relu1"
  type: "ReLU"
  bottom: "conv1"
  top: "conv1"
}
layer {
  name: "pool1"
  type: "Pooling"
  bottom: "conv1"
  top: "pool1"
  pooling_param {
    pool: MAX
    kernel_size: 3
    stride: 2
  }
}
layer {
  name: "norm1"
  type: "LRN"
  bottom: "pool1"
  top: "norm1"
  lrn_param {
    local_size: 5
    alpha: 0.0001
    beta: 0.75
  }
}
layer {
  name: "conv2"
  type: "Convolution"
  bottom: "norm1"
  top: "conv2"
  convolution_param {
    num_output: 256
    pad: 2
    kernel_size: 5
  }
}
layer {
  name: "relu2"
  type: "ReLU"
  bottom: "conv2"
  top: "conv2"
}
layer {
  name: "pool2"
  type: "Pooling"
  bottom: "conv2"
  top: "pool2"
  pooling_param {
    pool: MAX
    kernel_size: 3
    stride: 2
  }
}
layer {
  name: "norm2"
  type: "LRN"
  bottom: "pool2"
  top: "norm2"
  lrn_param {
    local_size: 5
    alpha: 0.0001
    beta: 0.75
  }
}
layer {
  name: "conv3"
  type: "Convolution"
  bottom: "norm2"
  top: "conv3"
  convolution_param {
    num_output: 384
    pad: 1
    kernel_size: 3
  }
}
layer {
  name: "relu3"
  type: "ReLU"
  bottom: "conv3"
  top: "conv3"
}
layer {
  name: "conv4"
  type: "Convolution"
  bottom: "conv3"
  top: "conv4"
  convolution_param {
    num_output: 384
    pad: 1
    kernel_size: 3
  }
}
layer {
  name: "relu4"
  type: "ReLU"
  bottom: "conv4"
  top: "conv4"
}
layer {
  name: "conv5"
  type: "Convolution"
  bottom: "conv4"
  top: "conv5"
  convolution_param {
    num_output: 256
    pad: 1
    kernel_size: 3
  }
}
layer {
  name: "relu5"
  type: "ReLU"
  bottom: "conv5"
  top: "conv5"
}
layer {
  name: "pool5"
  type: "Pooling"
  bottom: "conv5"
  top: "pool5"
  pooling_param {
    pool: MAX
    kernel_size: 3
    stride: 2
  }
}
layer {
  name: "fc6"
  type: "InnerProduct"
  bottom: "pool5"
  top: "fc6"
  inner_product_param {
    num_output: 4096
  }
}
layer {
  name: "relu6"
  type: "ReLU"
  bottom: "fc6"
  top: "fc6"
}
layer {
  name: "drop6"
  type: "Dropout"
  bottom: "fc6"
  top: "fc6"
  dropout_param {
    dropout_ratio: 0.5
  }
}
layer {
  name: "fc7"
  type: "InnerProduct"
  bottom: "fc6"
  top: "fc7"
  inner_product_param {
    num_output: 4096
  }
}
layer {
  name: "relu7"
  type: "ReLU"
  bottom: "fc7"
  top: "fc7"
}
layer {
  name: "drop7"
  type: "Dropout"
  bottom: "fc7"
  top: "fc7"
  dropout_param {
    dropout_ratio: 0.5
  }
}
layer {
  name: "fc8"
  type: "InnerProduct"
  bottom: "fc7"
  top: "fc8"
  inner_product_param {
    num_output: 1000
  }
}
layer {
  name: "prob"
  type: "Softmax"
  bottom: "fc8"
  top: "prob"
}
I1111 07:12:32.583701  3961 net.cpp:413] Input 0 -> data
I1111 07:12:32.584044  3961 layer_factory.hpp:76] Creating layer conv1
I1111 07:12:32.584177  3961 net.cpp:106] Creating Layer conv1
I1111 07:12:32.584221  3961 net.cpp:454] conv1 <- data
I1111 07:12:32.584291  3961 net.cpp:411] conv1 -> conv1
I1111 07:12:32.587404  3961 net.cpp:150] Setting up conv1
I1111 07:12:32.587491  3961 net.cpp:157] Top shape: 1 96 55 55 (290400)
I1111 07:12:32.587520  3961 net.cpp:165] Memory required for data: 1161600
I1111 07:12:32.587637  3961 layer_factory.hpp:76] Creating layer relu1
I1111 07:12:32.587725  3961 net.cpp:106] Creating Layer relu1
I1111 07:12:32.587770  3961 net.cpp:454] relu1 <- conv1
I1111 07:12:32.587833  3961 net.cpp:397] relu1 -> conv1 (in-place)
I1111 07:12:32.587908  3961 net.cpp:150] Setting up relu1
I1111 07:12:32.587946  3961 net.cpp:157] Top shape: 1 96 55 55 (290400)
I1111 07:12:32.587998  3961 net.cpp:165] Memory required for data: 2323200
I1111 07:12:32.588031  3961 layer_factory.hpp:76] Creating layer pool1
I1111 07:12:32.588120  3961 net.cpp:106] Creating Layer pool1
I1111 07:12:32.588162  3961 net.cpp:454] pool1 <- conv1
I1111 07:12:32.588230  3961 net.cpp:411] pool1 -> pool1
I1111 07:12:32.588474  3961 net.cpp:150] Setting up pool1
I1111 07:12:32.588532  3961 net.cpp:157] Top shape: 1 96 27 27 (69984)
I1111 07:12:32.588559  3961 net.cpp:165] Memory required for data: 2603136
I1111 07:12:32.588592  3961 layer_factory.hpp:76] Creating layer norm1
I1111 07:12:32.588654  3961 net.cpp:106] Creating Layer norm1
I1111 07:12:32.588693  3961 net.cpp:454] norm1 <- pool1
I1111 07:12:32.588762  3961 net.cpp:411] norm1 -> norm1
I1111 07:12:32.588929  3961 net.cpp:150] Setting up norm1
I1111 07:12:32.588981  3961 net.cpp:157] Top shape: 1 96 27 27 (69984)
I1111 07:12:32.589007  3961 net.cpp:165] Memory required for data: 2883072
I1111 07:12:32.589038  3961 layer_factory.hpp:76] Creating layer conv2
I1111 07:12:32.589112  3961 net.cpp:106] Creating Layer conv2
I1111 07:12:32.589151  3961 net.cpp:454] conv2 <- norm1
I1111 07:12:32.589221  3961 net.cpp:411] conv2 -> conv2
I1111 07:12:32.593083  3961 net.cpp:150] Setting up conv2
I1111 07:12:32.593121  3961 net.cpp:157] Top shape: 1 256 27 27 (186624)
I1111 07:12:32.593133  3961 net.cpp:165] Memory required for data: 3629568
I1111 07:12:32.593180  3961 layer_factory.hpp:76] Creating layer relu2
I1111 07:12:32.593214  3961 net.cpp:106] Creating Layer relu2
I1111 07:12:32.593231  3961 net.cpp:454] relu2 <- conv2
I1111 07:12:32.593261  3961 net.cpp:397] relu2 -> conv2 (in-place)
I1111 07:12:32.593292  3961 net.cpp:150] Setting up relu2
I1111 07:12:32.593310  3961 net.cpp:157] Top shape: 1 256 27 27 (186624)
I1111 07:12:32.593320  3961 net.cpp:165] Memory required for data: 4376064
I1111 07:12:32.593333  3961 layer_factory.hpp:76] Creating layer pool2
I1111 07:12:32.593360  3961 net.cpp:106] Creating Layer pool2
I1111 07:12:32.593377  3961 net.cpp:454] pool2 <- conv2
I1111 07:12:32.593406  3961 net.cpp:411] pool2 -> pool2
I1111 07:12:32.593493  3961 net.cpp:150] Setting up pool2
I1111 07:12:32.593518  3961 net.cpp:157] Top shape: 1 256 13 13 (43264)
I1111 07:12:32.593530  3961 net.cpp:165] Memory required for data: 4549120
I1111 07:12:32.593544  3961 layer_factory.hpp:76] Creating layer norm2
I1111 07:12:32.593575  3961 net.cpp:106] Creating Layer norm2
I1111 07:12:32.593591  3961 net.cpp:454] norm2 <- pool2
I1111 07:12:32.593622  3961 net.cpp:411] norm2 -> norm2
I1111 07:12:32.593696  3961 net.cpp:150] Setting up norm2
I1111 07:12:32.593720  3961 net.cpp:157] Top shape: 1 256 13 13 (43264)
I1111 07:12:32.593732  3961 net.cpp:165] Memory required for data: 4722176
I1111 07:12:32.593746  3961 layer_factory.hpp:76] Creating layer conv3
I1111 07:12:32.593783  3961 net.cpp:106] Creating Layer conv3
I1111 07:12:32.593802  3961 net.cpp:454] conv3 <- norm2
I1111 07:12:32.593834  3961 net.cpp:411] conv3 -> conv3
I1111 07:12:32.598883  3961 net.cpp:150] Setting up conv3
I1111 07:12:32.598932  3961 net.cpp:157] Top shape: 1 384 13 13 (64896)
I1111 07:12:32.598944  3961 net.cpp:165] Memory required for data: 4981760
I1111 07:12:32.598999  3961 layer_factory.hpp:76] Creating layer relu3
I1111 07:12:32.599036  3961 net.cpp:106] Creating Layer relu3
I1111 07:12:32.599056  3961 net.cpp:454] relu3 <- conv3
I1111 07:12:32.599087  3961 net.cpp:397] relu3 -> conv3 (in-place)
I1111 07:12:32.599122  3961 net.cpp:150] Setting up relu3
I1111 07:12:32.599139  3961 net.cpp:157] Top shape: 1 384 13 13 (64896)
I1111 07:12:32.599149  3961 net.cpp:165] Memory required for data: 5241344
I1111 07:12:32.599162  3961 layer_factory.hpp:76] Creating layer conv4
I1111 07:12:32.599192  3961 net.cpp:106] Creating Layer conv4
I1111 07:12:32.599210  3961 net.cpp:454] conv4 <- conv3
I1111 07:12:32.599241  3961 net.cpp:411] conv4 -> conv4
I1111 07:12:32.606863  3961 net.cpp:150] Setting up conv4
I1111 07:12:32.606912  3961 net.cpp:157] Top shape: 1 384 13 13 (64896)
I1111 07:12:32.606925  3961 net.cpp:165] Memory required for data: 5500928
I1111 07:12:32.606959  3961 layer_factory.hpp:76] Creating layer relu4
I1111 07:12:32.606995  3961 net.cpp:106] Creating Layer relu4
I1111 07:12:32.607015  3961 net.cpp:454] relu4 <- conv4
I1111 07:12:32.607051  3961 net.cpp:397] relu4 -> conv4 (in-place)
I1111 07:12:32.607086  3961 net.cpp:150] Setting up relu4
I1111 07:12:32.607105  3961 net.cpp:157] Top shape: 1 384 13 13 (64896)
I1111 07:12:32.607115  3961 net.cpp:165] Memory required for data: 5760512
I1111 07:12:32.607127  3961 layer_factory.hpp:76] Creating layer conv5
I1111 07:12:32.607158  3961 net.cpp:106] Creating Layer conv5
I1111 07:12:32.607175  3961 net.cpp:454] conv5 <- conv4
I1111 07:12:32.607206  3961 net.cpp:411] conv5 -> conv5
I1111 07:12:32.612622  3961 net.cpp:150] Setting up conv5
I1111 07:12:32.612664  3961 net.cpp:157] Top shape: 1 256 13 13 (43264)
I1111 07:12:32.612676  3961 net.cpp:165] Memory required for data: 5933568
I1111 07:12:32.612732  3961 layer_factory.hpp:76] Creating layer relu5
I1111 07:12:32.612768  3961 net.cpp:106] Creating Layer relu5
I1111 07:12:32.612789  3961 net.cpp:454] relu5 <- conv5
I1111 07:12:32.612820  3961 net.cpp:397] relu5 -> conv5 (in-place)
I1111 07:12:32.612854  3961 net.cpp:150] Setting up relu5
I1111 07:12:32.612872  3961 net.cpp:157] Top shape: 1 256 13 13 (43264)
I1111 07:12:32.612882  3961 net.cpp:165] Memory required for data: 6106624
I1111 07:12:32.612895  3961 layer_factory.hpp:76] Creating layer pool5
I1111 07:12:32.612923  3961 net.cpp:106] Creating Layer pool5
I1111 07:12:32.612941  3961 net.cpp:454] pool5 <- conv5
I1111 07:12:32.612972  3961 net.cpp:411] pool5 -> pool5
I1111 07:12:32.613065  3961 net.cpp:150] Setting up pool5
I1111 07:12:32.613090  3961 net.cpp:157] Top shape: 1 256 6 6 (9216)
I1111 07:12:32.613101  3961 net.cpp:165] Memory required for data: 6143488
I1111 07:12:32.613116  3961 layer_factory.hpp:76] Creating layer fc6
I1111 07:12:32.613143  3961 net.cpp:106] Creating Layer fc6
I1111 07:12:32.613160  3961 net.cpp:454] fc6 <- pool5
I1111 07:12:32.613190  3961 net.cpp:411] fc6 -> fc6
I1111 07:12:32.835947  3961 net.cpp:150] Setting up fc6
I1111 07:12:32.836037  3961 net.cpp:157] Top shape: 1 4096 (4096)
I1111 07:12:32.836050  3961 net.cpp:165] Memory required for data: 6159872
I1111 07:12:32.836093  3961 layer_factory.hpp:76] Creating layer relu6
I1111 07:12:32.836159  3961 net.cpp:106] Creating Layer relu6
I1111 07:12:32.836184  3961 net.cpp:454] relu6 <- fc6
I1111 07:12:32.836226  3961 net.cpp:397] relu6 -> fc6 (in-place)
I1111 07:12:32.836266  3961 net.cpp:150] Setting up relu6
I1111 07:12:32.836282  3961 net.cpp:157] Top shape: 1 4096 (4096)
I1111 07:12:32.836292  3961 net.cpp:165] Memory required for data: 6176256
I1111 07:12:32.836305  3961 layer_factory.hpp:76] Creating layer drop6
I1111 07:12:32.836344  3961 net.cpp:106] Creating Layer drop6
I1111 07:12:32.836362  3961 net.cpp:454] drop6 <- fc6
I1111 07:12:32.836390  3961 net.cpp:397] drop6 -> fc6 (in-place)
I1111 07:12:32.836460  3961 net.cpp:150] Setting up drop6
I1111 07:12:32.836482  3961 net.cpp:157] Top shape: 1 4096 (4096)
I1111 07:12:32.836493  3961 net.cpp:165] Memory required for data: 6192640
I1111 07:12:32.836506  3961 layer_factory.hpp:76] Creating layer fc7
I1111 07:12:32.836537  3961 net.cpp:106] Creating Layer fc7
I1111 07:12:32.836554  3961 net.cpp:454] fc7 <- fc6
I1111 07:12:32.836585  3961 net.cpp:411] fc7 -> fc7
I1111 07:12:32.923357  3961 net.cpp:150] Setting up fc7
I1111 07:12:32.923451  3961 net.cpp:157] Top shape: 1 4096 (4096)
I1111 07:12:32.923465  3961 net.cpp:165] Memory required for data: 6209024
I1111 07:12:32.923508  3961 layer_factory.hpp:76] Creating layer relu7
I1111 07:12:32.923563  3961 net.cpp:106] Creating Layer relu7
I1111 07:12:32.923588  3961 net.cpp:454] relu7 <- fc7
I1111 07:12:32.923631  3961 net.cpp:397] relu7 -> fc7 (in-place)
I1111 07:12:32.923673  3961 net.cpp:150] Setting up relu7
I1111 07:12:32.923691  3961 net.cpp:157] Top shape: 1 4096 (4096)
I1111 07:12:32.923701  3961 net.cpp:165] Memory required for data: 6225408
I1111 07:12:32.923713  3961 layer_factory.hpp:76] Creating layer drop7
I1111 07:12:32.923745  3961 net.cpp:106] Creating Layer drop7
I1111 07:12:32.923763  3961 net.cpp:454] drop7 <- fc7
I1111 07:12:32.923789  3961 net.cpp:397] drop7 -> fc7 (in-place)
I1111 07:12:32.923852  3961 net.cpp:150] Setting up drop7
I1111 07:12:32.923873  3961 net.cpp:157] Top shape: 1 4096 (4096)
I1111 07:12:32.923884  3961 net.cpp:165] Memory required for data: 6241792
I1111 07:12:32.923897  3961 layer_factory.hpp:76] Creating layer fc8
I1111 07:12:32.923928  3961 net.cpp:106] Creating Layer fc8
I1111 07:12:32.923943  3961 net.cpp:454] fc8 <- fc7
I1111 07:12:32.923977  3961 net.cpp:411] fc8 -> fc8
I1111 07:12:32.945798  3961 net.cpp:150] Setting up fc8
I1111 07:12:32.945885  3961 net.cpp:157] Top shape: 1 1000 (1000)
I1111 07:12:32.945897  3961 net.cpp:165] Memory required for data: 6245792
I1111 07:12:32.945941  3961 layer_factory.hpp:76] Creating layer prob
I1111 07:12:32.946002  3961 net.cpp:106] Creating Layer prob
I1111 07:12:32.946028  3961 net.cpp:454] prob <- fc8
I1111 07:12:32.946071  3961 net.cpp:411] prob -> prob
I1111 07:12:32.946200  3961 net.cpp:150] Setting up prob
I1111 07:12:32.946225  3961 net.cpp:157] Top shape: 1 1000 (1000)
I1111 07:12:32.946236  3961 net.cpp:165] Memory required for data: 6249792
I1111 07:12:32.946254  3961 net.cpp:228] prob does not need backward computation.
I1111 07:12:32.946267  3961 net.cpp:228] fc8 does not need backward computation.
I1111 07:12:32.946281  3961 net.cpp:228] drop7 does not need backward computation.
I1111 07:12:32.946293  3961 net.cpp:228] relu7 does not need backward computation.
…
I1111 07:12:35.671772  3961 net.cpp:923] Copying source layer drop6
I1111 07:12:35.671782  3961 net.cpp:923] Copying source layer fc7
I1111 07:12:35.880436  3961 net.cpp:923] Copying source layer relu7
I1111 07:12:35.880466  3961 net.cpp:923] Copying source layer drop7
I1111 07:12:35.880477  3961 net.cpp:923] Copying source layer fc8
I1111 07:12:35.931160  3961 net.cpp:920] Ignoring source layer loss
I1111 07:12:36.003988  3961 net.cpp:49] Initializing net from parameters: 
name: "CaffeNet"
input: "data"
input_dim: 1
input_dim: 3
input_dim: 227
input_dim: 227
force_backward: true
state {
  phase: TEST
}
layer {
  name: "conv1"
  type: "Convolution"
  bottom: "data"
  top: "conv1"
  convolution_param {
    num_output: 96
    kernel_size: 11
    stride: 4
  }
}
layer {
  name: "relu1"
  type: "ReLU"
  bottom: "conv1"
  top: "conv1"
}
layer {
  name: "pool1"
  type: "Pooling"
  bottom: "conv1"
  top: "pool1"
  pooling_param {
    pool: MAX
    kernel_size: 3
    stride: 2
  }
}
layer {
  name: "norm1"
  type: "LRN"
  bottom: "pool1"
  top: "norm1"
  lrn_param {
    local_size: 5
    alpha: 0.0001
    beta: 0.75
  }
}
layer {
  name: "conv2"
  type: "Convolution"
  bottom: "norm1"
  top: "conv2"
  convolution_param {
    num_output: 256
    pad: 2
    kernel_size: 5
  }
}
layer {
  name: "relu2"
  type: "ReLU"
  bottom: "conv2"
  top: "conv2"
}
layer {
  name: "pool2"
  type: "Pooling"
  bottom: "conv2"
  top: "pool2"
  pooling_param {
    pool: MAX
    kernel_size: 3
    stride: 2
  }
}
layer {
  name: "norm2"
  type: "LRN"
  bottom: "pool2"
  top: "norm2"
  lrn_param {
    local_size: 5
    alpha: 0.0001
    beta: 0.75
  }
}
layer {
  name: "conv3"
  type: "Convolution"
  bottom: "norm2"
  top: "conv3"
  convolution_param {
    num_output: 384
    pad: 1
    kernel_size: 3
  }
}
layer {
  name: "relu3"
  type: "ReLU"
  bottom: "conv3"
  top: "conv3"
}
layer {
  name: "conv4"
  type: "Convolution"
  bottom: "conv3"
  top: "conv4"
  convolution_param {
    num_output: 384
    pad: 1
    kernel_size: 3
  }
}
layer {
  name: "relu4"
  type: "ReLU"
  bottom: "conv4"
  top: "conv4"
}
layer {
  name: "conv5"
  type: "Convolution"
  bottom: "conv4"
  top: "conv5"
  convolution_param {
    num_output: 256
    pad: 1
    kernel_size: 3
  }
}
layer {
  name: "relu5"
  type: "ReLU"
  bottom: "conv5"
  top: "conv5"
}
layer {
  name: "pool5"
  type: "Pooling"
  bottom: "conv5"
  top: "pool5"
  pooling_param {
    pool: MAX
    kernel_size: 3
    stride: 2
  }
}
layer {
  name: "fc6"
  type: "InnerProduct"
  bottom: "pool5"
  top: "fc6"
  inner_product_param {
    num_output: 4096
  }
}
layer {
  name: "relu6"
  type: "ReLU"
  bottom: "fc6"
  top: "fc6"
}
layer {
  name: "drop6"
  type: "Dropout"
  bottom: "fc6"
  top: "fc6"
  dropout_param {
    dropout_ratio: 0.5
  }
}
layer {
  name: "fc7"
  type: "InnerProduct"
  bottom: "fc6"
  top: "fc7"
  inner_product_param {
    num_output: 4096
  }
}
layer {
  name: "relu7"
  type: "ReLU"
  bottom: "fc7"
  top: "fc7"
}
layer {
  name: "drop7"
  type: "Dropout"
  bottom: "fc7"
  top: "fc7"
  dropout_param {
    dropout_ratio: 0.5
  }
}
layer {
  name: "fc8"
  type: "InnerProduct"
  bottom: "fc7"
  top: "fc8"
  inner_product_param {
    num_output: 1000
  }
}
layer {
  name: "prob"
  type: "Softmax"
  bottom: "fc8"
  top: "prob"
}
I1111 07:12:36.004520  3961 net.cpp:413] Input 0 -> data
I1111 07:12:36.004858  3961 layer_factory.hpp:76] Creating layer conv1
I1111 07:12:36.004956  3961 net.cpp:106] Creating Layer conv1
I1111 07:12:36.005015  3961 net.cpp:454] conv1 <- data
I1111 07:12:36.005087  3961 net.cpp:411] conv1 -> conv1
I1111 07:12:36.006022  3961 net.cpp:150] Setting up conv1
I1111 07:12:36.006091  3961 net.cpp:157] Top shape: 1 96 55 55 (290400)
I1111 07:12:36.006119  3961 net.cpp:165] Memory required for data: 1161600
I1111 07:12:36.006232  3961 layer_factory.hpp:76] Creating layer relu1
I1111 07:12:36.006304  3961 net.cpp:106] Creating Layer relu1
I1111 07:12:36.006343  3961 net.cpp:454] relu1 <- conv1
I1111 07:12:36.006415  3961 net.cpp:397] relu1 -> conv1 (in-place)
I1111 07:12:36.006482  3961 net.cpp:150] Setting up relu1
I1111 07:12:36.006520  3961 net.cpp:157] Top shape: 1 96 55 55 (290400)
I1111 07:12:36.006543  3961 net.cpp:165] Memory required for data: 2323200
I1111 07:12:36.006572  3961 layer_factory.hpp:76] Creating layer pool1
I1111 07:12:36.006635  3961 net.cpp:106] Creating Layer pool1
I1111 07:12:36.006674  3961 net.cpp:454] pool1 <- conv1
I1111 07:12:36.006738  3961 net.cpp:411] pool1 -> pool1
I1111 07:12:36.006919  3961 net.cpp:150] Setting up pool1
I1111 07:12:36.006974  3961 net.cpp:157] Top shape: 1 96 27 27 (69984)
I1111 07:12:36.007001  3961 net.cpp:165] Memory required for data: 2603136
I1111 07:12:36.007032  3961 layer_factory.hpp:76] Creating layer norm1
I1111 07:12:36.007092  3961 net.cpp:106] Creating Layer norm1
I1111 07:12:36.007130  3961 net.cpp:454] norm1 <- pool1
I1111 07:12:36.007196  3961 net.cpp:411] norm1 -> norm1
I1111 07:12:36.007364  3961 net.cpp:150] Setting up norm1
I1111 07:12:36.007416  3961 net.cpp:157] Top shape: 1 96 27 27 (69984)
I1111 07:12:36.007442  3961 net.cpp:165] Memory required for data: 2883072
I1111 07:12:36.007472  3961 layer_factory.hpp:76] Creating layer conv2
I1111 07:12:36.007541  3961 net.cpp:106] Creating Layer conv2
I1111 07:12:36.007581  3961 net.cpp:454] conv2 <- norm1
I1111 07:12:36.007648  3961 net.cpp:411] conv2 -> conv2
I1111 07:12:36.012707  3961 net.cpp:150] Setting up conv2
I1111 07:12:36.012733  3961 net.cpp:157] Top shape: 1 256 27 27 (186624)
I1111 07:12:36.012745  3961 net.cpp:165] Memory required for data: 3629568
I1111 07:12:36.012783  3961 layer_factory.hpp:76] Creating layer relu2
I1111 07:12:36.012806  3961 net.cpp:106] Creating Layer relu2
I1111 07:12:36.012821  3961 net.cpp:454] relu2 <- conv2
I1111 07:12:36.012846  3961 net.cpp:397] relu2 -> conv2 (in-place)
I1111 07:12:36.012872  3961 net.cpp:150] Setting up relu2
I1111 07:12:36.012887  3961 net.cpp:157] Top shape: 1 256 27 27 (186624)
I1111 07:12:36.012897  3961 net.cpp:165] Memory required for data: 4376064
I1111 07:12:36.012908  3961 layer_factory.hpp:76] Creating layer pool2
I1111 07:12:36.012929  3961 net.cpp:106] Creating Layer pool2
I1111 07:12:36.012944  3961 net.cpp:454] pool2 <- conv2
I1111 07:12:36.012969  3961 net.cpp:411] pool2 -> pool2
I1111 07:12:36.013039  3961 net.cpp:150] Setting up pool2
I1111 07:12:36.013061  3961 net.cpp:157] Top shape: 1 256 13 13 (43264)
I1111 07:12:36.013070  3961 net.cpp:165] Memory required for data: 4549120
I1111 07:12:36.013082  3961 layer_factory.hpp:76] Creating layer norm2
I1111 07:12:36.013105  3961 net.cpp:106] Creating Layer norm2
I1111 07:12:36.013120  3961 net.cpp:454] norm2 <- pool2
I1111 07:12:36.013147  3961 net.cpp:411] norm2 -> norm2
I1111 07:12:36.013211  3961 net.cpp:150] Setting up norm2
I1111 07:12:36.013231  3961 net.cpp:157] Top shape: 1 256 13 13 (43264)
I1111 07:12:36.013242  3961 net.cpp:165] Memory required for data: 4722176
I1111 07:12:36.013253  3961 layer_factory.hpp:76] Creating layer conv3
I1111 07:12:36.013283  3961 net.cpp:106] Creating Layer conv3
I1111 07:12:36.013298  3961 net.cpp:454] conv3 <- norm2
I1111 07:12:36.013324  3961 net.cpp:411] conv3 -> conv3
I1111 07:12:36.017896  3961 net.cpp:150] Setting up conv3
I1111 07:12:36.017931  3961 net.cpp:157] Top shape: 1 384 13 13 (64896)
I1111 07:12:36.017942  3961 net.cpp:165] Memory required for data: 4981760
I1111 07:12:36.017987  3961 layer_factory.hpp:76] Creating layer relu3
I1111 07:12:36.018018  3961 net.cpp:106] Creating Layer relu3
I1111 07:12:36.018036  3961 net.cpp:454] relu3 <- conv3
I1111 07:12:36.018064  3961 net.cpp:397] relu3 -> conv3 (in-place)
I1111 07:12:36.018091  3961 net.cpp:150] Setting up relu3
I1111 07:12:36.018106  3961 net.cpp:157] Top shape: 1 384 13 13 (64896)
I1111 07:12:36.018115  3961 net.cpp:165] Memory required for data: 5241344
I1111 07:12:36.018126  3961 layer_factory.hpp:76] Creating layer conv4
I1111 07:12:36.018154  3961 net.cpp:106] Creating Layer conv4
I1111 07:12:36.018169  3961 net.cpp:454] conv4 <- conv3
I1111 07:12:36.018195  3961 net.cpp:411] conv4 -> conv4
I1111 07:12:36.024763  3961 net.cpp:150] Setting up conv4
I1111 07:12:36.024806  3961 net.cpp:157] Top shape: 1 384 13 13 (64896)
I1111 07:12:36.024816  3961 net.cpp:165] Memory required for data: 5500928
I1111 07:12:36.024845  3961 layer_factory.hpp:76] Creating layer relu4
I1111 07:12:36.024876  3961 net.cpp:106] Creating Layer relu4
I1111 07:12:36.024893  3961 net.cpp:454] relu4 <- conv4
I1111 07:12:36.024925  3961 net.cpp:397] relu4 -> conv4 (in-place)
I1111 07:12:36.024957  3961 net.cpp:150] Setting up relu4
I1111 07:12:36.024972  3961 net.cpp:157] Top shape: 1 384 13 13 (64896)
I1111 07:12:36.024981  3961 net.cpp:165] Memory required for data: 5760512
I1111 07:12:36.024992  3961 layer_factory.hpp:76] Creating layer conv5
I1111 07:12:36.025022  3961 net.cpp:106] Creating Layer conv5
I1111 07:12:36.025038  3961 net.cpp:454] conv5 <- conv4
I1111 07:12:36.025064  3961 net.cpp:411] conv5 -> conv5
I1111 07:12:36.029661  3961 net.cpp:150] Setting up conv5
I1111 07:12:36.029691  3961 net.cpp:157] Top shape: 1 256 13 13 (43264)
I1111 07:12:36.029702  3961 net.cpp:165] Memory required for data: 5933568
I1111 07:12:36.029745  3961 layer_factory.hpp:76] Creating layer relu5
I1111 07:12:36.029772  3961 net.cpp:106] Creating Layer relu5
I1111 07:12:36.029788  3961 net.cpp:454] relu5 <- conv5
I1111 07:12:36.029814  3961 net.cpp:397] relu5 -> conv5 (in-place)
I1111 07:12:36.029842  3961 net.cpp:150] Setting up relu5
I1111 07:12:36.029858  3961 net.cpp:157] Top shape: 1 256 13 13 (43264)
I1111 07:12:36.029867  3961 net.cpp:165] Memory required for data: 6106624
I1111 07:12:36.029878  3961 layer_factory.hpp:76] Creating layer pool5
I1111 07:12:36.029902  3961 net.cpp:106] Creating Layer pool5
I1111 07:12:36.029917  3961 net.cpp:454] pool5 <- conv5
I1111 07:12:36.029945  3961 net.cpp:411] pool5 -> pool5
I1111 07:12:36.030020  3961 net.cpp:150] Setting up pool5
I1111 07:12:36.030041  3961 net.cpp:157] Top shape: 1 256 6 6 (9216)
I1111 07:12:36.030051  3961 net.cpp:165] Memory required for data: 6143488
I1111 07:12:36.030063  3961 layer_factory.hpp:76] Creating layer fc6
I1111 07:12:36.030089  3961 net.cpp:106] Creating Layer fc6
I1111 07:12:36.030104  3961 net.cpp:454] fc6 <- pool5
I1111 07:12:36.030130  3961 net.cpp:411] fc6 -> fc6
I1111 07:12:36.221638  3961 net.cpp:150] Setting up fc6
I1111 07:12:36.221693  3961 net.cpp:157] Top shape: 1 4096 (4096)
I1111 07:12:36.221704  3961 net.cpp:165] Memory required for data: 6159872
I1111 07:12:36.221735  3961 layer_factory.hpp:76] Creating layer relu6
I1111 07:12:36.221783  3961 net.cpp:106] Creating Layer relu6
I1111 07:12:36.221806  3961 net.cpp:454] relu6 <- fc6
I1111 07:12:36.221839  3961 net.cpp:397] relu6 -> fc6 (in-place)
I1111 07:12:36.221873  3961 net.cpp:150] Setting up relu6
I1111 07:12:36.221889  3961 net.cpp:157] Top shape: 1 4096 (4096)
I1111 07:12:36.221899  3961 net.cpp:165] Memory required for data: 6176256
I1111 07:12:36.221909  3961 layer_factory.hpp:76] Creating layer drop6
I1111 07:12:36.221936  3961 net.cpp:106] Creating Layer drop6
I1111 07:12:36.221951  3961 net.cpp:454] drop6 <- fc6
I1111 07:12:36.221973  3961 net.cpp:397] drop6 -> fc6 (in-place)
I1111 07:12:36.222028  3961 net.cpp:150] Setting up drop6
I1111 07:12:36.222046  3961 net.cpp:157] Top shape: 1 4096 (4096)
I1111 07:12:36.222055  3961 net.cpp:165] Memory required for data: 6192640
I1111 07:12:36.222067  3961 layer_factory.hpp:76] Creating layer fc7
I1111 07:12:36.222093  3961 net.cpp:106] Creating Layer fc7
I1111 07:12:36.222107  3961 net.cpp:454] fc7 <- fc6
I1111 07:12:36.222134  3961 net.cpp:411] fc7 -> fc7
I1111 07:12:36.298530  3961 net.cpp:150] Setting up fc7
I1111 07:12:36.298615  3961 net.cpp:157] Top shape: 1 4096 (4096)
I1111 07:12:36.298627  3961 net.cpp:165] Memory required for data: 6209024
I1111 07:12:36.298666  3961 layer_factory.hpp:76] Creating layer relu7
I1111 07:12:36.298710  3961 net.cpp:106] Creating Layer relu7
I1111 07:12:36.298734  3961 net.cpp:454] relu7 <- fc7
I1111 07:12:36.298773  3961 net.cpp:397] relu7 -> fc7 (in-place)
I1111 07:12:36.298810  3961 net.cpp:150] Setting up relu7
I1111 07:12:36.298825  3961 net.cpp:157] Top shape: 1 4096 (4096)
I1111 07:12:36.298835  3961 net.cpp:165] Memory required for data: 6225408
I1111 07:12:36.298846  3961 layer_factory.hpp:76] Creating layer drop7
I1111 07:12:36.298876  3961 net.cpp:106] Creating Layer drop7
I1111 07:12:36.298890  3961 net.cpp:454] drop7 <- fc7
I1111 07:12:36.298914  3961 net.cpp:397] drop7 -> fc7 (in-place)
I1111 07:12:36.298970  3961 net.cpp:150] Setting up drop7
I1111 07:12:36.298990  3961 net.cpp:157] Top shape: 1 4096 (4096)
I1111 07:12:36.298998  3961 net.cpp:165] Memory required for data: 6241792
I1111 07:12:36.299010  3961 layer_factory.hpp:76] Creating layer fc8
I1111 07:12:36.299037  3961 net.cpp:106] Creating Layer fc8
I1111 07:12:36.299052  3961 net.cpp:454] fc8 <- fc7
I1111 07:12:36.299082  3961 net.cpp:411] fc8 -> fc8
I1111 07:12:36.318296  3961 net.cpp:150] Setting up fc8
I1111 07:12:36.318372  3961 net.cpp:157] Top shape: 1 1000 (1000)
I1111 07:12:36.318382  3961 net.cpp:165] Memory required for data: 6245792
I1111 07:12:36.318421  3961 layer_factory.hpp:76] Creating layer prob
I1111 07:12:36.318470  3961 net.cpp:106] Creating Layer prob
I1111 07:12:36.318490  3961 net.cpp:454] prob <- fc8
I1111 07:12:36.318531  3961 net.cpp:411] prob -> prob
I1111 07:12:36.318650  3961 net.cpp:150] Setting up prob
I1111 07:12:36.318672  3961 net.cpp:157] Top shape: 1 1000 (1000)
I1111 07:12:36.318681  3961 net.cpp:165] Memory required for data: 6249792
I1111 07:12:36.318696  3961 net.cpp:228] prob does not need backward computation.
I1111 07:12:36.318709  3961 net.cpp:228] fc8 does not need backward computation.
I1111 07:12:36.318722  3961 net.cpp:228] drop7 does not need backward computation.
I1111 07:12:36.318732  3961 net.cpp:228] relu7 does not need backward computation.
…
