…
gamma: 0.5
momentum: 0.98
weight_decay: 0.1
stepsize: 1500
snapshot: 1000
snapshot_prefix: "stitch"
solver_mode: GPU
random_seed: 0
net: "network.prototxt"
regularization_type: "L1"
I1110 22:09:08.130574  2611 solver.cpp:90] Creating training net from net file: network.prototxt
I1110 22:09:08.162044  2611 net.cpp:49] Initializing net from parameters: 
name: "StitchNet"
input: "net0"
input: "net1"
input_dim: 32
input_dim: 256
input_dim: 27
input_dim: 27
input_dim: 32
input_dim: 256
input_dim: 27
input_dim: 27
state {
  phase: TRAIN
}
debug_info: true
layer {
  name: "stitch0"
  type: "Convolution"
  bottom: "net0"
  top: "stitch0"
  convolution_param {
    num_output: 256
    kernel_size: 1
    stride: 1
    weight_filler {
      type: "gaussian"
      std: 0.01
    }
  }
}
layer {
  name: "loss"
  type: "EuclideanLoss"
  bottom: "stitch0"
  bottom: "net1"
  top: "loss"
  loss_weight: 1
}
I1110 22:09:08.162231  2611 net.cpp:413] Input 0 -> net0
I1110 22:09:08.195996  2611 net.cpp:413] Input 1 -> net1
I1110 22:09:08.196210  2611 layer_factory.hpp:76] Creating layer stitch0
I1110 22:09:08.196303  2611 net.cpp:106] Creating Layer stitch0
I1110 22:09:08.196326  2611 net.cpp:454] stitch0 <- net0
I1110 22:09:08.196367  2611 net.cpp:411] stitch0 -> stitch0
I1110 22:09:08.205262  2611 net.cpp:150] Setting up stitch0
I1110 22:09:08.205368  2611 net.cpp:157] Top shape: 32 256 27 27 (5971968)
I1110 22:09:08.205384  2611 net.cpp:165] Memory required for data: 23887872
I1110 22:09:08.205502  2611 layer_factory.hpp:76] Creating layer loss
I1110 22:09:08.205590  2611 net.cpp:106] Creating Layer loss
I1110 22:09:08.205621  2611 net.cpp:454] loss <- stitch0
I1110 22:09:08.205658  2611 net.cpp:454] loss <- net1
I1110 22:09:08.205693  2611 net.cpp:411] loss -> loss
I1110 22:09:08.205826  2611 net.cpp:150] Setting up loss
I1110 22:09:08.205852  2611 net.cpp:157] Top shape: (1)
I1110 22:09:08.205864  2611 net.cpp:160]     with loss weight 1
I1110 22:09:08.205893  2611 net.cpp:165] Memory required for data: 23887876
I1110 22:09:08.205914  2611 net.cpp:226] loss needs backward computation.
I1110 22:09:08.205931  2611 net.cpp:226] stitch0 needs backward computation.
I1110 22:09:08.205948  2611 net.cpp:270] This network produces output loss
I1110 22:09:08.205979  2611 net.cpp:283] Network initialization done.
I1110 22:09:08.206048  2611 solver.cpp:59] Solver scaffolding done.
I1110 22:09:08.319185  2611 net.cpp:49] Initializing net from parameters: 
name: "CaffeNet"
input: "data"
input_dim: 1
input_dim: 3
input_dim: 227
input_dim: 227
force_backward: true
state {
  phase: TEST
}
layer {
  name: "conv1"
  type: "Convolution"
  bottom: "data"
  top: "conv1"
  convolution_param {
    num_output: 96
    kernel_size: 11
    stride: 4
  }
}
layer {
  name: "relu1"
  type: "ReLU"
  bottom: "conv1"
  top: "conv1"
}
layer {
  name: "pool1"
  type: "Pooling"
  bottom: "conv1"
  top: "pool1"
  pooling_param {
    pool: MAX
    kernel_size: 3
    stride: 2
  }
}
layer {
  name: "norm1"
  type: "LRN"
  bottom: "pool1"
  top: "norm1"
  lrn_param {
    local_size: 5
    alpha: 0.0001
    beta: 0.75
  }
}
layer {
  name: "conv2"
  type: "Convolution"
  bottom: "norm1"
  top: "conv2"
  convolution_param {
    num_output: 256
    pad: 2
    kernel_size: 5
  }
}
layer {
  name: "relu2"
  type: "ReLU"
  bottom: "conv2"
  top: "conv2"
}
layer {
  name: "pool2"
  type: "Pooling"
  bottom: "conv2"
  top: "pool2"
  pooling_param {
    pool: MAX
    kernel_size: 3
    stride: 2
  }
}
layer {
  name: "norm2"
  type: "LRN"
  bottom: "pool2"
  top: "norm2"
  lrn_param {
    local_size: 5
    alpha: 0.0001
    beta: 0.75
  }
}
layer {
  name: "conv3"
  type: "Convolution"
  bottom: "norm2"
  top: "conv3"
  convolution_param {
    num_output: 384
    pad: 1
    kernel_size: 3
  }
}
layer {
  name: "relu3"
  type: "ReLU"
  bottom: "conv3"
  top: "conv3"
}
layer {
  name: "conv4"
  type: "Convolution"
  bottom: "conv3"
  top: "conv4"
  convolution_param {
    num_output: 384
    pad: 1
    kernel_size: 3
  }
}
layer {
  name: "relu4"
  type: "ReLU"
  bottom: "conv4"
  top: "conv4"
}
layer {
  name: "conv5"
  type: "Convolution"
  bottom: "conv4"
  top: "conv5"
  convolution_param {
    num_output: 256
    pad: 1
    kernel_size: 3
  }
}
layer {
  name: "relu5"
  type: "ReLU"
  bottom: "conv5"
  top: "conv5"
}
layer {
  name: "pool5"
  type: "Pooling"
  bottom: "conv5"
  top: "pool5"
  pooling_param {
    pool: MAX
    kernel_size: 3
    stride: 2
  }
}
layer {
  name: "fc6"
  type: "InnerProduct"
  bottom: "pool5"
  top: "fc6"
  inner_product_param {
    num_output: 4096
  }
}
layer {
  name: "relu6"
  type: "ReLU"
  bottom: "fc6"
  top: "fc6"
}
layer {
  name: "drop6"
  type: "Dropout"
  bottom: "fc6"
  top: "fc6"
  dropout_param {
    dropout_ratio: 0.5
  }
}
layer {
  name: "fc7"
  type: "InnerProduct"
  bottom: "fc6"
  top: "fc7"
  inner_product_param {
    num_output: 4096
  }
}
layer {
  name: "relu7"
  type: "ReLU"
  bottom: "fc7"
  top: "fc7"
}
layer {
  name: "drop7"
  type: "Dropout"
  bottom: "fc7"
  top: "fc7"
  dropout_param {
    dropout_ratio: 0.5
  }
}
layer {
  name: "fc8"
  type: "InnerProduct"
  bottom: "fc7"
  top: "fc8"
  inner_product_param {
    num_output: 1000
  }
}
layer {
  name: "prob"
  type: "Softmax"
  bottom: "fc8"
  top: "prob"
}
I1110 22:09:08.319492  2611 net.cpp:413] Input 0 -> data
I1110 22:09:08.319716  2611 layer_factory.hpp:76] Creating layer conv1
I1110 22:09:08.319778  2611 net.cpp:106] Creating Layer conv1
I1110 22:09:08.319799  2611 net.cpp:454] conv1 <- data
I1110 22:09:08.319913  2611 net.cpp:411] conv1 -> conv1
I1110 22:09:08.322007  2611 net.cpp:150] Setting up conv1
I1110 22:09:08.322052  2611 net.cpp:157] Top shape: 1 96 55 55 (290400)
I1110 22:09:08.322063  2611 net.cpp:165] Memory required for data: 1161600
I1110 22:09:08.322130  2611 layer_factory.hpp:76] Creating layer relu1
I1110 22:09:08.322180  2611 net.cpp:106] Creating Layer relu1
I1110 22:09:08.322201  2611 net.cpp:454] relu1 <- conv1
I1110 22:09:08.322232  2611 net.cpp:397] relu1 -> conv1 (in-place)
I1110 22:09:08.322268  2611 net.cpp:150] Setting up relu1
I1110 22:09:08.322300  2611 net.cpp:157] Top shape: 1 96 55 55 (290400)
I1110 22:09:08.322312  2611 net.cpp:165] Memory required for data: 2323200
I1110 22:09:08.322326  2611 layer_factory.hpp:76] Creating layer pool1
I1110 22:09:08.322362  2611 net.cpp:106] Creating Layer pool1
I1110 22:09:08.322381  2611 net.cpp:454] pool1 <- conv1
I1110 22:09:08.322413  2611 net.cpp:411] pool1 -> pool1
I1110 22:09:08.322525  2611 net.cpp:150] Setting up pool1
I1110 22:09:08.322558  2611 net.cpp:157] Top shape: 1 96 27 27 (69984)
I1110 22:09:08.322571  2611 net.cpp:165] Memory required for data: 2603136
I1110 22:09:08.322587  2611 layer_factory.hpp:76] Creating layer norm1
I1110 22:09:08.322616  2611 net.cpp:106] Creating Layer norm1
I1110 22:09:08.322634  2611 net.cpp:454] norm1 <- pool1
I1110 22:09:08.322669  2611 net.cpp:411] norm1 -> norm1
I1110 22:09:08.322751  2611 net.cpp:150] Setting up norm1
I1110 22:09:08.322777  2611 net.cpp:157] Top shape: 1 96 27 27 (69984)
I1110 22:09:08.322788  2611 net.cpp:165] Memory required for data: 2883072
I1110 22:09:08.322801  2611 layer_factory.hpp:76] Creating layer conv2
I1110 22:09:08.322839  2611 net.cpp:106] Creating Layer conv2
I1110 22:09:08.322859  2611 net.cpp:454] conv2 <- norm1
I1110 22:09:08.322890  2611 net.cpp:411] conv2 -> conv2
I1110 22:09:08.326995  2611 net.cpp:150] Setting up conv2
I1110 22:09:08.327039  2611 net.cpp:157] Top shape: 1 256 27 27 (186624)
I1110 22:09:08.327052  2611 net.cpp:165] Memory required for data: 3629568
I1110 22:09:08.327106  2611 layer_factory.hpp:76] Creating layer relu2
I1110 22:09:08.327143  2611 net.cpp:106] Creating Layer relu2
I1110 22:09:08.327164  2611 net.cpp:454] relu2 <- conv2
I1110 22:09:08.327199  2611 net.cpp:397] relu2 -> conv2 (in-place)
I1110 22:09:08.327235  2611 net.cpp:150] Setting up relu2
I1110 22:09:08.327253  2611 net.cpp:157] Top shape: 1 256 27 27 (186624)
I1110 22:09:08.327265  2611 net.cpp:165] Memory required for data: 4376064
I1110 22:09:08.327277  2611 layer_factory.hpp:76] Creating layer pool2
I1110 22:09:08.327306  2611 net.cpp:106] Creating Layer pool2
I1110 22:09:08.327323  2611 net.cpp:454] pool2 <- conv2
I1110 22:09:08.327358  2611 net.cpp:411] pool2 -> pool2
I1110 22:09:08.327446  2611 net.cpp:150] Setting up pool2
I1110 22:09:08.327471  2611 net.cpp:157] Top shape: 1 256 13 13 (43264)
I1110 22:09:08.327483  2611 net.cpp:165] Memory required for data: 4549120
I1110 22:09:08.327497  2611 layer_factory.hpp:76] Creating layer norm2
I1110 22:09:08.327532  2611 net.cpp:106] Creating Layer norm2
I1110 22:09:08.327554  2611 net.cpp:454] norm2 <- pool2
I1110 22:09:08.327586  2611 net.cpp:411] norm2 -> norm2
I1110 22:09:08.327666  2611 net.cpp:150] Setting up norm2
I1110 22:09:08.327690  2611 net.cpp:157] Top shape: 1 256 13 13 (43264)
I1110 22:09:08.327713  2611 net.cpp:165] Memory required for data: 4722176
I1110 22:09:08.327728  2611 layer_factory.hpp:76] Creating layer conv3
I1110 22:09:08.327770  2611 net.cpp:106] Creating Layer conv3
I1110 22:09:08.327790  2611 net.cpp:454] conv3 <- norm2
I1110 22:09:08.327826  2611 net.cpp:411] conv3 -> conv3
I1110 22:09:08.333720  2611 net.cpp:150] Setting up conv3
I1110 22:09:08.333767  2611 net.cpp:157] Top shape: 1 384 13 13 (64896)
I1110 22:09:08.333781  2611 net.cpp:165] Memory required for data: 4981760
I1110 22:09:08.333842  2611 layer_factory.hpp:76] Creating layer relu3
I1110 22:09:08.333881  2611 net.cpp:106] Creating Layer relu3
I1110 22:09:08.333902  2611 net.cpp:454] relu3 <- conv3
I1110 22:09:08.333933  2611 net.cpp:397] relu3 -> conv3 (in-place)
I1110 22:09:08.333969  2611 net.cpp:150] Setting up relu3
I1110 22:09:08.333987  2611 net.cpp:157] Top shape: 1 384 13 13 (64896)
I1110 22:09:08.333997  2611 net.cpp:165] Memory required for data: 5241344
I1110 22:09:08.334010  2611 layer_factory.hpp:76] Creating layer conv4
I1110 22:09:08.334045  2611 net.cpp:106] Creating Layer conv4
I1110 22:09:08.334064  2611 net.cpp:454] conv4 <- conv3
I1110 22:09:08.334097  2611 net.cpp:411] conv4 -> conv4
I1110 22:09:08.342218  2611 net.cpp:150] Setting up conv4
I1110 22:09:08.342267  2611 net.cpp:157] Top shape: 1 384 13 13 (64896)
I1110 22:09:08.342281  2611 net.cpp:165] Memory required for data: 5500928
I1110 22:09:08.342315  2611 layer_factory.hpp:76] Creating layer relu4
I1110 22:09:08.342353  2611 net.cpp:106] Creating Layer relu4
I1110 22:09:08.342375  2611 net.cpp:454] relu4 <- conv4
I1110 22:09:08.342412  2611 net.cpp:397] relu4 -> conv4 (in-place)
I1110 22:09:08.342448  2611 net.cpp:150] Setting up relu4
I1110 22:09:08.342466  2611 net.cpp:157] Top shape: 1 384 13 13 (64896)
I1110 22:09:08.342478  2611 net.cpp:165] Memory required for data: 5760512
I1110 22:09:08.342490  2611 layer_factory.hpp:76] Creating layer conv5
I1110 22:09:08.342525  2611 net.cpp:106] Creating Layer conv5
I1110 22:09:08.342546  2611 net.cpp:454] conv5 <- conv4
I1110 22:09:08.342581  2611 net.cpp:411] conv5 -> conv5
I1110 22:09:08.348040  2611 net.cpp:150] Setting up conv5
I1110 22:09:08.348084  2611 net.cpp:157] Top shape: 1 256 13 13 (43264)
I1110 22:09:08.348098  2611 net.cpp:165] Memory required for data: 5933568
I1110 22:09:08.348158  2611 layer_factory.hpp:76] Creating layer relu5
I1110 22:09:08.348196  2611 net.cpp:106] Creating Layer relu5
I1110 22:09:08.348217  2611 net.cpp:454] relu5 <- conv5
I1110 22:09:08.348249  2611 net.cpp:397] relu5 -> conv5 (in-place)
I1110 22:09:08.348284  2611 net.cpp:150] Setting up relu5
I1110 22:09:08.348302  2611 net.cpp:157] Top shape: 1 256 13 13 (43264)
I1110 22:09:08.348314  2611 net.cpp:165] Memory required for data: 6106624
I1110 22:09:08.348326  2611 layer_factory.hpp:76] Creating layer pool5
I1110 22:09:08.348356  2611 net.cpp:106] Creating Layer pool5
I1110 22:09:08.348372  2611 net.cpp:454] pool5 <- conv5
I1110 22:09:08.348407  2611 net.cpp:411] pool5 -> pool5
I1110 22:09:08.348495  2611 net.cpp:150] Setting up pool5
I1110 22:09:08.348521  2611 net.cpp:157] Top shape: 1 256 6 6 (9216)
I1110 22:09:08.348533  2611 net.cpp:165] Memory required for data: 6143488
I1110 22:09:08.348553  2611 layer_factory.hpp:76] Creating layer fc6
I1110 22:09:08.348587  2611 net.cpp:106] Creating Layer fc6
I1110 22:09:08.348604  2611 net.cpp:454] fc6 <- pool5
I1110 22:09:08.348639  2611 net.cpp:411] fc6 -> fc6
I1110 22:09:08.560739  2611 net.cpp:150] Setting up fc6
I1110 22:09:08.560788  2611 net.cpp:157] Top shape: 1 4096 (4096)
I1110 22:09:08.560801  2611 net.cpp:165] Memory required for data: 6159872
I1110 22:09:08.560837  2611 layer_factory.hpp:76] Creating layer relu6
I1110 22:09:08.560889  2611 net.cpp:106] Creating Layer relu6
I1110 22:09:08.560912  2611 net.cpp:454] relu6 <- fc6
I1110 22:09:08.560956  2611 net.cpp:397] relu6 -> fc6 (in-place)
I1110 22:09:08.560995  2611 net.cpp:150] Setting up relu6
I1110 22:09:08.561013  2611 net.cpp:157] Top shape: 1 4096 (4096)
I1110 22:09:08.561024  2611 net.cpp:165] Memory required for data: 6176256
I1110 22:09:08.561038  2611 layer_factory.hpp:76] Creating layer drop6
I1110 22:09:08.561074  2611 net.cpp:106] Creating Layer drop6
I1110 22:09:08.561091  2611 net.cpp:454] drop6 <- fc6
I1110 22:09:08.561123  2611 net.cpp:397] drop6 -> fc6 (in-place)
I1110 22:09:08.561187  2611 net.cpp:150] Setting up drop6
I1110 22:09:08.561208  2611 net.cpp:157] Top shape: 1 4096 (4096)
I1110 22:09:08.561219  2611 net.cpp:165] Memory required for data: 6192640
I1110 22:09:08.561233  2611 layer_factory.hpp:76] Creating layer fc7
I1110 22:09:08.561261  2611 net.cpp:106] Creating Layer fc7
I1110 22:09:08.561278  2611 net.cpp:454] fc7 <- fc6
I1110 22:09:08.561312  2611 net.cpp:411] fc7 -> fc7
I1110 22:09:08.651309  2611 net.cpp:150] Setting up fc7
I1110 22:09:08.651360  2611 net.cpp:157] Top shape: 1 4096 (4096)
I1110 22:09:08.651373  2611 net.cpp:165] Memory required for data: 6209024
I1110 22:09:08.651410  2611 layer_factory.hpp:76] Creating layer relu7
I1110 22:09:08.651449  2611 net.cpp:106] Creating Layer relu7
I1110 22:09:08.651470  2611 net.cpp:454] relu7 <- fc7
I1110 22:09:08.651511  2611 net.cpp:397] relu7 -> fc7 (in-place)
I1110 22:09:08.651553  2611 net.cpp:150] Setting up relu7
I1110 22:09:08.651572  2611 net.cpp:157] Top shape: 1 4096 (4096)
I1110 22:09:08.651583  2611 net.cpp:165] Memory required for data: 6225408
I1110 22:09:08.651597  2611 layer_factory.hpp:76] Creating layer drop7
I1110 22:09:08.651624  2611 net.cpp:106] Creating Layer drop7
I1110 22:09:08.651641  2611 net.cpp:454] drop7 <- fc7
I1110 22:09:08.651670  2611 net.cpp:397] drop7 -> fc7 (in-place)
I1110 22:09:08.651731  2611 net.cpp:150] Setting up drop7
I1110 22:09:08.651753  2611 net.cpp:157] Top shape: 1 4096 (4096)
I1110 22:09:08.651764  2611 net.cpp:165] Memory required for data: 6241792
I1110 22:09:08.651778  2611 layer_factory.hpp:76] Creating layer fc8
I1110 22:09:08.651810  2611 net.cpp:106] Creating Layer fc8
I1110 22:09:08.651828  2611 net.cpp:454] fc8 <- fc7
I1110 22:09:08.651859  2611 net.cpp:411] fc8 -> fc8
I1110 22:09:08.673471  2611 net.cpp:150] Setting up fc8
I1110 22:09:08.673523  2611 net.cpp:157] Top shape: 1 1000 (1000)
I1110 22:09:08.673535  2611 net.cpp:165] Memory required for data: 6245792
I1110 22:09:08.673578  2611 layer_factory.hpp:76] Creating layer prob
I1110 22:09:08.673627  2611 net.cpp:106] Creating Layer prob
I1110 22:09:08.673650  2611 net.cpp:454] prob <- fc8
I1110 22:09:08.673693  2611 net.cpp:411] prob -> prob
I1110 22:09:08.673818  2611 net.cpp:150] Setting up prob
I1110 22:09:08.673843  2611 net.cpp:157] Top shape: 1 1000 (1000)
I1110 22:09:08.673856  2611 net.cpp:165] Memory required for data: 6249792
I1110 22:09:08.673871  2611 net.cpp:228] prob does not need backward computation.
I1110 22:09:08.673887  2611 net.cpp:228] fc8 does not need backward computation.
I1110 22:09:08.673899  2611 net.cpp:228] drop7 does not need backward computation.
I1110 22:09:08.673913  2611 net.cpp:228] relu7 does not need backward computation.
…
I1110 22:09:11.444505  2611 net.cpp:923] Copying source layer drop6
I1110 22:09:11.444515  2611 net.cpp:923] Copying source layer fc7
I1110 22:09:11.652153  2611 net.cpp:923] Copying source layer relu7
I1110 22:09:11.652210  2611 net.cpp:923] Copying source layer drop7
I1110 22:09:11.652220  2611 net.cpp:923] Copying source layer fc8
I1110 22:09:11.702976  2611 net.cpp:920] Ignoring source layer loss
I1110 22:09:11.780798  2611 net.cpp:49] Initializing net from parameters: 
name: "CaffeNet"
input: "data"
input_dim: 1
input_dim: 3
input_dim: 227
input_dim: 227
force_backward: true
state {
  phase: TEST
}
layer {
  name: "conv1"
  type: "Convolution"
  bottom: "data"
  top: "conv1"
  convolution_param {
    num_output: 96
    kernel_size: 11
    stride: 4
  }
}
layer {
  name: "relu1"
  type: "ReLU"
  bottom: "conv1"
  top: "conv1"
}
layer {
  name: "pool1"
  type: "Pooling"
  bottom: "conv1"
  top: "pool1"
  pooling_param {
    pool: MAX
    kernel_size: 3
    stride: 2
  }
}
layer {
  name: "norm1"
  type: "LRN"
  bottom: "pool1"
  top: "norm1"
  lrn_param {
    local_size: 5
    alpha: 0.0001
    beta: 0.75
  }
}
layer {
  name: "conv2"
  type: "Convolution"
  bottom: "norm1"
  top: "conv2"
  convolution_param {
    num_output: 256
    pad: 2
    kernel_size: 5
  }
}
layer {
  name: "relu2"
  type: "ReLU"
  bottom: "conv2"
  top: "conv2"
}
layer {
  name: "pool2"
  type: "Pooling"
  bottom: "conv2"
  top: "pool2"
  pooling_param {
    pool: MAX
    kernel_size: 3
    stride: 2
  }
}
layer {
  name: "norm2"
  type: "LRN"
  bottom: "pool2"
  top: "norm2"
  lrn_param {
    local_size: 5
    alpha: 0.0001
    beta: 0.75
  }
}
layer {
  name: "conv3"
  type: "Convolution"
  bottom: "norm2"
  top: "conv3"
  convolution_param {
    num_output: 384
    pad: 1
    kernel_size: 3
  }
}
layer {
  name: "relu3"
  type: "ReLU"
  bottom: "conv3"
  top: "conv3"
}
layer {
  name: "conv4"
  type: "Convolution"
  bottom: "conv3"
  top: "conv4"
  convolution_param {
    num_output: 384
    pad: 1
    kernel_size: 3
  }
}
layer {
  name: "relu4"
  type: "ReLU"
  bottom: "conv4"
  top: "conv4"
}
layer {
  name: "conv5"
  type: "Convolution"
  bottom: "conv4"
  top: "conv5"
  convolution_param {
    num_output: 256
    pad: 1
    kernel_size: 3
  }
}
layer {
  name: "relu5"
  type: "ReLU"
  bottom: "conv5"
  top: "conv5"
}
layer {
  name: "pool5"
  type: "Pooling"
  bottom: "conv5"
  top: "pool5"
  pooling_param {
    pool: MAX
    kernel_size: 3
    stride: 2
  }
}
layer {
  name: "fc6"
  type: "InnerProduct"
  bottom: "pool5"
  top: "fc6"
  inner_product_param {
    num_output: 4096
  }
}
layer {
  name: "relu6"
  type: "ReLU"
  bottom: "fc6"
  top: "fc6"
}
layer {
  name: "drop6"
  type: "Dropout"
  bottom: "fc6"
  top: "fc6"
  dropout_param {
    dropout_ratio: 0.5
  }
}
layer {
  name: "fc7"
  type: "InnerProduct"
  bottom: "fc6"
  top: "fc7"
  inner_product_param {
    num_output: 4096
  }
}
layer {
  name: "relu7"
  type: "ReLU"
  bottom: "fc7"
  top: "fc7"
}
layer {
  name: "drop7"
  type: "Dropout"
  bottom: "fc7"
  top: "fc7"
  dropout_param {
    dropout_ratio: 0.5
  }
}
layer {
  name: "fc8"
  type: "InnerProduct"
  bottom: "fc7"
  top: "fc8"
  inner_product_param {
    num_output: 1000
  }
}
layer {
  name: "prob"
  type: "Softmax"
  bottom: "fc8"
  top: "prob"
}
I1110 22:09:11.781059  2611 net.cpp:413] Input 0 -> data
I1110 22:09:11.781254  2611 layer_factory.hpp:76] Creating layer conv1
I1110 22:09:11.781301  2611 net.cpp:106] Creating Layer conv1
I1110 22:09:11.781322  2611 net.cpp:454] conv1 <- data
I1110 22:09:11.781352  2611 net.cpp:411] conv1 -> conv1
I1110 22:09:11.781787  2611 net.cpp:150] Setting up conv1
I1110 22:09:11.781831  2611 net.cpp:157] Top shape: 1 96 55 55 (290400)
I1110 22:09:11.781851  2611 net.cpp:165] Memory required for data: 1161600
I1110 22:09:11.781903  2611 layer_factory.hpp:76] Creating layer relu1
I1110 22:09:11.781934  2611 net.cpp:106] Creating Layer relu1
I1110 22:09:11.781951  2611 net.cpp:454] relu1 <- conv1
I1110 22:09:11.781976  2611 net.cpp:397] relu1 -> conv1 (in-place)
I1110 22:09:11.782004  2611 net.cpp:150] Setting up relu1
I1110 22:09:11.782021  2611 net.cpp:157] Top shape: 1 96 55 55 (290400)
I1110 22:09:11.782030  2611 net.cpp:165] Memory required for data: 2323200
I1110 22:09:11.782042  2611 layer_factory.hpp:76] Creating layer pool1
I1110 22:09:11.782069  2611 net.cpp:106] Creating Layer pool1
I1110 22:09:11.782084  2611 net.cpp:454] pool1 <- conv1
I1110 22:09:11.782111  2611 net.cpp:411] pool1 -> pool1
I1110 22:09:11.782187  2611 net.cpp:150] Setting up pool1
I1110 22:09:11.782212  2611 net.cpp:157] Top shape: 1 96 27 27 (69984)
I1110 22:09:11.782223  2611 net.cpp:165] Memory required for data: 2603136
I1110 22:09:11.782237  2611 layer_factory.hpp:76] Creating layer norm1
I1110 22:09:11.782263  2611 net.cpp:106] Creating Layer norm1
I1110 22:09:11.782277  2611 net.cpp:454] norm1 <- pool1
I1110 22:09:11.782305  2611 net.cpp:411] norm1 -> norm1
I1110 22:09:11.782372  2611 net.cpp:150] Setting up norm1
I1110 22:09:11.782395  2611 net.cpp:157] Top shape: 1 96 27 27 (69984)
I1110 22:09:11.782407  2611 net.cpp:165] Memory required for data: 2883072
I1110 22:09:11.782418  2611 layer_factory.hpp:76] Creating layer conv2
I1110 22:09:11.782448  2611 net.cpp:106] Creating Layer conv2
I1110 22:09:11.782464  2611 net.cpp:454] conv2 <- norm1
I1110 22:09:11.782490  2611 net.cpp:411] conv2 -> conv2
I1110 22:09:11.786541  2611 net.cpp:150] Setting up conv2
I1110 22:09:11.786579  2611 net.cpp:157] Top shape: 1 256 27 27 (186624)
I1110 22:09:11.786592  2611 net.cpp:165] Memory required for data: 3629568
I1110 22:09:11.786635  2611 layer_factory.hpp:76] Creating layer relu2
I1110 22:09:11.786664  2611 net.cpp:106] Creating Layer relu2
I1110 22:09:11.786682  2611 net.cpp:454] relu2 <- conv2
I1110 22:09:11.786710  2611 net.cpp:397] relu2 -> conv2 (in-place)
I1110 22:09:11.786738  2611 net.cpp:150] Setting up relu2
I1110 22:09:11.786754  2611 net.cpp:157] Top shape: 1 256 27 27 (186624)
I1110 22:09:11.786763  2611 net.cpp:165] Memory required for data: 4376064
I1110 22:09:11.786788  2611 layer_factory.hpp:76] Creating layer pool2
I1110 22:09:11.786813  2611 net.cpp:106] Creating Layer pool2
I1110 22:09:11.786829  2611 net.cpp:454] pool2 <- conv2
I1110 22:09:11.786857  2611 net.cpp:411] pool2 -> pool2
I1110 22:09:11.786929  2611 net.cpp:150] Setting up pool2
I1110 22:09:11.786952  2611 net.cpp:157] Top shape: 1 256 13 13 (43264)
I1110 22:09:11.786962  2611 net.cpp:165] Memory required for data: 4549120
I1110 22:09:11.786974  2611 layer_factory.hpp:76] Creating layer norm2
I1110 22:09:11.787001  2611 net.cpp:106] Creating Layer norm2
I1110 22:09:11.787017  2611 net.cpp:454] norm2 <- pool2
I1110 22:09:11.787071  2611 net.cpp:411] norm2 -> norm2
I1110 22:09:11.787142  2611 net.cpp:150] Setting up norm2
I1110 22:09:11.787163  2611 net.cpp:157] Top shape: 1 256 13 13 (43264)
I1110 22:09:11.787174  2611 net.cpp:165] Memory required for data: 4722176
I1110 22:09:11.787189  2611 layer_factory.hpp:76] Creating layer conv3
I1110 22:09:11.787221  2611 net.cpp:106] Creating Layer conv3
I1110 22:09:11.787238  2611 net.cpp:454] conv3 <- norm2
I1110 22:09:11.787267  2611 net.cpp:411] conv3 -> conv3
I1110 22:09:11.792112  2611 net.cpp:150] Setting up conv3
I1110 22:09:11.792196  2611 net.cpp:157] Top shape: 1 384 13 13 (64896)
I1110 22:09:11.792207  2611 net.cpp:165] Memory required for data: 4981760
I1110 22:09:11.792284  2611 layer_factory.hpp:76] Creating layer relu3
I1110 22:09:11.792336  2611 net.cpp:106] Creating Layer relu3
I1110 22:09:11.792361  2611 net.cpp:454] relu3 <- conv3
I1110 22:09:11.792395  2611 net.cpp:397] relu3 -> conv3 (in-place)
I1110 22:09:11.792433  2611 net.cpp:150] Setting up relu3
I1110 22:09:11.792449  2611 net.cpp:157] Top shape: 1 384 13 13 (64896)
I1110 22:09:11.792459  2611 net.cpp:165] Memory required for data: 5241344
I1110 22:09:11.792469  2611 layer_factory.hpp:76] Creating layer conv4
I1110 22:09:11.792505  2611 net.cpp:106] Creating Layer conv4
I1110 22:09:11.792520  2611 net.cpp:454] conv4 <- conv3
I1110 22:09:11.792551  2611 net.cpp:411] conv4 -> conv4
I1110 22:09:11.799113  2611 net.cpp:150] Setting up conv4
I1110 22:09:11.799154  2611 net.cpp:157] Top shape: 1 384 13 13 (64896)
I1110 22:09:11.799165  2611 net.cpp:165] Memory required for data: 5500928
I1110 22:09:11.799196  2611 layer_factory.hpp:76] Creating layer relu4
I1110 22:09:11.799227  2611 net.cpp:106] Creating Layer relu4
I1110 22:09:11.799248  2611 net.cpp:454] relu4 <- conv4
I1110 22:09:11.799278  2611 net.cpp:397] relu4 -> conv4 (in-place)
I1110 22:09:11.799306  2611 net.cpp:150] Setting up relu4
I1110 22:09:11.799322  2611 net.cpp:157] Top shape: 1 384 13 13 (64896)
I1110 22:09:11.799331  2611 net.cpp:165] Memory required for data: 5760512
I1110 22:09:11.799350  2611 layer_factory.hpp:76] Creating layer conv5
I1110 22:09:11.799377  2611 net.cpp:106] Creating Layer conv5
I1110 22:09:11.799392  2611 net.cpp:454] conv5 <- conv4
I1110 22:09:11.799419  2611 net.cpp:411] conv5 -> conv5
I1110 22:09:11.804046  2611 net.cpp:150] Setting up conv5
I1110 22:09:11.804077  2611 net.cpp:157] Top shape: 1 256 13 13 (43264)
I1110 22:09:11.804088  2611 net.cpp:165] Memory required for data: 5933568
I1110 22:09:11.804137  2611 layer_factory.hpp:76] Creating layer relu5
I1110 22:09:11.804164  2611 net.cpp:106] Creating Layer relu5
I1110 22:09:11.804180  2611 net.cpp:454] relu5 <- conv5
I1110 22:09:11.804204  2611 net.cpp:397] relu5 -> conv5 (in-place)
I1110 22:09:11.804231  2611 net.cpp:150] Setting up relu5
I1110 22:09:11.804247  2611 net.cpp:157] Top shape: 1 256 13 13 (43264)
I1110 22:09:11.804256  2611 net.cpp:165] Memory required for data: 6106624
I1110 22:09:11.804268  2611 layer_factory.hpp:76] Creating layer pool5
I1110 22:09:11.804299  2611 net.cpp:106] Creating Layer pool5
I1110 22:09:11.804314  2611 net.cpp:454] pool5 <- conv5
I1110 22:09:11.804342  2611 net.cpp:411] pool5 -> pool5
I1110 22:09:11.804416  2611 net.cpp:150] Setting up pool5
I1110 22:09:11.804438  2611 net.cpp:157] Top shape: 1 256 6 6 (9216)
I1110 22:09:11.804448  2611 net.cpp:165] Memory required for data: 6143488
I1110 22:09:11.804461  2611 layer_factory.hpp:76] Creating layer fc6
I1110 22:09:11.804487  2611 net.cpp:106] Creating Layer fc6
I1110 22:09:11.804502  2611 net.cpp:454] fc6 <- pool5
I1110 22:09:11.804527  2611 net.cpp:411] fc6 -> fc6
I1110 22:09:11.980098  2611 net.cpp:150] Setting up fc6
I1110 22:09:11.980166  2611 net.cpp:157] Top shape: 1 4096 (4096)
I1110 22:09:11.980177  2611 net.cpp:165] Memory required for data: 6159872
I1110 22:09:11.980216  2611 layer_factory.hpp:76] Creating layer relu6
I1110 22:09:11.980276  2611 net.cpp:106] Creating Layer relu6
I1110 22:09:11.980303  2611 net.cpp:454] relu6 <- fc6
I1110 22:09:11.980340  2611 net.cpp:397] relu6 -> fc6 (in-place)
I1110 22:09:11.980382  2611 net.cpp:150] Setting up relu6
I1110 22:09:11.980398  2611 net.cpp:157] Top shape: 1 4096 (4096)
I1110 22:09:11.980408  2611 net.cpp:165] Memory required for data: 6176256
I1110 22:09:11.980420  2611 layer_factory.hpp:76] Creating layer drop6
I1110 22:09:11.980448  2611 net.cpp:106] Creating Layer drop6
I1110 22:09:11.980461  2611 net.cpp:454] drop6 <- fc6
I1110 22:09:11.980486  2611 net.cpp:397] drop6 -> fc6 (in-place)
I1110 22:09:11.980541  2611 net.cpp:150] Setting up drop6
I1110 22:09:11.980573  2611 net.cpp:157] Top shape: 1 4096 (4096)
I1110 22:09:11.980583  2611 net.cpp:165] Memory required for data: 6192640
I1110 22:09:11.980595  2611 layer_factory.hpp:76] Creating layer fc7
I1110 22:09:11.980628  2611 net.cpp:106] Creating Layer fc7
I1110 22:09:11.980643  2611 net.cpp:454] fc7 <- fc6
I1110 22:09:11.980671  2611 net.cpp:411] fc7 -> fc7
I1110 22:09:12.061478  2611 net.cpp:150] Setting up fc7
I1110 22:09:12.061586  2611 net.cpp:157] Top shape: 1 4096 (4096)
I1110 22:09:12.061597  2611 net.cpp:165] Memory required for data: 6209024
I1110 22:09:12.061645  2611 layer_factory.hpp:76] Creating layer relu7
I1110 22:09:12.061694  2611 net.cpp:106] Creating Layer relu7
I1110 22:09:12.061720  2611 net.cpp:454] relu7 <- fc7
I1110 22:09:12.061764  2611 net.cpp:397] relu7 -> fc7 (in-place)
I1110 22:09:12.061802  2611 net.cpp:150] Setting up relu7
I1110 22:09:12.061817  2611 net.cpp:157] Top shape: 1 4096 (4096)
I1110 22:09:12.061826  2611 net.cpp:165] Memory required for data: 6225408
I1110 22:09:12.061838  2611 layer_factory.hpp:76] Creating layer drop7
I1110 22:09:12.061866  2611 net.cpp:106] Creating Layer drop7
I1110 22:09:12.061880  2611 net.cpp:454] drop7 <- fc7
I1110 22:09:12.061908  2611 net.cpp:397] drop7 -> fc7 (in-place)
I1110 22:09:12.061960  2611 net.cpp:150] Setting up drop7
I1110 22:09:12.061980  2611 net.cpp:157] Top shape: 1 4096 (4096)
I1110 22:09:12.061988  2611 net.cpp:165] Memory required for data: 6241792
I1110 22:09:12.062001  2611 layer_factory.hpp:76] Creating layer fc8
I1110 22:09:12.062039  2611 net.cpp:106] Creating Layer fc8
I1110 22:09:12.062055  2611 net.cpp:454] fc8 <- fc7
I1110 22:09:12.062084  2611 net.cpp:411] fc8 -> fc8
I1110 22:09:12.083117  2611 net.cpp:150] Setting up fc8
I1110 22:09:12.083276  2611 net.cpp:157] Top shape: 1 1000 (1000)
I1110 22:09:12.083290  2611 net.cpp:165] Memory required for data: 6245792
I1110 22:09:12.083362  2611 layer_factory.hpp:76] Creating layer prob
I1110 22:09:12.083457  2611 net.cpp:106] Creating Layer prob
I1110 22:09:12.083493  2611 net.cpp:454] prob <- fc8
I1110 22:09:12.083555  2611 net.cpp:411] prob -> prob
I1110 22:09:12.083760  2611 net.cpp:150] Setting up prob
I1110 22:09:12.083788  2611 net.cpp:157] Top shape: 1 1000 (1000)
I1110 22:09:12.083799  2611 net.cpp:165] Memory required for data: 6249792
I1110 22:09:12.083816  2611 net.cpp:228] prob does not need backward computation.
I1110 22:09:12.083830  2611 net.cpp:228] fc8 does not need backward computation.
I1110 22:09:12.083842  2611 net.cpp:228] drop7 does not need backward computation.
I1110 22:09:12.083854  2611 net.cpp:228] relu7 does not need backward computation.
…
