…
gamma: 0.5
momentum: 0.98
weight_decay: 0.1
stepsize: 1500
snapshot: 1000
snapshot_prefix: "stitch"
solver_mode: GPU
random_seed: 0
net: "network.prototxt"
regularization_type: "L1"
I1110 22:03:32.018832  1549 solver.cpp:90] Creating training net from net file: network.prototxt
I1110 22:03:32.058732  1549 net.cpp:49] Initializing net from parameters: 
name: "StitchNet"
input: "net0"
input: "net1"
input_dim: 32
input_dim: 96
input_dim: 55
input_dim: 55
input_dim: 32
input_dim: 96
input_dim: 55
input_dim: 55
state {
  phase: TRAIN
}
debug_info: true
layer {
  name: "stitch0"
  type: "Convolution"
  bottom: "net0"
  top: "stitch0"
  convolution_param {
    num_output: 96
    kernel_size: 1
    stride: 1
    weight_filler {
      type: "gaussian"
      std: 0.01
    }
  }
}
layer {
  name: "loss"
  type: "EuclideanLoss"
  bottom: "stitch0"
  bottom: "net1"
  top: "loss"
  loss_weight: 1
}
I1110 22:03:32.059065  1549 net.cpp:413] Input 0 -> net0
I1110 22:03:32.093050  1549 net.cpp:413] Input 1 -> net1
I1110 22:03:32.093250  1549 layer_factory.hpp:76] Creating layer stitch0
I1110 22:03:32.093340  1549 net.cpp:106] Creating Layer stitch0
I1110 22:03:32.093364  1549 net.cpp:454] stitch0 <- net0
I1110 22:03:32.093406  1549 net.cpp:411] stitch0 -> stitch0
I1110 22:03:32.095988  1549 net.cpp:150] Setting up stitch0
I1110 22:03:32.096041  1549 net.cpp:157] Top shape: 32 96 55 55 (9292800)
I1110 22:03:32.096055  1549 net.cpp:165] Memory required for data: 37171200
I1110 22:03:32.096123  1549 layer_factory.hpp:76] Creating layer loss
I1110 22:03:32.096161  1549 net.cpp:106] Creating Layer loss
I1110 22:03:32.096180  1549 net.cpp:454] loss <- stitch0
I1110 22:03:32.096205  1549 net.cpp:454] loss <- net1
I1110 22:03:32.096233  1549 net.cpp:411] loss -> loss
I1110 22:03:32.096314  1549 net.cpp:150] Setting up loss
I1110 22:03:32.096340  1549 net.cpp:157] Top shape: (1)
I1110 22:03:32.096351  1549 net.cpp:160]     with loss weight 1
I1110 22:03:32.096372  1549 net.cpp:165] Memory required for data: 37171204
I1110 22:03:32.096391  1549 net.cpp:226] loss needs backward computation.
I1110 22:03:32.096408  1549 net.cpp:226] stitch0 needs backward computation.
I1110 22:03:32.096422  1549 net.cpp:270] This network produces output loss
I1110 22:03:32.096448  1549 net.cpp:283] Network initialization done.
I1110 22:03:32.096504  1549 solver.cpp:59] Solver scaffolding done.
I1110 22:03:32.140485  1549 net.cpp:49] Initializing net from parameters: 
name: "CaffeNet"
input: "data"
input_dim: 1
input_dim: 3
input_dim: 227
input_dim: 227
force_backward: true
state {
  phase: TEST
}
layer {
  name: "conv1"
  type: "Convolution"
  bottom: "data"
  top: "conv1"
  convolution_param {
    num_output: 96
    kernel_size: 11
    stride: 4
  }
}
layer {
  name: "relu1"
  type: "ReLU"
  bottom: "conv1"
  top: "conv1"
}
layer {
  name: "pool1"
  type: "Pooling"
  bottom: "conv1"
  top: "pool1"
  pooling_param {
    pool: MAX
    kernel_size: 3
    stride: 2
  }
}
layer {
  name: "norm1"
  type: "LRN"
  bottom: "pool1"
  top: "norm1"
  lrn_param {
    local_size: 5
    alpha: 0.0001
    beta: 0.75
  }
}
layer {
  name: "conv2"
  type: "Convolution"
  bottom: "norm1"
  top: "conv2"
  convolution_param {
    num_output: 256
    pad: 2
    kernel_size: 5
  }
}
layer {
  name: "relu2"
  type: "ReLU"
  bottom: "conv2"
  top: "conv2"
}
layer {
  name: "pool2"
  type: "Pooling"
  bottom: "conv2"
  top: "pool2"
  pooling_param {
    pool: MAX
    kernel_size: 3
    stride: 2
  }
}
layer {
  name: "norm2"
  type: "LRN"
  bottom: "pool2"
  top: "norm2"
  lrn_param {
    local_size: 5
    alpha: 0.0001
    beta: 0.75
  }
}
layer {
  name: "conv3"
  type: "Convolution"
  bottom: "norm2"
  top: "conv3"
  convolution_param {
    num_output: 384
    pad: 1
    kernel_size: 3
  }
}
layer {
  name: "relu3"
  type: "ReLU"
  bottom: "conv3"
  top: "conv3"
}
layer {
  name: "conv4"
  type: "Convolution"
  bottom: "conv3"
  top: "conv4"
  convolution_param {
    num_output: 384
    pad: 1
    kernel_size: 3
  }
}
layer {
  name: "relu4"
  type: "ReLU"
  bottom: "conv4"
  top: "conv4"
}
layer {
  name: "conv5"
  type: "Convolution"
  bottom: "conv4"
  top: "conv5"
  convolution_param {
    num_output: 256
    pad: 1
    kernel_size: 3
  }
}
layer {
  name: "relu5"
  type: "ReLU"
  bottom: "conv5"
  top: "conv5"
}
layer {
  name: "pool5"
  type: "Pooling"
  bottom: "conv5"
  top: "pool5"
  pooling_param {
    pool: MAX
    kernel_size: 3
    stride: 2
  }
}
layer {
  name: "fc6"
  type: "InnerProduct"
  bottom: "pool5"
  top: "fc6"
  inner_product_param {
    num_output: 4096
  }
}
layer {
  name: "relu6"
  type: "ReLU"
  bottom: "fc6"
  top: "fc6"
}
layer {
  name: "drop6"
  type: "Dropout"
  bottom: "fc6"
  top: "fc6"
  dropout_param {
    dropout_ratio: 0.5
  }
}
layer {
  name: "fc7"
  type: "InnerProduct"
  bottom: "fc6"
  top: "fc7"
  inner_product_param {
    num_output: 4096
  }
}
layer {
  name: "relu7"
  type: "ReLU"
  bottom: "fc7"
  top: "fc7"
}
layer {
  name: "drop7"
  type: "Dropout"
  bottom: "fc7"
  top: "fc7"
  dropout_param {
    dropout_ratio: 0.5
  }
}
layer {
  name: "fc8"
  type: "InnerProduct"
  bottom: "fc7"
  top: "fc8"
  inner_product_param {
    num_output: 1000
  }
}
layer {
  name: "prob"
  type: "Softmax"
  bottom: "fc8"
  top: "prob"
}
I1110 22:03:32.141031  1549 net.cpp:413] Input 0 -> data
I1110 22:03:32.141330  1549 layer_factory.hpp:76] Creating layer conv1
I1110 22:03:32.141427  1549 net.cpp:106] Creating Layer conv1
I1110 22:03:32.141471  1549 net.cpp:454] conv1 <- data
I1110 22:03:32.141542  1549 net.cpp:411] conv1 -> conv1
I1110 22:03:32.144397  1549 net.cpp:150] Setting up conv1
I1110 22:03:32.144469  1549 net.cpp:157] Top shape: 1 96 55 55 (290400)
I1110 22:03:32.144498  1549 net.cpp:165] Memory required for data: 1161600
I1110 22:03:32.144611  1549 layer_factory.hpp:76] Creating layer relu1
I1110 22:03:32.144695  1549 net.cpp:106] Creating Layer relu1
I1110 22:03:32.144738  1549 net.cpp:454] relu1 <- conv1
I1110 22:03:32.144816  1549 net.cpp:397] relu1 -> conv1 (in-place)
I1110 22:03:32.144903  1549 net.cpp:150] Setting up relu1
I1110 22:03:32.144943  1549 net.cpp:157] Top shape: 1 96 55 55 (290400)
I1110 22:03:32.144966  1549 net.cpp:165] Memory required for data: 2323200
I1110 22:03:32.144995  1549 layer_factory.hpp:76] Creating layer pool1
I1110 22:03:32.145068  1549 net.cpp:106] Creating Layer pool1
I1110 22:03:32.145110  1549 net.cpp:454] pool1 <- conv1
I1110 22:03:32.145179  1549 net.cpp:411] pool1 -> pool1
I1110 22:03:32.145400  1549 net.cpp:150] Setting up pool1
I1110 22:03:32.145457  1549 net.cpp:157] Top shape: 1 96 27 27 (69984)
I1110 22:03:32.145484  1549 net.cpp:165] Memory required for data: 2603136
I1110 22:03:32.145516  1549 layer_factory.hpp:76] Creating layer norm1
I1110 22:03:32.145582  1549 net.cpp:106] Creating Layer norm1
I1110 22:03:32.145622  1549 net.cpp:454] norm1 <- pool1
I1110 22:03:32.145690  1549 net.cpp:411] norm1 -> norm1
I1110 22:03:32.145876  1549 net.cpp:150] Setting up norm1
I1110 22:03:32.145931  1549 net.cpp:157] Top shape: 1 96 27 27 (69984)
I1110 22:03:32.145956  1549 net.cpp:165] Memory required for data: 2883072
I1110 22:03:32.145987  1549 layer_factory.hpp:76] Creating layer conv2
I1110 22:03:32.146055  1549 net.cpp:106] Creating Layer conv2
I1110 22:03:32.146097  1549 net.cpp:454] conv2 <- norm1
I1110 22:03:32.146173  1549 net.cpp:411] conv2 -> conv2
I1110 22:03:32.152133  1549 net.cpp:150] Setting up conv2
I1110 22:03:32.152189  1549 net.cpp:157] Top shape: 1 256 27 27 (186624)
I1110 22:03:32.152202  1549 net.cpp:165] Memory required for data: 3629568
I1110 22:03:32.152272  1549 layer_factory.hpp:76] Creating layer relu2
I1110 22:03:32.152315  1549 net.cpp:106] Creating Layer relu2
I1110 22:03:32.152340  1549 net.cpp:454] relu2 <- conv2
I1110 22:03:32.152374  1549 net.cpp:397] relu2 -> conv2 (in-place)
I1110 22:03:32.152417  1549 net.cpp:150] Setting up relu2
I1110 22:03:32.152434  1549 net.cpp:157] Top shape: 1 256 27 27 (186624)
I1110 22:03:32.152446  1549 net.cpp:165] Memory required for data: 4376064
I1110 22:03:32.152458  1549 layer_factory.hpp:76] Creating layer pool2
I1110 22:03:32.152493  1549 net.cpp:106] Creating Layer pool2
I1110 22:03:32.152511  1549 net.cpp:454] pool2 <- conv2
I1110 22:03:32.152542  1549 net.cpp:411] pool2 -> pool2
I1110 22:03:32.152639  1549 net.cpp:150] Setting up pool2
I1110 22:03:32.152665  1549 net.cpp:157] Top shape: 1 256 13 13 (43264)
I1110 22:03:32.152678  1549 net.cpp:165] Memory required for data: 4549120
I1110 22:03:32.152691  1549 layer_factory.hpp:76] Creating layer norm2
I1110 22:03:32.152727  1549 net.cpp:106] Creating Layer norm2
I1110 22:03:32.152745  1549 net.cpp:454] norm2 <- pool2
I1110 22:03:32.152777  1549 net.cpp:411] norm2 -> norm2
I1110 22:03:32.152863  1549 net.cpp:150] Setting up norm2
I1110 22:03:32.152887  1549 net.cpp:157] Top shape: 1 256 13 13 (43264)
I1110 22:03:32.152899  1549 net.cpp:165] Memory required for data: 4722176
I1110 22:03:32.152914  1549 layer_factory.hpp:76] Creating layer conv3
I1110 22:03:32.152956  1549 net.cpp:106] Creating Layer conv3
I1110 22:03:32.152976  1549 net.cpp:454] conv3 <- norm2
I1110 22:03:32.153010  1549 net.cpp:411] conv3 -> conv3
I1110 22:03:32.158067  1549 net.cpp:150] Setting up conv3
I1110 22:03:32.158134  1549 net.cpp:157] Top shape: 1 384 13 13 (64896)
I1110 22:03:32.158148  1549 net.cpp:165] Memory required for data: 4981760
I1110 22:03:32.158221  1549 layer_factory.hpp:76] Creating layer relu3
I1110 22:03:32.158267  1549 net.cpp:106] Creating Layer relu3
I1110 22:03:32.158290  1549 net.cpp:454] relu3 <- conv3
I1110 22:03:32.158326  1549 net.cpp:397] relu3 -> conv3 (in-place)
I1110 22:03:32.158365  1549 net.cpp:150] Setting up relu3
I1110 22:03:32.158383  1549 net.cpp:157] Top shape: 1 384 13 13 (64896)
I1110 22:03:32.158393  1549 net.cpp:165] Memory required for data: 5241344
I1110 22:03:32.158406  1549 layer_factory.hpp:76] Creating layer conv4
I1110 22:03:32.158443  1549 net.cpp:106] Creating Layer conv4
I1110 22:03:32.158462  1549 net.cpp:454] conv4 <- conv3
I1110 22:03:32.158494  1549 net.cpp:411] conv4 -> conv4
I1110 22:03:32.166160  1549 net.cpp:150] Setting up conv4
I1110 22:03:32.166247  1549 net.cpp:157] Top shape: 1 384 13 13 (64896)
I1110 22:03:32.166260  1549 net.cpp:165] Memory required for data: 5500928
I1110 22:03:32.166303  1549 layer_factory.hpp:76] Creating layer relu4
I1110 22:03:32.166353  1549 net.cpp:106] Creating Layer relu4
I1110 22:03:32.166379  1549 net.cpp:454] relu4 <- conv4
I1110 22:03:32.166424  1549 net.cpp:397] relu4 -> conv4 (in-place)
I1110 22:03:32.166468  1549 net.cpp:150] Setting up relu4
I1110 22:03:32.166487  1549 net.cpp:157] Top shape: 1 384 13 13 (64896)
I1110 22:03:32.166498  1549 net.cpp:165] Memory required for data: 5760512
I1110 22:03:32.166512  1549 layer_factory.hpp:76] Creating layer conv5
I1110 22:03:32.166548  1549 net.cpp:106] Creating Layer conv5
I1110 22:03:32.166565  1549 net.cpp:454] conv5 <- conv4
I1110 22:03:32.166601  1549 net.cpp:411] conv5 -> conv5
I1110 22:03:32.171965  1549 net.cpp:150] Setting up conv5
I1110 22:03:32.172010  1549 net.cpp:157] Top shape: 1 256 13 13 (43264)
I1110 22:03:32.172024  1549 net.cpp:165] Memory required for data: 5933568
I1110 22:03:32.172086  1549 layer_factory.hpp:76] Creating layer relu5
I1110 22:03:32.172124  1549 net.cpp:106] Creating Layer relu5
I1110 22:03:32.172147  1549 net.cpp:454] relu5 <- conv5
I1110 22:03:32.172178  1549 net.cpp:397] relu5 -> conv5 (in-place)
I1110 22:03:32.172214  1549 net.cpp:150] Setting up relu5
I1110 22:03:32.172231  1549 net.cpp:157] Top shape: 1 256 13 13 (43264)
I1110 22:03:32.172242  1549 net.cpp:165] Memory required for data: 6106624
I1110 22:03:32.172255  1549 layer_factory.hpp:76] Creating layer pool5
I1110 22:03:32.172284  1549 net.cpp:106] Creating Layer pool5
I1110 22:03:32.172302  1549 net.cpp:454] pool5 <- conv5
I1110 22:03:32.172333  1549 net.cpp:411] pool5 -> pool5
I1110 22:03:32.172425  1549 net.cpp:150] Setting up pool5
I1110 22:03:32.172451  1549 net.cpp:157] Top shape: 1 256 6 6 (9216)
I1110 22:03:32.172462  1549 net.cpp:165] Memory required for data: 6143488
I1110 22:03:32.172477  1549 layer_factory.hpp:76] Creating layer fc6
I1110 22:03:32.172505  1549 net.cpp:106] Creating Layer fc6
I1110 22:03:32.172523  1549 net.cpp:454] fc6 <- pool5
I1110 22:03:32.172557  1549 net.cpp:411] fc6 -> fc6
I1110 22:03:32.376530  1549 net.cpp:150] Setting up fc6
I1110 22:03:32.376584  1549 net.cpp:157] Top shape: 1 4096 (4096)
I1110 22:03:32.376596  1549 net.cpp:165] Memory required for data: 6159872
I1110 22:03:32.376634  1549 layer_factory.hpp:76] Creating layer relu6
I1110 22:03:32.376688  1549 net.cpp:106] Creating Layer relu6
I1110 22:03:32.376711  1549 net.cpp:454] relu6 <- fc6
I1110 22:03:32.376749  1549 net.cpp:397] relu6 -> fc6 (in-place)
I1110 22:03:32.376785  1549 net.cpp:150] Setting up relu6
I1110 22:03:32.376803  1549 net.cpp:157] Top shape: 1 4096 (4096)
I1110 22:03:32.376813  1549 net.cpp:165] Memory required for data: 6176256
I1110 22:03:32.376832  1549 layer_factory.hpp:76] Creating layer drop6
I1110 22:03:32.376873  1549 net.cpp:106] Creating Layer drop6
I1110 22:03:32.376893  1549 net.cpp:454] drop6 <- fc6
I1110 22:03:32.376921  1549 net.cpp:397] drop6 -> fc6 (in-place)
I1110 22:03:32.376986  1549 net.cpp:150] Setting up drop6
I1110 22:03:32.377007  1549 net.cpp:157] Top shape: 1 4096 (4096)
I1110 22:03:32.377017  1549 net.cpp:165] Memory required for data: 6192640
I1110 22:03:32.377030  1549 layer_factory.hpp:76] Creating layer fc7
I1110 22:03:32.377059  1549 net.cpp:106] Creating Layer fc7
I1110 22:03:32.377076  1549 net.cpp:454] fc7 <- fc6
I1110 22:03:32.377107  1549 net.cpp:411] fc7 -> fc7
I1110 22:03:32.463423  1549 net.cpp:150] Setting up fc7
I1110 22:03:32.463474  1549 net.cpp:157] Top shape: 1 4096 (4096)
I1110 22:03:32.463486  1549 net.cpp:165] Memory required for data: 6209024
I1110 22:03:32.463524  1549 layer_factory.hpp:76] Creating layer relu7
I1110 22:03:32.463567  1549 net.cpp:106] Creating Layer relu7
I1110 22:03:32.463589  1549 net.cpp:454] relu7 <- fc7
I1110 22:03:32.463628  1549 net.cpp:397] relu7 -> fc7 (in-place)
I1110 22:03:32.463663  1549 net.cpp:150] Setting up relu7
I1110 22:03:32.463680  1549 net.cpp:157] Top shape: 1 4096 (4096)
I1110 22:03:32.463691  1549 net.cpp:165] Memory required for data: 6225408
I1110 22:03:32.463704  1549 layer_factory.hpp:76] Creating layer drop7
I1110 22:03:32.463735  1549 net.cpp:106] Creating Layer drop7
I1110 22:03:32.463752  1549 net.cpp:454] drop7 <- fc7
I1110 22:03:32.463781  1549 net.cpp:397] drop7 -> fc7 (in-place)
I1110 22:03:32.463847  1549 net.cpp:150] Setting up drop7
I1110 22:03:32.463870  1549 net.cpp:157] Top shape: 1 4096 (4096)
I1110 22:03:32.463881  1549 net.cpp:165] Memory required for data: 6241792
I1110 22:03:32.463893  1549 layer_factory.hpp:76] Creating layer fc8
I1110 22:03:32.463922  1549 net.cpp:106] Creating Layer fc8
I1110 22:03:32.463938  1549 net.cpp:454] fc8 <- fc7
I1110 22:03:32.463973  1549 net.cpp:411] fc8 -> fc8
I1110 22:03:32.485002  1549 net.cpp:150] Setting up fc8
I1110 22:03:32.485054  1549 net.cpp:157] Top shape: 1 1000 (1000)
I1110 22:03:32.485066  1549 net.cpp:165] Memory required for data: 6245792
I1110 22:03:32.485105  1549 layer_factory.hpp:76] Creating layer prob
I1110 22:03:32.485157  1549 net.cpp:106] Creating Layer prob
I1110 22:03:32.485183  1549 net.cpp:454] prob <- fc8
I1110 22:03:32.485221  1549 net.cpp:411] prob -> prob
I1110 22:03:32.485347  1549 net.cpp:150] Setting up prob
I1110 22:03:32.485373  1549 net.cpp:157] Top shape: 1 1000 (1000)
I1110 22:03:32.485383  1549 net.cpp:165] Memory required for data: 6249792
I1110 22:03:32.485399  1549 net.cpp:228] prob does not need backward computation.
I1110 22:03:32.485414  1549 net.cpp:228] fc8 does not need backward computation.
I1110 22:03:32.485427  1549 net.cpp:228] drop7 does not need backward computation.
I1110 22:03:32.485440  1549 net.cpp:228] relu7 does not need backward computation.
…
I1110 22:03:35.230306  1549 net.cpp:923] Copying source layer drop6
I1110 22:03:35.230316  1549 net.cpp:923] Copying source layer fc7
I1110 22:03:35.437904  1549 net.cpp:923] Copying source layer relu7
I1110 22:03:35.437975  1549 net.cpp:923] Copying source layer drop7
I1110 22:03:35.437985  1549 net.cpp:923] Copying source layer fc8
I1110 22:03:35.489339  1549 net.cpp:920] Ignoring source layer loss
I1110 22:03:35.575764  1549 net.cpp:49] Initializing net from parameters: 
name: "CaffeNet"
input: "data"
input_dim: 1
input_dim: 3
input_dim: 227
input_dim: 227
force_backward: true
state {
  phase: TEST
}
layer {
  name: "conv1"
  type: "Convolution"
  bottom: "data"
  top: "conv1"
  convolution_param {
    num_output: 96
    kernel_size: 11
    stride: 4
  }
}
layer {
  name: "relu1"
  type: "ReLU"
  bottom: "conv1"
  top: "conv1"
}
layer {
  name: "pool1"
  type: "Pooling"
  bottom: "conv1"
  top: "pool1"
  pooling_param {
    pool: MAX
    kernel_size: 3
    stride: 2
  }
}
layer {
  name: "norm1"
  type: "LRN"
  bottom: "pool1"
  top: "norm1"
  lrn_param {
    local_size: 5
    alpha: 0.0001
    beta: 0.75
  }
}
layer {
  name: "conv2"
  type: "Convolution"
  bottom: "norm1"
  top: "conv2"
  convolution_param {
    num_output: 256
    pad: 2
    kernel_size: 5
  }
}
layer {
  name: "relu2"
  type: "ReLU"
  bottom: "conv2"
  top: "conv2"
}
layer {
  name: "pool2"
  type: "Pooling"
  bottom: "conv2"
  top: "pool2"
  pooling_param {
    pool: MAX
    kernel_size: 3
    stride: 2
  }
}
layer {
  name: "norm2"
  type: "LRN"
  bottom: "pool2"
  top: "norm2"
  lrn_param {
    local_size: 5
    alpha: 0.0001
    beta: 0.75
  }
}
layer {
  name: "conv3"
  type: "Convolution"
  bottom: "norm2"
  top: "conv3"
  convolution_param {
    num_output: 384
    pad: 1
    kernel_size: 3
  }
}
layer {
  name: "relu3"
  type: "ReLU"
  bottom: "conv3"
  top: "conv3"
}
layer {
  name: "conv4"
  type: "Convolution"
  bottom: "conv3"
  top: "conv4"
  convolution_param {
    num_output: 384
    pad: 1
    kernel_size: 3
  }
}
layer {
  name: "relu4"
  type: "ReLU"
  bottom: "conv4"
  top: "conv4"
}
layer {
  name: "conv5"
  type: "Convolution"
  bottom: "conv4"
  top: "conv5"
  convolution_param {
    num_output: 256
    pad: 1
    kernel_size: 3
  }
}
layer {
  name: "relu5"
  type: "ReLU"
  bottom: "conv5"
  top: "conv5"
}
layer {
  name: "pool5"
  type: "Pooling"
  bottom: "conv5"
  top: "pool5"
  pooling_param {
    pool: MAX
    kernel_size: 3
    stride: 2
  }
}
layer {
  name: "fc6"
  type: "InnerProduct"
  bottom: "pool5"
  top: "fc6"
  inner_product_param {
    num_output: 4096
  }
}
layer {
  name: "relu6"
  type: "ReLU"
  bottom: "fc6"
  top: "fc6"
}
layer {
  name: "drop6"
  type: "Dropout"
  bottom: "fc6"
  top: "fc6"
  dropout_param {
    dropout_ratio: 0.5
  }
}
layer {
  name: "fc7"
  type: "InnerProduct"
  bottom: "fc6"
  top: "fc7"
  inner_product_param {
    num_output: 4096
  }
}
layer {
  name: "relu7"
  type: "ReLU"
  bottom: "fc7"
  top: "fc7"
}
layer {
  name: "drop7"
  type: "Dropout"
  bottom: "fc7"
  top: "fc7"
  dropout_param {
    dropout_ratio: 0.5
  }
}
layer {
  name: "fc8"
  type: "InnerProduct"
  bottom: "fc7"
  top: "fc8"
  inner_product_param {
    num_output: 1000
  }
}
layer {
  name: "prob"
  type: "Softmax"
  bottom: "fc8"
  top: "prob"
}
I1110 22:03:35.576040  1549 net.cpp:413] Input 0 -> data
I1110 22:03:35.576256  1549 layer_factory.hpp:76] Creating layer conv1
I1110 22:03:35.576310  1549 net.cpp:106] Creating Layer conv1
I1110 22:03:35.576330  1549 net.cpp:454] conv1 <- data
I1110 22:03:35.576362  1549 net.cpp:411] conv1 -> conv1
I1110 22:03:35.576767  1549 net.cpp:150] Setting up conv1
I1110 22:03:35.576802  1549 net.cpp:157] Top shape: 1 96 55 55 (290400)
I1110 22:03:35.576828  1549 net.cpp:165] Memory required for data: 1161600
I1110 22:03:35.576879  1549 layer_factory.hpp:76] Creating layer relu1
I1110 22:03:35.576910  1549 net.cpp:106] Creating Layer relu1
I1110 22:03:35.576925  1549 net.cpp:454] relu1 <- conv1
I1110 22:03:35.576951  1549 net.cpp:397] relu1 -> conv1 (in-place)
I1110 22:03:35.576978  1549 net.cpp:150] Setting up relu1
I1110 22:03:35.577002  1549 net.cpp:157] Top shape: 1 96 55 55 (290400)
I1110 22:03:35.577011  1549 net.cpp:165] Memory required for data: 2323200
I1110 22:03:35.577023  1549 layer_factory.hpp:76] Creating layer pool1
I1110 22:03:35.577050  1549 net.cpp:106] Creating Layer pool1
I1110 22:03:35.577066  1549 net.cpp:454] pool1 <- conv1
I1110 22:03:35.577093  1549 net.cpp:411] pool1 -> pool1
I1110 22:03:35.577170  1549 net.cpp:150] Setting up pool1
I1110 22:03:35.577193  1549 net.cpp:157] Top shape: 1 96 27 27 (69984)
I1110 22:03:35.577204  1549 net.cpp:165] Memory required for data: 2603136
I1110 22:03:35.577216  1549 layer_factory.hpp:76] Creating layer norm1
I1110 22:03:35.577244  1549 net.cpp:106] Creating Layer norm1
I1110 22:03:35.577258  1549 net.cpp:454] norm1 <- pool1
I1110 22:03:35.577286  1549 net.cpp:411] norm1 -> norm1
I1110 22:03:35.577353  1549 net.cpp:150] Setting up norm1
I1110 22:03:35.577375  1549 net.cpp:157] Top shape: 1 96 27 27 (69984)
I1110 22:03:35.577385  1549 net.cpp:165] Memory required for data: 2883072
I1110 22:03:35.577397  1549 layer_factory.hpp:76] Creating layer conv2
I1110 22:03:35.577425  1549 net.cpp:106] Creating Layer conv2
I1110 22:03:35.577442  1549 net.cpp:454] conv2 <- norm1
I1110 22:03:35.577471  1549 net.cpp:411] conv2 -> conv2
I1110 22:03:35.581354  1549 net.cpp:150] Setting up conv2
I1110 22:03:35.581406  1549 net.cpp:157] Top shape: 1 256 27 27 (186624)
I1110 22:03:35.581418  1549 net.cpp:165] Memory required for data: 3629568
I1110 22:03:35.581487  1549 layer_factory.hpp:76] Creating layer relu2
I1110 22:03:35.581537  1549 net.cpp:106] Creating Layer relu2
I1110 22:03:35.581562  1549 net.cpp:454] relu2 <- conv2
I1110 22:03:35.581594  1549 net.cpp:397] relu2 -> conv2 (in-place)
I1110 22:03:35.581655  1549 net.cpp:150] Setting up relu2
I1110 22:03:35.581670  1549 net.cpp:157] Top shape: 1 256 27 27 (186624)
I1110 22:03:35.581681  1549 net.cpp:165] Memory required for data: 4376064
I1110 22:03:35.581691  1549 layer_factory.hpp:76] Creating layer pool2
I1110 22:03:35.581722  1549 net.cpp:106] Creating Layer pool2
I1110 22:03:35.581751  1549 net.cpp:454] pool2 <- conv2
I1110 22:03:35.581781  1549 net.cpp:411] pool2 -> pool2
I1110 22:03:35.581863  1549 net.cpp:150] Setting up pool2
I1110 22:03:35.581887  1549 net.cpp:157] Top shape: 1 256 13 13 (43264)
I1110 22:03:35.581897  1549 net.cpp:165] Memory required for data: 4549120
I1110 22:03:35.581908  1549 layer_factory.hpp:76] Creating layer norm2
I1110 22:03:35.581938  1549 net.cpp:106] Creating Layer norm2
I1110 22:03:35.581953  1549 net.cpp:454] norm2 <- pool2
I1110 22:03:35.581980  1549 net.cpp:411] norm2 -> norm2
I1110 22:03:35.582048  1549 net.cpp:150] Setting up norm2
I1110 22:03:35.582069  1549 net.cpp:157] Top shape: 1 256 13 13 (43264)
I1110 22:03:35.582079  1549 net.cpp:165] Memory required for data: 4722176
I1110 22:03:35.582092  1549 layer_factory.hpp:76] Creating layer conv3
I1110 22:03:35.582130  1549 net.cpp:106] Creating Layer conv3
I1110 22:03:35.582147  1549 net.cpp:454] conv3 <- norm2
I1110 22:03:35.582175  1549 net.cpp:411] conv3 -> conv3
I1110 22:03:35.587379  1549 net.cpp:150] Setting up conv3
I1110 22:03:35.587430  1549 net.cpp:157] Top shape: 1 384 13 13 (64896)
I1110 22:03:35.587440  1549 net.cpp:165] Memory required for data: 4981760
I1110 22:03:35.587503  1549 layer_factory.hpp:76] Creating layer relu3
I1110 22:03:35.587554  1549 net.cpp:106] Creating Layer relu3
I1110 22:03:35.587579  1549 net.cpp:454] relu3 <- conv3
I1110 22:03:35.587613  1549 net.cpp:397] relu3 -> conv3 (in-place)
I1110 22:03:35.587652  1549 net.cpp:150] Setting up relu3
I1110 22:03:35.587667  1549 net.cpp:157] Top shape: 1 384 13 13 (64896)
I1110 22:03:35.587677  1549 net.cpp:165] Memory required for data: 5241344
I1110 22:03:35.587688  1549 layer_factory.hpp:76] Creating layer conv4
I1110 22:03:35.587720  1549 net.cpp:106] Creating Layer conv4
I1110 22:03:35.587735  1549 net.cpp:454] conv4 <- conv3
I1110 22:03:35.587764  1549 net.cpp:411] conv4 -> conv4
I1110 22:03:35.595206  1549 net.cpp:150] Setting up conv4
I1110 22:03:35.595259  1549 net.cpp:157] Top shape: 1 384 13 13 (64896)
I1110 22:03:35.595271  1549 net.cpp:165] Memory required for data: 5500928
I1110 22:03:35.595306  1549 layer_factory.hpp:76] Creating layer relu4
I1110 22:03:35.595345  1549 net.cpp:106] Creating Layer relu4
I1110 22:03:35.595366  1549 net.cpp:454] relu4 <- conv4
I1110 22:03:35.595404  1549 net.cpp:397] relu4 -> conv4 (in-place)
I1110 22:03:35.595438  1549 net.cpp:150] Setting up relu4
I1110 22:03:35.595453  1549 net.cpp:157] Top shape: 1 384 13 13 (64896)
I1110 22:03:35.595463  1549 net.cpp:165] Memory required for data: 5760512
I1110 22:03:35.595474  1549 layer_factory.hpp:76] Creating layer conv5
I1110 22:03:35.595506  1549 net.cpp:106] Creating Layer conv5
I1110 22:03:35.595521  1549 net.cpp:454] conv5 <- conv4
I1110 22:03:35.595549  1549 net.cpp:411] conv5 -> conv5
I1110 22:03:35.600455  1549 net.cpp:150] Setting up conv5
I1110 22:03:35.600489  1549 net.cpp:157] Top shape: 1 256 13 13 (43264)
I1110 22:03:35.600500  1549 net.cpp:165] Memory required for data: 5933568
I1110 22:03:35.600549  1549 layer_factory.hpp:76] Creating layer relu5
I1110 22:03:35.600579  1549 net.cpp:106] Creating Layer relu5
I1110 22:03:35.600595  1549 net.cpp:454] relu5 <- conv5
I1110 22:03:35.600625  1549 net.cpp:397] relu5 -> conv5 (in-place)
I1110 22:03:35.600654  1549 net.cpp:150] Setting up relu5
I1110 22:03:35.600671  1549 net.cpp:157] Top shape: 1 256 13 13 (43264)
I1110 22:03:35.600679  1549 net.cpp:165] Memory required for data: 6106624
I1110 22:03:35.600690  1549 layer_factory.hpp:76] Creating layer pool5
I1110 22:03:35.600718  1549 net.cpp:106] Creating Layer pool5
I1110 22:03:35.600733  1549 net.cpp:454] pool5 <- conv5
I1110 22:03:35.600762  1549 net.cpp:411] pool5 -> pool5
I1110 22:03:35.600846  1549 net.cpp:150] Setting up pool5
I1110 22:03:35.600870  1549 net.cpp:157] Top shape: 1 256 6 6 (9216)
I1110 22:03:35.600882  1549 net.cpp:165] Memory required for data: 6143488
I1110 22:03:35.600893  1549 layer_factory.hpp:76] Creating layer fc6
I1110 22:03:35.600919  1549 net.cpp:106] Creating Layer fc6
I1110 22:03:35.600934  1549 net.cpp:454] fc6 <- pool5
I1110 22:03:35.600961  1549 net.cpp:411] fc6 -> fc6
I1110 22:03:35.783803  1549 net.cpp:150] Setting up fc6
I1110 22:03:35.783859  1549 net.cpp:157] Top shape: 1 4096 (4096)
I1110 22:03:35.783869  1549 net.cpp:165] Memory required for data: 6159872
I1110 22:03:35.783905  1549 layer_factory.hpp:76] Creating layer relu6
I1110 22:03:35.783957  1549 net.cpp:106] Creating Layer relu6
I1110 22:03:35.783978  1549 net.cpp:454] relu6 <- fc6
I1110 22:03:35.784014  1549 net.cpp:397] relu6 -> fc6 (in-place)
I1110 22:03:35.784049  1549 net.cpp:150] Setting up relu6
I1110 22:03:35.784063  1549 net.cpp:157] Top shape: 1 4096 (4096)
I1110 22:03:35.784072  1549 net.cpp:165] Memory required for data: 6176256
I1110 22:03:35.784083  1549 layer_factory.hpp:76] Creating layer drop6
I1110 22:03:35.784107  1549 net.cpp:106] Creating Layer drop6
I1110 22:03:35.784122  1549 net.cpp:454] drop6 <- fc6
I1110 22:03:35.784147  1549 net.cpp:397] drop6 -> fc6 (in-place)
I1110 22:03:35.784201  1549 net.cpp:150] Setting up drop6
I1110 22:03:35.784219  1549 net.cpp:157] Top shape: 1 4096 (4096)
I1110 22:03:35.784229  1549 net.cpp:165] Memory required for data: 6192640
I1110 22:03:35.784240  1549 layer_factory.hpp:76] Creating layer fc7
I1110 22:03:35.784265  1549 net.cpp:106] Creating Layer fc7
I1110 22:03:35.784281  1549 net.cpp:454] fc7 <- fc6
I1110 22:03:35.784307  1549 net.cpp:411] fc7 -> fc7
I1110 22:03:35.860589  1549 net.cpp:150] Setting up fc7
I1110 22:03:35.860644  1549 net.cpp:157] Top shape: 1 4096 (4096)
I1110 22:03:35.860656  1549 net.cpp:165] Memory required for data: 6209024
I1110 22:03:35.860690  1549 layer_factory.hpp:76] Creating layer relu7
I1110 22:03:35.860728  1549 net.cpp:106] Creating Layer relu7
I1110 22:03:35.860748  1549 net.cpp:454] relu7 <- fc7
I1110 22:03:35.860780  1549 net.cpp:397] relu7 -> fc7 (in-place)
I1110 22:03:35.860813  1549 net.cpp:150] Setting up relu7
I1110 22:03:35.860832  1549 net.cpp:157] Top shape: 1 4096 (4096)
I1110 22:03:35.860842  1549 net.cpp:165] Memory required for data: 6225408
I1110 22:03:35.860854  1549 layer_factory.hpp:76] Creating layer drop7
I1110 22:03:35.860882  1549 net.cpp:106] Creating Layer drop7
I1110 22:03:35.860898  1549 net.cpp:454] drop7 <- fc7
I1110 22:03:35.860923  1549 net.cpp:397] drop7 -> fc7 (in-place)
I1110 22:03:35.860977  1549 net.cpp:150] Setting up drop7
I1110 22:03:35.860996  1549 net.cpp:157] Top shape: 1 4096 (4096)
I1110 22:03:35.861006  1549 net.cpp:165] Memory required for data: 6241792
I1110 22:03:35.861017  1549 layer_factory.hpp:76] Creating layer fc8
I1110 22:03:35.861042  1549 net.cpp:106] Creating Layer fc8
I1110 22:03:35.861057  1549 net.cpp:454] fc8 <- fc7
I1110 22:03:35.861086  1549 net.cpp:411] fc8 -> fc8
I1110 22:03:35.879912  1549 net.cpp:150] Setting up fc8
I1110 22:03:35.879957  1549 net.cpp:157] Top shape: 1 1000 (1000)
I1110 22:03:35.879968  1549 net.cpp:165] Memory required for data: 6245792
I1110 22:03:35.880002  1549 layer_factory.hpp:76] Creating layer prob
I1110 22:03:35.880039  1549 net.cpp:106] Creating Layer prob
I1110 22:03:35.880059  1549 net.cpp:454] prob <- fc8
I1110 22:03:35.880096  1549 net.cpp:411] prob -> prob
I1110 22:03:35.880208  1549 net.cpp:150] Setting up prob
I1110 22:03:35.880228  1549 net.cpp:157] Top shape: 1 1000 (1000)
I1110 22:03:35.880239  1549 net.cpp:165] Memory required for data: 6249792
I1110 22:03:35.880252  1549 net.cpp:228] prob does not need backward computation.
I1110 22:03:35.880265  1549 net.cpp:228] fc8 does not need backward computation.
I1110 22:03:35.880276  1549 net.cpp:228] drop7 does not need backward computation.
I1110 22:03:35.880287  1549 net.cpp:228] relu7 does not need backward computation.
…
