…
momentum: 0.98
weight_decay: 0.00063095737
stepsize: 1500
snapshot: 1000
snapshot_prefix: "stitch"
solver_mode: GPU
random_seed: 0
net: "network.prototxt"
regularization_type: "L1"
I1111 07:12:32.407651  3899 solver.cpp:90] Creating training net from net file: network.prototxt
I1111 07:12:32.425400  3899 net.cpp:49] Initializing net from parameters: 
name: "StitchNet"
input: "net0"
input: "net1"
input_dim: 32
input_dim: 256
input_dim: 27
input_dim: 27
input_dim: 32
input_dim: 256
input_dim: 27
input_dim: 27
state {
  phase: TRAIN
}
debug_info: true
layer {
  name: "stitch0"
  type: "Convolution"
  bottom: "net0"
  top: "stitch0"
  convolution_param {
    num_output: 256
    kernel_size: 1
    stride: 1
    weight_filler {
      type: "gaussian"
      std: 0.01
    }
  }
}
layer {
  name: "loss"
  type: "EuclideanLoss"
  bottom: "stitch0"
  bottom: "net1"
  top: "loss"
  loss_weight: 1
}
I1111 07:12:32.425668  3899 net.cpp:413] Input 0 -> net0
I1111 07:12:32.461585  3899 net.cpp:413] Input 1 -> net1
I1111 07:12:32.461743  3899 layer_factory.hpp:76] Creating layer stitch0
I1111 07:12:32.461817  3899 net.cpp:106] Creating Layer stitch0
I1111 07:12:32.461838  3899 net.cpp:454] stitch0 <- net0
I1111 07:12:32.461877  3899 net.cpp:411] stitch0 -> stitch0
I1111 07:12:32.470347  3899 net.cpp:150] Setting up stitch0
I1111 07:12:32.470397  3899 net.cpp:157] Top shape: 32 256 27 27 (5971968)
I1111 07:12:32.470412  3899 net.cpp:165] Memory required for data: 23887872
I1111 07:12:32.470477  3899 layer_factory.hpp:76] Creating layer loss
I1111 07:12:32.470520  3899 net.cpp:106] Creating Layer loss
I1111 07:12:32.470540  3899 net.cpp:454] loss <- stitch0
I1111 07:12:32.470566  3899 net.cpp:454] loss <- net1
I1111 07:12:32.470594  3899 net.cpp:411] loss -> loss
I1111 07:12:32.470691  3899 net.cpp:150] Setting up loss
I1111 07:12:32.470718  3899 net.cpp:157] Top shape: (1)
I1111 07:12:32.470729  3899 net.cpp:160]     with loss weight 1
I1111 07:12:32.470747  3899 net.cpp:165] Memory required for data: 23887876
I1111 07:12:32.470767  3899 net.cpp:226] loss needs backward computation.
I1111 07:12:32.470783  3899 net.cpp:226] stitch0 needs backward computation.
I1111 07:12:32.470798  3899 net.cpp:270] This network produces output loss
I1111 07:12:32.470824  3899 net.cpp:283] Network initialization done.
I1111 07:12:32.470880  3899 solver.cpp:59] Solver scaffolding done.
I1111 07:12:32.583312  3899 net.cpp:49] Initializing net from parameters: 
name: "CaffeNet"
input: "data"
input_dim: 1
input_dim: 3
input_dim: 227
input_dim: 227
force_backward: true
state {
  phase: TEST
}
layer {
  name: "conv1"
  type: "Convolution"
  bottom: "data"
  top: "conv1"
  convolution_param {
    num_output: 96
    kernel_size: 11
    stride: 4
  }
}
layer {
  name: "relu1"
  type: "ReLU"
  bottom: "conv1"
  top: "conv1"
}
layer {
  name: "pool1"
  type: "Pooling"
  bottom: "conv1"
  top: "pool1"
  pooling_param {
    pool: MAX
    kernel_size: 3
    stride: 2
  }
}
layer {
  name: "norm1"
  type: "LRN"
  bottom: "pool1"
  top: "norm1"
  lrn_param {
    local_size: 5
    alpha: 0.0001
    beta: 0.75
  }
}
layer {
  name: "conv2"
  type: "Convolution"
  bottom: "norm1"
  top: "conv2"
  convolution_param {
    num_output: 256
    pad: 2
    kernel_size: 5
  }
}
layer {
  name: "relu2"
  type: "ReLU"
  bottom: "conv2"
  top: "conv2"
}
layer {
  name: "pool2"
  type: "Pooling"
  bottom: "conv2"
  top: "pool2"
  pooling_param {
    pool: MAX
    kernel_size: 3
    stride: 2
  }
}
layer {
  name: "norm2"
  type: "LRN"
  bottom: "pool2"
  top: "norm2"
  lrn_param {
    local_size: 5
    alpha: 0.0001
    beta: 0.75
  }
}
layer {
  name: "conv3"
  type: "Convolution"
  bottom: "norm2"
  top: "conv3"
  convolution_param {
    num_output: 384
    pad: 1
    kernel_size: 3
  }
}
layer {
  name: "relu3"
  type: "ReLU"
  bottom: "conv3"
  top: "conv3"
}
layer {
  name: "conv4"
  type: "Convolution"
  bottom: "conv3"
  top: "conv4"
  convolution_param {
    num_output: 384
    pad: 1
    kernel_size: 3
  }
}
layer {
  name: "relu4"
  type: "ReLU"
  bottom: "conv4"
  top: "conv4"
}
layer {
  name: "conv5"
  type: "Convolution"
  bottom: "conv4"
  top: "conv5"
  convolution_param {
    num_output: 256
    pad: 1
    kernel_size: 3
  }
}
layer {
  name: "relu5"
  type: "ReLU"
  bottom: "conv5"
  top: "conv5"
}
layer {
  name: "pool5"
  type: "Pooling"
  bottom: "conv5"
  top: "pool5"
  pooling_param {
    pool: MAX
    kernel_size: 3
    stride: 2
  }
}
layer {
  name: "fc6"
  type: "InnerProduct"
  bottom: "pool5"
  top: "fc6"
  inner_product_param {
    num_output: 4096
  }
}
layer {
  name: "relu6"
  type: "ReLU"
  bottom: "fc6"
  top: "fc6"
}
layer {
  name: "drop6"
  type: "Dropout"
  bottom: "fc6"
  top: "fc6"
  dropout_param {
    dropout_ratio: 0.5
  }
}
layer {
  name: "fc7"
  type: "InnerProduct"
  bottom: "fc6"
  top: "fc7"
  inner_product_param {
    num_output: 4096
  }
}
layer {
  name: "relu7"
  type: "ReLU"
  bottom: "fc7"
  top: "fc7"
}
layer {
  name: "drop7"
  type: "Dropout"
  bottom: "fc7"
  top: "fc7"
  dropout_param {
    dropout_ratio: 0.5
  }
}
layer {
  name: "fc8"
  type: "InnerProduct"
  bottom: "fc7"
  top: "fc8"
  inner_product_param {
    num_output: 1000
  }
}
layer {
  name: "prob"
  type: "Softmax"
  bottom: "fc8"
  top: "prob"
}
I1111 07:12:32.583914  3899 net.cpp:413] Input 0 -> data
I1111 07:12:32.584274  3899 layer_factory.hpp:76] Creating layer conv1
I1111 07:12:32.584384  3899 net.cpp:106] Creating Layer conv1
I1111 07:12:32.584431  3899 net.cpp:454] conv1 <- data
I1111 07:12:32.584506  3899 net.cpp:411] conv1 -> conv1
I1111 07:12:32.587920  3899 net.cpp:150] Setting up conv1
I1111 07:12:32.588013  3899 net.cpp:157] Top shape: 1 96 55 55 (290400)
I1111 07:12:32.588042  3899 net.cpp:165] Memory required for data: 1161600
I1111 07:12:32.588173  3899 layer_factory.hpp:76] Creating layer relu1
I1111 07:12:32.588268  3899 net.cpp:106] Creating Layer relu1
I1111 07:12:32.588315  3899 net.cpp:454] relu1 <- conv1
I1111 07:12:32.588379  3899 net.cpp:397] relu1 -> conv1 (in-place)
I1111 07:12:32.588459  3899 net.cpp:150] Setting up relu1
I1111 07:12:32.588498  3899 net.cpp:157] Top shape: 1 96 55 55 (290400)
I1111 07:12:32.588523  3899 net.cpp:165] Memory required for data: 2323200
I1111 07:12:32.588553  3899 layer_factory.hpp:76] Creating layer pool1
I1111 07:12:32.588624  3899 net.cpp:106] Creating Layer pool1
I1111 07:12:32.588663  3899 net.cpp:454] pool1 <- conv1
I1111 07:12:32.588742  3899 net.cpp:411] pool1 -> pool1
I1111 07:12:32.588953  3899 net.cpp:150] Setting up pool1
I1111 07:12:32.589010  3899 net.cpp:157] Top shape: 1 96 27 27 (69984)
I1111 07:12:32.589037  3899 net.cpp:165] Memory required for data: 2603136
I1111 07:12:32.589069  3899 layer_factory.hpp:76] Creating layer norm1
I1111 07:12:32.589135  3899 net.cpp:106] Creating Layer norm1
I1111 07:12:32.589174  3899 net.cpp:454] norm1 <- pool1
I1111 07:12:32.589242  3899 net.cpp:411] norm1 -> norm1
I1111 07:12:32.589409  3899 net.cpp:150] Setting up norm1
I1111 07:12:32.589464  3899 net.cpp:157] Top shape: 1 96 27 27 (69984)
I1111 07:12:32.589490  3899 net.cpp:165] Memory required for data: 2883072
I1111 07:12:32.589520  3899 layer_factory.hpp:76] Creating layer conv2
I1111 07:12:32.589591  3899 net.cpp:106] Creating Layer conv2
I1111 07:12:32.589632  3899 net.cpp:454] conv2 <- norm1
I1111 07:12:32.589689  3899 net.cpp:411] conv2 -> conv2
I1111 07:12:32.593628  3899 net.cpp:150] Setting up conv2
I1111 07:12:32.593663  3899 net.cpp:157] Top shape: 1 256 27 27 (186624)
I1111 07:12:32.593677  3899 net.cpp:165] Memory required for data: 3629568
I1111 07:12:32.593724  3899 layer_factory.hpp:76] Creating layer relu2
I1111 07:12:32.593756  3899 net.cpp:106] Creating Layer relu2
I1111 07:12:32.593775  3899 net.cpp:454] relu2 <- conv2
I1111 07:12:32.593804  3899 net.cpp:397] relu2 -> conv2 (in-place)
I1111 07:12:32.593835  3899 net.cpp:150] Setting up relu2
I1111 07:12:32.593854  3899 net.cpp:157] Top shape: 1 256 27 27 (186624)
I1111 07:12:32.593865  3899 net.cpp:165] Memory required for data: 4376064
I1111 07:12:32.593878  3899 layer_factory.hpp:76] Creating layer pool2
I1111 07:12:32.593905  3899 net.cpp:106] Creating Layer pool2
I1111 07:12:32.593924  3899 net.cpp:454] pool2 <- conv2
I1111 07:12:32.593953  3899 net.cpp:411] pool2 -> pool2
I1111 07:12:32.594034  3899 net.cpp:150] Setting up pool2
I1111 07:12:32.594060  3899 net.cpp:157] Top shape: 1 256 13 13 (43264)
I1111 07:12:32.594072  3899 net.cpp:165] Memory required for data: 4549120
I1111 07:12:32.594087  3899 layer_factory.hpp:76] Creating layer norm2
I1111 07:12:32.594116  3899 net.cpp:106] Creating Layer norm2
I1111 07:12:32.594135  3899 net.cpp:454] norm2 <- pool2
I1111 07:12:32.594166  3899 net.cpp:411] norm2 -> norm2
I1111 07:12:32.594240  3899 net.cpp:150] Setting up norm2
I1111 07:12:32.594264  3899 net.cpp:157] Top shape: 1 256 13 13 (43264)
I1111 07:12:32.594276  3899 net.cpp:165] Memory required for data: 4722176
I1111 07:12:32.594290  3899 layer_factory.hpp:76] Creating layer conv3
I1111 07:12:32.594324  3899 net.cpp:106] Creating Layer conv3
I1111 07:12:32.594343  3899 net.cpp:454] conv3 <- norm2
I1111 07:12:32.594375  3899 net.cpp:411] conv3 -> conv3
I1111 07:12:32.599685  3899 net.cpp:150] Setting up conv3
I1111 07:12:32.599786  3899 net.cpp:157] Top shape: 1 384 13 13 (64896)
I1111 07:12:32.599800  3899 net.cpp:165] Memory required for data: 4981760
I1111 07:12:32.599879  3899 layer_factory.hpp:76] Creating layer relu3
I1111 07:12:32.599931  3899 net.cpp:106] Creating Layer relu3
I1111 07:12:32.599958  3899 net.cpp:454] relu3 <- conv3
I1111 07:12:32.599995  3899 net.cpp:397] relu3 -> conv3 (in-place)
I1111 07:12:32.600039  3899 net.cpp:150] Setting up relu3
I1111 07:12:32.600055  3899 net.cpp:157] Top shape: 1 384 13 13 (64896)
I1111 07:12:32.600066  3899 net.cpp:165] Memory required for data: 5241344
I1111 07:12:32.600080  3899 layer_factory.hpp:76] Creating layer conv4
I1111 07:12:32.600117  3899 net.cpp:106] Creating Layer conv4
I1111 07:12:32.600134  3899 net.cpp:454] conv4 <- conv3
I1111 07:12:32.600167  3899 net.cpp:411] conv4 -> conv4
I1111 07:12:32.607695  3899 net.cpp:150] Setting up conv4
I1111 07:12:32.607772  3899 net.cpp:157] Top shape: 1 384 13 13 (64896)
I1111 07:12:32.607785  3899 net.cpp:165] Memory required for data: 5500928
I1111 07:12:32.607830  3899 layer_factory.hpp:76] Creating layer relu4
I1111 07:12:32.607882  3899 net.cpp:106] Creating Layer relu4
I1111 07:12:32.607909  3899 net.cpp:454] relu4 <- conv4
I1111 07:12:32.607951  3899 net.cpp:397] relu4 -> conv4 (in-place)
I1111 07:12:32.607995  3899 net.cpp:150] Setting up relu4
I1111 07:12:32.608011  3899 net.cpp:157] Top shape: 1 384 13 13 (64896)
I1111 07:12:32.608022  3899 net.cpp:165] Memory required for data: 5760512
I1111 07:12:32.608036  3899 layer_factory.hpp:76] Creating layer conv5
I1111 07:12:32.608074  3899 net.cpp:106] Creating Layer conv5
I1111 07:12:32.608091  3899 net.cpp:454] conv5 <- conv4
I1111 07:12:32.608124  3899 net.cpp:411] conv5 -> conv5
I1111 07:12:32.613333  3899 net.cpp:150] Setting up conv5
I1111 07:12:32.613366  3899 net.cpp:157] Top shape: 1 256 13 13 (43264)
I1111 07:12:32.613379  3899 net.cpp:165] Memory required for data: 5933568
I1111 07:12:32.613435  3899 layer_factory.hpp:76] Creating layer relu5
I1111 07:12:32.613464  3899 net.cpp:106] Creating Layer relu5
I1111 07:12:32.613483  3899 net.cpp:454] relu5 <- conv5
I1111 07:12:32.613512  3899 net.cpp:397] relu5 -> conv5 (in-place)
I1111 07:12:32.613544  3899 net.cpp:150] Setting up relu5
I1111 07:12:32.613564  3899 net.cpp:157] Top shape: 1 256 13 13 (43264)
I1111 07:12:32.613574  3899 net.cpp:165] Memory required for data: 6106624
I1111 07:12:32.613587  3899 layer_factory.hpp:76] Creating layer pool5
I1111 07:12:32.613620  3899 net.cpp:106] Creating Layer pool5
I1111 07:12:32.613637  3899 net.cpp:454] pool5 <- conv5
I1111 07:12:32.613667  3899 net.cpp:411] pool5 -> pool5
I1111 07:12:32.613755  3899 net.cpp:150] Setting up pool5
I1111 07:12:32.613780  3899 net.cpp:157] Top shape: 1 256 6 6 (9216)
I1111 07:12:32.613791  3899 net.cpp:165] Memory required for data: 6143488
I1111 07:12:32.613806  3899 layer_factory.hpp:76] Creating layer fc6
I1111 07:12:32.613837  3899 net.cpp:106] Creating Layer fc6
I1111 07:12:32.613854  3899 net.cpp:454] fc6 <- pool5
I1111 07:12:32.613885  3899 net.cpp:411] fc6 -> fc6
I1111 07:12:32.830601  3899 net.cpp:150] Setting up fc6
I1111 07:12:32.830708  3899 net.cpp:157] Top shape: 1 4096 (4096)
I1111 07:12:32.830721  3899 net.cpp:165] Memory required for data: 6159872
I1111 07:12:32.830773  3899 layer_factory.hpp:76] Creating layer relu6
I1111 07:12:32.830855  3899 net.cpp:106] Creating Layer relu6
I1111 07:12:32.830885  3899 net.cpp:454] relu6 <- fc6
I1111 07:12:32.830934  3899 net.cpp:397] relu6 -> fc6 (in-place)
I1111 07:12:32.830977  3899 net.cpp:150] Setting up relu6
I1111 07:12:32.830996  3899 net.cpp:157] Top shape: 1 4096 (4096)
I1111 07:12:32.831006  3899 net.cpp:165] Memory required for data: 6176256
I1111 07:12:32.831019  3899 layer_factory.hpp:76] Creating layer drop6
I1111 07:12:32.831061  3899 net.cpp:106] Creating Layer drop6
I1111 07:12:32.831079  3899 net.cpp:454] drop6 <- fc6
I1111 07:12:32.831109  3899 net.cpp:397] drop6 -> fc6 (in-place)
I1111 07:12:32.831174  3899 net.cpp:150] Setting up drop6
I1111 07:12:32.831195  3899 net.cpp:157] Top shape: 1 4096 (4096)
I1111 07:12:32.831207  3899 net.cpp:165] Memory required for data: 6192640
I1111 07:12:32.831220  3899 layer_factory.hpp:76] Creating layer fc7
I1111 07:12:32.831254  3899 net.cpp:106] Creating Layer fc7
I1111 07:12:32.831270  3899 net.cpp:454] fc7 <- fc6
I1111 07:12:32.831302  3899 net.cpp:411] fc7 -> fc7
I1111 07:12:32.917371  3899 net.cpp:150] Setting up fc7
I1111 07:12:32.917480  3899 net.cpp:157] Top shape: 1 4096 (4096)
I1111 07:12:32.917493  3899 net.cpp:165] Memory required for data: 6209024
I1111 07:12:32.917544  3899 layer_factory.hpp:76] Creating layer relu7
I1111 07:12:32.917604  3899 net.cpp:106] Creating Layer relu7
I1111 07:12:32.917634  3899 net.cpp:454] relu7 <- fc7
I1111 07:12:32.917681  3899 net.cpp:397] relu7 -> fc7 (in-place)
I1111 07:12:32.917732  3899 net.cpp:150] Setting up relu7
I1111 07:12:32.917749  3899 net.cpp:157] Top shape: 1 4096 (4096)
I1111 07:12:32.917760  3899 net.cpp:165] Memory required for data: 6225408
I1111 07:12:32.917773  3899 layer_factory.hpp:76] Creating layer drop7
I1111 07:12:32.917805  3899 net.cpp:106] Creating Layer drop7
I1111 07:12:32.917822  3899 net.cpp:454] drop7 <- fc7
I1111 07:12:32.917850  3899 net.cpp:397] drop7 -> fc7 (in-place)
I1111 07:12:32.917912  3899 net.cpp:150] Setting up drop7
I1111 07:12:32.917933  3899 net.cpp:157] Top shape: 1 4096 (4096)
I1111 07:12:32.917944  3899 net.cpp:165] Memory required for data: 6241792
I1111 07:12:32.917958  3899 layer_factory.hpp:76] Creating layer fc8
I1111 07:12:32.917991  3899 net.cpp:106] Creating Layer fc8
I1111 07:12:32.918009  3899 net.cpp:454] fc8 <- fc7
I1111 07:12:32.918040  3899 net.cpp:411] fc8 -> fc8
I1111 07:12:32.939636  3899 net.cpp:150] Setting up fc8
I1111 07:12:32.939729  3899 net.cpp:157] Top shape: 1 1000 (1000)
I1111 07:12:32.939745  3899 net.cpp:165] Memory required for data: 6245792
I1111 07:12:32.939793  3899 layer_factory.hpp:76] Creating layer prob
I1111 07:12:32.939860  3899 net.cpp:106] Creating Layer prob
I1111 07:12:32.939890  3899 net.cpp:454] prob <- fc8
I1111 07:12:32.939937  3899 net.cpp:411] prob -> prob
I1111 07:12:32.940065  3899 net.cpp:150] Setting up prob
I1111 07:12:32.940090  3899 net.cpp:157] Top shape: 1 1000 (1000)
I1111 07:12:32.940101  3899 net.cpp:165] Memory required for data: 6249792
I1111 07:12:32.940119  3899 net.cpp:228] prob does not need backward computation.
I1111 07:12:32.940135  3899 net.cpp:228] fc8 does not need backward computation.
I1111 07:12:32.940148  3899 net.cpp:228] drop7 does not need backward computation.
I1111 07:12:32.940161  3899 net.cpp:228] relu7 does not need backward computation.
…
I1111 07:12:35.737994  3899 net.cpp:923] Copying source layer drop6
I1111 07:12:35.738004  3899 net.cpp:923] Copying source layer fc7
I1111 07:12:35.945353  3899 net.cpp:923] Copying source layer relu7
I1111 07:12:35.945408  3899 net.cpp:923] Copying source layer drop7
I1111 07:12:35.945418  3899 net.cpp:923] Copying source layer fc8
I1111 07:12:35.996191  3899 net.cpp:920] Ignoring source layer loss
I1111 07:12:36.003418  3899 net.cpp:49] Initializing net from parameters: 
name: "CaffeNet"
input: "data"
input_dim: 1
input_dim: 3
input_dim: 227
input_dim: 227
force_backward: true
state {
  phase: TEST
}
layer {
  name: "conv1"
  type: "Convolution"
  bottom: "data"
  top: "conv1"
  convolution_param {
    num_output: 96
    kernel_size: 11
    stride: 4
  }
}
layer {
  name: "relu1"
  type: "ReLU"
  bottom: "conv1"
  top: "conv1"
}
layer {
  name: "pool1"
  type: "Pooling"
  bottom: "conv1"
  top: "pool1"
  pooling_param {
    pool: MAX
    kernel_size: 3
    stride: 2
  }
}
layer {
  name: "norm1"
  type: "LRN"
  bottom: "pool1"
  top: "norm1"
  lrn_param {
    local_size: 5
    alpha: 0.0001
    beta: 0.75
  }
}
layer {
  name: "conv2"
  type: "Convolution"
  bottom: "norm1"
  top: "conv2"
  convolution_param {
    num_output: 256
    pad: 2
    kernel_size: 5
  }
}
layer {
  name: "relu2"
  type: "ReLU"
  bottom: "conv2"
  top: "conv2"
}
layer {
  name: "pool2"
  type: "Pooling"
  bottom: "conv2"
  top: "pool2"
  pooling_param {
    pool: MAX
    kernel_size: 3
    stride: 2
  }
}
layer {
  name: "norm2"
  type: "LRN"
  bottom: "pool2"
  top: "norm2"
  lrn_param {
    local_size: 5
    alpha: 0.0001
    beta: 0.75
  }
}
layer {
  name: "conv3"
  type: "Convolution"
  bottom: "norm2"
  top: "conv3"
  convolution_param {
    num_output: 384
    pad: 1
    kernel_size: 3
  }
}
layer {
  name: "relu3"
  type: "ReLU"
  bottom: "conv3"
  top: "conv3"
}
layer {
  name: "conv4"
  type: "Convolution"
  bottom: "conv3"
  top: "conv4"
  convolution_param {
    num_output: 384
    pad: 1
    kernel_size: 3
  }
}
layer {
  name: "relu4"
  type: "ReLU"
  bottom: "conv4"
  top: "conv4"
}
layer {
  name: "conv5"
  type: "Convolution"
  bottom: "conv4"
  top: "conv5"
  convolution_param {
    num_output: 256
    pad: 1
    kernel_size: 3
  }
}
layer {
  name: "relu5"
  type: "ReLU"
  bottom: "conv5"
  top: "conv5"
}
layer {
  name: "pool5"
  type: "Pooling"
  bottom: "conv5"
  top: "pool5"
  pooling_param {
    pool: MAX
    kernel_size: 3
    stride: 2
  }
}
layer {
  name: "fc6"
  type: "InnerProduct"
  bottom: "pool5"
  top: "fc6"
  inner_product_param {
    num_output: 4096
  }
}
layer {
  name: "relu6"
  type: "ReLU"
  bottom: "fc6"
  top: "fc6"
}
layer {
  name: "drop6"
  type: "Dropout"
  bottom: "fc6"
  top: "fc6"
  dropout_param {
    dropout_ratio: 0.5
  }
}
layer {
  name: "fc7"
  type: "InnerProduct"
  bottom: "fc6"
  top: "fc7"
  inner_product_param {
    num_output: 4096
  }
}
layer {
  name: "relu7"
  type: "ReLU"
  bottom: "fc7"
  top: "fc7"
}
layer {
  name: "drop7"
  type: "Dropout"
  bottom: "fc7"
  top: "fc7"
  dropout_param {
    dropout_ratio: 0.5
  }
}
layer {
  name: "fc8"
  type: "InnerProduct"
  bottom: "fc7"
  top: "fc8"
  inner_product_param {
    num_output: 1000
  }
}
layer {
  name: "prob"
  type: "Softmax"
  bottom: "fc8"
  top: "prob"
}
I1111 07:12:36.003698  3899 net.cpp:413] Input 0 -> data
I1111 07:12:36.003927  3899 layer_factory.hpp:76] Creating layer conv1
I1111 07:12:36.003981  3899 net.cpp:106] Creating Layer conv1
I1111 07:12:36.004010  3899 net.cpp:454] conv1 <- data
I1111 07:12:36.004043  3899 net.cpp:411] conv1 -> conv1
I1111 07:12:36.004452  3899 net.cpp:150] Setting up conv1
I1111 07:12:36.004489  3899 net.cpp:157] Top shape: 1 96 55 55 (290400)
I1111 07:12:36.004500  3899 net.cpp:165] Memory required for data: 1161600
I1111 07:12:36.004551  3899 layer_factory.hpp:76] Creating layer relu1
I1111 07:12:36.004585  3899 net.cpp:106] Creating Layer relu1
I1111 07:12:36.004601  3899 net.cpp:454] relu1 <- conv1
I1111 07:12:36.004627  3899 net.cpp:397] relu1 -> conv1 (in-place)
I1111 07:12:36.004654  3899 net.cpp:150] Setting up relu1
I1111 07:12:36.004669  3899 net.cpp:157] Top shape: 1 96 55 55 (290400)
I1111 07:12:36.004679  3899 net.cpp:165] Memory required for data: 2323200
I1111 07:12:36.004691  3899 layer_factory.hpp:76] Creating layer pool1
I1111 07:12:36.004719  3899 net.cpp:106] Creating Layer pool1
I1111 07:12:36.004739  3899 net.cpp:454] pool1 <- conv1
I1111 07:12:36.004768  3899 net.cpp:411] pool1 -> pool1
I1111 07:12:36.004847  3899 net.cpp:150] Setting up pool1
I1111 07:12:36.004870  3899 net.cpp:157] Top shape: 1 96 27 27 (69984)
I1111 07:12:36.004881  3899 net.cpp:165] Memory required for data: 2603136
I1111 07:12:36.004909  3899 layer_factory.hpp:76] Creating layer norm1
I1111 07:12:36.004936  3899 net.cpp:106] Creating Layer norm1
I1111 07:12:36.004951  3899 net.cpp:454] norm1 <- pool1
I1111 07:12:36.004979  3899 net.cpp:411] norm1 -> norm1
I1111 07:12:36.005048  3899 net.cpp:150] Setting up norm1
I1111 07:12:36.005071  3899 net.cpp:157] Top shape: 1 96 27 27 (69984)
I1111 07:12:36.005081  3899 net.cpp:165] Memory required for data: 2883072
I1111 07:12:36.005094  3899 layer_factory.hpp:76] Creating layer conv2
I1111 07:12:36.005121  3899 net.cpp:106] Creating Layer conv2
I1111 07:12:36.005139  3899 net.cpp:454] conv2 <- norm1
I1111 07:12:36.005167  3899 net.cpp:411] conv2 -> conv2
I1111 07:12:36.008513  3899 net.cpp:150] Setting up conv2
I1111 07:12:36.008540  3899 net.cpp:157] Top shape: 1 256 27 27 (186624)
I1111 07:12:36.008551  3899 net.cpp:165] Memory required for data: 3629568
I1111 07:12:36.008587  3899 layer_factory.hpp:76] Creating layer relu2
I1111 07:12:36.008612  3899 net.cpp:106] Creating Layer relu2
I1111 07:12:36.008627  3899 net.cpp:454] relu2 <- conv2
I1111 07:12:36.008652  3899 net.cpp:397] relu2 -> conv2 (in-place)
I1111 07:12:36.008679  3899 net.cpp:150] Setting up relu2
I1111 07:12:36.008694  3899 net.cpp:157] Top shape: 1 256 27 27 (186624)
I1111 07:12:36.008703  3899 net.cpp:165] Memory required for data: 4376064
I1111 07:12:36.008714  3899 layer_factory.hpp:76] Creating layer pool2
I1111 07:12:36.008740  3899 net.cpp:106] Creating Layer pool2
I1111 07:12:36.008757  3899 net.cpp:454] pool2 <- conv2
I1111 07:12:36.008785  3899 net.cpp:411] pool2 -> pool2
I1111 07:12:36.008855  3899 net.cpp:150] Setting up pool2
I1111 07:12:36.008877  3899 net.cpp:157] Top shape: 1 256 13 13 (43264)
I1111 07:12:36.008888  3899 net.cpp:165] Memory required for data: 4549120
I1111 07:12:36.008899  3899 layer_factory.hpp:76] Creating layer norm2
I1111 07:12:36.008924  3899 net.cpp:106] Creating Layer norm2
I1111 07:12:36.008939  3899 net.cpp:454] norm2 <- pool2
I1111 07:12:36.008967  3899 net.cpp:411] norm2 -> norm2
I1111 07:12:36.009032  3899 net.cpp:150] Setting up norm2
I1111 07:12:36.009052  3899 net.cpp:157] Top shape: 1 256 13 13 (43264)
I1111 07:12:36.009063  3899 net.cpp:165] Memory required for data: 4722176
I1111 07:12:36.009075  3899 layer_factory.hpp:76] Creating layer conv3
I1111 07:12:36.009104  3899 net.cpp:106] Creating Layer conv3
I1111 07:12:36.009120  3899 net.cpp:454] conv3 <- norm2
I1111 07:12:36.009150  3899 net.cpp:411] conv3 -> conv3
I1111 07:12:36.013999  3899 net.cpp:150] Setting up conv3
I1111 07:12:36.014030  3899 net.cpp:157] Top shape: 1 384 13 13 (64896)
I1111 07:12:36.014041  3899 net.cpp:165] Memory required for data: 4981760
I1111 07:12:36.014089  3899 layer_factory.hpp:76] Creating layer relu3
I1111 07:12:36.014122  3899 net.cpp:106] Creating Layer relu3
I1111 07:12:36.014140  3899 net.cpp:454] relu3 <- conv3
I1111 07:12:36.014169  3899 net.cpp:397] relu3 -> conv3 (in-place)
I1111 07:12:36.014200  3899 net.cpp:150] Setting up relu3
I1111 07:12:36.014216  3899 net.cpp:157] Top shape: 1 384 13 13 (64896)
I1111 07:12:36.014225  3899 net.cpp:165] Memory required for data: 5241344
I1111 07:12:36.014237  3899 layer_factory.hpp:76] Creating layer conv4
I1111 07:12:36.014266  3899 net.cpp:106] Creating Layer conv4
I1111 07:12:36.014281  3899 net.cpp:454] conv4 <- conv3
I1111 07:12:36.014310  3899 net.cpp:411] conv4 -> conv4
I1111 07:12:36.021023  3899 net.cpp:150] Setting up conv4
I1111 07:12:36.021087  3899 net.cpp:157] Top shape: 1 384 13 13 (64896)
I1111 07:12:36.021098  3899 net.cpp:165] Memory required for data: 5500928
I1111 07:12:36.021136  3899 layer_factory.hpp:76] Creating layer relu4
I1111 07:12:36.021178  3899 net.cpp:106] Creating Layer relu4
I1111 07:12:36.021200  3899 net.cpp:454] relu4 <- conv4
I1111 07:12:36.021236  3899 net.cpp:397] relu4 -> conv4 (in-place)
I1111 07:12:36.021272  3899 net.cpp:150] Setting up relu4
I1111 07:12:36.021287  3899 net.cpp:157] Top shape: 1 384 13 13 (64896)
I1111 07:12:36.021296  3899 net.cpp:165] Memory required for data: 5760512
I1111 07:12:36.021307  3899 layer_factory.hpp:76] Creating layer conv5
I1111 07:12:36.021338  3899 net.cpp:106] Creating Layer conv5
I1111 07:12:36.021353  3899 net.cpp:454] conv5 <- conv4
I1111 07:12:36.021381  3899 net.cpp:411] conv5 -> conv5
I1111 07:12:36.025912  3899 net.cpp:150] Setting up conv5
I1111 07:12:36.025995  3899 net.cpp:157] Top shape: 1 256 13 13 (43264)
I1111 07:12:36.026006  3899 net.cpp:165] Memory required for data: 5933568
I1111 07:12:36.026079  3899 layer_factory.hpp:76] Creating layer relu5
I1111 07:12:36.026129  3899 net.cpp:106] Creating Layer relu5
I1111 07:12:36.026150  3899 net.cpp:454] relu5 <- conv5
I1111 07:12:36.026185  3899 net.cpp:397] relu5 -> conv5 (in-place)
I1111 07:12:36.026221  3899 net.cpp:150] Setting up relu5
I1111 07:12:36.026237  3899 net.cpp:157] Top shape: 1 256 13 13 (43264)
I1111 07:12:36.026247  3899 net.cpp:165] Memory required for data: 6106624
I1111 07:12:36.026258  3899 layer_factory.hpp:76] Creating layer pool5
I1111 07:12:36.026291  3899 net.cpp:106] Creating Layer pool5
I1111 07:12:36.026306  3899 net.cpp:454] pool5 <- conv5
I1111 07:12:36.026335  3899 net.cpp:411] pool5 -> pool5
I1111 07:12:36.026417  3899 net.cpp:150] Setting up pool5
I1111 07:12:36.026440  3899 net.cpp:157] Top shape: 1 256 6 6 (9216)
I1111 07:12:36.026450  3899 net.cpp:165] Memory required for data: 6143488
I1111 07:12:36.026463  3899 layer_factory.hpp:76] Creating layer fc6
I1111 07:12:36.026491  3899 net.cpp:106] Creating Layer fc6
I1111 07:12:36.026507  3899 net.cpp:454] fc6 <- pool5
I1111 07:12:36.026535  3899 net.cpp:411] fc6 -> fc6
I1111 07:12:36.199832  3899 net.cpp:150] Setting up fc6
I1111 07:12:36.199940  3899 net.cpp:157] Top shape: 1 4096 (4096)
I1111 07:12:36.199951  3899 net.cpp:165] Memory required for data: 6159872
I1111 07:12:36.199998  3899 layer_factory.hpp:76] Creating layer relu6
I1111 07:12:36.200073  3899 net.cpp:106] Creating Layer relu6
I1111 07:12:36.200100  3899 net.cpp:454] relu6 <- fc6
I1111 07:12:36.200145  3899 net.cpp:397] relu6 -> fc6 (in-place)
I1111 07:12:36.200184  3899 net.cpp:150] Setting up relu6
I1111 07:12:36.200199  3899 net.cpp:157] Top shape: 1 4096 (4096)
I1111 07:12:36.200208  3899 net.cpp:165] Memory required for data: 6176256
I1111 07:12:36.200220  3899 layer_factory.hpp:76] Creating layer drop6
I1111 07:12:36.200249  3899 net.cpp:106] Creating Layer drop6
I1111 07:12:36.200263  3899 net.cpp:454] drop6 <- fc6
I1111 07:12:36.200289  3899 net.cpp:397] drop6 -> fc6 (in-place)
I1111 07:12:36.200343  3899 net.cpp:150] Setting up drop6
I1111 07:12:36.200362  3899 net.cpp:157] Top shape: 1 4096 (4096)
I1111 07:12:36.200371  3899 net.cpp:165] Memory required for data: 6192640
I1111 07:12:36.200383  3899 layer_factory.hpp:76] Creating layer fc7
I1111 07:12:36.200413  3899 net.cpp:106] Creating Layer fc7
I1111 07:12:36.200428  3899 net.cpp:454] fc7 <- fc6
I1111 07:12:36.200456  3899 net.cpp:411] fc7 -> fc7
I1111 07:12:36.277501  3899 net.cpp:150] Setting up fc7
I1111 07:12:36.277616  3899 net.cpp:157] Top shape: 1 4096 (4096)
I1111 07:12:36.277627  3899 net.cpp:165] Memory required for data: 6209024
I1111 07:12:36.277675  3899 layer_factory.hpp:76] Creating layer relu7
I1111 07:12:36.277741  3899 net.cpp:106] Creating Layer relu7
I1111 07:12:36.277770  3899 net.cpp:454] relu7 <- fc7
I1111 07:12:36.277817  3899 net.cpp:397] relu7 -> fc7 (in-place)
I1111 07:12:36.277859  3899 net.cpp:150] Setting up relu7
I1111 07:12:36.277874  3899 net.cpp:157] Top shape: 1 4096 (4096)
I1111 07:12:36.277884  3899 net.cpp:165] Memory required for data: 6225408
I1111 07:12:36.277895  3899 layer_factory.hpp:76] Creating layer drop7
I1111 07:12:36.277925  3899 net.cpp:106] Creating Layer drop7
I1111 07:12:36.277940  3899 net.cpp:454] drop7 <- fc7
I1111 07:12:36.277963  3899 net.cpp:397] drop7 -> fc7 (in-place)
I1111 07:12:36.278019  3899 net.cpp:150] Setting up drop7
I1111 07:12:36.278038  3899 net.cpp:157] Top shape: 1 4096 (4096)
I1111 07:12:36.278048  3899 net.cpp:165] Memory required for data: 6241792
I1111 07:12:36.278060  3899 layer_factory.hpp:76] Creating layer fc8
I1111 07:12:36.278090  3899 net.cpp:106] Creating Layer fc8
I1111 07:12:36.278105  3899 net.cpp:454] fc8 <- fc7
I1111 07:12:36.278134  3899 net.cpp:411] fc8 -> fc8
I1111 07:12:36.297814  3899 net.cpp:150] Setting up fc8
I1111 07:12:36.297919  3899 net.cpp:157] Top shape: 1 1000 (1000)
I1111 07:12:36.297930  3899 net.cpp:165] Memory required for data: 6245792
I1111 07:12:36.297977  3899 layer_factory.hpp:76] Creating layer prob
I1111 07:12:36.298035  3899 net.cpp:106] Creating Layer prob
I1111 07:12:36.298063  3899 net.cpp:454] prob <- fc8
I1111 07:12:36.298110  3899 net.cpp:411] prob -> prob
I1111 07:12:36.298228  3899 net.cpp:150] Setting up prob
I1111 07:12:36.298249  3899 net.cpp:157] Top shape: 1 1000 (1000)
I1111 07:12:36.298259  3899 net.cpp:165] Memory required for data: 6249792
I1111 07:12:36.298275  3899 net.cpp:228] prob does not need backward computation.
I1111 07:12:36.298288  3899 net.cpp:228] fc8 does not need backward computation.
I1111 07:12:36.298300  3899 net.cpp:228] drop7 does not need backward computation.
I1111 07:12:36.298311  3899 net.cpp:228] relu7 does not need backward computation.
…
