…
gamma: 0.5
momentum: 0.98
weight_decay: 0.0015849
stepsize: 1500
snapshot: 1000
snapshot_prefix: "stitch"
solver_mode: GPU
random_seed: 0
net: "network.prototxt"
regularization_type: "L1"
I1111 06:56:21.697110  2467 solver.cpp:90] Creating training net from net file: network.prototxt
I1111 06:56:21.711066  2467 net.cpp:49] Initializing net from parameters: 
name: "StitchNet"
input: "net0"
input: "net1"
input_dim: 32
input_dim: 96
input_dim: 55
input_dim: 55
input_dim: 32
input_dim: 96
input_dim: 55
input_dim: 55
state {
  phase: TRAIN
}
debug_info: true
layer {
  name: "stitch0"
  type: "Convolution"
  bottom: "net0"
  top: "stitch0"
  convolution_param {
    num_output: 96
    kernel_size: 1
    stride: 1
    weight_filler {
      type: "gaussian"
      std: 0.01
    }
  }
}
layer {
  name: "loss"
  type: "EuclideanLoss"
  bottom: "stitch0"
  bottom: "net1"
  top: "loss"
  loss_weight: 1
}
I1111 06:56:21.711308  2467 net.cpp:413] Input 0 -> net0
I1111 06:56:21.743100  2467 net.cpp:413] Input 1 -> net1
I1111 06:56:21.743232  2467 layer_factory.hpp:76] Creating layer stitch0
I1111 06:56:21.743294  2467 net.cpp:106] Creating Layer stitch0
I1111 06:56:21.743312  2467 net.cpp:454] stitch0 <- net0
I1111 06:56:21.743345  2467 net.cpp:411] stitch0 -> stitch0
I1111 06:56:21.745579  2467 net.cpp:150] Setting up stitch0
I1111 06:56:21.745621  2467 net.cpp:157] Top shape: 32 96 55 55 (9292800)
I1111 06:56:21.745638  2467 net.cpp:165] Memory required for data: 37171200
I1111 06:56:21.745697  2467 layer_factory.hpp:76] Creating layer loss
I1111 06:56:21.745728  2467 net.cpp:106] Creating Layer loss
I1111 06:56:21.745745  2467 net.cpp:454] loss <- stitch0
I1111 06:56:21.745766  2467 net.cpp:454] loss <- net1
I1111 06:56:21.745790  2467 net.cpp:411] loss -> loss
I1111 06:56:21.745857  2467 net.cpp:150] Setting up loss
I1111 06:56:21.745879  2467 net.cpp:157] Top shape: (1)
I1111 06:56:21.745889  2467 net.cpp:160]     with loss weight 1
I1111 06:56:21.745906  2467 net.cpp:165] Memory required for data: 37171204
I1111 06:56:21.745923  2467 net.cpp:226] loss needs backward computation.
I1111 06:56:21.745936  2467 net.cpp:226] stitch0 needs backward computation.
I1111 06:56:21.745949  2467 net.cpp:270] This network produces output loss
I1111 06:56:21.745971  2467 net.cpp:283] Network initialization done.
I1111 06:56:21.746016  2467 solver.cpp:59] Solver scaffolding done.
I1111 06:56:21.746718  2467 net.cpp:49] Initializing net from parameters: 
name: "CaffeNet"
input: "data"
input_dim: 1
input_dim: 3
input_dim: 227
input_dim: 227
force_backward: true
state {
  phase: TEST
}
layer {
  name: "conv1"
  type: "Convolution"
  bottom: "data"
  top: "conv1"
  convolution_param {
    num_output: 96
    kernel_size: 11
    stride: 4
  }
}
layer {
  name: "relu1"
  type: "ReLU"
  bottom: "conv1"
  top: "conv1"
}
layer {
  name: "pool1"
  type: "Pooling"
  bottom: "conv1"
  top: "pool1"
  pooling_param {
    pool: MAX
    kernel_size: 3
    stride: 2
  }
}
layer {
  name: "norm1"
  type: "LRN"
  bottom: "pool1"
  top: "norm1"
  lrn_param {
    local_size: 5
    alpha: 0.0001
    beta: 0.75
  }
}
layer {
  name: "conv2"
  type: "Convolution"
  bottom: "norm1"
  top: "conv2"
  convolution_param {
    num_output: 256
    pad: 2
    kernel_size: 5
  }
}
layer {
  name: "relu2"
  type: "ReLU"
  bottom: "conv2"
  top: "conv2"
}
layer {
  name: "pool2"
  type: "Pooling"
  bottom: "conv2"
  top: "pool2"
  pooling_param {
    pool: MAX
    kernel_size: 3
    stride: 2
  }
}
layer {
  name: "norm2"
  type: "LRN"
  bottom: "pool2"
  top: "norm2"
  lrn_param {
    local_size: 5
    alpha: 0.0001
    beta: 0.75
  }
}
layer {
  name: "conv3"
  type: "Convolution"
  bottom: "norm2"
  top: "conv3"
  convolution_param {
    num_output: 384
    pad: 1
    kernel_size: 3
  }
}
layer {
  name: "relu3"
  type: "ReLU"
  bottom: "conv3"
  top: "conv3"
}
layer {
  name: "conv4"
  type: "Convolution"
  bottom: "conv3"
  top: "conv4"
  convolution_param {
    num_output: 384
    pad: 1
    kernel_size: 3
  }
}
layer {
  name: "relu4"
  type: "ReLU"
  bottom: "conv4"
  top: "conv4"
}
layer {
  name: "conv5"
  type: "Convolution"
  bottom: "conv4"
  top: "conv5"
  convolution_param {
    num_output: 256
    pad: 1
    kernel_size: 3
  }
}
layer {
  name: "relu5"
  type: "ReLU"
  bottom: "conv5"
  top: "conv5"
}
layer {
  name: "pool5"
  type: "Pooling"
  bottom: "conv5"
  top: "pool5"
  pooling_param {
    pool: MAX
    kernel_size: 3
    stride: 2
  }
}
layer {
  name: "fc6"
  type: "InnerProduct"
  bottom: "pool5"
  top: "fc6"
  inner_product_param {
    num_output: 4096
  }
}
layer {
  name: "relu6"
  type: "ReLU"
  bottom: "fc6"
  top: "fc6"
}
layer {
  name: "drop6"
  type: "Dropout"
  bottom: "fc6"
  top: "fc6"
  dropout_param {
    dropout_ratio: 0.5
  }
}
layer {
  name: "fc7"
  type: "InnerProduct"
  bottom: "fc6"
  top: "fc7"
  inner_product_param {
    num_output: 4096
  }
}
layer {
  name: "relu7"
  type: "ReLU"
  bottom: "fc7"
  top: "fc7"
}
layer {
  name: "drop7"
  type: "Dropout"
  bottom: "fc7"
  top: "fc7"
  dropout_param {
    dropout_ratio: 0.5
  }
}
layer {
  name: "fc8"
  type: "InnerProduct"
  bottom: "fc7"
  top: "fc8"
  inner_product_param {
    num_output: 1000
  }
}
layer {
  name: "prob"
  type: "Softmax"
  bottom: "fc8"
  top: "prob"
}
I1111 06:56:21.746912  2467 net.cpp:413] Input 0 -> data
I1111 06:56:21.747000  2467 layer_factory.hpp:76] Creating layer conv1
I1111 06:56:21.747035  2467 net.cpp:106] Creating Layer conv1
I1111 06:56:21.747051  2467 net.cpp:454] conv1 <- data
I1111 06:56:21.747078  2467 net.cpp:411] conv1 -> conv1
I1111 06:56:21.747954  2467 net.cpp:150] Setting up conv1
I1111 06:56:21.747982  2467 net.cpp:157] Top shape: 1 96 55 55 (290400)
I1111 06:56:21.747992  2467 net.cpp:165] Memory required for data: 1161600
I1111 06:56:21.748034  2467 layer_factory.hpp:76] Creating layer relu1
I1111 06:56:21.748071  2467 net.cpp:106] Creating Layer relu1
I1111 06:56:21.748090  2467 net.cpp:454] relu1 <- conv1
I1111 06:56:21.748116  2467 net.cpp:397] relu1 -> conv1 (in-place)
I1111 06:56:21.748144  2467 net.cpp:150] Setting up relu1
I1111 06:56:21.748159  2467 net.cpp:157] Top shape: 1 96 55 55 (290400)
I1111 06:56:21.748168  2467 net.cpp:165] Memory required for data: 2323200
I1111 06:56:21.748180  2467 layer_factory.hpp:76] Creating layer pool1
I1111 06:56:21.748206  2467 net.cpp:106] Creating Layer pool1
I1111 06:56:21.748221  2467 net.cpp:454] pool1 <- conv1
I1111 06:56:21.748248  2467 net.cpp:411] pool1 -> pool1
I1111 06:56:21.748325  2467 net.cpp:150] Setting up pool1
I1111 06:56:21.748348  2467 net.cpp:157] Top shape: 1 96 27 27 (69984)
I1111 06:56:21.748358  2467 net.cpp:165] Memory required for data: 2603136
I1111 06:56:21.748370  2467 layer_factory.hpp:76] Creating layer norm1
I1111 06:56:21.748395  2467 net.cpp:106] Creating Layer norm1
I1111 06:56:21.748411  2467 net.cpp:454] norm1 <- pool1
I1111 06:56:21.748437  2467 net.cpp:411] norm1 -> norm1
I1111 06:56:21.748502  2467 net.cpp:150] Setting up norm1
I1111 06:56:21.748524  2467 net.cpp:157] Top shape: 1 96 27 27 (69984)
I1111 06:56:21.748534  2467 net.cpp:165] Memory required for data: 2883072
I1111 06:56:21.748546  2467 layer_factory.hpp:76] Creating layer conv2
I1111 06:56:21.748572  2467 net.cpp:106] Creating Layer conv2
I1111 06:56:21.748589  2467 net.cpp:454] conv2 <- norm1
I1111 06:56:21.748615  2467 net.cpp:411] conv2 -> conv2
I1111 06:56:21.752270  2467 net.cpp:150] Setting up conv2
I1111 06:56:21.752297  2467 net.cpp:157] Top shape: 1 256 27 27 (186624)
I1111 06:56:21.752308  2467 net.cpp:165] Memory required for data: 3629568
I1111 06:56:21.752343  2467 layer_factory.hpp:76] Creating layer relu2
I1111 06:56:21.752367  2467 net.cpp:106] Creating Layer relu2
I1111 06:56:21.752383  2467 net.cpp:454] relu2 <- conv2
I1111 06:56:21.752406  2467 net.cpp:397] relu2 -> conv2 (in-place)
I1111 06:56:21.752434  2467 net.cpp:150] Setting up relu2
I1111 06:56:21.752449  2467 net.cpp:157] Top shape: 1 256 27 27 (186624)
I1111 06:56:21.752456  2467 net.cpp:165] Memory required for data: 4376064
I1111 06:56:21.752468  2467 layer_factory.hpp:76] Creating layer pool2
I1111 06:56:21.752491  2467 net.cpp:106] Creating Layer pool2
I1111 06:56:21.752507  2467 net.cpp:454] pool2 <- conv2
I1111 06:56:21.752533  2467 net.cpp:411] pool2 -> pool2
I1111 06:56:21.752606  2467 net.cpp:150] Setting up pool2
I1111 06:56:21.752627  2467 net.cpp:157] Top shape: 1 256 13 13 (43264)
I1111 06:56:21.752642  2467 net.cpp:165] Memory required for data: 4549120
I1111 06:56:21.752655  2467 layer_factory.hpp:76] Creating layer norm2
I1111 06:56:21.752681  2467 net.cpp:106] Creating Layer norm2
I1111 06:56:21.752696  2467 net.cpp:454] norm2 <- pool2
I1111 06:56:21.752722  2467 net.cpp:411] norm2 -> norm2
I1111 06:56:21.752789  2467 net.cpp:150] Setting up norm2
I1111 06:56:21.752810  2467 net.cpp:157] Top shape: 1 256 13 13 (43264)
I1111 06:56:21.752820  2467 net.cpp:165] Memory required for data: 4722176
I1111 06:56:21.752831  2467 layer_factory.hpp:76] Creating layer conv3
I1111 06:56:21.752861  2467 net.cpp:106] Creating Layer conv3
I1111 06:56:21.752878  2467 net.cpp:454] conv3 <- norm2
I1111 06:56:21.752905  2467 net.cpp:411] conv3 -> conv3
I1111 06:56:21.757035  2467 net.cpp:150] Setting up conv3
I1111 06:56:21.757062  2467 net.cpp:157] Top shape: 1 384 13 13 (64896)
I1111 06:56:21.757073  2467 net.cpp:165] Memory required for data: 4981760
I1111 06:56:21.757112  2467 layer_factory.hpp:76] Creating layer relu3
I1111 06:56:21.757136  2467 net.cpp:106] Creating Layer relu3
I1111 06:56:21.757153  2467 net.cpp:454] relu3 <- conv3
I1111 06:56:21.757176  2467 net.cpp:397] relu3 -> conv3 (in-place)
I1111 06:56:21.757203  2467 net.cpp:150] Setting up relu3
I1111 06:56:21.757217  2467 net.cpp:157] Top shape: 1 384 13 13 (64896)
I1111 06:56:21.757226  2467 net.cpp:165] Memory required for data: 5241344
I1111 06:56:21.757237  2467 layer_factory.hpp:76] Creating layer conv4
I1111 06:56:21.757264  2467 net.cpp:106] Creating Layer conv4
I1111 06:56:21.757279  2467 net.cpp:454] conv4 <- conv3
I1111 06:56:21.757305  2467 net.cpp:411] conv4 -> conv4
I1111 06:56:21.763348  2467 net.cpp:150] Setting up conv4
I1111 06:56:21.763378  2467 net.cpp:157] Top shape: 1 384 13 13 (64896)
I1111 06:56:21.763388  2467 net.cpp:165] Memory required for data: 5500928
I1111 06:56:21.763413  2467 layer_factory.hpp:76] Creating layer relu4
I1111 06:56:21.763438  2467 net.cpp:106] Creating Layer relu4
I1111 06:56:21.763454  2467 net.cpp:454] relu4 <- conv4
I1111 06:56:21.763479  2467 net.cpp:397] relu4 -> conv4 (in-place)
I1111 06:56:21.763506  2467 net.cpp:150] Setting up relu4
I1111 06:56:21.763521  2467 net.cpp:157] Top shape: 1 384 13 13 (64896)
I1111 06:56:21.763530  2467 net.cpp:165] Memory required for data: 5760512
I1111 06:56:21.763541  2467 layer_factory.hpp:76] Creating layer conv5
I1111 06:56:21.763564  2467 net.cpp:106] Creating Layer conv5
I1111 06:56:21.763578  2467 net.cpp:454] conv5 <- conv4
I1111 06:56:21.763607  2467 net.cpp:411] conv5 -> conv5
I1111 06:56:21.767704  2467 net.cpp:150] Setting up conv5
I1111 06:56:21.767727  2467 net.cpp:157] Top shape: 1 256 13 13 (43264)
I1111 06:56:21.767737  2467 net.cpp:165] Memory required for data: 5933568
I1111 06:56:21.767773  2467 layer_factory.hpp:76] Creating layer relu5
I1111 06:56:21.767797  2467 net.cpp:106] Creating Layer relu5
I1111 06:56:21.767812  2467 net.cpp:454] relu5 <- conv5
I1111 06:56:21.767835  2467 net.cpp:397] relu5 -> conv5 (in-place)
I1111 06:56:21.767861  2467 net.cpp:150] Setting up relu5
I1111 06:56:21.767876  2467 net.cpp:157] Top shape: 1 256 13 13 (43264)
I1111 06:56:21.767884  2467 net.cpp:165] Memory required for data: 6106624
I1111 06:56:21.767896  2467 layer_factory.hpp:76] Creating layer pool5
I1111 06:56:21.767920  2467 net.cpp:106] Creating Layer pool5
I1111 06:56:21.767935  2467 net.cpp:454] pool5 <- conv5
I1111 06:56:21.767962  2467 net.cpp:411] pool5 -> pool5
I1111 06:56:21.768033  2467 net.cpp:150] Setting up pool5
I1111 06:56:21.768054  2467 net.cpp:157] Top shape: 1 256 6 6 (9216)
I1111 06:56:21.768064  2467 net.cpp:165] Memory required for data: 6143488
I1111 06:56:21.768076  2467 layer_factory.hpp:76] Creating layer fc6
I1111 06:56:21.768103  2467 net.cpp:106] Creating Layer fc6
I1111 06:56:21.768120  2467 net.cpp:454] fc6 <- pool5
I1111 06:56:21.768146  2467 net.cpp:411] fc6 -> fc6
I1111 06:56:21.932656  2467 net.cpp:150] Setting up fc6
I1111 06:56:21.932732  2467 net.cpp:157] Top shape: 1 4096 (4096)
I1111 06:56:21.932744  2467 net.cpp:165] Memory required for data: 6159872
I1111 06:56:21.932782  2467 layer_factory.hpp:76] Creating layer relu6
I1111 06:56:21.932842  2467 net.cpp:106] Creating Layer relu6
I1111 06:56:21.932867  2467 net.cpp:454] relu6 <- fc6
I1111 06:56:21.932904  2467 net.cpp:397] relu6 -> fc6 (in-place)
I1111 06:56:21.932940  2467 net.cpp:150] Setting up relu6
I1111 06:56:21.932955  2467 net.cpp:157] Top shape: 1 4096 (4096)
I1111 06:56:21.932963  2467 net.cpp:165] Memory required for data: 6176256
I1111 06:56:21.932974  2467 layer_factory.hpp:76] Creating layer drop6
I1111 06:56:21.933010  2467 net.cpp:106] Creating Layer drop6
I1111 06:56:21.933027  2467 net.cpp:454] drop6 <- fc6
I1111 06:56:21.933050  2467 net.cpp:397] drop6 -> fc6 (in-place)
I1111 06:56:21.933109  2467 net.cpp:150] Setting up drop6
I1111 06:56:21.933127  2467 net.cpp:157] Top shape: 1 4096 (4096)
I1111 06:56:21.933136  2467 net.cpp:165] Memory required for data: 6192640
I1111 06:56:21.933148  2467 layer_factory.hpp:76] Creating layer fc7
I1111 06:56:21.933174  2467 net.cpp:106] Creating Layer fc7
I1111 06:56:21.933188  2467 net.cpp:454] fc7 <- fc6
I1111 06:56:21.933218  2467 net.cpp:411] fc7 -> fc7
I1111 06:56:22.006526  2467 net.cpp:150] Setting up fc7
I1111 06:56:22.006623  2467 net.cpp:157] Top shape: 1 4096 (4096)
I1111 06:56:22.006639  2467 net.cpp:165] Memory required for data: 6209024
I1111 06:56:22.006680  2467 layer_factory.hpp:76] Creating layer relu7
I1111 06:56:22.006727  2467 net.cpp:106] Creating Layer relu7
I1111 06:56:22.006752  2467 net.cpp:454] relu7 <- fc7
I1111 06:56:22.006793  2467 net.cpp:397] relu7 -> fc7 (in-place)
I1111 06:56:22.006831  2467 net.cpp:150] Setting up relu7
I1111 06:56:22.006846  2467 net.cpp:157] Top shape: 1 4096 (4096)
I1111 06:56:22.006855  2467 net.cpp:165] Memory required for data: 6225408
I1111 06:56:22.006866  2467 layer_factory.hpp:76] Creating layer drop7
I1111 06:56:22.006892  2467 net.cpp:106] Creating Layer drop7
I1111 06:56:22.006906  2467 net.cpp:454] drop7 <- fc7
I1111 06:56:22.006930  2467 net.cpp:397] drop7 -> fc7 (in-place)
I1111 06:56:22.006984  2467 net.cpp:150] Setting up drop7
I1111 06:56:22.007004  2467 net.cpp:157] Top shape: 1 4096 (4096)
I1111 06:56:22.007012  2467 net.cpp:165] Memory required for data: 6241792
I1111 06:56:22.007025  2467 layer_factory.hpp:76] Creating layer fc8
I1111 06:56:22.007051  2467 net.cpp:106] Creating Layer fc8
I1111 06:56:22.007066  2467 net.cpp:454] fc8 <- fc7
I1111 06:56:22.007096  2467 net.cpp:411] fc8 -> fc8
I1111 06:56:22.024647  2467 net.cpp:150] Setting up fc8
I1111 06:56:22.024688  2467 net.cpp:157] Top shape: 1 1000 (1000)
I1111 06:56:22.024698  2467 net.cpp:165] Memory required for data: 6245792
I1111 06:56:22.024724  2467 layer_factory.hpp:76] Creating layer prob
I1111 06:56:22.024761  2467 net.cpp:106] Creating Layer prob
I1111 06:56:22.024778  2467 net.cpp:454] prob <- fc8
I1111 06:56:22.024808  2467 net.cpp:411] prob -> prob
I1111 06:56:22.024909  2467 net.cpp:150] Setting up prob
I1111 06:56:22.024930  2467 net.cpp:157] Top shape: 1 1000 (1000)
I1111 06:56:22.024940  2467 net.cpp:165] Memory required for data: 6249792
I1111 06:56:22.024955  2467 net.cpp:228] prob does not need backward computation.
I1111 06:56:22.024968  2467 net.cpp:228] fc8 does not need backward computation.
I1111 06:56:22.024979  2467 net.cpp:228] drop7 does not need backward computation.
I1111 06:56:22.024989  2467 net.cpp:228] relu7 does not need backward computation.
…
I1111 06:56:24.462200  2467 net.cpp:923] Copying source layer drop6
I1111 06:56:24.462210  2467 net.cpp:923] Copying source layer fc7
I1111 06:56:24.668985  2467 net.cpp:923] Copying source layer relu7
I1111 06:56:24.669041  2467 net.cpp:923] Copying source layer drop7
I1111 06:56:24.669051  2467 net.cpp:923] Copying source layer fc8
I1111 06:56:24.719501  2467 net.cpp:920] Ignoring source layer loss
I1111 06:56:24.721782  2467 net.cpp:49] Initializing net from parameters: 
name: "CaffeNet"
input: "data"
input_dim: 1
input_dim: 3
input_dim: 227
input_dim: 227
force_backward: true
state {
  phase: TEST
}
layer {
  name: "conv1"
  type: "Convolution"
  bottom: "data"
  top: "conv1"
  convolution_param {
    num_output: 96
    kernel_size: 11
    stride: 4
  }
}
layer {
  name: "relu1"
  type: "ReLU"
  bottom: "conv1"
  top: "conv1"
}
layer {
  name: "pool1"
  type: "Pooling"
  bottom: "conv1"
  top: "pool1"
  pooling_param {
    pool: MAX
    kernel_size: 3
    stride: 2
  }
}
layer {
  name: "norm1"
  type: "LRN"
  bottom: "pool1"
  top: "norm1"
  lrn_param {
    local_size: 5
    alpha: 0.0001
    beta: 0.75
  }
}
layer {
  name: "conv2"
  type: "Convolution"
  bottom: "norm1"
  top: "conv2"
  convolution_param {
    num_output: 256
    pad: 2
    kernel_size: 5
  }
}
layer {
  name: "relu2"
  type: "ReLU"
  bottom: "conv2"
  top: "conv2"
}
layer {
  name: "pool2"
  type: "Pooling"
  bottom: "conv2"
  top: "pool2"
  pooling_param {
    pool: MAX
    kernel_size: 3
    stride: 2
  }
}
layer {
  name: "norm2"
  type: "LRN"
  bottom: "pool2"
  top: "norm2"
  lrn_param {
    local_size: 5
    alpha: 0.0001
    beta: 0.75
  }
}
layer {
  name: "conv3"
  type: "Convolution"
  bottom: "norm2"
  top: "conv3"
  convolution_param {
    num_output: 384
    pad: 1
    kernel_size: 3
  }
}
layer {
  name: "relu3"
  type: "ReLU"
  bottom: "conv3"
  top: "conv3"
}
layer {
  name: "conv4"
  type: "Convolution"
  bottom: "conv3"
  top: "conv4"
  convolution_param {
    num_output: 384
    pad: 1
    kernel_size: 3
  }
}
layer {
  name: "relu4"
  type: "ReLU"
  bottom: "conv4"
  top: "conv4"
}
layer {
  name: "conv5"
  type: "Convolution"
  bottom: "conv4"
  top: "conv5"
  convolution_param {
    num_output: 256
    pad: 1
    kernel_size: 3
  }
}
layer {
  name: "relu5"
  type: "ReLU"
  bottom: "conv5"
  top: "conv5"
}
layer {
  name: "pool5"
  type: "Pooling"
  bottom: "conv5"
  top: "pool5"
  pooling_param {
    pool: MAX
    kernel_size: 3
    stride: 2
  }
}
layer {
  name: "fc6"
  type: "InnerProduct"
  bottom: "pool5"
  top: "fc6"
  inner_product_param {
    num_output: 4096
  }
}
layer {
  name: "relu6"
  type: "ReLU"
  bottom: "fc6"
  top: "fc6"
}
layer {
  name: "drop6"
  type: "Dropout"
  bottom: "fc6"
  top: "fc6"
  dropout_param {
    dropout_ratio: 0.5
  }
}
layer {
  name: "fc7"
  type: "InnerProduct"
  bottom: "fc6"
  top: "fc7"
  inner_product_param {
    num_output: 4096
  }
}
layer {
  name: "relu7"
  type: "ReLU"
  bottom: "fc7"
  top: "fc7"
}
layer {
  name: "drop7"
  type: "Dropout"
  bottom: "fc7"
  top: "fc7"
  dropout_param {
    dropout_ratio: 0.5
  }
}
layer {
  name: "fc8"
  type: "InnerProduct"
  bottom: "fc7"
  top: "fc8"
  inner_product_param {
    num_output: 1000
  }
}
layer {
  name: "prob"
  type: "Softmax"
  bottom: "fc8"
  top: "prob"
}
I1111 06:56:24.722003  2467 net.cpp:413] Input 0 -> data
I1111 06:56:24.722179  2467 layer_factory.hpp:76] Creating layer conv1
I1111 06:56:24.722226  2467 net.cpp:106] Creating Layer conv1
I1111 06:56:24.722244  2467 net.cpp:454] conv1 <- data
I1111 06:56:24.722273  2467 net.cpp:411] conv1 -> conv1
I1111 06:56:24.722667  2467 net.cpp:150] Setting up conv1
I1111 06:56:24.722699  2467 net.cpp:157] Top shape: 1 96 55 55 (290400)
I1111 06:56:24.722709  2467 net.cpp:165] Memory required for data: 1161600
I1111 06:56:24.722757  2467 layer_factory.hpp:76] Creating layer relu1
I1111 06:56:24.722787  2467 net.cpp:106] Creating Layer relu1
I1111 06:56:24.722802  2467 net.cpp:454] relu1 <- conv1
I1111 06:56:24.722826  2467 net.cpp:397] relu1 -> conv1 (in-place)
I1111 06:56:24.722852  2467 net.cpp:150] Setting up relu1
I1111 06:56:24.722867  2467 net.cpp:157] Top shape: 1 96 55 55 (290400)
I1111 06:56:24.722877  2467 net.cpp:165] Memory required for data: 2323200
I1111 06:56:24.722887  2467 layer_factory.hpp:76] Creating layer pool1
I1111 06:56:24.722913  2467 net.cpp:106] Creating Layer pool1
I1111 06:56:24.722929  2467 net.cpp:454] pool1 <- conv1
I1111 06:56:24.722954  2467 net.cpp:411] pool1 -> pool1
I1111 06:56:24.723027  2467 net.cpp:150] Setting up pool1
I1111 06:56:24.723049  2467 net.cpp:157] Top shape: 1 96 27 27 (69984)
I1111 06:56:24.723059  2467 net.cpp:165] Memory required for data: 2603136
I1111 06:56:24.723072  2467 layer_factory.hpp:76] Creating layer norm1
I1111 06:56:24.723098  2467 net.cpp:106] Creating Layer norm1
I1111 06:56:24.723111  2467 net.cpp:454] norm1 <- pool1
I1111 06:56:24.723139  2467 net.cpp:411] norm1 -> norm1
I1111 06:56:24.723202  2467 net.cpp:150] Setting up norm1
I1111 06:56:24.723223  2467 net.cpp:157] Top shape: 1 96 27 27 (69984)
I1111 06:56:24.723233  2467 net.cpp:165] Memory required for data: 2883072
I1111 06:56:24.723245  2467 layer_factory.hpp:76] Creating layer conv2
I1111 06:56:24.723273  2467 net.cpp:106] Creating Layer conv2
I1111 06:56:24.723289  2467 net.cpp:454] conv2 <- norm1
I1111 06:56:24.723315  2467 net.cpp:411] conv2 -> conv2
I1111 06:56:24.726400  2467 net.cpp:150] Setting up conv2
I1111 06:56:24.726426  2467 net.cpp:157] Top shape: 1 256 27 27 (186624)
I1111 06:56:24.726438  2467 net.cpp:165] Memory required for data: 3629568
I1111 06:56:24.726471  2467 layer_factory.hpp:76] Creating layer relu2
I1111 06:56:24.726495  2467 net.cpp:106] Creating Layer relu2
I1111 06:56:24.726511  2467 net.cpp:454] relu2 <- conv2
I1111 06:56:24.726534  2467 net.cpp:397] relu2 -> conv2 (in-place)
I1111 06:56:24.726560  2467 net.cpp:150] Setting up relu2
I1111 06:56:24.726574  2467 net.cpp:157] Top shape: 1 256 27 27 (186624)
I1111 06:56:24.726583  2467 net.cpp:165] Memory required for data: 4376064
I1111 06:56:24.726594  2467 layer_factory.hpp:76] Creating layer pool2
I1111 06:56:24.726615  2467 net.cpp:106] Creating Layer pool2
I1111 06:56:24.726630  2467 net.cpp:454] pool2 <- conv2
I1111 06:56:24.726661  2467 net.cpp:411] pool2 -> pool2
I1111 06:56:24.726730  2467 net.cpp:150] Setting up pool2
I1111 06:56:24.726752  2467 net.cpp:157] Top shape: 1 256 13 13 (43264)
I1111 06:56:24.726761  2467 net.cpp:165] Memory required for data: 4549120
I1111 06:56:24.726773  2467 layer_factory.hpp:76] Creating layer norm2
I1111 06:56:24.726796  2467 net.cpp:106] Creating Layer norm2
I1111 06:56:24.726811  2467 net.cpp:454] norm2 <- pool2
I1111 06:56:24.726837  2467 net.cpp:411] norm2 -> norm2
I1111 06:56:24.726900  2467 net.cpp:150] Setting up norm2
I1111 06:56:24.726922  2467 net.cpp:157] Top shape: 1 256 13 13 (43264)
I1111 06:56:24.726930  2467 net.cpp:165] Memory required for data: 4722176
I1111 06:56:24.726943  2467 layer_factory.hpp:76] Creating layer conv3
I1111 06:56:24.726970  2467 net.cpp:106] Creating Layer conv3
I1111 06:56:24.726986  2467 net.cpp:454] conv3 <- norm2
I1111 06:56:24.727015  2467 net.cpp:411] conv3 -> conv3
I1111 06:56:24.731129  2467 net.cpp:150] Setting up conv3
I1111 06:56:24.731154  2467 net.cpp:157] Top shape: 1 384 13 13 (64896)
I1111 06:56:24.731165  2467 net.cpp:165] Memory required for data: 4981760
I1111 06:56:24.731204  2467 layer_factory.hpp:76] Creating layer relu3
I1111 06:56:24.731227  2467 net.cpp:106] Creating Layer relu3
I1111 06:56:24.731243  2467 net.cpp:454] relu3 <- conv3
I1111 06:56:24.731266  2467 net.cpp:397] relu3 -> conv3 (in-place)
I1111 06:56:24.731293  2467 net.cpp:150] Setting up relu3
I1111 06:56:24.731307  2467 net.cpp:157] Top shape: 1 384 13 13 (64896)
I1111 06:56:24.731317  2467 net.cpp:165] Memory required for data: 5241344
I1111 06:56:24.731328  2467 layer_factory.hpp:76] Creating layer conv4
I1111 06:56:24.731349  2467 net.cpp:106] Creating Layer conv4
I1111 06:56:24.731364  2467 net.cpp:454] conv4 <- conv3
I1111 06:56:24.731390  2467 net.cpp:411] conv4 -> conv4
I1111 06:56:24.737277  2467 net.cpp:150] Setting up conv4
I1111 06:56:24.737303  2467 net.cpp:157] Top shape: 1 384 13 13 (64896)
I1111 06:56:24.737314  2467 net.cpp:165] Memory required for data: 5500928
I1111 06:56:24.737337  2467 layer_factory.hpp:76] Creating layer relu4
I1111 06:56:24.737361  2467 net.cpp:106] Creating Layer relu4
I1111 06:56:24.737376  2467 net.cpp:454] relu4 <- conv4
I1111 06:56:24.737401  2467 net.cpp:397] relu4 -> conv4 (in-place)
I1111 06:56:24.737426  2467 net.cpp:150] Setting up relu4
I1111 06:56:24.737442  2467 net.cpp:157] Top shape: 1 384 13 13 (64896)
I1111 06:56:24.737450  2467 net.cpp:165] Memory required for data: 5760512
I1111 06:56:24.737462  2467 layer_factory.hpp:76] Creating layer conv5
I1111 06:56:24.737486  2467 net.cpp:106] Creating Layer conv5
I1111 06:56:24.737501  2467 net.cpp:454] conv5 <- conv4
I1111 06:56:24.737527  2467 net.cpp:411] conv5 -> conv5
I1111 06:56:24.741660  2467 net.cpp:150] Setting up conv5
I1111 06:56:24.741684  2467 net.cpp:157] Top shape: 1 256 13 13 (43264)
I1111 06:56:24.741694  2467 net.cpp:165] Memory required for data: 5933568
I1111 06:56:24.741730  2467 layer_factory.hpp:76] Creating layer relu5
I1111 06:56:24.741756  2467 net.cpp:106] Creating Layer relu5
I1111 06:56:24.741772  2467 net.cpp:454] relu5 <- conv5
I1111 06:56:24.741796  2467 net.cpp:397] relu5 -> conv5 (in-place)
I1111 06:56:24.741822  2467 net.cpp:150] Setting up relu5
I1111 06:56:24.741837  2467 net.cpp:157] Top shape: 1 256 13 13 (43264)
I1111 06:56:24.741845  2467 net.cpp:165] Memory required for data: 6106624
I1111 06:56:24.741858  2467 layer_factory.hpp:76] Creating layer pool5
I1111 06:56:24.741881  2467 net.cpp:106] Creating Layer pool5
I1111 06:56:24.741897  2467 net.cpp:454] pool5 <- conv5
I1111 06:56:24.741924  2467 net.cpp:411] pool5 -> pool5
I1111 06:56:24.741994  2467 net.cpp:150] Setting up pool5
I1111 06:56:24.742015  2467 net.cpp:157] Top shape: 1 256 6 6 (9216)
I1111 06:56:24.742025  2467 net.cpp:165] Memory required for data: 6143488
I1111 06:56:24.742038  2467 layer_factory.hpp:76] Creating layer fc6
I1111 06:56:24.742060  2467 net.cpp:106] Creating Layer fc6
I1111 06:56:24.742075  2467 net.cpp:454] fc6 <- pool5
I1111 06:56:24.742100  2467 net.cpp:411] fc6 -> fc6
I1111 06:56:24.906810  2467 net.cpp:150] Setting up fc6
I1111 06:56:24.906886  2467 net.cpp:157] Top shape: 1 4096 (4096)
I1111 06:56:24.906898  2467 net.cpp:165] Memory required for data: 6159872
I1111 06:56:24.906937  2467 layer_factory.hpp:76] Creating layer relu6
I1111 06:56:24.906997  2467 net.cpp:106] Creating Layer relu6
I1111 06:56:24.907022  2467 net.cpp:454] relu6 <- fc6
I1111 06:56:24.907063  2467 net.cpp:397] relu6 -> fc6 (in-place)
I1111 06:56:24.907099  2467 net.cpp:150] Setting up relu6
I1111 06:56:24.907114  2467 net.cpp:157] Top shape: 1 4096 (4096)
I1111 06:56:24.907124  2467 net.cpp:165] Memory required for data: 6176256
I1111 06:56:24.907135  2467 layer_factory.hpp:76] Creating layer drop6
I1111 06:56:24.907161  2467 net.cpp:106] Creating Layer drop6
I1111 06:56:24.907176  2467 net.cpp:454] drop6 <- fc6
I1111 06:56:24.907201  2467 net.cpp:397] drop6 -> fc6 (in-place)
I1111 06:56:24.907254  2467 net.cpp:150] Setting up drop6
I1111 06:56:24.907272  2467 net.cpp:157] Top shape: 1 4096 (4096)
I1111 06:56:24.907281  2467 net.cpp:165] Memory required for data: 6192640
I1111 06:56:24.907294  2467 layer_factory.hpp:76] Creating layer fc7
I1111 06:56:24.907320  2467 net.cpp:106] Creating Layer fc7
I1111 06:56:24.907335  2467 net.cpp:454] fc7 <- fc6
I1111 06:56:24.907362  2467 net.cpp:411] fc7 -> fc7
I1111 06:56:24.980665  2467 net.cpp:150] Setting up fc7
I1111 06:56:24.980746  2467 net.cpp:157] Top shape: 1 4096 (4096)
I1111 06:56:24.980757  2467 net.cpp:165] Memory required for data: 6209024
I1111 06:56:24.980797  2467 layer_factory.hpp:76] Creating layer relu7
I1111 06:56:24.980841  2467 net.cpp:106] Creating Layer relu7
I1111 06:56:24.980865  2467 net.cpp:454] relu7 <- fc7
I1111 06:56:24.980906  2467 net.cpp:397] relu7 -> fc7 (in-place)
I1111 06:56:24.980943  2467 net.cpp:150] Setting up relu7
I1111 06:56:24.980958  2467 net.cpp:157] Top shape: 1 4096 (4096)
I1111 06:56:24.980967  2467 net.cpp:165] Memory required for data: 6225408
I1111 06:56:24.980978  2467 layer_factory.hpp:76] Creating layer drop7
I1111 06:56:24.981006  2467 net.cpp:106] Creating Layer drop7
I1111 06:56:24.981020  2467 net.cpp:454] drop7 <- fc7
I1111 06:56:24.981046  2467 net.cpp:397] drop7 -> fc7 (in-place)
I1111 06:56:24.981098  2467 net.cpp:150] Setting up drop7
I1111 06:56:24.981117  2467 net.cpp:157] Top shape: 1 4096 (4096)
I1111 06:56:24.981125  2467 net.cpp:165] Memory required for data: 6241792
I1111 06:56:24.981137  2467 layer_factory.hpp:76] Creating layer fc8
I1111 06:56:24.981164  2467 net.cpp:106] Creating Layer fc8
I1111 06:56:24.981178  2467 net.cpp:454] fc8 <- fc7
I1111 06:56:24.981207  2467 net.cpp:411] fc8 -> fc8
I1111 06:56:24.998821  2467 net.cpp:150] Setting up fc8
I1111 06:56:24.998878  2467 net.cpp:157] Top shape: 1 1000 (1000)
I1111 06:56:24.998889  2467 net.cpp:165] Memory required for data: 6245792
I1111 06:56:24.998917  2467 layer_factory.hpp:76] Creating layer prob
I1111 06:56:24.998951  2467 net.cpp:106] Creating Layer prob
I1111 06:56:24.998968  2467 net.cpp:454] prob <- fc8
I1111 06:56:24.998997  2467 net.cpp:411] prob -> prob
I1111 06:56:24.999102  2467 net.cpp:150] Setting up prob
I1111 06:56:24.999127  2467 net.cpp:157] Top shape: 1 1000 (1000)
I1111 06:56:24.999137  2467 net.cpp:165] Memory required for data: 6249792
I1111 06:56:24.999152  2467 net.cpp:228] prob does not need backward computation.
I1111 06:56:24.999166  2467 net.cpp:228] fc8 does not need backward computation.
I1111 06:56:24.999177  2467 net.cpp:228] drop7 does not need backward computation.
I1111 06:56:24.999188  2467 net.cpp:228] relu7 does not need backward computation.
…
